TD3/models/pendulum/00000500/actor.pth (torch, 270103 bytes, 5 tensors)

fc1.weight f4 [256, 3]
00000000: c0eb 303f 58be 6e3f 633c 98be 8e29 903e
00000010: 619f abbf 6400 ee3e bea7 08bf e49e d6bf
00000020: bb58 44be cb35 e9be 538b e93d b4f1 c93d
00000030: f560 9c3e b8df 21bf 663a 283e 3ddf 7d3f
00000040: 85fc 7d3f f049 a73e 8c47 b43d f748 cdbf
00000050: db0a 3fbe 667c 70be dbc8 87bf 13ed 74bd
00000060: 1a6d 59be 38d4 5fbf 8e39 80be 88d2 78bf
00000070: 725e 9e3e e565 083e e4dd 023f 2e94 4fbe
00000080: 974f 733d cf65 54bf b698 273f e4c9 e93d
00000090: 244a 8cbd 31d4 a23e 6ca0 b23e 07c5 f63e
000000a0: b522 463f cc14 8d3e 8479 aa3e 414d 17bf
000000b0: 2908 b3be c836 53bf 6179 00bf 0a61 003b
000000c0: dc59 af3e b713 05bf 9d24 ce3d 4948 aa3c
000000d0: 74ab 19bf 9bb0 85be 6ed2 153f 3c9a 8cbf
000000e0: 3030 8bbe 6ec2 03bf a8a8 233e 81a2 88bd
000000f0: b17a eabc cec2 3b3d cc33 adba 01fa 9ebe
00000100: 3569 8bbf 34e9 06be 5143 093f a3e4 6f3e
00000110: a548 3c3e 0460 4cbf 2941 893f 5d1e 183c
00000120: 522e 913f e68d 8f3d ab46 cbbe 99f2 3e3f
00000130: 4027 d1bd c107 b73e 4309 adbd 2284 973e
00000140: 0422 a8bc 81fd 603d ee2b 89bf 3d5f f23d
00000150: 0fad fabe 4fe7 80bf b026 75bd 9eb4 243f
00000160: 8682 1bbf f783 6dbe a341 d63e 42d8 c9bd
00000170: 280a 60be 4325 25bf 1442 8b3f 335e c13e
00000180: c77d 9cbe edc0 ac3f 6af8 863e d850 18bf
00000190: 1f24 2b3f e93b 643d c798 93bc 5267 8ebf
000001a0: c2b2 07be 3f1a 0a3d 2168 6abf b2cb edbd
000001b0: f274 05bf 6197 903f 43ea 853e a222 8cbe
000001c0: 4a81 983f c3b8 193e b9ad 1c3e 7968 29be
000001d0: 3888 b43e 575b 3cbe f837 b0be 2ff8 433e
000001e0: 0e46 c23e 1917 febe de74 893e 0512 7cbf
000001f0: b455 203f a027 1d3e e7f7 a2be 55e2 4abf
00000200: 0c55 05be 7aa8 653f 9453 473d e67f 9bbe
00000210: fa0e d73e e517 5f3f 93f8 813e 3846 3b3e
00000220: 3ddb 3abf 433a 58be 4e13 e63e 0bb7 903d
00000230: c408 743b c310 25bf 1508 483f b9f3 8c3e
00000240: 166d 163f d09c afbe 2f58 40be 1cc1 25bf
00000250: eb11 0d3f e685 a3bd d8d7 813f f6bd 04bf
00000260: d26e c3be 3b46 97be e0c4 593e 0087 d7bb
00000270: 7072 c0be 2b19 043f 7c5e 68be de43 013f
00000280: 64d1 c1bf e266 cc3d c3ee debe 156e 2f3e
00000290: 54ea 7dbe 2f6d 293e 2c31 fcbc e33c 883e
000002a0: b5f0 0dbf a6cd 963f f78f ad3e a8c0 3bbd
000002b0: 8539 473e 15aa 64bc 1eb0 29bf 88f4 333f
000002c0: 7375 c03d 0cf1 8d3e ae8e 95bf fddb 853e
000002d0: 99e2 23bf 15b0 283f f748 e03e 8654 c8be
000002e0: 0dca 8d3e 4015 913e 8c29 6a3e 8618 b7bf
000002f0: baa5 d4be b1d1 ecbe aa33 7fbf c242 2dbd
00000300: 4323 64bf 4adc 093f 6b5d ac3e 5329 e9be
00000310: a364 7fbf b4fa 42bc 8ee0 513e 4d71 523f
00000320: dae9 1e3e a02e 99bf 9daf 863e d78e d5bc
00000330: 7b81 1a3e 121d d53f 4a98 de3d 84db 4fbe
00000340: 45f9 50bf 7e7c 8e3e 4b43 b1be 220c 56bf
00000350: b667 cdbb 2e73 19bf 6ba2 8f3f 00a7 b23d
00000360: 5865 c43e 6d8f 97bf fad3 acbe 42e9 93be
00000370: b875 b5bf 87f1 cdbd 7db9 463f 359c 06bf
00000380: d214 6f3e 8e1d 6cbe 46fa 9bbf 50e3 c33e
00000390: 24bd 433f 6899 66be 7f1d 88be 6d0f 54bf
000003a0: b9fe edbe 8409 263e d27b 4a3d 338f fb3e
000003b0: 1407 b8bc d3aa b23e bc49 bc3d 9433 e13e
000003c0: 291a 693f bf71 6d3f 158d b23e 7c31 023f
000003d0: 214d a73f 9d0f f13e ec17 57bd 71a0 54bf
000003e0: c5fe 4ebe 302c 373f f872 debf 9542 b0bd
000003f0: e40a 903e c783 4cbe f28c 0f3d 6e7c 243f
0.69109726 0.9325919 -0.2973357 0.28156704 -1.3408014 0.46484673 -0.53380954 -1.676724
-0.19174473 -0.45548853 0.11403527 0.09860554 0.30542722 -0.6323199 0.16428527 0.9916876
0.9921344 0.32673597 0.08802709 -1.6037892 -0.18656485 -0.23484954 -1.0608171 -0.059796404
-0.21233025 -0.87433195 -0.2504391 -0.97196245 0.3093143 0.1332012 0.5111983 -0.2027137
0.059402075 -0.8296785 0.65467393 0.11415461 -0.06850079 0.31802514 0.34888017 0.48197195
0.7739671 0.2755493 0.33295834 -0.59102255 -0.34967163 -0.82505465 -0.5018521 0.001958909
0.34248245 -0.5198321 0.10065577 0.020786421 -0.6002724 -0.26111302 0.58524215 -1.0984569
-0.27185202 -0.5146855 0.15982306 -0.0667162 -0.028622957 0.045840077 -0.0013214289 -0.31050113
-1.0891482 -0.13174897 0.5361834 0.23427062 0.18387087 -0.7983401 1.072301 0.009284583
1.1342261 0.07009487 -0.39702353 0.74588925 -0.102125645 0.35748103 -0.08449032 0.29592997
-0.020524032 0.05492926 -1.0716531 0.118345715 -0.48960158 -1.007059 -0.05985135 0.643381
-0.6074604 -0.23194872 0.41846952 -0.09855701 -0.21878874 -0.6450998 1.087954 0.3776718
-0.3056471 1.3496376 0.263614 -0.5949836 0.6685199 0.055721197 -0.018017186 -1.1125281
-0.13251784 0.033716436 -0.9156514 -0.116111174 -0.5213157 1.1296197 0.2615529 -0.27370173
1.1914456 0.15011887 0.15300645 -0.1654376 0.35260177 -0.18394218 -0.344177 0.19137643
0.37944072 -0.49626997 0.26846975 -0.98464996 0.6263077 0.15347147 -0.3182976 -0.79251605
-0.13020724 0.897102 0.04866369 -0.30371016 0.42003614 0.87145835 0.2538496 0.18288505
-0.7299078 -0.21115975 0.44936603 0.07066163 0.003723667 -0.644787 0.7813733 0.27529696
0.587602 -0.34299326 -0.1878364 -0.64747787 0.55105466 -0.079845235 1.0143995 -0.5185236
-0.38170487 -0.2954577 0.21266508 -0.0065773726 -0.3758731 0.51600903 -0.22692293 0.5049418
-1.5142026 0.09980561 -0.43541536 0.17131837 -0.2479642 0.16545556 -0.030785166 0.26608953
-0.55445415 1.1781509 0.338989 -0.04583803 0.19455536 -0.013956566 -0.6628436 0.70295
0.09397402 0.27722967 -1.1684167 0.261444 -0.64017636 0.6589368 0.43805668 -0.39126986
0.27693215 0.28336525 0.22867411 -1.4304359 -0.4153269 -0.46253732 -0.9968821 -0.042299993
-0.89116305 0.5385176 0.33665022 -0.4553934 -0.99762934 -0.011900593 0.20495817 0.82204133
0.15518895 -1.1967354 0.26305857 -0.026069088 0.15088455 1.6649497 0.108688906 -0.20298582
-0.81630355 0.27829355 -0.34621653 -0.83612263 -0.006268467 -0.59941375 1.1221441 0.08723259
0.3835857 -1.1840645 -0.33755475 -0.288889 -1.417655 -0.10055833 0.7762678 -0.52582103
0.23347786 -0.23058149 -1.2185752 0.38259363 0.7646048 -0.22519457 -0.26585004 -0.8283604
-0.464834 0.16214567 0.04943449 0.4913269 -0.022464313 0.34895954 0.09193751 0.43984663
0.9105554 0.9275169 0.34873262 0.5085676 1.3070413 0.47082224 -0.052513048 -0.83057314
-0.20214374 0.715518 -1.7378836 -0.086064495 0.2813331 -0.19972144 0.035046525 0.64252365

fc1.bias f4 [256]
00000000: b8b3 2fbf 62ba 97be 4f76 bcbe 8a8d d3be
00000010: c507 463d 1de0 29bf a907 3fbf caef 643e
00000020: 4250 27be c8e1 af3e fde0 47be 5b35 043f
00000030: a12b 9b3d fe51 f1be 82fe 3bbf d784 183f
00000040: afa6 993d 3bbf c9be b58d b7be f300 dabe
00000050: f428 86bd 0815 55be fc62 07bf f919 ae3e
00000060: eaba 96bf 86ef b3be c517 923c 8aa4 8abd
00000070: b861 bcbe 653e cdbe 9229 2bbf 76df 0cbf
00000080: 0cf9 f6bd 09f6 47bd 01e2 16bf ca04 05bf
00000090: e4a6 633d b827 3fbe 1fdc 8dbf e810 9dbe
000000a0: 3acb d3be e68d 293f 4643 36be 5a85 47bf
000000b0: a643 86be 024d 39be fe3c 12bf 577a 0bbf
000000c0: 448d 23bf f118 b1bd 0b59 8fbf d48d 0bbf
000000d0: 2171 7a3e 7b6b 05bf 711f 5e3e dfbc 51bf
000000e0: cb2a 07bf c7ad 4dbd 0762 c3be eb73 96be
000000f0: cdef c9be af0e 65be 2a62 02bf df99 213e
00000100: 9398 f0be 9163 a3be 962f 2fbf 00e4 1dbc
00000110: 6f19 2d3d 5faa 413e f913 84be bc8f 5f3e
00000120: c1ab c0be abc7 05bf fff0 87be cf64 593e
00000130: c01c 2bbf 6795 26bf 477c 3ebd db9f 5fbd
00000140: 4cb0 39bf 9136 2fbf fcd2 3d3d 16da 3abf
00000150: ec47 4bbd debd eabe 7adf edbd 8ff5 dfbe
00000160: de0e a13d db58 6a3d fdc2 aebe c37a 03bf
00000170: cf8a 433e 9580 86bd 8b85 1e3e 7bb3 b1be
00000180: 38ce 32bc bee9 16bf 8193 69be 114c 68bf
00000190: eff5 583e 6a1e 10bf 10c4 793d d63a 8fbf
000001a0: d4ff 7cbe 9664 2cbe 2edc 80bf 4459 54bf
000001b0: 1d49 22bf 4043 9dbe 4b03 df3e 7195 0bbe
000001c0: f918 2abf d3c7 19be f9bb 3d3e f1f0 46bb
000001d0: 00f9 a13e 7278 893e 392f cd3d 57c6 42bf
000001e0: bc45 c8bd a186 d83d 019c ffbd 6841 343d
000001f0: 3bec 4fbf ff2a 7cbe 9a43 8cbf 026d 44bf
00000200: 8ce4 d23d 727a c5bd fe5a 64bd 6173 6c3d
00000210: af68 873b 8fad 48bf 1754 913e 0197 2abf
00000220: 29c5 55bf 232c 4ebf 5185 e2bd 50a7 9abf
00000230: 6c98 2f3e d957 503e ee49 04bf 87d2 ba3e
00000240: 36da 3fbe 7cb5 06bf 9d04 37bf 89fb 0bbf
00000250: 4e85 183d eeb4 733e 00bb 81bd fdcf 89bf
00000260: c14d 703d c8c6 913e 8b0c 4ebe 8303 88bf
00000270: ba34 65be 76f8 693e 775b 393f 4444 03be
00000280: 6bbd a23c 93fd 8dbf f7a5 ccbe 1890 1bbe
00000290: 9501 8d3e dc68 fbbe 233a 7e3e 7120 0abf
000002a0: a8cf 48bf e41e b1be 2e6c 51be bbda 2ebe
000002b0: b23f 843e cdb0 08bf e7f1 47be d2c2 f93d
000002c0: 9549 dc3d bee3 6dbf 34ec 83bf 852f 18bf
000002d0: 5acb aabe 646e 89be ee3b 5ebd 75d6 5cbe
000002e0: dacb 523e 1b72 e0be 5c13 ccbd 0d8b a1be
000002f0: 426f 87bd ca46 1dbf 80df e13e a0a5 b13e
00000300: d6a9 04bf 36e4 653e bea3 75be 64d2 1abf
00000310: e759 00bf 9a09 50bf fe8d eabd bd36 01be
00000320: df9b 22bf bade 37bf 33e2 c4be d683 fcbe
00000330: 5094 91bf b10a 083e 3239 17bf 421d debc
00000340: e7bf 0ebe 7f39 26bf 4a9e 023f e313 ecbd
00000350: 1108 903e ab81 6abf ce82 84be fa74 6cbe
00000360: cbc7 1abd d471 efbd 7832 69be c715 cb3e
00000370: d805 9f3e f427 35bc 7b14 793d 8911 003f
00000380: d943 a63d daf6 75bf 7eda 363e 68f3 433d
00000390: 5dde e4bd d519 523e cee8 fd3d 43a1 60bf
000003a0: 887f 2dbd 3e82 19be 6924 eabe a29e 3bbf
000003b0: dbea 47bf 3ef2 06bf c3a3 57be f9dc e0be
000003c0: f6e5 0cbf 54a4 b13e fb9d 27bf 75cd dcbe
000003d0: f783 17bf b8d5 21bd 9672 3fbe 2a83 dabd
000003e0: eef9 833d a6b2 1fbf 1ccf f2be 9dfb 593e
000003f0: 83aa 3cbf 3423 d0be 1dfc 2d3f b84e 68be
-0.68633604 -0.29634386 -0.36809012 -0.41318923 0.048347253 -0.66357595 -0.74621063 0.22357097
-0.1633921 0.34351945 -0.1951942 0.51643914 0.07576681 -0.47132868 -0.73435223 0.595777
0.075024955 -0.3940371 -0.358503 -0.4257885 -0.0655078 -0.20808804 -0.52885413 0.3400419
-1.1775792 -0.3514368 0.0178336 -0.067696646 -0.36793303 -0.40086666 -0.66860306 -0.55028474
-0.12059221 -0.04881862 -0.58938605 -0.5196043 0.05557908 -0.18667495 -1.1082801 -0.3067696
-0.41365987 0.66232145 -0.177991 -0.77937853 -0.26223487 -0.18095782 -0.57124317 -0.5448355
-0.6388743 -0.08647335 -1.1199049 -0.5451329 0.24457218 -0.5211713 0.21691681 -0.8192882
-0.5279967 -0.050214555 -0.38160726 -0.29385313 -0.39440766 -0.22368883 -0.50931036 0.15781353
-0.46991405 -0.319119 -0.68431985 -0.009636879 0.042260583 0.18912648 -0.25796488 0.21832174
-0.37631038 -0.52257794 -0.26551053 0.21229862 -0.66840744 -0.6507172 -0.04650524 -0.05459581
-0.7253463 -0.68442637 0.04634379 -0.7298902 -0.049629137 -0.45847982 -0.116148904 -0.43742034
0.07864164 0.057213645 -0.3413314 -0.51359195 0.1909592 -0.06567494 0.1548063 -0.34707245
-0.010913424 -0.5895041 -0.22810175 -0.9074107 0.21187566 -0.5629641 0.060977995 -1.118983
-0.24706966 -0.16835245 -1.0067194 -0.8294871 -0.6339281 -0.3071537 0.435572 -0.13631226
-0.66444355 -0.15017633 0.18528737 -0.0030356015 0.31635284 0.26849705 0.10018773 -0.7608389
-0.09778926 0.105725534 -0.12480927 0.04400769 -0.81219834 -0.24625777 -1.095813 -0.7672883
0.10297498 -0.09642495 -0.05575084 0.05772722 0.0041323523 -0.7838983 0.28384468 -0.66636664
-0.8350397 -0.805361 -0.11060584 -1.208231 0.17147988 0.20346011 -0.5167531 0.36488745
-0.18735585 -0.52620673 -0.71491414 -0.5468069 0.037236504 0.23799488 -0.063344955 -1.0766598
0.058667902 0.2847197 -0.20121972 -1.0626072 -0.22383395 0.22848687 0.7240519 -0.1281901
0.019865712 -1.109301 -0.3997037 -0.15191686 0.2754027 -0.4910344 0.24826865 -0.5395575
-0.7844186 -0.3459388 -0.20451424 -0.17075627 0.25829846 -0.53394777 -0.19525872 0.12195362
0.10756222 -0.9292563 -1.0306458 -0.5944751 -0.3335827 -0.26842034 -0.054256372 -0.21566184
0.20585576 -0.43837056 -0.0996463 -0.315514 -0.066130176 -0.6143614 0.4411583 0.34696674
-0.5182165 0.22450337 -0.23988244 -0.6047728 -0.5013718 -0.8126465 -0.11452864 -0.12618537
-0.6351909 -0.7182423 -0.38453826 -0.49319333 -1.1373386 0.13285328 -0.5907165 -0.02711356
-0.13940392 -0.6493148 0.5102278 -0.115272306 0.28131154 -0.9160411 -0.25881046 -0.23091498
-0.037788194 -0.11691633 -0.22773159 0.39665052 0.31059146 -0.011056889 0.060810547 0.50026757
0.0811841 -0.9607979 0.17856786 0.047839552 -0.11175225 0.20517667 0.123979196 -0.87746066
-0.04235795 -0.1499109 -0.45730904 -0.7328893 -0.78092736 -0.5271338 -0.21058564 -0.4391859
-0.5503839 0.34695685 -0.65475434 -0.431255 -0.5918574 -0.03951046 -0.18696055 -0.10669549
0.06444155 -0.6238197 -0.47423637 0.21287389 -0.7369768 -0.40651858 0.6796282 -0.22686279

fc2.weight f4 [256, 256]
00000000: 8cf7 93bd 7d12 fbbe 0512 5ebd 157f 853c
00000010: d19e 113e 6fc3 62bf b90f 88be badc 6e3e
00000020: 8487 87bc 6d90 353d 8cfb 05bf ba9a aa3d
00000030: d3fa 023e 1b43 d4be 76f5 1dbe 6dba 333e
00000040: 51f4 083a 5c90 44bf 5e29 3fbf 307e ebbe
00000050: 4b81 b0bd 668c 4fbc df1b aebe 407b 3f3e
00000060: e1d0 8c3c 8ca7 fdbe 88b4 e3be 07bc 863e
00000070: 81ed 16bd e953 353b 3a1c 4dbd 9f44 bb3d
00000080: e3f8 65be f26e df3d 4a87 83be 7cee c5be
00000090: c3bc 783e da43 95be d1f5 64be 7f0d 353e
000000a0: f489 35bf 8b5a 233e b8a0 7abd 1ed1 92bd
000000b0: 38d1 eabe e29f 05bf 6ee8 0cbd 1753 a9bd
000000c0: 93fd 44be b41b febe 1838 b1bc f8b6 d93c
000000d0: 733c 63bf 32d4 003e 647f 85bf 8aee acbe
000000e0: e620 09bd a6e5 2dbf d2a8 543e fdfe dfbe
000000f0: 4955 d43d 2ebd 193e 4117 0ebf 8106 07bd
00000100: b5dd 9b3e bb34 d1bb bf12 b5be b92f c43d
00000110: 4827 d8be 0324 803d 122f 57bd 6f84 c2bd
00000120: cb5c 25bf c673 2fbe 466f d1be 4a3b 7d3e
00000130: 035b e93c d7a4 a13e 57d8 7ebe e006 34be
00000140: a796 2fbf c446 c3be 4b9b 8bbe 604e bfbc
00000150: c9c8 cebe 7e99 bdbe 4e76 833b 1537 6bbf
00000160: a915 273e 766b 86bd bc43 20bf bcd9 74be
00000170: 9822 a7be 62d7 38be 6543 4e3d 7320 2bbf
00000180: 7e83 a3be f818 30bf 7c90 99be 5b58 3ebf
00000190: 20bd abbf f926 6a3e 3e1f 33bf 9f88 903c
000001a0: 9905 05bf 8352 03be dcc0 0ebf f005 38bf
000001b0: 113b 4bbf a27b 2cbe 3192 ac3d 2586 edbd
000001c0: 0f01 e2be 9760 aabe 5b99 77bf d8f6 a43c
000001d0: b02c ccbe 8f63 49bd fb58 05be 70c2 2cbf
000001e0: d38f e2bd dbf9 893c f0e8 65bd 40cf 47be
000001f0: 7859 74be e307 c6bc 8a01 dfbe 174e b93e
00000200: 2ea3 46bf 8515 b1be 1fdc 6c3e 51e8 5cbf
00000210: c257 e2be 6a36 afbe 67d7 803e c513 88be
00000220: 5a27 16bf 6e10 19bf a537 3e3e 87c5 09bf
00000230: afd7 c33e 1c85 e03d 66c3 b3be 5f7f a43d
00000240: be2e 333e 13d1 29be 5aa1 b6bd 426d f0be
00000250: 65a7 2abe a177 a53d 7f67 bbbe faf1 4d3c
00000260: 6893 233e 02ba 06be b2af e6bc da81 02bf
00000270: 6de7 abbe f785 82bf 7a90 cb3d 8ad0 863d
00000280: 7c26 87bf ac68 663b 95d7 3bbe a61f f7be
00000290: 17a2 ce3d fa0a bbbe bcb1 26bf b22b a93d
000002a0: d385 d73d 57f5 973d 1ae6 0dbf 9a26 11bf
000002b0: c8c3 8c3e 05ea b6be 3144 17bf 4cb3 a33d
000002c0: a101 823e 0fda 45bf ecb3 f9bd 7a39 303e
000002d0: 48c7 53be 6849 d2be 0492 20bd c19b 1b3e
000002e0: f79b 84bf 8cac 5f3a 1284 ecbe caf1 91bd
000002f0: 232c 80be afee 42be a3b2 d6bd 5fd5 493e
00000300: 9a04 af3e 8e6c e73d d659 a7be 4217 66bd
00000310: bc95 23bf 814d 903e f679 3ebd e4b3 f7be
00000320: 23af cbbe 55e1 18bf 24d5 123e da84 9dbe
00000330: 4fb5 bcbe 9336 97bf bdbf 573e 7076 e7be
00000340: e9a7 9bbe 2a89 08bf c15d 2c3e 7350 f8be
00000350: d91d 6b3e ad21 a33d 5786 86ba 6664 df3e
00000360: 3d21 efbe d26d 233e 06e7 573e b0c5 573e
00000370: b3f2 383e 669f f7bd c96f 1a3e f9dc 333e
00000380: c06c bbbe 1c6d 15bf 8e1f 3ebe 0f7d dbbd
00000390: 6e89 aebd 8f50 a5bf 335f 66be b305 933e
000003a0: 2631 7abd ab10 d7be 7de2 00bf 3c46 2fbf
000003b0: 4beb 39bd c9b4 013f ba6c 913d cc7f c0be
000003c0: 1582 71be 8941 b43d 19b5 a3bc 7bbd 53be
000003d0: b3a8 1fbf 1167 25be 0976 ed3c 80c7 debe
000003e0: f5a9 13bf 7bc6 9dbe 2d6f d03e 8e11 39be
000003f0: 3dab 2ebf c32f 04bf 6eb6 2a3d 54b0 40bf
-0.0722495 -0.49037543 -0.054216404 0.016295949 0.1422074 -0.8857946 -0.26574495 0.23326388
-0.016544111 0.04432719 -0.52336955 0.08330293 0.12790994 -0.41457447 -0.15425667 0.17551585
0.0005224394 -0.76782775 -0.74672496 -0.4599471 -0.08618411 -0.012667751 -0.3400564 0.1869936
0.017189445 -0.4954189 -0.44473672 0.26315328 -0.036847595 0.0027668423 -0.050075747 0.09143948
-0.22458224 0.10909833 -0.25689155 -0.38658512 0.24290757 -0.2915333 -0.22359397 0.1768093
-0.70913625 0.15952508 -0.06118843 -0.07168792 -0.45862746 -0.52197087 -0.03440135 -0.08267801
-0.19237356 -0.4963051 -0.021633193 0.026576504 -0.88764113 0.12580946 -1.0429502 -0.3377574
-0.03347864 -0.6792854 0.20767525 -0.43749228 0.10367829 0.15013573 -0.5550423 -0.032965187
0.30442587 -0.00638446 -0.35365865 0.09579415 -0.4221747 0.06256869 -0.052535124 -0.09497916
-0.64594716 -0.17134008 -0.40905207 0.24729648 0.02848578 0.31571075 -0.24887215 -0.17580748
-0.6858925 -0.38139927 -0.27266917 -0.023352802 -0.40387562 -0.37031168 0.0040119058 -0.91880924
0.16316856 -0.06563465 -0.62603354 -0.23911184 -0.3264358 -0.18050912 0.05035724 -0.6684639
-0.31936258 -0.687881 -0.29993045 -0.7435357 -1.3417091 0.2286643 -0.69969547 0.017643271
-0.51961666 -0.12824444 -0.5576303 -0.7188406 -0.79387003 -0.16844037 0.08426321 -0.11597852
-0.44141433 -0.33276817 -0.96718377 0.020137236 -0.39877844 -0.049167212 -0.13022225 -0.6748419
-0.110625885 0.016842773 -0.05613035 -0.19512653 -0.23862255 -0.024173683 -0.43555862 0.3619239
-0.7759274 -0.3458673 0.23130845 -0.86291987 -0.4420758 -0.34221202 0.2516434 -0.26577583
-0.58653796 -0.59790695 0.18575914 -0.5381703 0.3825049 0.109628886 -0.35110015 0.080321066
0.174983 -0.16583662 -0.08917494 -0.46958357 -0.16665418 0.08079458 -0.366024 0.012569899
0.159742 -0.13156894 -0.02815995 -0.5097939 -0.33575 -1.0197133 0.09939666 0.065827444
-1.055862 0.0035157604 -0.18343957 -0.48266333 0.1008951 -0.36531812 -0.6511495 0.08260287
0.10523572 0.07419842 -0.5542923 -0.56699526 0.2749312 -0.35725418 -0.59088427 0.079931825
0.25391868 -0.77285856 -0.121925205 0.17209426 -0.20681489 -0.4107163 -0.03920175 0.15196134
-1.0360097 0.00085324864 -0.46194512 -0.07126196 -0.25033674 -0.19036363 -0.10483291 0.19710301
0.34183198 0.11300002 -0.32685727 -0.056174524 -0.6390035 0.2818413 -0.04650303 -0.48379433
-0.39782056 -0.5971883 0.14339119 -0.3076542 -0.36857077 -1.181353 0.21069236 -0.45207548
-0.30401543 -0.53334296 0.1683264 -0.48498878 0.22960605 0.079654075 -0.0010263425 0.43631285
-0.46705046 0.15959862 0.21084222 0.21071506 0.18061332 -0.1209095 0.15081705 0.17564763
-0.36606407 -0.5836961 -0.18566725 -0.107172124 -0.085223064 -1.291521 -0.22497253 0.28715286
-0.061082028 -0.42004904 -0.50345594 -0.68466544 -0.04539041 0.5066648 0.07100816 -0.375975
-0.23584779 0.08801562 -0.019983815 -0.2067775 -0.6236679 -0.16152598 0.028986948 -0.4351158
-0.5768121 -0.3081549 0.4070982 -0.18073103 -0.6823004 -0.5163538 0.041677885 -0.75269055

fc2.bias f4 [256]
00000000: 48f3 99ba b151 823d e2ce 3dbb a7a9 d73d
00000010: 794d d1bb cc1d 41bd 2cae b7bd fd64 cebd
00000020: 2876 49bd 91f6 c7bd 4bd3 1cbd 4a14 13be
00000030: ab29 19bd 1c08 2abd da85 d6bd 642e 5c3e
00000040: db7d 8abc 1ab3 a33c 9cc9 babd a689 2abe
00000050: a576 76b9 2313 57bd 2fa2 03bd 39e1 2ebd
00000060: 0f5d 94bd f45a 8abd 6035 56bc 3661 8cbe
00000070: 734b 183d 2d9a 82be f37b 373d 0a5d 453e
00000080: fd85 44bd 459a c1bc 3851 88bc 548f e03c
00000090: fb47 65bd 1936 c6bd c12e e43d 251d 0e3d
000000a0: ea1f 38bd bf2c 08bc 9c3f 3d3d 31b0 31bb
000000b0: 878e 683b f8f2 68be a87f 0dbe be1d 48bd
000000c0: d791 4d3e 2b6a 02be f625 1bbe 3bff efbc
000000d0: eced 43bd c6a8 95bc 0b52 193d f29b 503c
000000e0: 11aa 7cbd aee6 2dbd d3e2 793b 99b7 14bc
000000f0: 994a 33bd 5e33 80bd 25d0 353b 1b37 fbbc
00000100: f285 28bc ebfb 08bd c67b b2bd b969 46bd
00000110: ecb9 e7bc 580b 61bd 4881 b7bd 5b1d 1b3d
00000120: a30c 753c e467 bc39 e065 3cbd a913 92bd
00000130: 562d 99bd 8862 4d3c 447b 55bb 3938 7dbd
00000140: 4a85 6f3c e8ae ddbd d3f9 68bd 3d1c 773a
00000150: 26b9 98bc 71c9 7cbb 727e d1bd 8a4a 483c
00000160: b36c 2dbd 88d6 5cbc ab82 d8bc c0a9 833d
00000170: 366d 53bd ecaf 4ebd 7a9e c8bd 93db 2abd
00000180: f3a5 1bbd 3366 88bc afb3 2e3b 3aab 873c
00000190: cc8c ccbb 2bcc c1bd 5797 2dbd 480d a73c
000001a0: 85e3 f4bc f227 83bd 4ab5 a2bd 38d5 213d
000001b0: 7b24 c03b e6b5 c9bd f444 30bd 7456 22bd
000001c0: e9ab 28bd 9a52 d4bc 7812 c6bc 628e 57bd
000001d0: 4005 a43d 29c0 f7bd 7dbd 1bbe 0c1a 6fbb
000001e0: 324b acba 4730 8abc 9bdc a7be d5ff cdbd
000001f0: 8a40 02bc cd31 83bd 9708 08be 0cd1 76bd
00000200: 3d9a c2bd aee5 38bb f3f2 973c 6cf1 71bd
00000210: 19e7 5fbd 7ab4 afbd ea1b 30bd 56e5 96bd
00000220: f74d 71bb 80ca 04bd 1aa3 b1bd 892c 74bc
00000230: 7c8c fb3a fd56 adbc 78d6 a6bd baed 26bd
00000240: 7937 033e 952f f7bd 73b5 39bd b206 02bf
00000250: 14e1 c2bd 7c02 19bd 374d 57bc 6840 c73b
00000260: cbda 09bd e405 f9bd 67d3 3cbc 6db5 87bd
00000270: 56a4 63bc 0059 37bc 3ae3 9d3e 9bae f0bb
00000280: 23f6 b93d bc60 88bd 4cc2 313d 5404 42bd
00000290: 68b1 a93d e4c9 b3bc b5fe b2bd ad53 c1bb
000002a0: a81c 52bd 660a 1b3d 80fb 34bd c2a2 3bbc
000002b0: bab7 53bd 91cb 17bd d91d e2bc d4a5 863c
000002c0: 2a47 ae3d 1a3c e8bb a7f8 49bd 56d8 e7bd
000002d0: 3f48 0bbe 2fe5 73bd 51ca fdbc 0080 e23c
000002e0: cab4 3cbd eb8c 04bd 697c 0bbd 607d fc3c
000002f0: ae95 95bd d610 68be 2e8a 05bd 51b9 c8bc
00000300: ea0a 9dbc 0bd5 963c 0bf8 32bc fe4d 9bbc
00000310: 6a70 32bd c6f8 10be f85a 8ebd a056 d03c
00000320: e554 1d3e b050 b4bc 1a75 e93a 8808 f33c
00000330: 105c d5bd c8e9 debd 787b 1cbd 3cbf 05bd
00000340: 09e3 2ebd 5191 ecbd 5d8d 18be 3ef3 9e3c
00000350: 12b4 1fbd fd5b 1bbc e815 853e 62d0 04bd
00000360: acb2 b33c fc7a 90bc ff38 32be 88f3 8fbd
00000370: fe3d 6fbc 3f9e 803e 6744 90bd 0170 b0bd
00000380: 7e18 eabc c8ed b3bc aed1 f63c 9e5b 5ebd
00000390: 4faf a1bd 173e 30bd 98a1 febd b01c 503c
000003a0: 70c7 8cbd fe44 84bc c5ca ea3c 11ca febd
000003b0: 2d19 3e3e 01dd 2fbd 98f0 33bd 6a09 bfbc
000003c0: e51c 80bd 02ae 0abd d128 96bc cc9b 0bbd
000003d0: 0258 9abd cdb0 e6bc 0255 183d f354 8cbd
000003e0: a90e 5c3d 2a9d 8c3c 2d36 643d 3786 19bd
000003f0: d2b0 8cbc 6241 46bd 5106 3a3e 1358 7d3c
-0.0011745477 0.06363238 -0.0028962423 0.105304055 -0.0063874093 -0.047147557 -0.089687675 -0.10077856
-0.04918495 -0.09763826 -0.038287442 -0.14363208 -0.037393253 -0.04151164 -0.10474749 0.21502072
-0.016905716 0.019982863 -0.09120485 -0.16654071 -0.00023504587 -0.052508485 -0.032137092 -0.042695258
-0.07244312 -0.06755629 -0.013074249 -0.27417916 0.03718133 -0.25508252 0.04479594 0.19273773
-0.047979344 -0.023633132 -0.01664029 0.027412094 -0.05597685 -0.09678287 0.1114173 0.034695763
-0.04495231 -0.00831145 0.04620324 -0.0027113075 0.0035485344 -0.22748935 -0.13818228 -0.04885649
0.20075165 -0.12735812 -0.151512 -0.029296508 -0.04783432 -0.018268954 0.037431758 0.012732493
-0.061685625 -0.04245632 0.0038129583 -0.009076976 -0.043772314 -0.062597975 0.0027742472 -0.030665925
-0.010285841 -0.033443373 -0.08715014 -0.04844067 -0.028286897 -0.05494246 -0.08960205 0.037869792
0.014956626 0.0003593556 -0.045995593 -0.07132656 -0.0747935 0.012535699 -0.0032574693 -0.061821196
0.014619181 -0.10824376 -0.056878876 0.000942651 -0.018642973 -0.0038572217 -0.10229196 0.012224803
-0.04233999 -0.013478883 -0.026429495 0.064288616 -0.051617824 -0.05046074 -0.09795852 -0.04171331
-0.03800006 -0.016650295 0.0026657393 0.01656114 -0.0062423702 -0.0946277 -0.042380657 0.020392075
-0.029893646 -0.06404103 -0.079447344 0.039509982 0.005863724 -0.098491475 -0.04303451 -0.03963323
-0.04117957 -0.025918294 -0.024178728 -0.05262602 0.08008814 -0.120971985 -0.15209003 -0.003648403
-0.0013144969 -0.016868724 -0.32785496 -0.10058562 -0.007949958 -0.06405983 -0.13284527 -0.060257956
-0.09502075 -0.0028213072 0.018548464 -0.05906813 -0.05466375 -0.08579345 -0.04299537 -0.07367961
-0.0036820152 -0.03241968 -0.08673687 -0.014903196 0.0019191648 -0.021159643 -0.081463754 -0.040754057
0.1281413 -0.120696224 -0.04533906 -0.50791466 -0.095155865 -0.037355885 -0.013140968 0.006080676
-0.033655923 -0.12159327 -0.011525012 -0.06626401 -0.013894161 -0.011190653 0.30837423 -0.0073450333
0.0908015 -0.066590756 0.043398187 -0.04736741 0.08285791 -0.021946855 -0.08739988 -0.0058998675
-0.05129686 0.037851714 -0.04418516 -0.011452379 -0.051688887 -0.03705937 -0.027602123 0.016436495
0.08509667 -0.007087243 -0.0493094 -0.1132056 -0.13601778 -0.05954474 -0.030980261 0.027648926
-0.04607085 -0.032360952 -0.034054194 0.030821502 -0.0730394 -0.22662672 -0.03260248 -0.024502428
-0.019170243 0.018412134 -0.010923396 -0.018958088 -0.043564238 -0.141574 -0.06950945 0.025431931
0.15364416 -0.022011131 0.0017811388 0.029667154 -0.1041795 -0.10884434 -0.038203686 -0.03265308
-0.042696986 -0.115511544 -0.14897676 0.019403096 -0.038990088 -0.009482381 0.25993276 -0.03242529
0.021935783 -0.017636769 -0.17404555 -0.07028872 -0.014602182 0.25120732 -0.07044297 -0.08615113
-0.028576132 -0.021963969 0.03012928 -0.05428659 -0.078947656 -0.043027963 -0.12433165 0.012702152
-0.06873977 -0.01614618 0.028661141 -0.12440885 0.18564291 -0.042935375 -0.04393062 -0.023319919
-0.06255511 -0.033857353 -0.01833001 -0.034084126 -0.075363174 -0.028160477 0.037190445 -0.0685214
0.05372492 0.017164785 0.05571573 -0.037481513 -0.017174158 -0.048402198 0.18166472 0.015462893

mu.weight f4 [1, 256]
00000000: 5a11 a03f af53 29bf 46ad fe3a 3592 ddbf
00000010: c952 633b 21c6 b93d 44e3 5c3c 1396 9f3e
00000020: 88eb 4bbd 5151 0c3d e134 793c 1d44 eabe
00000030: f231 843e e565 a23d ff98 ff3c 0a12 a7bf
00000040: 4ae0 8d3c 01d3 ad3d 1775 d43d 3daa 763e
00000050: 944e 00ba a0e0 c53d 5206 1d3f 945b dd36
00000060: 55d4 a93d 8e1a a0bc 9a77 bbbc 990f 2ebf
00000070: f1e6 80bb 250c d13d 14d2 acc0 8c93 e83e
00000080: b950 4f3a 5f9d 8abd 151b 7bbc d30b 9abc
00000090: c85a 0cbd 60cd 72bc d759 8abe f930 dcbc
000000a0: 9d31 ba39 0262 983c 4e6b 73bf 175d 293c
000000b0: 288b 163d 7ecb fb3d 50cf 083e b9b8 4dbd
000000c0: b18b 693e 92cd 063c a08d 67c0 e6c2 7abb
000000d0: 1946 973f 294f 253d d6cb 4a3b 69ee b9bc
000000e0: 10f6 a03d 9821 443d 4081 52bd 00b7 d13d
000000f0: 061a 643f 2d65 143e 4b6f 263d b2cf 9c3d
00000100: e866 adbc 034a 023d a52b 82bc b68e 083a
00000110: 369c 873b 5676 65bc 6951 ab3e 622c e43b
00000120: be7a 9640 b841 373b f3f4 0a3d ff57 ce3c
00000130: fe8a 5e3d a538 d1b6 e88b a43c 3d75 cb3c
00000140: 1dc2 26bd 447d 9b3f 8f44 aabc 25f8 c6be
00000150: 9e2a 0c3e 486c 78bc e86f 903e c867 6fbc
00000160: 0819 fbbc de23 86ba 8afa b63c a4dc 58be
00000170: caad b33b 6572 2e3d d705 b43d 0f19 72bf
00000180: ffdc 423c e88c 023b f228 bd3a be3d 01bc
00000190: 93cf ecbd ed37 083b cd1a fbbc 4a0c 0b3e
000001a0: 446b 93be 7adc 983b 8cc0 273e ff36 7a3a
000001b0: 4415 5c3e 3656 c83a f13c 1abd 360b 2abd
000001c0: c5f9 d13b 7b9d 9dbc 70f7 f8bc da56 ae3c
000001d0: 1cef 81bf 2f65 47be 0c5e 97bd c775 0bbc
000001e0: 706f 4dbd 5eef 2f39 aad2 6a40 bcb0 383d
000001f0: 2867 423c f46f c1bc a621 733e d9b2 e0bc
00000200: 4705 77bb 47cb c63f d713 943f 02a5 ad3c
00000210: 7a82 03bc 2ade af3c 91fe 293e fbcd 2abd
00000220: bf1d d6bc d632 5f3c 88ad 39bc dc3c 0cbd
00000230: dde7 dc3c 64e8 e43d 960b b23f 4b60 a73c
00000240: ba30 84bf d6cf a0bd 3ebd 01bd 7578 dbbe
00000250: d2b4 d63c 4db8 a8bc c6cf b5bc 5099 23bc
00000260: 74ef 803b 7201 083e 6e95 e8bc ec08 ae3e
00000270: dc76 9cbc a92f 153b 06da 973e d080 0dbb
00000280: 779b 043f 4f3d 08bf 2ea0 643c 6a01 1ebc
00000290: a9ec 23be 4ffd 013e ea32 063e b321 f53d
000002a0: c9ae f0bc bbe1 6fba f51c 09bf bf1d cd3d
000002b0: 8076 243d a74e dc3a ec19 54bd 59d4 9a3d
000002c0: 8b32 333c 0473 af3b dde7 96bc 3af2 b5bc
000002d0: 9cff bebc 073e b93c 86b5 1abc c2b0 37bc
000002e0: 5eb4 7b3c 6342 a33c 3ad6 953e 0d5d 5cbb
000002f0: 7048 e1bb 2152 963f d6f2 6b3b c9bb 74bc
00000300: 6a16 823c 8fbf 76ba 41da 693e a566 93bc
00000310: a7a3 dfba 5e87 ab3d a5d1 5e3a a54a 2a3e
00000320: bfb7 d9be 05c2 123e 5678 893a 7f0b a5bc
00000330: dffc 8dbd cdd1 613b c523 10bf b818 abbc
00000340: 5f12 01bd 3911 4dbb b79a 3f3e 708f c7ba
00000350: 3618 cb3d 7ef4 81bc 63b0 cfbe ee5b 5dbc
00000360: e0dd 3e3d d77c 0abc 5eaa 4ebe 0325 2e3d
00000370: a18a 273b 605d 9e3f 2a8a 93bc acb2 903f
00000380: a853 0a3d 30ef d83c 24a3 1ebd 79f8 cd3c
00000390: 670f 1a3b e7ed 6abe 90b3 cb3d fbc4 e03d
000003a0: 109b 023e ca47 84bc 753e 483c 6df6 673f
000003b0: b04d 2e3e cfb7 91bc dd54 e7bc 87c3 1c3b
000003c0: cb14 093d 1b90 503e b4d0 633b e3d8 9b3c
000003d0: a7dc 4bbd 9099 30bd 1bdb d1bb a74c 8c3c
000003e0: 1156 d23f 7103 293f 673d 813f e7da d13d
000003f0: 81ba 3f3d 91ec babc 4f91 a1bf 18a3 aebc
1.2505295 -0.66143316 0.0019430302 -1.7310244 0.0034686795 0.09070993 0.013481919 0.31169185
-0.049785167 0.034257237 0.015210361 -0.4575509 0.25819355 0.07929591 0.031200884 -1.305238
0.017318863 0.084875114 0.103738956 0.24088378 -0.00048945216 0.096619844 0.6133777 6.5969743e-06
0.08292452 -0.019543912 -0.022884179 -0.6799255 -0.0039337804 0.102073945 -5.4006443 0.4542507
0.0007908452 -0.067682974 -0.015326281 -0.018804466 -0.034266263 -0.014819473 -0.27021667 -0.02687882
0.0003551365 0.018601421 -0.9508561 0.010337136 0.036753803 0.122946724 0.13360333 -0.050224993
0.22807194 0.008227723 -3.618019 -0.0038263141 1.1818267 0.040358696 0.003094425 -0.02269669
0.07859433 0.0478836 -0.051392794 0.102399826 0.8910221 0.1449172 0.04063348 0.07656802
-0.021167234 0.031808864 -0.015889952 0.0005209254 0.004138495 -0.014005264 0.3346055 0.0069632987
4.702483 0.0027962755 0.033925008 0.025188444 0.054331772 -6.2352797e-06 0.020086244 0.024836177
-0.040712465 1.2147603 -0.020784644 -0.38861194 0.13688132 -0.015162535 0.28210378 -0.014612146
-0.030651584 -0.0010234078 0.022336263 -0.21177918 0.0054833638 0.042589564 0.08790176 -0.94569486
0.01189351 0.0019920412 0.0014431758 -0.007888256 -0.11563029 0.0020785287 -0.030652428 0.13578907
-0.28792775 0.0046649547 0.16382045 0.0009544938 0.21492487 0.0015284482 -0.037655775 -0.041514598
0.0064079487 -0.019240132 -0.030391425 0.021281648 -1.0151095 -0.19472192 -0.07390985 -0.008511967
-0.050155103 0.00016778472 3.669108 0.045090422 0.011865415 -0.023612954 0.23743305 -0.027429031
-0.0037692355 1.5530785 1.1568555 0.021196846 -0.0080267135 0.02146824 0.16601016 -0.041700345
-0.02613723 0.01362296 -0.011332877 -0.034237728 0.02696603 0.111771375 1.3909786 0.020431658
-1.032737 -0.078521416 -0.031674616 -0.4286534 0.026209269 -0.020595694 -0.0221938 -0.009985283
0.003934795 0.13281801 -0.028391566 0.33991182 -0.019099645 0.0022764003 0.29658526 -0.002159167
0.5179972 -0.5321855 0.013954205 -0.009643892 -0.16008247 0.12694286 0.1310536 0.11969318
-0.029380219 -0.0009150763 -0.5355981 0.10015439 0.040152073 0.0016808108 -0.051782534 0.07560033
0.010937343 0.005354287 -0.018421108 -0.02221023 -0.023315243 0.022612585 -0.009442693 -0.011211576
0.015362827 0.019929117 0.29265004 -0.0033624799 -0.0068750903 1.1743814 0.0036002896 -0.01493735
0.015879828 -0.00094127 0.22837164 -0.01799328 -0.0017062322 0.083754286 0.00084998674 0.16630037
-0.42523 0.14331825 0.0010488133 -0.020147083 -0.06932997 0.0034457326 -0.5630458 -0.02088581
-0.03151166 -0.0031290783 0.18711363 -0.0015225243 0.09916727 -0.015863653 -0.4056426 -0.013510687
0.046598315 -0.008452616 -0.20182177 0.042515766 0.0025564807 1.2372246 -0.018010218 1.1304526
0.033771187 0.026481241 -0.0387298 0.025142895 0.0023507716 -0.22942315 0.09946358 0.10975071
0.12754464 -0.016147513 0.012221922 0.9061039 0.17021823 -0.017787842 -0.028238708 0.0023920254
0.033467095 0.20367472 0.0034761848 0.019024318 -0.049770977 -0.0431152 -0.0064042932 0.017126394
1.6432515 0.66020876 1.0096864 0.102468304 0.046808723 -0.022817882 -1.262247 -0.021318004
