TD3/models/pendulum/00000500/critic_2.pth (torch, 271127 bytes, 5 tensors)

fc1.weight f4 [256, 4]
0.14562897 -0.24696976 -0.36239073 0.09566924 0.7440867 -1.4604104 -0.37170655 -0.02453751
-0.55209816 1.218692 -0.13885719 -0.0007791197 -0.6991511 0.54265106 0.22742783 -0.053937342
0.47411036 -1.2391955 -0.17836216 -0.23874052 -0.6739087 1.0531502 0.29698566 0.018213196
-0.348918 0.23144616 -0.031102192 -0.056442652 -0.05319542 -0.06714739 -0.04118606 0.25346595
0.2978062 -0.096637994 -0.20353979 0.0023146584 1.7502716 0.56786096 -0.1244595 0.031025914
0.6331266 -0.26531443 0.19246 0.27229786 0.36338317 -0.43671316 0.067456685 -0.30088705
-0.05157821 1.0127447 0.17902778 0.027073307 0.8274498 0.3011924 0.36201015 0.054728054
0.8722052 1.0948912 -0.09925154 -0.11603848 -0.45984602 1.0529202 0.027638353 -0.022529168
-0.7935819 -0.2895762 -0.16318497 0.06499747 0.8317827 0.30217883 0.34442702 0.054063875
-0.10727955 1.4170287 0.45541105 0.064820625 -1.0671865 -0.47125214 -0.19881897 0.03918704
-0.73321885 -0.6683135 -0.2738437 -0.028315809 0.31054494 -0.9640361 0.39744294 0.1124726
-0.5192083 0.6882657 -0.24042495 0.019963386 0.38355005 1.2715199 0.03936047 -0.15148428
-0.060305487 0.5185173 0.27641946 -0.08245819 1.0839508 0.4726628 0.3244078 0.058002252
-0.4995006 1.5175222 0.36453995 0.011877273 -0.8245578 -0.2572849 -0.20040198 0.10293606
0.030174343 -1.9453479 -0.43014818 0.02011534 -0.7018178 0.021208186 0.15552312 0.017696602
-0.65194964 0.14302973 -0.12266993 0.22813585 -0.77579385 0.93345237 0.24754953 0.026411422
0.5715426 -0.056602415 -0.09006868 0.1699189 -0.40861765 -1.2598407 -0.29502785 -0.025563298
-0.519261 -0.2637362 -0.055455994 -0.20716958 0.7830999 0.3791586 0.10998696 -0.016233768
0.61390007 1.6246887 0.4128994 0.020329915 -0.64316756 -0.28884107 -0.12409028 -0.28850514
-0.04610577 0.79728895 0.25149408 -0.25578132 1.2288907 0.5379762 0.42184645 -0.007614955
0.08704915 -0.04987187 0.106283665 0.023869032 -0.7555697 0.7317434 0.22376381 0.035157114
-0.3773259 0.18172447 0.1905676 0.025637275 -0.30525705 0.20365222 0.07643867 0.039446484
0.2773458 0.092376575 0.39742848 0.29549193 0.7376305 -0.25832722 -0.36783394 -0.058616847
0.7727404 -0.30686194 -0.30576566 -0.05012483 0.9959761 -0.35267118 -0.2315696 -0.063117154
-0.5955222 -0.17056875 -0.1491042 0.089213446 0.099870175 -0.014600176 -0.23116827 0.265048
0.65627986 1.3496356 0.3036438 0.16637503 -0.8840975 0.94694906 -0.014411859 0.1953797
-0.42525217 -1.4181076 -0.32961398 0.061627686 0.035353217 0.029791366 0.070259854 -0.44239542
0.30755284 0.08016099 -0.11542976 0.0335815 1.481009 -0.021914614 -0.10797925 0.0065013054
-0.69708586 -0.0025109977 0.015145661 0.0008433377 0.8935473 0.35427216 0.31721565 0.03444901
-0.5230051 0.44453132 0.14821842 -0.64715046 -0.51198906 0.24766521 -0.030068003 0.01580207
0.16221684 0.8064663 0.0404891 -0.14904925 -0.080171056 1.8364365 0.40138817 0.09552191
-0.7726531 -0.16476928 -0.3946791 -0.039833326 -0.73409045 -0.18003598 -0.18804264 0.09076214
00000000: c31f 153e a4e5 7cbe 478b b9be 3cee c33d
00000010: 777c 3e3f baee babf 5250 bebe e302 c9bc
00000020: 4e56 0dbf 19fe 9b3f 9430 0ebe d73d 4cba
00000030: 91fb 32bf 2eeb 0a3f d7e2 683e 67ed 5cbd
00000040: 98be f23e f59d 9ebf 92a4 36be 6578 74be
00000050: 4885 2cbf a0cd 863f 810e 983e d733 953c
00000060: 61a5 b2be 3900 6d3e 06ca febc 6930 67bd
00000070: 71e3 59bd 9284 89bd b7b2 28bd 4ac6 813e
00000080: 0e7a 983e 24ea c5bd bc6c 50be 86b1 173b
00000090: e608 e03f 565f 113f 9fe4 febd 0f2a fe3c
000000a0: 9614 223f 4bd7 87be 3c14 453e a06a 8b3e
000000b0: 5c0d ba3e de98 dfbe bb26 8a3d de0d 9abe
000000c0: ac43 53bd 9ea1 813f 0f53 373e d7c8 dd3c
000000d0: c0d3 533f e435 9a3e 6559 b93e 862a 603d
000000e0: d748 5f3f 6525 8c3f 6444 cbbd 95a5 edbd
000000f0: f070 ebbe 17c6 863f d469 e23c 178f b8bc
00000100: 2f28 4bbf 5543 94be f619 27be 651d 853d
00000110: b6ef 543f 2fb7 9a3e bd58 b03e 1572 5d3d
00000120: 61b5 dbbd 3261 b53f a32b e93e adc0 843d
00000130: 9199 88bf f647 f1be 3397 4bbe 9782 203d
00000140: 3bb4 3bbf 9816 2bbf 3e35 8cbe 8ef6 e7bc
00000150: bfff 9e3e 12cb 76bf a47d cb3e 0958 e63d
00000160: d6ea 04bf 2e32 303f f531 76be 418a a33c
00000170: ac60 c43e 2ac1 a23f 7238 213d b21e 1bbe
00000180: e302 77bd 8dbd 043f da86 8d3e d7df a8bd
00000190: e6be 8a3f dc00 f23e c718 a63e c593 6d3d
000001a0: 8bbe ffbe 2b3e c23f fba4 ba3e e598 423c
000001b0: 3816 53bf d9ba 83be 2d36 4dbe 24d0 d23d
000001c0: 2f30 f73c 2901 f9bf 623c dcbe edc8 a43c
000001d0: 55aa 33bf cabc ad3c 7441 1f3e 77f8 903c
000001e0: 2ce6 26bf 6376 123e 5f3a fbbd 729c 693e
000001f0: 6d9a 46bf bcf6 6e3f a07d 7d3e c45c d83c
00000200: 9e50 123f efd7 67bd ee75 b8bd 38ff 2d3e
00000210: 5536 d1be 7642 a1bf e40d 97be 1f6a d1bc
00000220: 4aee 04bf 6e08 87be d325 63bd 4324 54be
00000230: 3c79 483f 1321 c23e d840 e13d aefc 84bc
00000240: 8e28 1d3f cdf5 cf3f 8d67 d33e ec8a a63c
00000250: a1a6 24bf fae2 93be 0b23 febd f2b6 93be
00000260: 67d9 3cbd 211b 4c3f d5c3 803e c5f5 82be
00000270: 4a4c 9d3f cfb8 093f 42fc d73e df86 f9bb
00000280: d346 b23d 7246 4cbd 40ab d93d fd88 c33c
00000290: 046d 41bf 8953 3b3f 5722 653e e800 103d
000002a0: dc30 c1be fb15 3a3e 2724 433e 4305 d23c
000002b0: a74a 9cbe 358a 503e e18b 9c3d a392 213d
000002c0: 4500 8e3e ee2f bd3d bf7b cb3e b84a 973e
000002d0: 5ad5 3c3f 7743 84be bb54 bcbe 3818 70bd
000002e0: 51d2 453f 021d 9dbe 518d 9cbe b24f 4dbd
000002f0: 4af8 7e3f 5191 b4be 9520 6dbe 9143 81bd
00000300: 2574 18bf 93a9 2ebe c5ae 18be 8ab5 b63d
00000310: bc88 cc3d 9435 6fbc 60b7 6cbe 5fb4 873e
00000320: f501 283f dcc0 ac3f 3377 9b3e 375e 2a3e
00000330: 3754 62bf 416b 723f b81f 6cbc 9e11 483e
00000340: a7ba d9be 8d84 b5bf 2ac3 a8be 506d 7c3d
00000350: 89ce 103d 060d f43c 66e4 8f3d a781 e2be
00000360: 9177 9d3e 722b a43d 7066 ecbd c18c 093d
00000370: b491 bd3f 4786 b3bc 3a24 ddbd e708 d53b
00000380: 3874 32bf 8d8f 24bb 8225 783c 6f13 5d3a
00000390: 84bf 643f 2963 b53e 176a a23e 681a 0d3d
000003a0: aae3 05bf 9c99 e33e 92c6 173e a7ab 25bf
000003b0: b711 03bf f39b 7d3e 2c51 f6bc 5873 813c
000003c0: 2c1c 263e 9374 4e3f e6d7 253d 5ea0 18be
000003d0: b930 a4bd 5a10 eb3f c082 cd3e fea0 c33d
000003e0: 98cc 45bf 47b9 28be 6113 cabe 4528 23bd
000003f0: 5aed 3bbf 5a5b 38be 408e 40be 80e1 b93d

fc1.bias f4 [256]
0.0953293 -0.9315263 -0.5035484 0.57545656 -0.26686487 0.4988819 0.41199645 0.0109907305
-0.41098788 -0.21455203 0.44736335 -0.33997384 -0.11782585 -1.499774 -0.42942628 0.24611424
0.72407436 -1.4128239 -0.20673288 0.947682 0.78329575 -0.88785684 -0.6071995 -0.40328935
-0.41294384 -1.2145573 0.24380296 0.80248654 -0.33350807 0.3812418 0.70644295 0.6159556
0.5477189 0.21702474 0.2127218 -0.37993434 -0.8569728 -0.9472418 -0.55724895 -1.4600041
0.5060799 0.6380176 0.5623583 0.052845355 -0.51189667 -1.600188 -1.1760409 -1.000477
0.58039314 -0.3609239 -0.54229087 -0.30972114 0.14009868 -0.047782574 -0.156209 -0.33442053
0.14337055 -1.1819998 -0.632733 -0.5898125 -0.16737932 0.2680212 -0.7936031 0.7725947
-0.4235553 -0.27518496 0.39896065 -1.1734531 -0.6173931 0.42389345 0.123391286 -0.6752472
0.17205271 0.43397328 0.50844926 -0.6681156 -0.64117897 -0.80803394 0.17097276 -0.6791003
0.15979922 0.53802973 0.4888498 0.9413936 0.33013612 -0.804307 0.50973105 0.46754405
-0.83223915 -0.586454 -0.79251915 -1.8466563 -0.81894565 -0.97618777 -0.7262177 0.6689645
-0.79541785 -0.6022197 -0.6626558 -1.3377473 -1.0570556 -1.1168996 -1.1448069 -0.22569941
0.3267789 -0.44616655 0.9016775 0.46167165 0.22713456 -0.43150368 0.54685533 -0.39139032
0.07606238 0.3603909 -0.27126792 -0.9593427 0.40512213 -0.4684375 0.17227328 -0.7114054
-1.5771444 0.22579694 0.30715662 0.76083523 -0.006449549 -1.3927083 -0.15942298 0.28188908
0.047982827 -1.0137067 0.56487346 0.21629961 -0.30012497 0.5601874 -0.15225796 -0.60559005
-1.0215558 -0.6278795 -0.856174 0.26360238 -1.1028899 -0.23986319 0.5117789 -0.45741487
-0.2584771 -0.2892544 0.3860202 -0.16349204 0.19408876 -0.9232954 -0.24936774 -0.37495047
0.7407265 -0.14361466 0.27829105 -0.93366 -1.0971042 -0.48956764 -0.20150687 0.56438714
-0.49154255 -1.1596205 -0.08770629 -0.6372251 -0.79464906 -0.30455756 0.7918613 0.97225684
-0.39618635 -0.14501873 -0.9953098 -0.15851842 -0.044337627 -0.67883164 -0.16780512 -0.8168296
0.8671723 -0.26092348 -0.42782024 0.4196252 -0.755456 0.90792626 0.6932258 -0.5580341
-0.71340346 -1.432129 -1.0948068 -0.59629166 0.2999667 -0.8085342 -0.447786 -0.92716724
-0.7189811 0.63525724 0.77101594 0.8360998 0.8443926 -0.47985098 0.44145194 -0.33264467
-1.0731343 0.29880306 -0.53090423 0.28452832 0.65005803 -0.2472554 -0.07886686 -0.23917706
0.6178083 0.5147535 -0.6502875 -0.923548 -0.54166853 0.47523198 -0.49202195 0.50835675
-0.66848415 -0.34368265 -0.5862725 0.75115025 -0.11983952 0.6887157 -0.13813029 -1.1426547
0.41607252 -0.75945866 0.7353625 -0.0395984 0.09567623 0.6902758 -0.038499754 -1.3565035
-0.26434806 0.41012725 -0.4975483 -0.07214191 -0.41250163 -1.3088008 0.21202394 -0.39662197
-0.123605944 -0.54253095 -0.514524 -0.034687515 0.3262065 0.55470735 0.5214501 0.6150732
0.8190524 0.3713894 -0.67184395 -0.5835313 0.74316674 0.083501935 -0.87811136 -0.6816149
00000000: 023c c33d 8278 6ebf 8ce8 00bf 1f51 133f
00000010: 83a2 88be 736d ff3e 33f1 d23e 7712 343c
00000020: 016d d2be 87b3 5bbe cf0c e53e 0d11 aebe
00000030: ae4e f1bd 98f8 bfbf c3dd dbbe 5f05 7c3e
00000040: f05c 393f 6ad7 b4bf c9b1 53be 4a9b 723f
00000050: 1286 483f 964a 63bf 6d71 1bbf f17b cebe
00000060: 606d d3be 9d76 9bbf 7ca7 793e c26f 4d3f
00000070: 92c1 aabe 2032 c33e 72d9 343f 44af 1d3f
00000080: 4e37 0c3f bc3b 5e3e bed3 593e c186 c2be
00000090: 9262 5bbf 707e 72bf dea7 0ebf 6ae1 babf
000000a0: 748e 013f 1f55 233f b7f6 0f3f 5f74 583d
000000b0: a90b 03bf f6d2 ccbf 8288 96bf a10f 80bf
000000c0: a594 143f 04cb b8be 93d3 0abf c593 9ebe
000000d0: 0776 0f3e a9b7 43bd 41f5 1fbe 2b39 abbe
000000e0: bbcf 123e c54b 97bf cafa 21bf f4fd 16bf
000000f0: 7c65 2bbe 133a 893e 9329 4bbf c4c8 453f
00000100: 3edc d8be 0be5 8cbe 9244 cc3e b633 96bf
00000110: 790d 1ebf 9008 d93e 92b4 fc3d 00dd 2cbf
00000120: 962e 303e bf31 de3e bb29 023f a009 2bbf
00000130: 4e24 24bf 50db 4ebf 7c13 2f3e 84d9 2dbf
00000140: 68a2 233e 51bc 093f 854a fa3e 2cff 703f
00000150: 9a07 a93e 10e7 4dbf bc7d 023f ef61 ef3e
00000160: a00d 55bf d921 16bf 89e2 4abf 3c5f ecbf
00000170: 6ca6 51bf 71e7 79bf 67e9 39bf 4241 2b3f
00000180: 81a0 4bbf 122b 1abf cfa3 29bf 4e3b abbf
00000190: 994d 87bf 91f6 8ebf 0889 92bf bf1d 67be
000001a0: 904f a73e f16f e4be 56d4 663f 3a60 ec3e
000001b0: f695 683e 0dee dcbe b6fe 0b3f 5064 c8be
000001c0: 98c6 9b3d 2885 b83e a1e3 8abe 7c97 75bf
000001d0: 2b6c cf3e 0ad7 efbe 6868 303e aa1e 36bf
000001e0: dedf c9bf 5037 673e a243 9d3e 19c6 423f
000001f0: bd56 d3bb 4444 b2bf c73f 23be c453 903e
00000200: a489 443d 24c1 81bf 8c9b 103f a57d 5d3e
00000210: fba9 99be 7168 0f3f 83e9 1bbe f307 1bbf
00000220: 57c2 82bf b6bc 20bf 382e 5bbf e4f6 863e
00000230: 7f2b 8dbf b29e 75be f103 033f 4832 eabe
00000240: 1c57 84be 2719 94be 71a4 c53e 756a 27be
00000250: 34bf 463e 165d 6cbf 425a 7fbe 82f9 bfbe
00000260: 40a0 3d3f b90f 13be 2a7c 8e3e 5704 6fbf
00000270: e96d 8cbf 9ca8 fabe d157 4ebe ad7b 103f
00000280: 77ab fbbe 726e 94bf 5b9f b3bd 2f21 23bf
00000290: 1f6e 4bbf f8ee 9bbe 6cb7 4a3f d3e5 783f
000002a0: f0d8 cabe ca7f 14be a0cc 7ebf a752 22be
000002b0: 5f9b 35bd e9c7 2dbf 1bd5 2bbe bf1b 51bf
000002c0: 01ff 5d3f c397 85be 410b dbbe 1dd9 d63e
000002d0: 9065 41bf db6d 683f 3f77 313f 53db 0ebf
000002e0: 9ca1 36bf 0150 b7bf a122 8cbf 92a6 18bf
000002f0: 3c95 993e 19fc 4ebf 3544 e5be d55a 6dbf
00000300: 250f 38bf 38a0 223f 4d61 453f a30a 563f
00000310: 1d2a 583f 07af f5be fd05 e23e 6750 aabe
00000320: 775c 89bf b7fc 983e 57e9 07bf b2ad 913e
00000330: 346a 263f 8530 7dbe f384 a1bd d5ea 74be
00000340: af28 1e3f e3c6 033f 3e79 26bf a46d 6cbf
00000350: caaa 0abf 9b51 f33e 4dea fbbe ab23 023f
00000360: c721 2bbf 2cf7 afbe f415 16bf 624b 403f
00000370: 6c6e f5bd ac4f 303f 0772 0dbe 8242 92bf
00000380: 7507 d53e e26b 42bf b840 3c3f ef31 22bd
00000390: e6f1 c33d eab5 303f ebb1 1dbd e8a1 adbf
000003a0: a158 87be 33fc d13e a7be febe 23bf 93bd
000003b0: 6a33 d3be c986 a7bf ce1c 593e 0912 cbbe
000003c0: 1d25 fdbd 4fe3 0abf d8b7 03bf 7f14 0ebd
000003d0: 8a04 a73e 4d01 0e3f c17d 053f 7075 1d3f
000003e0: 6bad 513f c026 be3e f7fd 2bbf 4f62 15bf
000003f0: 2d40 3e3f 1003 ab3d e8cb 60bf 507e 2ebf

fc2.weight f4 [256, 256]
-0.04423643 0.004474245 -0.015351869 -0.054952335 -0.04727291 -0.073820494 0.013715173 -0.024023743
0.048802644 0.039300103 0.045321923 0.016190823 0.027431004 -0.023108074 0.0020669526 0.04463623
0.034014918 0.011391754 -0.04604469 0.008609417 -0.010547384 -0.027072998 0.022360729 -0.0017396093
-0.042142052 -0.014618182 0.043727357 0.050243877 -0.04113473 -0.06358289 -0.067893624 -0.008574107
0.032772135 0.050790478 0.01738734 0.015818221 -0.039010253 -0.0020241637 0.01486751 -0.053112466
0.017535716 0.025647191 -0.048893645 -0.032671575 0.007812647 0.029756112 0.06213619 -0.01058314
0.015141235 -0.041037574 -0.070872985 0.023017611 0.007554829 -0.001852007 -0.030922102 -0.056371145
-0.07423815 -0.045620777 -0.05878704 0.03144438 0.03340295 0.012114682 -0.052251652 0.0028578704
0.037275292 -0.017882057 0.0309057 0.037931535 0.014026876 0.009643966 0.0024670241 0.020285256
-0.043308843 -0.066585295 -0.04887836 0.021711014 0.04205685 -0.011562056 0.018929282 0.013658878
-0.05408452 0.039919473 0.05514984 0.049019847 -0.008458693 -0.020769102 -0.058631897 -0.03125706
-0.008938296 0.042310167 0.016011145 -0.062675215 0.023849381 -0.034914233 -0.00074364565 -0.060429372
0.046557996 -0.02939493 -0.048501343 -0.051632483 -0.020261584 -0.0155851375 0.001983799 -0.0050132656
0.001705436 -0.03207282 0.038928963 -0.0334902 -0.031207362 -0.06724722 -0.045532163 -0.007513032
0.054082718 0.020796908 -0.06039105 -0.014211423 0.05489314 0.05584743 -0.024023822 -0.031884324
0.046595104 0.053555198 -0.055933155 0.012472456 -0.068273306 -0.053468097 -0.01961564 -0.04727022
0.023317397 -0.05703928 0.02825517 0.03434909 0.011225699 -0.06701517 0.0052530603 0.040340453
-0.047825966 -0.05840046 -0.024097353 -0.060715497 -0.010035862 0.03848599 0.023072453 0.017157419
0.038011976 0.006543378 0.003766804 0.005808802 0.0010998194 -0.05096372 -0.02207293 0.041543495
0.008919595 -0.01033862 -0.021531865 -0.004303627 0.005321706 0.02122221 -0.07099117 0.045239855
-0.022776369 -0.037125606 0.020989262 -0.044899624 0.04485511 0.025961595 -0.03240691 0.00046204505
-0.008268317 0.020815775 -0.030351765 -0.045433868 0.009258541 -0.0679317 0.02049353 -0.039702382
-0.062711306 0.019786103 0.028200852 -0.04307035 0.03907375 -0.04821113 0.02860684 -0.029082566
-0.04190313 -0.05757442 -0.012779937 0.0017282888 0.031539105 0.01899925 0.0025740138 0.009798609
0.018394478 -0.014116096 -0.003360487 0.040052753 -0.044299282 0.024311796 -0.019137446 -0.025844416
0.032931328 -0.020816106 -0.06192445 -0.06678043 0.031103427 -0.035766583 0.022855975 0.039735895
0.0011990452 -0.05349385 -0.063996576 0.021070931 -0.0051559154 -0.031439662 0.005800737 -0.06265004
-0.004363686 -0.04504749 -0.023352051 -0.049968265 -0.026507486 -0.028085109 -0.051101964 -0.04071961
0.010097281 -0.03526952 -0.019231016 0.038758393 -0.018796833 -0.07105068 0.018497577 -0.06159405
-0.05527121 -0.042052496 -0.065072685 0.031989902 -0.059169292 0.045706917 0.040550016 -0.016832491
0.02385393 0.049416054 -0.014925252 -0.027191462 -0.026765909 -0.035176016 -0.042960633 0.018937644
-0.013042523 0.0077266847 -0.025385056 0.025071628 0.047394965 0.02340402 0.038965225 0.022972953
00000000: 4231 35bd b09c 923b 6886 7bbc b315 61bd
00000010: 3da1 41bd 332f 97bd 9bb5 603c 71cd c4bc
00000020: 48e5 473d 25f9 203d 7ba3 393d 9ea2 843c
00000030: fcb6 e03c 254d bdbc b675 073b 7bd4 363d
00000040: 3a53 0b3d 7ba4 3a3c 5b99 3cbd 830e 0d3c
00000050: efce 2cbc 31c8 ddbc d92d b73c 9a03 e4ba
00000060: 259d 2cbd 1981 6fbc 751b 333d 86cc 4d3d
00000070: e47c 28bd bf37 82bd d00b 8bbd 697a 0cbc
00000080: 133c 063d ad09 503d e56f 8e3c 3795 813c
00000090: 37c9 1fbd d5a7 04bb db96 733c 758c 59bd
000000a0: 10a7 8f3c 0f1a d23c b444 48bd a1d2 05bd
000000b0: 9e00 003c 17c3 f33c 8482 7e3d e864 2dbc
000000c0: f112 783c 0417 28bd db25 91bd 6e8f bc3c
000000d0: 808e f73b 0bbf f2ba 5950 fdbc 6ee5 66bd
000000e0: 2c0a 98bd dadc 3abd aeca 70bd d2cb 003d
000000f0: 88d1 083d a97c 463c d405 56bd 1c4b 3b3b
00000100: faad 183d 647d 92bc f32d fd3c 195e 1b3d
00000110: fbd0 653c ba01 1e3c ccad 213b 442d a63c
00000120: 9d64 31bd df5d 88bd ad34 48bd 4cdb b13c
00000130: ce43 2c3d c76e 3dbc 9511 9b3c 7dc9 5f3c
00000140: bb87 5dbd 9a82 233d cce4 613d 09c9 483d
00000150: 5496 0abc f723 aabc 0028 70bd 6707 00bd
00000160: ee71 12bc 6d4d 2d3d ce29 833c dd5b 80bd
00000170: c75f c33c 3a02 0fbd 37f1 42ba ca84 77bd
00000180: 99b3 3e3d a3cd f0bc 58a9 46bd 957c 53bd
00000190: 9ffb a5bc ce58 7fbc a002 023b 5246 a4bb
000001a0: f088 df3a ca5e 03bd fa73 1f3d 052d 09bd
000001b0: 95a6 ffbc e9b8 89bd ef7f 3abd e12f f6bb
000001c0: d785 5d3d 475e aa3c 9b5c 77bd 07d7 68bc
000001d0: a1d7 603d 46c0 643d 9bcd c4bc 2399 02bd
000001e0: 82da 3e3d b25c 5b3d 2a1a 65bd 4659 4c3c
000001f0: e0d2 8bbd 5d01 5bbd fbb0 a0bc 6b9e 41bd
00000200: 2004 bf3c 05a2 69bd 6377 e73c a2b1 0c3d
00000210: ffeb 373c 403f 89bd dd21 ac3b 083c 253d
00000220: 29e5 43bd 5235 6fbd d067 c5bc d0b0 78bd
00000230: 756d 24bc 7ca3 1d3d 7102 bd3c b78d 8c3c
00000240: 72b2 1b3d d569 d63b 7cdc 763b c357 be3b
00000250: d127 903a 55bf 50bd 4ad2 b4bc 8329 2a3d
00000260: 7e23 123c 5163 29bc 9863 b0bc 7105 8dbb
00000270: b561 ae3b 33da ad3c d263 91bd 6d4d 393d
00000280: 8295 babc 0511 18bd acf1 ab3c abe8 37bd
00000290: feb9 373d 69ad d43c 1cbd 04bd a33e f239
000002a0: d677 07bc d885 aa3c 44a4 f8bc dd18 3abd
000002b0: 23b1 173c c61f 8bbd 0ce2 a73c f79e 22bd
000002c0: c96e 80bd 7716 a23c 7905 e73c 896a 30bd
000002d0: cc0b 203d 0979 45bd e458 ea3c 903e eebc
000002e0: 9ea2 2bbd 28d3 6bbd f162 51bc c087 e23a
000002f0: 262f 013d 51a4 9b3c c9b0 283b 588a 203c
00000300: 04b0 963c 3347 67bc 9e3b 5cbb 5b0e 243d
00000310: 2a73 35bd 8829 c73c 22c6 9cbc abb7 d3bc
00000320: 00e3 063d 8a86 aabc 7ea4 7dbd 2ec4 88bd
00000330: 9dcc fe3c fb7f 12bd 743c bb3c 1bc2 223d
00000340: 4829 9d3a 5e1c 5bbd a310 83bd f29c ac3c
00000350: f4f2 a8bb e0c6 00bd 1c14 be3b aa4e 80bd
00000360: 40fd 8ebb b883 38bd cd4c bfbc 86ab 4cbd
00000370: 3a26 d9bc be12 e6bc 4b50 51bd 9bc9 26bd
00000380: 116f 253c c676 10bd 5d8a 9dbc 1fc1 1e3d
00000390: d1fb 99bc 0583 91bd 3b88 973c 0b4a 7cbd
000003a0: 1064 62bd 3d3f 2cbd d444 85bd d807 033d
000003b0: 805b 72bd 2d37 3b3d c617 263d 4be4 89bc
000003c0: 5169 c33c 7d68 4a3d 0b89 74bc a1c0 debc
000003d0: 2e44 dbbc ba14 10bd 7df7 2fbd 1e23 9b3c
000003e0: 4eb0 55bc 2130 fd3b 52f4 cfbc 0463 cd3c
000003f0: 3921 423d cab9 bf3c 009a 1f3d c631 bc3c

fc2.bias f4 [256]
-0.028559873 -0.05857437 0.42184865 -0.020012733 0.22683513 -0.07298687 -0.008746464 0.38466516
0.27291065 0.49230534 0.09837103 -0.06293025 0.14367305 0.13051248 -0.0024684537 0.026768431
-0.012355081 0.0401408 -0.0045271874 0.34044626 0.14449607 0.36684772 -0.0109974425 -0.043949727
-0.004543591 0.31033117 0.027171781 0.12119308 -0.08679835 0.0063191624 -0.034235388 0.008382835
-0.05280959 0.20627336 0.4567277 -0.06432456 -0.05836427 0.5405039 0.3648959 -0.065565765
-0.023774046 -0.073514484 -0.037599653 0.4240512 0.43033418 0.28253597 0.010611461 0.24578342
0.2975807 -0.0019688965 0.13675423 0.24806438 0.5213197 0.45221585 0.05101904 0.32784438
0.43691868 0.036592018 0.050118197 0.3476405 0.40710655 0.18428208 -0.013567019 0.2584659
0.017324463 0.022420045 -0.06517935 -0.048165757 -0.06794946 0.0051393565 -0.06217446 0.009799628
0.43527868 0.5001874 -0.0391285 0.00998712 0.024025273 -0.03693652 0.019550588 0.39843887
-0.004003829 0.16043648 0.3108409 -0.028551294 0.35649323 0.031303883 -0.034586236 0.017508717
0.42137778 -0.0015138341 0.06977969 0.016976265 0.01979259 -0.095401496 0.014604212 -0.046711143
0.36806056 -0.051755022 0.5940305 -0.037110332 0.3655938 -0.060229894 0.09908081 -0.08511071
-0.050755806 -0.00023994356 0.017804412 -0.053622875 0.38994548 0.003413211 0.18939209 -0.06759642
0.3455917 0.017745024 -0.03245248 0.29858413 -0.028431108 0.037950225 0.03476531 0.3544784
0.4594045 -0.07367658 -0.04370564 -0.08904987 0.2758544 0.23600586 0.31786552 0.00825171
0.052178077 0.40833187 0.5797812 0.56844485 -0.027859101 0.5002755 0.5334379 0.4494107
-0.029145408 0.32545033 0.23244283 -0.00074138877 0.0038446507 0.17454898 -0.0573413 0.3160796
0.016762514 0.046326812 0.09386216 0.11401125 -0.018178971 -0.02116162 0.010210629 -0.04088649
0.024096822 0.38754115 0.37159142 -0.061466917 0.40970594 -0.059347346 0.428703 0.4301559
-0.039557837 0.023032062 0.44485053 0.025398875 -0.06787003 0.04906085 0.034325644 -0.045451112
0.013772088 0.4220404 0.011023677 -0.013770348 0.049210288 0.04806023 0.3161348 0.46347657
-0.053638652 -0.024428815 0.57162017 -0.07704968 0.31239942 0.45408955 0.0062283315 -0.016876014
0.5083738 -0.0007926886 -0.0066457842 0.08884366 -0.003818474 0.30297142 0.70848477 0.22850366
0.0662437 0.43486446 -0.023708263 0.4817142 -0.002461105 0.03777213 -0.06344048 -0.0023454572
0.26560795 -0.01951066 -0.0054358286 -0.05850784 0.04196425 0.006541185 -0.0066553326 0.042899765
-0.053894997 0.17364287 -0.038800757 -0.07885648 -0.04420518 0.2537305 0.18768701 0.031311844
0.22514819 0.52696913 -0.017312475 0.4437672 0.38079765 -0.068238765 0.454479 -0.056367002
0.19518858 0.054338764 -0.06789722 -0.056271467 -0.019225791 0.011160417 0.21200131 0.00046807298
0.42457798 -0.13256049 -0.011107316 0.49494684 -0.052369785 -0.09680217 -0.026697438 -0.028414803
0.037499294 -0.029925607 -0.03398023 -0.0911024 0.36079732 0.35699555 0.59332925 -0.025194287
0.30355638 0.4147687 0.44600028 0.18720157 0.13841857 -0.040708728 0.07507754 0.31858242
00000000: 65f6 e9bc aeeb 6fbd 8cfc d73e bef1 a3bc
00000010: 7847 683e 247a 95bd 544d 0fbc d5f2 c43e
00000020: f2ba 8b3e 720f fc3e c076 c93d 93e1 80bd
00000030: 071f 133e 10a5 053e c8c5 21bb 7849 db3c
00000040: f76c 4abc ae6a 243d cd58 94bb f94e ae3e
00000050: c7f6 133e 77d3 bb3e 9e2e 34bc a104 34bd
00000060: 67e2 94bb bae3 9e3e 5b97 de3c 1434 f83d
00000070: 55c3 b1bd fa10 cf3b 683a 0cbd 2958 093c
00000080: de4e 58bd 5339 533e 37d8 e93e 98bc 83bd
00000090: 5f0f 6fbd 775e 0a3f a3d3 ba3e 5847 86bd
000000a0: cac1 c2bc c38e 96bd 1802 1abd 3d1d d93e
000000b0: c354 dc3e 8ea8 903e b1db 2d3c a6ae 7b3e
000000c0: 7f5c 983e 9a08 01bb 4d09 0c3e 9704 7e3e
000000d0: 3575 053f d688 e73e 57f9 503d 38db a73e
000000e0: ceb3 df3e 83e1 153d bd48 4d3d f0fd b13e
000000f0: 4570 d03e 71b4 3c3e 3448 5ebc a455 843e
00000100: 08ec 8d3c 3eaa b73c c07c 85bd 7549 45bd
00000110: 1629 8bbd 0c68 a83b a6aa 7ebd 9e8e 203c
00000120: d9dc de3e 480c 003f 3545 20bd 04a1 233c
00000130: a6d0 c43c c04a 17bd 8e28 a03c 2e00 cc3e
00000140: 8d32 83bb 7649 243e 8a26 9f3e 67e4 e9bc
00000150: 4886 b63e 8038 003d 4caa 0dbd 716e 8f3c
00000160: d4be d73e d86b c6ba a7e8 8e3d cf11 8b3c
00000170: 1224 a23c dc61 c3bd 8146 6f3c 2f54 3fbd
00000180: 6f72 bc3e 13fd 53bd 6212 183f 0101 18bd
00000190: 1c2f bb3e 9fb3 76bd e1ea ca3d 864e aebd
000001a0: 52e5 4fbd 5c99 7bb9 8fda 913c a9a3 5bbd
000001b0: efa6 c73e 2eb0 5f3b 00f0 413e fe6f 8abd
000001c0: 65f1 b03e 035e 913c e4ec 04bd 05e0 983e
000001d0: 5be8 e8bc b271 1b3d 1266 0e3d 317e b53e
000001e0: 1137 eb3e bfe3 96bd af04 33bd c75f b6bd
000001f0: ca3c 8d3e 85ab 713e 45bf a23e 2e32 073c
00000200: aeb8 553d e010 d13e 8a6c 143f 9a85 113f
00000210: c538 e4bc 0e12 003f 638f 083f 2919 e63e
00000220: 5ac2 eebc 6da1 a63e 7e05 6e3e c259 42ba
00000230: 89f6 7b3b f8bc 323e b6de 6abd 2fd5 a13e
00000240: 8a51 893c 2fc1 3d3d ce3a c03d bb7e e93d
00000250: 11ec 94bc 225b adbc 7b4a 273c 9878 27bd
00000260: b366 c53c cb6b c63e 3b41 be3e bcc4 7bbd
00000270: fac4 d13e 3416 73bd f67e db3e 653d dc3e
00000280: 6607 22bd bcad bc3c 73c3 e33e 4d11 d03c
00000290: 71ff 8abd 08f4 483d 0c99 0c3d f22a 3abd
000002a0: 53a4 613c ae15 d83e a79c 343c 079d 61bc
000002b0: ba90 493d ceda 443d 6cdc a13e cd4c ed3e
000002c0: 34b4 5bbd f01e c8bc b355 123f 39cc 9dbd
000002d0: d1f2 9f3e 6d7e e83e 0817 cc3b 913f 8abc
000002e0: c924 023f 6ecc 4fba e1c4 d9bb aaf3 b53d
000002f0: 5d3f 7abb 121f 9b3e 425f 353f ddfc 693e
00000300: c7aa 873d 8ea6 de3e d537 c2bc 3ea3 f63e
00000310: 7d4a 21bb f3b6 1a3d 15ed 81bd 3eb6 19bb
00000320: c4fd 873e d2d4 9fbc 091f b2bb eba5 6fbd
00000330: b5e2 2b3d 7057 d63b fa14 dabb aab7 2f3d
00000340: 00c1 5cbd 70cf 313e 8bed 1ebd 827f a1bd
00000350: 7e10 35bd f7e8 813e 0631 403e d940 003d
00000360: 3f8d 663e 73e7 063f e4d2 8dbc 7435 e33e
00000370: e9f7 c23e c4c0 8bbd 79b1 e83e 16e1 66bd
00000380: 84df 473e 5392 5e3d b30d 8bbd e97c 66bd
00000390: 687f 9dbc 2fda 363c df16 593e b167 f539
000003a0: 4962 d93e f0bd 07be 76fb 35bc ac69 fd3e
000003b0: b381 56bd 3740 c6bd 96b4 dabc 29c6 e8bc
000003c0: dc98 193d 8c26 f5bc db2e 0bbd e593 babd
000003d0: 6dba b83e 1fc8 b63e 6de4 173f 4064 cebc
000003e0: be6b 9b3e 905c d43e 265a e43e c5b1 3f3e
000003f0: 99bd 0d3e 32be 26bd 41c2 993d 3c1d a33e

q.weight f4 [1, 256]
0.0063302894 0.003630756 -0.52530795 -0.025575984 -0.00921822 0.0030858233 -0.00059912045 -0.043355595
-3.5476685 -0.07752791 0.0042068223 -0.017433887 -1.4529668 0.0030735647 -0.0070434976 0.03468825
0.048134446 0.008866003 0.031773157 -0.00902297 0.004481059 -0.6900047 0.017551765 0.012764489
0.023057565 -0.007295279 -0.003835581 0.0031972192 0.02474546 0.040540263 0.039599866 0.0014147857
0.0026766816 -0.011620174 -0.11272617 -0.03556328 0.04958112 -0.31866917 -0.02560582 0.040685233
0.017447742 0.012696339 0.0044073774 -0.04786157 -0.04367155 -0.02345681 0.019539975 -0.047105115
-0.012502372 0.041208096 0.00069698674 -0.011634209 -0.11112562 -1.5984098 0.019404368 -0.016154787
-0.9804906 0.00031968264 -0.0046643834 -0.036807276 -0.07606804 -0.008319473 0.007598571 -0.014990161
0.01666311 0.028603978 0.021096583 0.0022583862 -0.031645827 0.0103815505 0.0069134496 -0.0025594148
-0.99499243 -0.066046305 -0.024826493 -0.00065756694 0.03508485 0.029130066 0.015387187 -0.058482997
-0.0042881756 -0.013463177 -0.13812065 0.005489815 5.4448195 0.009671331 0.051529944 0.048683394
-0.08821161 0.023850888 0.29545957 0.04628521 -0.00928667 -0.030089978 0.019666197 0.032915216
-0.011701261 0.03144648 -0.30103913 0.019278057 -0.017838491 0.043281827 0.005246459 0.0018310966
-0.042835202 -0.006956336 0.055506542 0.01330258 -0.9716048 -0.0027021097 -0.016540816 0.028727742
-0.032914583 0.021352451 0.01586475 5.724187 0.051500343 0.04250922 0.0033017127 -0.018282156
-0.06386191 -0.004689431 0.05450286 0.018992148 -0.009150091 -0.019391207 -0.03562093 0.042326063
0.05383567 -0.39121485 -1.2311534 -0.53613305 0.048699535 -0.06913911 -0.34715793 -0.034662932
0.04696082 -0.009670596 -0.5785977 0.049193908 -0.019256772 -0.021478875 0.017576233 -0.0179269
0.014502344 0.030651536 0.20483147 0.014158473 0.32519302 0.008705167 0.03683119 0.020786999
0.047514006 -0.017401611 -0.7857739 0.053354252 -0.018442718 -0.0073009985 -0.026238317 -0.030971026
0.047318395 0.0011722281 -1.1884657 0.039694857 0.004815998 0.0019870212 0.01802788 0.020319024
0.013805961 -0.061904624 0.0155432075 0.015571684 0.03185371 0.044038784 -0.021802524 -0.57859963
0.046181917 0.03570294 -0.3599853 0.021936875 -0.0032459304 -0.09277936 0.035672083 -0.03018474
-0.31422535 0.047919083 0.015000945 0.0013987842 -0.004666956 -0.0052140197 -0.41516438 -0.026615111
-4.5166955 -0.053918477 -0.030842908 -0.1017895 0.036854293 0.030577015 0.014550505 0.011422792
-0.005680103 0.05021322 0.0055415197 0.013947496 0.03814702 0.028629111 0.015799303 0.03289192
0.030473594 -0.0323058 -0.002320854 0.016259741 0.013930928 -0.011705741 -0.020804184 0.02670855
-0.010379365 -0.3819086 0.011189609 -0.05514959 -0.04994889 0.014000833 -0.7763437 0.03096064
-0.6555878 -0.050037798 0.026839571 0.0080798 -0.0012374371 0.029955987 -0.0272096 -0.027031777
-0.04931417 1.745165 0.024483081 -0.25150195 -0.0040047485 0.31060082 0.024620049 0.022143176
0.028976781 0.046662036 0.031209257 -0.027577406 -0.61285025 -0.014489397 -0.30527446 0.023574058
-1.5916716 -0.05303532 -0.02653275 0.0065749236 -0.003772198 0.025948446 0.0046355086 -0.04699303
00000000: 516e cf3b faf1 6d3b 957a 06bf ba84 d1bc
00000010: 0408 17bc 863b 4a3b 4b0e 1dba a395 31bd
00000020: 000d 63c0 f4c6 9ebd 62d9 893b 83d1 8ebc
00000030: d1fa b9bf dc6d 493b 24cd e6bb 4415 0e3d
00000040: a028 453d b642 113c 9224 023d 14d5 13bc
00000050: d9d5 923b 26a4 30bf b8c8 8f3c 2622 513c
00000060: 38e3 bc3c 3c0d efbb 5f5e 7bbb 7088 513b
00000070: feb6 ca3c 8c0d 263d 7833 223d 5570 b93a
00000080: 446b 2f3b 8b62 3ebc fadc e6bd cdaa 11bd
00000090: 9315 4b3d 9b28 a3be 4cc3 d1bc 8fa5 263d
000000a0: 91ee 8e3c 4e04 503c c36b 903b 7e0a 44bd
000000b0: f0e0 32bd 7f28 c0bc 4c12 a03c 4bf1 40bd
000000c0: c0d6 4cbc d2c9 283d fdb5 363a 699d 3ebc
000000d0: d495 e3bd b198 ccbf e9f5 9e3c 0b57 84bc
000000e0: 6f01 7bbf 149b a739 afd7 98bb 3ac3 16bd
000000f0: 90c9 9bbd 664e 08bc 6ffd f83b 4b99 75bc
00000100: 1381 883c e452 ea3c bed2 ac3c 6f01 143b
00000110: 0e9f 01bd 6117 2a3c 388a e23b dbbb 27bb
00000120: d3b7 7ebf 4943 87bd ee60 cbbc 9260 2cba
00000130: 22b5 0f3d 2da2 ee3c 8a1a 7c3c de8b 6fbd
00000140: d383 8cbb a894 5cbc 806f 0dbe e8e3 b33b
00000150: f63b ae40 8174 1e3c 1011 533d 3d68 473d
00000160: 4aa8 b4bd f062 c33c 7a46 973e 8f95 3d3d
00000170: 1e27 18bc 427f f6bc 011b a13c 1bd2 063d
00000180: a5b6 3fbc 06ce 003d cd21 9abe 04ed 9d3c
00000190: 0722 92bc 4948 313d 7dea ab3b 6801 f03a
000001a0: f773 2fbd faf1 e3bb d45a 633d 11f3 593c
000001b0: 18bb 78bf e115 31bb 9b80 87bc 7156 eb3c
000001c0: 71d1 06bd 56eb ae3c cbf6 813c 8a2c b740
000001d0: 06f2 523d 261e 2e3d 8c61 583b 76c4 95bc
000001e0: 08ca 82bd cca9 99bb 643e 5f3d 6c95 9b3c
000001f0: 43ea 15bc 4fda 9ebc 41e7 11bd 185e 2d3d
00000200: cb82 5c3d 504d c8be 6f96 9dbf 0440 09bf
00000210: 2a79 473d ce98 8dbd afbe b1be b8fa 0dbd
00000220: fd59 403d 6b71 1ebc fb1e 14bf 8d7f 493d
00000230: 61c0 9dbc 77f4 afbc 08fc 8f3c 6fdb 92bc
00000240: 3d9b 6d3c ee18 fb3c 57bf 513e f1f8 673c
00000250: b37f a63e 1ea0 0e3c 4ddc 163d 7f49 aa3c
00000260: 0c9e 423d d38d 8ebc 7a28 49bf fd89 5a3d
00000270: 2f15 97bc 373d efbb bdf1 d6bc f3b6 fdbc
00000280: efd0 413d 73a5 993a a51f 98bf 1397 223d
00000290: 85cf 9d3b af38 023b 34af 933c 1574 a63c
000002a0: 6632 623c b48f 7dbd f0a8 7e3c 6020 7f3c
000002b0: 0979 023d 0362 343d 359b b2bc 1b1f 14bf
000002c0: 4029 3d3d 3f3d 123d fe4f b8be f6b4 b33c
000002d0: adb9 54bb 1b03 bebd e41c 123d fd45 f7bc
000002e0: 25e2 a0be cd46 443d 86c6 753c 6957 b73a
000002f0: 44ed 98bb 5eda aabb 6d90 d4be ef07 dabc
00000300: c588 90c0 9fd9 5cbd 44aa fcbc 0377 d0bd
00000310: 87f4 163d a67c fa3c 3e65 6e3c aa26 3b3c
00000320: 2820 babb 61ac 4d3d a395 b53b 0a84 643c
00000330: 0d40 1c3d 9987 ea3c 8a6d 813c aeb9 063d
00000340: c2a3 f93c 1653 04bd 7819 18bb 2633 853c
00000350: 8c3e 643c 70c9 3fbc 896d aabc e4cb da3c
00000360: 360e 2abc 8689 c3be 9f54 373c 89e4 61bd
00000370: 3597 4cbd c063 653c 76be 46bf 2ba1 fd3c
00000380: 9ad4 27bf 6ff4 4cbd a9de db3c 2361 043c
00000390: 8031 a2ba 4266 f53c abe6 debc bf71 ddbc
000003a0: a8fd 49bd 9161 df3f be90 c83c ddc4 80be
000003b0: 443a 83bb 1207 9f3e fcaf c93c 9b65 b53c
000003c0: b760 ed3c b120 3f3d 8eaa ff3c 03ea e1bc
000003d0: c1e3 1cbf f064 6dbc ef4c 9cbe 621e c13c
000003e0: e5bb cbbf 903b 59bd 365b d9bc 7572 d73b
000003f0: fb36 77bb d691 d43c 77e5 973b c37b 40bd
