TD3/models/pendulum/00000500/critic_1.pth (torch, 271127 bytes, 5 tensors)

fc1.weight f4 [256, 4]
0.95693576 -0.7052777 0.19747882 -0.06045437 -0.46738082 -0.18743904 -0.09530251 -0.14867525
0.7180911 -1.6500876 -0.41384533 -0.061095994 -0.73311013 -0.3082559 -0.37989536 -0.15954229
-0.20528618 -1.025355 -0.25565138 0.28478083 -0.6266211 -0.66989446 -0.40315264 -0.003900993
-0.42917603 0.86696994 0.08961559 0.031913575 1.9588176 -0.4009448 -0.25388092 -0.09273557
1.0980686 1.0588375 0.39079294 0.07223118 0.75716496 0.5861582 -0.19455793 0.07428703
-0.6501284 -0.18619147 -0.36728957 0.057485428 0.6025505 -1.4968754 -0.35318843 -0.07512414
-0.27557784 0.37651053 0.25979754 0.1836661 0.5013627 0.8520953 0.22590154 0.1359689
0.2533258 -0.14194989 0.054908723 0.015476709 0.68240607 -2.3219285 -0.5562691 -0.04273876
1.0631112 0.08895598 0.22405708 0.26588506 -0.55719733 -0.88197446 -0.0012717665 -0.51542646
0.4660709 1.6780155 0.19309025 0.03388937 1.12821 -0.66556364 0.08060414 -0.0037793645
-0.92161703 1.2657139 -0.0053951754 0.117755726 -0.23160593 -0.9658559 -0.20192245 -0.031794928
0.10494284 0.17129973 -0.055162486 0.3777876 0.2697242 -1.4280131 -0.30532417 -0.06907293
1.1504664 1.3418082 0.43773243 0.033946276 0.38177568 0.36670622 -0.0052147224 0.0004846927
1.2171143 1.092374 0.4253356 0.06911742 1.1503028 -0.6091827 -0.3364018 -0.066509545
0.83687574 0.3429159 0.32737434 0.039699383 -0.061844602 1.2427092 0.29637313 0.03652056
0.11480927 -0.124988854 0.09268554 0.16218908 -0.059306897 -0.0024281575 -0.010482766 0.22285545
0.97424954 0.4485014 0.34370285 0.034372784 0.9828906 0.7060657 0.3439881 0.067838594
0.8378538 1.403441 0.3805684 0.09596649 0.43613964 -0.95154774 0.2663172 0.16096525
1.7741194 0.3151449 -0.07986362 -0.12449181 -0.044430148 -0.73307776 -0.0379011 -0.022839958
-0.74179363 0.95741904 0.25596568 0.055879124 -0.30295983 -0.742086 0.038107086 0.37691402
-0.2124129 0.34012207 -0.20979734 0.12462661 0.8014567 -0.31034893 -0.3424108 -0.06574991
0.5038685 1.4331251 0.3020637 0.048489347 -0.60019654 -1.2199962 -0.30501127 -0.017358188
0.40453166 -0.054320045 0.36466217 0.22367267 -0.53177434 -0.88780963 -0.1766189 -0.007843501
0.16396375 0.6422339 0.38489714 0.13171026 0.9308967 0.37482843 0.3599481 0.050089754
0.94881934 -1.4032645 -0.38181236 -0.08627025 -0.29674163 -1.0908979 -0.1427676 0.0337654
0.9144307 -0.70771456 -0.2970484 -0.055119447 0.019738754 -0.12674218 -0.020092143 0.050475627
-0.8436806 0.10302648 -0.09973293 -0.19900437 -0.11523937 -0.22174849 0.31653363 -0.015615441
-0.31024885 0.18236014 -0.12727427 -0.06971647 0.50575125 -1.3294216 -0.32271963 -0.036364555
-0.7320646 0.016181594 0.06532076 0.02543425 -0.420166 0.37975293 0.14230353 0.05708015
1.1315435 0.57441896 0.15684292 -0.019557606 -0.21703143 -0.10513779 -0.39336434 -0.16283841
-0.30388802 -0.44721562 -0.2825001 0.3810964 1.1055729 0.5652619 0.38701716 0.02242026
-0.1588332 1.5370678 0.2638776 0.04843151 -0.12911162 0.541437 -0.285347 0.029860348
00000000: bef9 743f 148d 34bf e337 4a3e 009f 77bd
00000010: 8a4c efbe 05f0 3fbe f62d c3bd 533e 18be
00000020: d1d4 373f 1236 d3bf 89e3 d3be cb3f 7abd
00000030: 1bad 3bbf b8d3 9dbe a581 c2be 0e5f 23be
00000040: 8a36 52be d53e 83bf bde4 82be cbce 913e
00000050: 3e6a 20bf 347e 2bbf 066a cebe cda7 7fbb
00000060: f6bc dbbe bef1 5d3f 6188 b73d cfb7 023d
00000070: 89ba fa3f a348 cdbe aefc 81be 26ec bdbd
00000080: 838d 8c3f fd87 873f 0316 c83e f1ed 933d
00000090: 90d5 413f 770e 163f 323a 47be cc23 983d
000000a0: d16e 26bf faa8 3ebe 610d bcbe d775 6b3d
000000b0: c040 1a3f 9d99 bfbf 1dd5 b4be afda 99bd
000000c0: 8a18 8dbe fdc5 c03e 2f04 853e f712 3c3e
000000d0: 4e59 003f eb22 5a3f bc52 673e 6e3b 0b3e
000000e0: ebb3 813e 505b 11be f8e7 603d 0692 7d3c
000000f0: 2ab2 2e3f 7a9a 14c0 a767 0ebf d70e 2fbd
00000100: 0714 883f 8e2e b63d 386f 653e 1622 883e
00000110: 7ca4 0ebf 14c9 61bf 67b1 a6ba fdf2 03bf
00000120: d8a0 ee3e 36c9 d63f 73b9 453e 94cf 0a3d
00000130: 2f69 903f 6162 2abf c913 a53d 37af 77bb
00000140: 18ef 6bbf ea02 a23f 03ca b0bb ea29 f13d
00000150: 1b2a 6dbe 5542 77bf c2c4 4ebe 663b 02bd
00000160: 46ec d63d 3269 2f3e 0ff2 61bd 606d c13e
00000170: 4a19 8a3e 22c9 b6bf 7353 9cbe 1c76 8dbd
00000180: 7c42 933f 5fc0 ab3f 771e e03e 400b 0b3d
00000190: 1a78 c33e ebc0 bb3e 43e0 aabb 5a1e fe39
000001a0: 67ca 9b3f e9d2 8b3f 96c5 d93e 6f8d 8d3d
000001b0: 1f3d 933f 66f3 1bbf db3c acbe 2836 88bd
000001c0: 7d3d 563f ac92 af3e 9c9d a73e d29b 223d
000001d0: c450 7dbd 1811 9f3f 38be 973e 9596 153d
000001e0: 1f21 eb3d 28fa ffbd ebd1 bd3d e514 263e
000001f0: caeb 72bd b921 1fbb e8bf 2bbc 3834 643e
00000200: 6b68 793f faa1 e53e d2f9 af3e 7aca 0c3d
00000210: b89e 7b3f b9c0 343f 351f b03e f6ee 8a3d
00000220: 967d 563f f4a3 b33f dcd9 c23e 148a c43d
00000230: b24d df3e a298 73bf ba5a 883e 13d4 243e
00000240: 5816 e33f ac5a a13e 8a8f a3bd 90f5 febd
00000250: 63fc 35bd fcaa 3bbf 2f3e 1bbd dd1a bbbc
00000260: 30e6 3dbf 6a19 753f ef0d 833e 82e1 643d
00000270: 8d1d 9bbe 59f9 3dbf 2d16 1c3d e0fa c03e
00000280: c482 59be 7b24 ae3e 1dd5 56be 3c3c ff3d
00000290: 442c 4d3f 0ee6 9ebe 7850 afbe e4a7 86bd
000002a0: 87fd 003f a570 b73f 18a8 9a3e c49c 463d
000002b0: 7ba6 19bf d628 9cbf 702a 9cbe c232 8ebc
000002c0: c61e cf3e b27e 5ebd 00b5 ba3e 730a 653e
000002d0: 5d22 08bf 7e47 63bf 96db 34be 0782 00bc
000002e0: 1de6 273e 7169 243f 3d11 c53e 0edf 063e
000002f0: 3f4f 6e3f 83e9 bf3e 1e4b b83e ea2a 4d3d
00000300: d3e5 723f 2c9e b3bf e97c c3be 75ae b0bd
00000310: 85ee 97be 8ba2 8bbf ab31 12be 974d 0a3d
00000320: 2118 6a3f c82c 35bf ba16 98be eec4 61bd
00000330: 2bb3 a13c b4c8 01be 4798 a4bc 88bf 4e3d
00000340: 74fb 57bf 8cff d23d c740 ccbd cdc7 4bbe
00000350: 9e02 ecbd 0912 63be b210 a23e e8d7 7fbc
00000360: f0d8 9ebe 9ebc 3a3e 3054 02be 82c7 8ebd
00000370: ea78 013f 7d2a aabf 823b a5be 00f3 14bd
00000380: 9668 3bbf 438f 843c e4c6 853d 7d5b d03c
00000390: ff1f d7be fa6e c23e 04b8 113e e0cc 693d
000003a0: 6bd6 903f 1f0d 133f 6e9b 203e 4637 a0bc
000003b0: 7d3d 5ebe 7b52 d7bd 0d67 c9be 1dbf 26be
000003c0: 3697 9bbe 72f9 e4be daa3 90be 111f c33e
000003d0: 6a83 8d3f 01b5 103f 1d27 c63e b1aa b73c
000003e0: 2ca5 22be a3be c43f f71a 873e 1e60 463d
000003f0: d635 04be 9d9b 0a3f 0119 92be b09d f43c

fc1.bias f4 [256]
-0.45524547 0.59229636 -0.46803337 -0.7881587 -0.8036179 -0.5695049 0.499789 -0.402671
-0.9317073 -0.52708757 -0.6394107 -0.75342524 -0.60447437 0.112351514 0.21418627 -0.17303789
0.0029221955 -0.17817056 -0.5766337 0.32351983 -0.23142442 -0.47210282 -0.3037778 -0.3991701
-0.8659763 -0.29238218 -1.0575435 -0.91741204 -1.2657307 -0.17951228 0.4296363 0.7041893
-1.2143502 -1.0448092 -0.5803797 0.36780152 0.06266844 0.2752103 0.33195335 0.5674501
-0.9913007 -1.3835212 -0.70592195 0.3964711 -0.92017037 0.40188405 -0.93937826 -1.3962779
-0.52979904 0.15817544 -0.78526044 0.56586564 0.5940859 -1.2198062 0.91986513 -0.29783058
0.17986178 0.33319247 -0.5890969 -0.33947673 -0.72120506 -1.307659 -0.23162293 -1.0965722
-0.1288862 -0.6727216 0.47932288 0.28303868 0.67386055 -0.8659437 -0.2580435 -0.442247
-0.47626978 0.38837796 0.7698317 0.8951467 0.4615167 -0.059125297 0.43084538 -0.2379598
-0.38567138 -0.77223974 -0.584909 0.6735618 0.3259712 0.44230518 -1.0024675 -0.22239344
0.88286096 -0.6009578 0.39141798 0.45236856 -0.9010554 0.5200983 0.7455959 -0.61069596
0.60987157 0.48375702 -1.6644207 -0.98610526 -0.41281748 -0.31889993 -1.1064717 -0.47810015
0.5092426 -0.6288227 0.050611418 -0.096905835 -0.2217836 -0.32515925 -0.5305127 -0.79692054
0.6121831 -0.10896207 0.66682553 0.029369455 -0.1645762 -0.23810183 -0.8095756 -0.047251917
0.5324207 -0.6773443 -0.2301564 -1.653979 -0.41617924 -0.70508176 -0.84824735 0.15840606
0.7532757 -0.15736681 0.2085206 0.22013676 -0.31244588 0.5424809 -0.048096206 0.54660153
0.6337844 -0.8104692 0.13903297 0.093218975 0.32911012 -1.110928 0.08279879 -0.527998
-0.83841383 0.19516788 -0.3873458 -1.0410641 -0.47519475 0.32252273 -0.59009725 -0.8279924
0.6614462 0.13990843 1.0356897 -0.37685505 -0.3017209 0.07008852 -1.6589463 -1.154206
0.052357692 -0.6519945 0.53216934 0.10131314 0.6608497 -0.8327769 -1.0421542 -0.60901517
-0.15652351 -1.5533074 -1.6540937 0.0098453425 -0.3186967 -0.99697185 -0.49420273 -0.7180599
0.4535932 0.7115538 0.38576245 -0.18683356 0.10613334 -0.97144693 -0.44740918 0.33067632
-1.233493 -0.79564756 0.7382625 0.7416793 -0.99371654 -0.5056494 -0.5755868 -1.1628053
-0.32315984 -0.77117723 -0.17153852 0.16061704 -0.6326032 0.3464784 -0.49371648 0.1546012
-0.33688003 -0.36778694 0.5426952 0.93839157 0.78069043 -0.2988197 -0.36220536 -0.58016706
0.439245 -0.4112919 -0.46796182 0.43672308 -0.21647948 -0.35855418 -0.9103949 -0.078841574
0.7700304 -1.0145524 0.14567862 -0.79759675 -0.89192253 -0.4842663 -0.6240427 -0.12511866
0.17752112 0.51119673 -0.96789515 -1.1980772 -0.23860833 -0.121349186 -0.32044482 0.65542525
0.82711416 -0.40628168 0.7911808 -0.18301225 0.28781536 0.09153911 -0.21977283 -1.5212399
-1.0144967 0.39439127 -0.68756896 0.22401676 -1.2301935 -0.6507397 0.46645546 -1.4053426
-1.3105749 0.025378335 -1.0641905 -0.81093705 -0.09538268 -0.28264835 -0.86477536 0.42394567
00000000: ef15 e9be bca0 173f 12a2 efbe c5c4 49bf
00000010: e7b9 4dbf 13cb 11bf 58e4 ff3e e52a cebe
00000020: 5f84 6ebf 36ef 06bf 6bb0 23bf 7ae0 40bf
00000030: d5be 1abf 8d18 e63d a553 5b3e d830 31be
00000040: 4e82 3f3b 5872 36be 449e 13bf 64a4 a53e
00000050: 86fa 6cbe 76b7 f1be c488 9bbe 0660 ccbe
00000060: 9fb0 5dbf 1eb3 95be 965d 87bf 84db 6abf
00000070: 7703 a2bf 11d2 37be 4af9 db3e c045 343f
00000080: d46f 9bbf 4fbc 85bf c493 14bf 7b50 bc3e
00000090: 5058 803d 5de8 8c3e caf5 a93e 6944 113f
000000a0: e2c5 7dbf 3917 b1bf 4db7 34bf 43fe ca3e
000000b0: 4990 6bbf bfc3 cd3e 187b 70bf 3cb9 b2bf
000000c0: e9a0 07bf bef8 213e d406 49bf 92dc 103f
000000d0: 0316 183f 9c22 9cbf 487c 6b3f 407d 98be
000000e0: b02d 383e 3498 aa3e 0ecf 16bf e5cf adbe
000000f0: e5a0 38bf 5f61 a7bf 902e 6dbe 7a5c 8cbf
00000100: befa 03be 7c37 2cbf cf69 f53e 72ea 903e
00000110: 2082 2c3f 7cae 5dbf 471e 84be 336e e2be
00000120: a2d9 f3be 7ad9 c63e b113 453f 5628 653f
00000130: eb4b ec3e 5e2d 72bd c497 dc3e bcab 73be
00000140: b876 c5be 81b1 45bf 99bc 15bf 8c6e 2c3f
00000150: b2e5 a63e d375 e23e db50 80bf 1bbb 63be
00000160: 2d03 623f 5fd8 19bf f067 c83e da9c e73e
00000170: 91ab 66bf 2a25 053f 5fdf 3e3f 9256 1cbf
00000180: 8b20 1c3f 00af f73e bd0b d5bf 6571 7cbf
00000190: d05c d3be da46 a3be dda0 8dbf 8bc9 f4be
000001a0: b95d 023f 86fa 20bf eb4d 4f3d 9176 c6bd
000001b0: 3d1b 63be 467b a6be aecf 07bf fc02 4cbf
000001c0: 08b8 1c3f 8127 dfbd 14b5 2a3f 3698 f03c
000001d0: aa86 28be f7d0 73be 5940 4fbf 3a8b 41bd
000001e0: b94c 083f 7066 2dbf 1fae 6bbe 95b5 d3bf
000001f0: 7215 d5be 3d80 34bf bd26 59bf 3335 223e
00000200: add6 403f c424 21be 6d86 553e 886b 613e
00000210: e8f8 9fbe 07e0 0a3f 8700 45bd 14ee 0b3f
00000220: b23f 223f e97a 4fbf a95e 0e3e 97e9 be3d
00000230: 1f81 a83e e432 8ebf 6992 a93d e02a 07bf
00000240: 4aa2 56bf 17da 473e 3052 c6be 9741 85bf
00000250: ba4c f3be b321 a53e 9d10 17bf 4ff7 53bf
00000260: 8a54 293f 2844 0f3e 7b91 843f 25f3 c0be
00000270: 297b 9abe 928a 8f3d 5a58 d4bf 06bd 93bf
00000280: 0575 563d 1de9 26bf 403c 083f 437d cf3d
00000290: 722d 293f de30 55bf 4f65 85bf 6be8 1bbf
000002a0: b347 20be c7d2 c6bf 58b9 d3bf 5c4e 213c
000002b0: 372c a3be 8c39 7fbf 2408 fdbe c6d2 37bf
000002c0: 5e3d e83e 6428 363f a882 c53e 4c51 3fbe
000002d0: 705c d93d bfb0 78bf d112 e5be 684e a93e
000002e0: 19e3 9dbf 8faf 4bbf c5fe 3c3f b2de 3d3f
000002f0: 3564 7ebf 3d72 01bf a859 13bf ced6 94bf
00000300: 3575 a5be df6b 45bf cba7 2fbe cb78 243e
00000310: 49f2 21bf 9e65 b13e 68c8 fcbe c74f 1e3e
00000320: 8a7b acbe 924e bcbe 13ee 0a3f 6e3a 703f
00000330: 54db 473f e5fe 98be fb72 b9be d485 14bf
00000340: b8e4 e03e da94 d2be b198 efbe 2b9a df3e
00000350: ccac 5dbe 6a94 b7be a40f 69bf b177 a1bd
00000360: b620 453f dadc 81bf c72c 153e 4d2f 4cbf
00000370: 0955 64bf c1f1 f7be 43c1 1fbf 1b1f 00be
00000380: 19c8 353e cadd 023f fac7 77bf 985a 99bf
00000390: be55 74be ec85 f8bd 5811 a4be f3c9 273f
000003a0: c1bd 533f 2704 d0be d38a 4a3f 9067 3bbe
000003b0: 895c 933e db78 bb3d 210c 61be fdb7 c2bf
000003c0: 07db 81bf a7ed c93e 8504 30bf a664 653e
000003d0: fb76 9dbf e196 26bf 40d3 ee3e 44e2 b3bf
000003e0: ebc0 a7bf 3ae6 cf3c 6537 88bf 9299 4fbf
000003f0: ff57 c3bd 49b7 90be eb61 5dbf 680f d93e

fc2.weight f4 [256, 256]
-0.054379098 -0.00043582323 0.03289909 0.04661487 -0.059584837 -0.053642858 0.010779983 0.050313696
-0.026329592 -0.058986396 0.027478099 0.02490071 -0.042462885 -0.016159493 0.025965553 3.491152e-05
-0.023083309 0.03639295 -0.059946246 0.037826892 -0.03822393 -0.055495203 -0.009463814 -0.058648504
-0.035689265 -0.06510757 0.060182936 -0.0020731613 0.049018607 -0.05790911 -0.029643264 -0.027988888
-0.034601413 -0.04685819 -0.037761632 -0.022196295 -0.02566787 0.05254343 0.059704915 -0.0074518197
-0.04276719 -0.057525273 -0.03676512 0.0048459126 -0.056034878 -0.021452568 0.056859992 -0.053123087
0.017285408 -0.062302113 -0.00020108777 0.03738372 -0.03720074 -0.03921829 -0.041064423 -0.031374272
0.018768905 -0.055934764 0.01169743 -0.031192925 -0.043737907 -0.014655866 -0.033298165 -0.03893898
0.016768241 -0.028763918 0.046930525 -0.003188669 0.054013267 -0.06466903 0.03508511 0.0144829275
0.04166718 0.03944423 0.048106283 -0.070530154 -0.010277046 0.052392606 -0.046712674 0.013965026
-0.014026016 -0.019391023 -0.06848281 -0.044288676 -0.0706849 -0.03813649 -0.02933765 0.013701722
-0.029502036 0.047176722 -0.012997119 -0.06958805 0.0045999093 -0.032105576 0.005193227 0.003154362
-0.0037123316 0.0031116337 0.00243558 -0.04892441 0.0010844014 0.025252618 -0.055044763 -0.061802812
-0.03899329 -0.054692123 -0.012019411 0.007244324 -0.025495447 0.061795816 0.040058754 0.060265474
-0.057311542 -0.059666812 -0.06786441 0.017570196 -0.043556593 -0.05488915 0.015228764 0.046500508
-0.019529412 -0.013046896 -0.007705045 -0.045437165 -0.0043356833 -0.011414301 -0.009755007 -0.015370001
0.0025332402 -0.037655592 -0.026765205 0.023411708 -0.009467819 0.0047950367 0.005471888 -0.05979873
-0.040905423 0.029216584 0.0327671 -0.034274623 0.0051901494 -0.013090588 -0.03764679 0.053169154
-0.01283589 -0.012499731 -0.0053334236 0.029052157 -0.03163809 -0.03194362 0.031090397 0.038306136
-0.027051706 -0.054952923 -0.044226747 -0.05591833 0.013662456 0.01079737 -0.0022072867 -0.0010819617
-0.013761012 0.055826336 -0.030963356 -0.008916074 -0.0071203206 0.045462575 -0.059642754 -0.014878646
0.009755479 -0.006620437 -0.027843475 0.011841306 -0.03158884 0.02784656 -0.010573804 -0.062436406
-0.062976696 0.010649064 0.024069918 -0.02074911 -0.011291833 0.0512421 0.029821321 -0.02300638
-0.026344262 -0.06713146 0.028247127 0.007359017 -0.02457583 0.04512679 0.008551723 0.019173263
-0.066214375 0.034814592 -0.007955347 0.0035276688 0.061362036 0.03524845 -0.067618735 -0.052451815
0.050165437 -0.0026727815 0.0059377193 -0.06700712 -0.06394583 0.018938318 0.059168205 0.0013093548
-0.029173462 0.018848523 -0.046857297 0.015467109 -0.058530025 0.015677111 -0.005647195 0.022910109
-0.05015239 -0.047369353 0.037936747 -0.02548948 0.018243903 0.030001808 0.017437823 0.03933762
-0.059979316 -0.008812869 -0.05941107 -0.030534066 -0.025153676 -0.04128302 -0.035003643 0.018732158
0.02608339 -0.049267557 -0.03831161 0.033345368 0.014289321 -0.06891327 -0.006315388 -0.05492905
0.01939977 0.030784419 -0.014520786 -0.00097398984 0.014922065 -0.061576 0.009718198 -0.0051850607
-0.06572295 -0.02791592 -0.032008503 -0.026354305 0.011952806 0.008797751 0.03847675 0.05538135
00000000: 9ebc 5ebd 347f e4b9 32c1 063d 3cef 3e3d
00000010: 3b0f 74bd 9db8 5bbd 879e 303c bc15 4e3d
00000020: 28b1 d7bc b89b 71bd c019 e13c 93fc cb3c
00000030: 90ed 2dbd ea60 84bc b6b5 d43c f66d 1238
00000040: 3519 bdbc c610 153d 328a 75bd 5ff0 1a3d
00000050: b290 1cbd f04e 63bd 1d0e 1bbc 6a39 70bd
00000060: e82e 12bd 1e57 85bd 6282 763d e0dd 07bb
00000070: bcc7 483d 1a32 6dbd 6ed6 f2bc f448 e5bc
00000080: 36ba 0dbd 60ee 3fbd f1ab 1abd 01d5 b5bc
00000090: 6d45 d2bc c837 573d 248d 743d 652e f4bb
000000a0: a62c 2fbd 9f9f 6bbd 0697 16bd 76ca 9e3b
000000b0: d484 65bd 4cbd afbc 06e6 683d 9897 59bd
000000c0: 219a 8d3c 8030 7fbd 16db 52b9 ac1f 193d
000000d0: ce5f 18bd 5ca3 20bd 2b33 28bd 4f82 00bd
000000e0: 3fc1 993c da1b 65bd 94a6 3f3c 4e88 ffbc
000000f0: 8526 33bd 281f 70bc a863 08bd 7b7e 1fbd
00000100: 8d5d 893c 4fa2 ebbc 393a 403d fdf8 50bb
00000110: 043d 5d3d 3271 84bd 68b5 0f3d cd49 6d3c
00000120: 34ab 2a3d 4690 213d 180b 453d 1d72 90bd
00000130: 0e61 28bc a199 563d ca55 3fbd 90cd 643c
00000140: 60cd 65bc ecd9 9ebc b740 8cbd 0b68 35bd
00000150: 3fc3 90bd 0235 1cbd 8355 f0bc 307d 603c
00000160: 41ae f1bc 613c 413d def1 54bc 2e84 8ebd
00000170: d6ba 963b 2381 03bd f22b aa3b 6ab9 4e3b
00000180: 974a 73bb 8dec 4b3b 409e 1f3b f664 48bd
00000190: 7922 8e3a 94de ce3c 9e76 61bd f224 7dbd
000001a0: 6eb7 1fbd d904 60bd 10ed 44bc cb61 ed3b
000001b0: d4db d0bc 9c1d 7d3d a614 243d eed8 763d
000001c0: 82bf 6abd 3065 74bd 7ffc 8abd 5fef 8f3c
000001d0: 6668 32bd 72d3 60bd 1182 793c 5177 3e3d
000001e0: 25fc 9fbc a6c2 55bc 9a7a fcbb 521c 3abd
000001f0: 5912 8ebb 0c03 3bbc 77d3 1fbc 75d2 7bbc
00000200: b804 263b c03c 1abd b442 dbbc e9c9 bf3c
00000210: e91e 1bbc af1f 9d3b 864d b33b 83ef 74bd
00000220: 728c 27bd 9e57 ef3c cb36 063d 8c63 0cbd
00000230: 2112 aa3b e879 56bc 8533 1abd e6c7 593d
00000240: a04d 52bc accb 4cbc 00c4 aebb cafe ed3c
00000250: f196 01bd 50d7 02bd 4ab1 fe3c e5e6 1c3d
00000260: 8a9b ddbc 5116 61bd 1b27 35bd 9e0a 65bd
00000270: 7ed8 5f3c 74e7 303c 20a8 10bb 9cd0 8dba
00000280: de75 61bc 28aa 643d dda6 fdbc ba14 12bc
00000290: 9451 e9bb f736 3a3d f64b 74bd 90c5 73bc
000002a0: 72d5 1f3c 40f0 d8bb 0018 e4bc 0a02 423c
000002b0: 4d63 01bd 781e e43c c03d 2dbc 51bd 7fbd
000002c0: edf9 80bd 6979 2e3c 472e c53c 0afa a9bc
000002d0: 6101 39bc 3ce3 513d d84b f43c e077 bcbc
000002e0: eccf d7bc 387c 89bd 8566 e73c e923 f13b
000002f0: 4053 c9bc ded6 383d 871c 0c3c 3f11 9d3c
00000300: 679b 87bd bf99 0e3d 2557 02bc 7630 673b
00000310: c256 7b3d ae60 103d b17b 8abd b7d7 56bd
00000320: 467a 4d3d d529 2fbb 3391 c23b 073b 89bd
00000330: 08f6 82bd 8824 9b3c 5c5a 723d a89e ab3a
00000340: 2ffd eebc 3868 9a3c 70ed 3fbd c269 7d3c
00000350: 2ebd 6fbd 496d 803c 1b0c b9bb fbad bb3c
00000360: 986c 4dbd 5e06 42bd 9063 1b3d 50cf d0bc
00000370: 3d74 953c 5ac6 f53c c4d9 8e3c 7c20 213d
00000380: dfac 75bd da63 10bc 0659 73bd 9422 fabc
00000390: 150f cebc 6218 29bd fb5f 0fbd 2f74 993c
000003a0: d5ac d53c c7cc 49bd a3ec 1cbd 2795 083d
000003b0: c21d 6a3c 6722 8dbd 50f1 cebb 49fd 60bd
000003c0: 44ec 9e3c 9b2f fc3c 97e8 6dbc 5a53 7fba
000003d0: ad7b 743c 1e37 7cbd 1439 1f3c 71e7 a9bb
000003e0: c199 86bd edaf e4bc 591b 03bd fce4 d7bc
000003f0: b4d5 433c 7124 103c cc99 1d3d 8ed7 623d

fc2.bias f4 [256]
0.028043272 0.048738662 0.19360049 -0.03359001 0.4799747 0.017580468 0.03762718 -0.06130679
0.37660417 -0.046335436 0.48194793 0.5615642 -0.06518074 0.043528154 0.5592589 0.018667359
-0.09721969 0.5075867 0.039517116 -0.020460555 0.13388647 0.16809991 0.3191857 -0.075429775
0.5367588 0.4286327 0.1532404 0.33007985 0.059929963 0.39072743 -0.07439721 -0.07287688
0.12504283 0.21503857 -0.06457416 -0.059052065 0.083016776 0.44471857 -0.070081174 0.044179287
-0.0060118334 -0.007010017 0.44940582 0.12899941 -0.02685491 0.016659891 -0.054717384 -0.002054569
0.00087666366 0.06816292 -0.005334303 0.47736657 -0.051014546 -0.05111963 -0.06006416 -0.10299041
0.36877108 0.05739946 0.16264524 0.15403695 0.18980084 -0.0049510477 -0.06872305 0.022779766
-0.043156523 0.010870149 0.21704946 0.22112043 0.65451974 0.24827294 0.1774343 0.052266568
-0.06844885 0.4420972 0.55623305 -0.042610303 0.18415248 0.22244711 0.49315026 0.13462058
0.19430125 0.009196123 -0.09411543 -0.0032128189 -0.06294788 0.26714844 0.094921604 0.13460733
0.03447357 0.74016535 -0.009415326 0.045900926 -0.060171902 0.13497095 0.18661298 0.37592882
-0.029228201 0.1358202 0.12821367 0.3967454 0.021235764 0.46435544 0.16458973 0.23387168
0.044104073 0.14698525 0.1876229 -0.0484284 0.56965435 0.44250593 0.8876115 0.21136227
0.14011733 0.06857484 0.16496606 0.47885963 0.12540448 -0.05359135 0.12703975 0.02748204
0.16920416 -0.012055708 0.024856439 0.011956701 0.06477251 -0.036890693 0.26053023 0.12484144
0.105604306 0.19348861 0.23634973 -0.012990412 0.06618565 -0.061492156 -0.0033832649 0.01670636
0.46396497 0.14748986 0.087990664 -0.05351741 0.011026402 0.1778762 0.04633829 0.46751955
0.1673007 0.03565854 0.016571632 0.028893387 -0.091971435 0.024097592 0.43185267 0.021640437
-0.075807124 -0.013723668 0.17323133 0.2118233 0.6592106 0.048680417 -0.0329822 0.03522596
0.18018591 0.4171623 0.2173356 0.4680698 0.272325 -0.015608734 0.62257767 -0.027950773
0.030521842 0.049560104 0.025746236 0.038857076 0.41581538 0.019729687 0.42739165 0.16501237
0.0047436166 -0.016984018 -0.06827027 -0.037926324 0.13529223 0.07183985 0.047166135 -0.014599943
-0.010263128 0.29091534 -0.027783368 0.42552453 -0.045226257 -0.0021433048 -0.042794377 0.39497846
-0.2529886 0.15912433 -0.020423606 -0.006464992 0.57186157 0.12753041 0.47491682 0.18371996
0.21788727 0.007809019 0.18016107 -0.043423306 0.1907946 0.11711403 0.10273542 0.23114325
-0.034614038 -0.06548504 -0.03318777 0.25764233 -0.008773892 0.02785999 0.17657141 0.2220626
0.23170058 0.23128293 0.21544217 0.047002636 0.6127534 0.21233362 -0.030912036 0.17337017
0.005251259 -0.031214971 0.4548677 -0.05331594 0.0007053095 0.021547096 0.008952635 0.22021404
0.147575 0.23021899 0.2279638 -0.054114375 0.019389775 0.2099013 0.20954962 0.49127135
0.31158763 0.53972256 -0.030441884 0.107924104 0.07395778 0.121659756 -0.017825823 0.04070024
0.12882456 0.14832002 0.143373 0.18576247 0.015202353 -0.053876754 -0.011733915 0.15703014
00000000: 01bb e53c 31a2 473d 353f 463e ae95 09bd
00000010: 3ebf f53e ea04 903c f51e 1a3d d41c 7bbd
00000020: 43d2 c03e 3aca 3dbd e1c1 f63e acc2 0f3f
00000030: 7b7d 85bd 944a 323d 972b 0f3f 4aec 983c
00000040: 1e1b c7bd 34f1 013f b3dc 213d e59c a7bc
00000050: 8919 093e 6222 2c3e 4f6c a33e ed7a 9abd
00000060: 0669 093f bf75 db3e 0deb 1c3e 3a00 a93e
00000070: 1f79 753d 6d0d c83e 905d 98bd 7940 95bd
00000080: 3a0b 003e 1233 5c3e 753f 84bd 94e0 71bd
00000090: b304 aa3d 27b2 e33e b886 8fbd 57f5 343d
000000a0: eafe c4bb 49b4 e5bb 8518 e63e 6c18 043e
000000b0: d4fe dbbc 537a 883c 561f 60bd f3a5 06bb
000000c0: e7cf 653a 0099 8b3d 60cb aebb 6469 f43e
000000d0: a1f4 50bd d162 51bd d605 76bd a3ec d2bd
000000e0: 90cf bc3e b21b 6b3d 798c 263e ddbb 1d3e
000000f0: 275b 423e 663c a2bb acbe 8cbd a29c ba3c
00000100: e5c4 30bd b618 323c 3742 5e3e 656d 623e
00000110: 9b8e 273f 433b 7e3e 56b1 353e 7815 563d
00000120: e92e 8cbd 905a e23e 4a65 0e3f 2488 2ebd
00000130: 7892 3c3e 2dc9 633e 317e fc3e fad9 093e
00000140: e8f6 463e 56ab 163c 97bf c0bd 288e 52bb
00000150: d1ea 80bd aec7 883e 4266 c23d 81d6 093e
00000160: 2834 0d3d 7a7b 3d3f bd42 1abc 9c02 3c3d
00000170: d076 76bd d335 0a3e 7917 3f3e be79 c03e
00000180: fb6f efbc 7314 0b3e 724a 033e 3722 cb3e
00000190: a0f6 ad3c ffbf ed3e 368a 283e 0f7c 6f3e
000001a0: 79a6 343d 4d83 163e 3820 403e dc5c 46bd
000001b0: ded4 113f 2390 e23e 823a 633f 5a6f 583e
000001c0: eb7a 0f3e f770 8c3d ddec 283e 172d f53e
000001d0: 086a 003e 9a82 5bbd b516 023e 0422 e13c
000001e0: db43 2d3e 4e85 45bc bb9f cb3c 0ae6 433c
000001f0: 73a7 843d b21a 17bd 3864 853e deac ff3d
00000200: 1247 d83d e121 463e aa05 723e bdd5 54bc
00000210: 588c 873d 33df 7bbd c4b9 5dbb c7db 883c
00000220: d18c ed3e 9507 173e 7334 b43d 1235 5bbd
00000230: 15a8 343c 2e25 363e 38cd 3d3d b95e ef3e
00000240: e050 2b3e b00e 123d 3bc1 873c d3b1 ec3c
00000250: 855b bcbd 5068 c53c cb1b dd3e 4947 b13c
00000260: c440 9bbd 3cd9 60bc 8e63 313e 35e8 583e
00000270: 07c2 283f 1e65 473d 5818 07bd 1949 103d
00000280: a882 383e 4c96 d53e 398d 5e3e d8a6 ef3e
00000290: 2f6e 8b3e c7bb 7fbc 4061 1f3f 05f9 e4bc
000002a0: f108 fa3c 89ff 4a3d c5e9 d23c 9928 1f3d
000002b0: c1e5 d43e 27a0 a13c 14d3 da3e 01f9 283e
000002c0: 5770 9b3b 1122 8bbc 49d1 8bbd a258 1bbd
000002d0: 0c8a 0a3e c520 933d 4731 413d 9934 6fbc
000002e0: ae26 28bc dbf2 943e f299 e3bc 5ade d93e
000002f0: 2b3f 39bd b076 0cbb 2849 2fbd 9e3a ca3e
00000300: b987 81be 7df1 223e 684f a7bc 49d8 d3bb
00000310: 8565 123f 5597 023e 4c28 f33e 1621 3c3e
00000320: d71d 5f3e cde2 ff3b 257c 383e a3dc 31bd
00000330: a95f 433e 7bd9 ef3d f366 d23d d1b0 6c3e
00000340: 73c7 0dbd 051d 86bd e6ef 07bd b2e9 833e
00000350: 5fc0 0fbc a23a e43c 23cf 343e 6164 633e
00000360: eb42 6d3e 6fd5 6c3e df9c 5c3e d685 403d
00000370: 68dd 1c3f fc6d 593e 3d3b fdbc f387 313e
00000380: c112 ac3b 8ab6 ffbc 6be4 e83e d161 5abd
00000390: 85e4 383a 8983 b03c 13ae 123c ca7f 613e
000003a0: e71d 173e 87be 6b3e 586f 693e 09a7 5dbd
000003b0: 4ed7 9e3c 5ef0 563e 2d94 563e eb87 fb3e
000003c0: 6a88 9f3e 422b 0a3f 4261 f9bc 5007 dd3d
000003d0: 2d77 973d c028 f93d 7607 92bc 4bb5 263d
000003e0: 96ea 033e 34e1 173e 5fd0 123e 8438 3e3e
000003f0: 4a13 793c dfad 5cbd 9b3f 40bc 82cc 203e

q.weight f4 [1, 256]
-0.0034210926 -0.005768788 0.0010908805 0.004941347 -0.93205065 0.046933234 0.015010289 0.009851401
-1.129949 0.00063734007 -0.33252585 -1.098066 0.01924861 0.020038012 -0.098859124 0.0034320964
0.008398241 -0.4327832 0.030843372 0.0290126 0.016701134 0.0066550714 -0.78966767 0.020558698
-0.15018077 -0.3595824 -0.023521097 -0.5512143 4.238731 -0.9506885 -0.021031352 -0.011919534
-3.9158125 -0.0011741858 0.051059946 0.04436013 0.0008701999 -0.06567234 -0.00029980417 0.01754848
-1.1266906 -1.2965809 -0.08133927 0.012901991 0.04943157 0.020614993 0.04720898 0.037105054
0.02459687 -0.0041053444 -0.0053334697 -0.16773565 0.027153526 -0.0020328604 -0.008328581 0.024115685
-0.027887415 0.0010558814 0.00013845945 0.024981743 -0.0440818 0.00069551624 0.020377092 0.025304893
0.010430496 0.035189465 0.00094605016 5.488505 -0.080019504 0.36643603 0.0034408635 0.05174906
0.026799757 -0.898519 -0.38698563 -0.0017633357 0.00017972509 0.0007484238 -0.30655554 0.0015861166
0.02549834 0.024438445 0.009962392 0.0022065656 0.0021084985 -0.0449123 -0.58076954 -0.005229325
0.0054961103 -0.80959725 0.03285395 0.05299479 -0.006348963 0.0011439625 0.004657894 -1.3501183
0.013346142 0.0011449168 -0.014783067 -0.58408237 0.0010698714 -0.3313964 -0.0012667677 -0.005471644
0.0034017947 0.0004231846 -0.0010431648 0.015994543 -0.7970197 -0.25378522 -0.69710535 0.005552518
0.03142547 0.012969265 -0.0022945795 -0.20299004 -0.0010448885 -0.027366782 -0.001798992 -0.00080897263
0.0065028793 -0.0006807334 0.013747973 0.0068506068 1.1833684 -0.010357716 0.41199276 0.0019385517
-0.014802821 0.0010728468 0.3944141 0.041920643 -1.9145176 -0.0060860678 0.00070241385 0.038541727
-1.0943589 0.02819388 -0.021599546 0.015665563 0.013761397 -0.02427187 0.051387347 -0.35376218
-0.50738174 0.012530337 0.007298942 0.039541647 -0.012709193 0.02777809 -0.71424234 -0.0014764746
0.03768943 -0.0055393376 0.0018677018 -0.0017072208 -0.78223825 0.030670762 0.025144598 0.01100218
-0.00013054529 -0.40269235 -0.0010149688 -0.33628106 0.34694776 -0.028451698 -0.08015044 -0.00078694697
0.0051330784 -3.0040016 0.041598607 0.008613466 -0.41143107 0.035683688 -0.53139603 0.0014091317
0.047440995 0.017426906 0.036333635 -0.028702663 -0.0025250237 0.86449355 0.035834763 0.0016458598
-0.0055350647 -0.5221579 0.02398547 -0.6924965 0.031113718 -0.0071920333 0.037972905 -1.4003968
0.9508808 -0.0022212267 0.021908514 0.033147376 -0.3570741 -1.970543 -0.07802396 0.0016916483
-0.0018279583 0.041590538 0.02086076 0.029206734 0.004575119 -0.0007428238 0.01302451 0.38514596
-0.021661075 0.0058717956 0.04386731 -0.36955982 0.021671465 0.046380177 0.43451974 0.002565416
0.43123427 -0.43366078 0.17806877 0.032878093 -0.16544761 -1.0381037 0.04884107 0.0003524992
0.0018985841 -0.0022146124 -0.08876733 0.004639726 0.013132982 0.011783318 0.013318919 -0.0015612548
0.028382074 0.0013097181 0.0005318341 0.043111324 0.002523751 -0.018464465 0.35517055 -0.48398918
-0.89662737 -0.6404384 0.02736389 0.029571198 -0.8982036 -0.0058545778 0.010041867 -0.002306617
0.012533895 0.0016070567 -0.00057570724 0.013917819 0.001496166 -0.0062502124 0.04871803 -0.00072096026
00000000: 6934 60bb 1a08 bdbb e0fb 8e3a 06eb a13b
00000010: df9a 6ebf 103d 403d b7ed 753c c567 213c
00000020: 2ba2 90bf 2b13 273a d440 aabe 6d8d 8cbf
00000030: 43af 9d3c c226 a43c a776 cabd 06ed 603b
00000040: c798 093c c295 ddbe 3dab fc3c d5ab ed3c
00000050: d1d0 883c c912 da3b a927 4abf b76a a83c
00000060: fdc8 19be 2f1b b8be 51af c0bc 611c 0dbf
00000070: afa3 8740 5260 73bf f149 acbc 264a 43bc
00000080: ac9c 7ac0 23e7 99ba 3c24 513d f8b2 353d
00000090: 201e 643a 387f 86bd 092f 9db9 d4c1 8f3c
000000a0: 6637 90bf 5df6 a5bf 3495 a6bd df62 533c
000000b0: c278 4a3d c6e0 a83c 345e 413d 78fb 173d
000000c0: 607f c93c 2086 86bb 63c4 aebb e5c2 2bbe
000000d0: 1271 de3c bd39 05bb 9a74 08bc 428e c53c
000000e0: 2674 e4bc 8065 8a3a 6d2f 1139 83a6 cc3c
000000f0: 1e8f 34bd 4e53 363a dced a63c 354c cf3c
00000100: ace4 2a3c d422 103d 5a00 783a d5a1 af40
00000110: 44e1 a3bd 819d bb3e 1c80 613b d3f6 533d
00000120: 2a8b db3c 5705 66bf fb22 c6be ba1f e7ba
00000130: 9674 3c39 df31 443a d9f4 9cbe 3ee5 cf3a
00000140: e5e1 d03c 2233 c83c 4d39 233c 079c 103b
00000150: bc2e 0a3b f6f5 37bd 50ad 14bf c25a abbb
00000160: b718 b43b c441 4fbf dd91 063d 1111 593d
00000170: f60a d0bb 03f1 953a 3fa1 983b add0 acbf
00000180: c7a9 5a3c 0811 963a ad34 72bc 6c86 15bf
00000190: ed3a 8c3a caac a9be ac09 a6ba 7a4b b3bb
000001a0: a5f0 5e3b e0de dd39 cdba 88ba fd06 833c
000001b0: 7c09 4cbf 23f0 81be 7f75 32bf e6f1 b53b
000001c0: feb7 003d 0a7d 543c a860 16bb 9fdc 4fbe
000001d0: a4f4 88ba 4d30 e0bc 28cc ebba 3c11 54ba
000001e0: 1b16 d53b 3f73 32ba 2e3f 613c 0e7b e03b
000001f0: 9e78 973f 69b3 29bc b7f0 d23e 0017 fe3a
00000200: 8887 72bc c49e 8c3a a5f0 c93e fbb4 2b3d
00000210: ea0e f5bf a36d c7bb 3222 383a eedd 1d3d
00000220: f413 8cbf daf6 e63c 88f1 b0bc 1155 803c
00000230: 7c77 613c cdd5 c6bc 8a7b 523d 5120 b5be
00000240: c5e3 01bf 0b4c 4d3c f72b ef3b 6cf6 213d
00000250: 383a 50bc e18e e33c 96d8 36bf 4486 c1ba
00000260: 3b60 1a3d 5583 b5bb accd f43a d3c4 dfba
00000270: c440 48bf 4041 fb3c 0bfc cd3c 7d42 343c
00000280: fce2 08b9 b12d cebe b408 85ba 082d acbe
00000290: 23a3 b13e 8913 e9bc ea25 a4bd 1e4b 4eba
000002a0: 6233 a83b 9041 40c0 4d63 2a3d 7f1f 0d3c
000002b0: 18a7 d2be 0f29 123d 9209 08bf 9db2 b83a
000002c0: 7d51 423d dfc2 8e3c 94d2 143d d921 ebbc
000002d0: de7a 25bb 734f 5d3f 79c7 123d e4b9 d73a
000002e0: 7d5f b5bb 24ac 05bf 2d7d c43c 7347 31bf
000002f0: 32e2 fe3c 26ab ebbb 7a89 1b3d 3440 b3bf
00000300: ed6c 733f 0092 11bb 7c79 b33c 8bc5 073d
00000310: 6bd2 b6be c13a fcbf 07cb 9fbd 4cba dd3a
00000320: 1a98 efba d75a 2a3d 2fe4 aa3c f642 ef3c
00000330: e1ea 953b 10ba 42ba c164 553c da31 c53e
00000340: 9172 b1bc 3168 c03b 35ae 333d f236 bdbe
00000350: 5b88 b13c 24f9 3d3d 5f79 de3e 8a20 283b
00000360: bdca dc3e c908 debe a957 363e 2eab 063d
00000370: 196b 29be 95e0 84bf 930d 483d a4cf b839
00000380: e9d9 f83a 0823 11bb a5cb b5bd d808 983b
00000390: b82b 573c d10e 413c 9837 5a3c 05a3 ccba
000003a0: 8681 e83c d9aa ab3a c86a 0b3a 8095 303d
000003b0: 8465 253b ca42 97bc ead8 b53e 6ecd f7be
000003c0: 5f89 65bf c5f3 23bf 3d2a e03c 4c3f f23c
000003d0: acf0 65bf c2d7 bfbb a586 243c 9d2a 17bb
000003e0: f75a 4d3c e0a3 d23a 0feb 16ba 9007 643c
000003f0: 001b c43a 95ce ccbb 8f8c 473d d3fe 3cba
