TD3/models/pendulum/00000500/target_actor.pth (torch, 270103 bytes, 5 tensors)

fc1.weight f4 [256, 3]
000000 1a e4 2f 3f fe 99 6d 3f 71 71 96 be 7f b2 94 3e
       0.6870743 0.928131 -0.29383424 0.29042432
000010 b6 0a ab bf 48 57 ef 3e 3f 52 0a bf 46 95 d6 bf
       -1.3362644 0.46746278 -0.5403175 -1.6764305
000020 b0 f0 3f be c3 b9 ec be 35 eb f5 3d 88 7d d3 3d
       -0.18744159 -0.46235475 0.12007753 0.103266776
000030 08 52 9f 3e 71 4e 22 bf 62 a2 20 3e 62 cb 7d 3f
       0.31117272 -0.6340094 0.15686944 0.9913846
000040 a4 6d 7f 3f 61 35 a8 3e ad 78 ba 3d 60 b6 cd bf
       0.99776673 0.32853225 0.09105048 -1.6071281
000050 6d a1 3c be 3a c1 69 be ea 52 86 bf f0 00 59 bd
       -0.18420954 -0.22827616 -1.0494053 -0.05297941
000060 5c 68 58 be 3e 89 5e bf 41 61 85 be d7 10 78 bf
       -0.2113356 -0.86928165 -0.2605076 -0.96900696
000070 95 cb 9d 3e cf 7a 0b 3e 4a e8 04 3f 3f bd 47 be
       0.30819383 0.13621067 0.51916945 -0.19505785
000080 a8 80 53 3d 10 3a 52 bf 70 23 28 3f e1 1d e9 3d
       0.051636368 -0.82119846 0.65679073 0.11382652
000090 b4 60 91 bd ca 7f 97 3e 7b 9f aa 3e 09 ee f1 3e
       -0.07098523 0.29589683 0.333248 0.4725192
0000a0 c0 41 44 3f 5a 90 8b 3e ba 49 a7 3e dd 55 17 bf
       0.76662827 0.2725857 0.32673436 -0.5911539
0000b0 1b 86 b3 be d2 25 53 bf 93 6c 01 bf 9e 4c fb 3b
       -0.35063252 -0.82479584 -0.50556296 0.0076690456
0000c0 4c 9a b0 3e 4b da 02 bf 16 8b f9 3d aa 34 9a 3c
       0.3449272 -0.5111434 0.12184732 0.01882394
0000d0 6c f0 1a bf 6b 3b 84 be 8d 63 16 3f a0 df 8c bf
       -0.60523105 -0.25826582 0.5874565 -1.1005745
0000e0 5d 46 88 be cf 16 05 bf 4c 25 1a 3e 23 fe 5f bd
       -0.26616183 -0.5198793 0.1505329 -0.054685723
0000f0 02 7b ea bc 9f c3 3b 3d 46 34 ad ba a0 66 a1 be
       -0.028623108 0.045840856 -0.0013214431 -0.3152361
000100 02 a4 8b bf 6a e7 04 be a5 ba 07 3f 75 eb 66 3e
       -1.0909426 -0.12978902 0.5301917 0.22550757
000110 3d 34 47 3e 4d 9d 4e bf a1 04 89 3f 0e e5 a4 3b
       0.19453521 -0.8070877 1.0704538 0.0050321883
000120 d3 29 91 3f 9f 50 91 3d 73 a6 ca be b9 e9 3f 3f
       1.1340889 0.070954554 -0.39580116 0.7496601
000130 c3 10 e5 bd f0 0e bd 3e 8f 1e b4 bd 45 6b 96 3e
       -0.11184838 0.3692546 -0.08794891 0.29378715
000140 a4 90 c4 bc 3a 2a 7c 3d c9 1a 87 bf 60 9e f6 3d
       -0.023994751 0.061563708 -1.0555049 0.120419264
000150 6e 17 fd be ea 61 81 bf 57 8c 5b bd 56 d4 25 3f
       -0.49431938 -1.0108006 -0.053600635 0.64777124
000160 81 ab 1b bf 4d a5 6b be ce 21 d6 3e 89 d1 c5 bd
       -0.6080857 -0.23012276 0.41822666 -0.09659106
000170 32 d0 5f be c1 2a 24 bf c4 06 8b 3f 8f fa c1 3e
       -0.21856764 -0.6412774 1.086144 0.37886474
000180 f0 69 9b be 0e 18 ad 3f ef fb 84 3e b7 4b 18 bf
       -0.3035426 1.3522966 0.2597346 -0.5949053
000190 96 ef 27 3f 43 ad 75 3d 7f 28 91 bc fa 88 8e bf
       0.65599954 0.05997969 -0.017719505 -1.1135552
0001a0 cd e9 08 be bc 9b 06 3d 95 59 6a bf 7d 0b ee bd
       -0.13370438 0.032863364 -0.9154294 -0.11623285
0001b0 e3 b5 03 bf 07 00 91 3f 62 fb 83 3e 6b 04 8b be
       -0.5144941 1.1328133 0.25777727 -0.27151808
0001c0 6d 6f 99 3f 8c 1b 11 3e d0 c9 17 3e 69 3f 24 be
       1.198713 0.14170665 0.14823079 -0.16039814
0001d0 ad a6 b7 3e f6 4c 29 be ed d5 b1 be 1f f6 47 3e
       0.3586935 -0.16533265 -0.34733525 0.19527481
0001e0 2f 37 be 3e 56 2a ff be 1c 68 8e 3e 80 67 7c bf
       0.37151477 -0.49836987 0.27813804 -0.9859543
0001f0 72 46 1f 3f 54 c4 22 3e 50 73 a2 be 85 32 4a bf
       0.62216866 0.15895206 -0.317286 -0.78983337
000200 07 1c 0a be 0a b8 64 3f e0 e8 3a 3d 0f 5f 9a be
       -0.13487254 0.8934332 0.045632243 -0.3015065
000210 c4 e3 d6 3e 77 12 61 3f ed 11 83 3e ff 42 30 3e
       0.41970646 0.879188 0.25599614 0.17213057
000220 47 7b 3b bf 6e 4f 54 be aa 13 e6 3e 4d b7 90 3d
       -0.7323498 -0.20733425 0.44936877 0.07066212
000230 54 08 74 3b a2 cc 24 bf 92 ec 46 3f 54 a1 85 3e
       0.003723641 -0.64374745 0.7770473 0.26099646
000240 bb a1 15 3f b1 e1 af be 2e 44 3f be d2 ad 25 bf
       0.58449906 -0.34351876 -0.18678352 -0.64718354
000250 40 36 0d 3f 66 21 a2 bd 8e b9 80 3f 4e dd 04 bf
       0.55160904 -0.079165265 1.0056627 -0.51900184
000260 f7 4e c2 be 3b 46 97 be e2 c4 59 3e 00 87 d7 bb
       -0.3795087 -0.2954577 0.21266511 -0.0065773726
000270 0c a6 c3 be 2e 8c 02 3f 34 cd 62 be 0f 26 03 3f
       -0.3821262 0.5099515 -0.22148591 0.5122995
000280 23 de bf bf bd 40 cd 3d 9a 9a e3 be 5c 24 2c 3e
       -1.4989666 0.100221135 -0.4445389 0.16810745
000290 ac 9e 7a be 2a b0 27 3e 1c 2f df bc 77 cd 88 3e
       -0.24474591 0.16375795 -0.027244143 0.26719257
0002a0 60 a7 0e bf a0 a1 96 3f d4 7b a8 3e bd a8 03 bd
       -0.55724144 1.1768074 0.32906973 -0.032143343
0002b0 f3 ac 4c 3e 0f bb 77 bc 57 26 2c bf a6 6b 2d 3f
       0.1998785 -0.015120282 -0.67246 0.67742383
0002c0 d9 c5 b7 3d f5 ea 91 3e 7a 62 94 bf c1 aa 88 3e
       0.08973283 0.2849957 -1.1592553 0.26692775
0002d0 71 9a 21 bf 7f db 2a 3f e7 53 db 3e f2 5b c4 be
       -0.63126284 0.66741174 0.4283745 -0.383514
0002e0 6a f7 8e 3e b0 a2 8e 3e dd 16 69 3e 52 2d b7 bf
       0.27923137 0.27858496 0.22762628 -1.4310706
0002f0 d0 ba d4 be e1 1b ed be c2 f6 7f bf 27 b2 1e bd
       -0.41548777 -0.46310332 -0.999859 -0.038744118
000300 d8 ff 62 bf 05 4c 07 3f 8f f5 a5 3e d1 c0 ee be
       -0.88671637 0.5285037 0.3241391 -0.46631482
000310 56 57 7e bf e6 1c 66 bc 98 de 4d 3e 04 fe 52 3f
       -0.99352014 -0.014044976 0.20104444 0.8241885
000320 fc 88 2f 3e d5 73 99 bf b9 6b 84 3e 0a 2d 93 bc
       0.17142099 -1.1988474 0.25863436 -0.017965812
000330 d0 b5 19 3e e3 12 d4 3f 14 00 f6 3d fb 99 48 be
       0.15010762 1.6568264 0.12011734 -0.19589989
000340 1a dd 4e bf 83 77 83 3e b3 b3 b4 be f1 ba 56 bf
       -0.80806124 0.25677118 -0.3529335 -0.83879
000350 66 14 cb bb 6d ec 19 bf 6f 71 8e 3f c8 d9 bc 3d
       -0.0061975 -0.6012638 1.1128367 0.09221226
000360 f4 f3 c2 3e e6 0b 98 bf 19 54 aa be 6b a6 94 be
       0.38076746 -1.1878631 -0.33267286 -0.29033217
000370 d6 f3 b4 bf 98 43 ca bd c6 da 47 3f 9c 81 03 bf
       -1.4136913 -0.09876174 0.78068197 -0.51369643
000380 60 a7 7a 3e 8d 5e 62 be 96 bb 9a bf 56 76 be 3e
       0.24477911 -0.22106381 -1.2088497 0.37199658
000390 38 7b 43 3f cd e1 66 be a0 19 87 be f6 d1 52 bf
       0.7635989 -0.22547074 -0.26386738 -0.82351625
0003a0 33 5b ea be b7 29 22 3e 39 9b 32 3d fa 27 fd 3e
       -0.45772704 0.15836225 0.043605063 0.49444562
0003b0 16 08 b6 bc 7a 8f b1 3e 43 09 8b 3d b3 4f dd 3e
       -0.022220653 0.34679776 0.06788876 0.43224868
0003c0 ac a2 69 3f a9 4b 6f 3f f4 bc b2 3e d0 ad 01 3f
       0.9126384 0.93474823 0.34909785 0.5065584
0003d0 6b 68 a8 3f d1 20 ef 3e e1 5a 80 bd 3d c0 56 bf
       1.3156866 0.46704724 -0.06267334 -0.8388708
0003e0 5d 1f 45 be c8 e5 38 3f b6 6c dd bf 45 fe b5 bd
       -0.19250245 0.7222562 -1.7298801 -0.08886389
0003f0 ac 1a 93 3e 12 98 4b be bb 55 00 3d 69 c7 24 3f
       0.28731287 -0.19882229 0.03133176 0.64366776

fc1.bias f4 [256]
000000 7c 73 32 bf e7 c5 92 be 39 18 ba be 53 fe cd be
       -0.69707465 -0.28666613 -0.36346605 -0.40233096
000010 f7 cc 4a 3d 44 0b 2a bf 33 f6 3d bf 1f db 68 3e
       0.049511876 -0.6642344 -0.74203795 0.22739838
000020 22 be 1e be 06 95 aa 3e 8f b9 41 be 51 b6 04 3f
       -0.15502217 0.3331682 -0.18918441 0.5184069
000030 19 16 90 3d 94 c0 f4 be 96 1a 3c bf 78 67 16 3f
       0.07035465 -0.47803175 -0.73478067 0.5875163
000040 79 53 9d 3d 53 20 ca be ab 53 b7 be d8 55 d8 be
       0.07681937 -0.39477786 -0.3580602 -0.42252994
000050 f5 28 86 bd cb 8b 50 be c0 7b 07 bf 8c 84 a9 3e
       -0.06550781 -0.20365827 -0.529232 0.33108938
000060 ed d3 96 bf 4c d4 ad be 1c 47 c0 3c 28 5d 81 bd
       -1.1783425 -0.33951032 0.023471408 -0.06316596
000070 6d 89 ba be 54 dd cb be 03 56 2b bf db 5d 0b bf
       -0.36432973 -0.39817297 -0.6692812 -0.5444009
000080 6f eb ef bd ab c6 70 bd 79 57 16 bf 65 38 05 bf
       -0.11714827 -0.058783215 -0.5872722 -0.52039176
000090 dc 2d 75 3d 50 d1 34 be 73 2f 8d bf 29 7e 9b be
       0.059858188 -0.17657971 -1.1030105 -0.3036969
0000a0 9a 88 cf be 5e f1 27 3f d7 4e 39 be b6 a7 48 bf
       -0.40533906 0.6560267 -0.18096481 -0.78380907
0000b0 37 a6 84 be 44 0f 42 be 5e 3c 12 bf ee 26 0c bf
       -0.25908062 -0.18951136 -0.57123363 -0.547469
0000c0 7d 00 24 bf ab dd a5 bd cd 0b 90 bf d4 8d 0b bf
       -0.64063245 -0.080989204 -1.1253601 -0.5451329
0000d0 12 69 7c 3e 54 a9 03 bf b9 59 61 3e 12 55 51 bf
       0.24649456 -0.5143025 0.22006883 -0.8177043
0000e0 d6 c9 05 bf 2b e6 24 bd ec df c6 be 8d 9f 91 be
       -0.522611 -0.040258568 -0.38842714 -0.2844204
0000f0 4a d5 c9 be 95 11 65 be f8 8e 02 bf 11 3e 22 3e
       -0.3942054 -0.22369988 -0.50999403 0.15843989
000100 07 22 f6 be a6 ef a4 be 86 37 2d bf 6e 52 1c ba
       -0.48072836 -0.32214087 -0.6766285 -0.0005963211
000110 db cd 23 3d 59 14 48 3e 89 58 82 be 9d 43 59 3e
       0.03999124 0.19539012 -0.25458172 0.21217199
000120 55 1c c2 be 9f c7 05 bf d0 ad 82 be 6d 10 63 3e
       -0.3791224 -0.5225772 -0.25523233 0.22174235
000130 9f 52 2b bf 3c 01 28 bf 66 cd 3c bd 70 c6 6c bd
       -0.66922945 -0.65626884 -0.04609432 -0.057806432
000140 19 a4 38 bf b5 67 2f bf b8 0a 1a 3d e8 05 39 bf
       -0.72125393 -0.6851762 0.03760788 -0.7227464
000150 da 24 2c bd 15 f1 e8 be b0 ba f5 bd e3 3e dd be
       -0.042027332 -0.4549643 -0.119984984 -0.4321204
000160 28 32 aa 3d dc 60 82 3d 3a 52 ab be 08 b6 01 bf
       0.08310348 0.06366131 -0.3346117 -0.5066838
000170 22 73 46 3e 68 b3 6f bd 0a cc 25 3e 68 33 ae be
       0.19379857 -0.058520705 0.16191116 -0.34023595
000180 05 27 6e bc 7d ee 14 bf 53 98 62 be 82 0f 67 bf
       -0.01453567 -0.58176404 -0.2212842 -0.9025804
000190 33 c2 63 3e 38 d1 0f bf aa 74 8e 3d ca 29 8f bf
       0.2224205 -0.5617862 0.06955846 -1.1184628
0001a0 53 ce 77 be 2a 0a 2c be 86 43 7f bf a5 2b 54 bf
       -0.241998 -0.16800752 -0.9971241 -0.82879096
0001b0 10 f8 23 bf 93 64 9c be a4 bb da 3e e2 d2 07 be
       -0.6405039 -0.30545482 0.42721283 -0.13264039
0001c0 ad f2 26 bf e4 65 18 be f8 2f 47 3e c2 c0 14 3b
       -0.65214044 -0.14882618 0.19451892 0.00226979
0001d0 ff 82 a3 3e ea 54 88 3e 8b 79 cb 3d b8 16 42 bf
       0.3193588 0.26627284 0.09935292 -0.75815916
0001e0 93 78 c1 bd 93 85 db 3d 08 c8 f3 bd 9c a9 2c 3d
       -0.09446826 0.10718837 -0.11903387 0.04215394
0001f0 38 1f 4d bf 67 c5 7a be 06 03 8c bf 73 13 45 bf
       -0.8012576 -0.24489366 -1.0938423 -0.769828
000200 81 fc e7 3d e0 ea cc bd 14 81 8e bd 86 7a 84 3d
       0.11327458 -0.10005736 -0.069582134 0.06468682
000210 93 a8 08 bc 33 5f 48 bf 52 16 8e 3e 95 a9 29 bf
       -0.0083409725 -0.7827026 0.27751404 -0.66274387
000220 bb b7 53 bf d1 a3 4d bf 29 7f db bd 55 67 9a bf
       -0.82702225 -0.8032809 -0.10717613 -1.2062784
000230 e4 74 37 3e fc 87 4f 3e ed c7 06 bf b2 d7 bb 3e
       0.17915684 0.20266718 -0.5264881 0.36688
000240 a4 9a 41 be 97 e3 07 bf 7a f3 37 bf 00 ec 0b bf
       -0.18906647 -0.5308165 -0.7185589 -0.5465698
000250 7d 78 e1 3c f4 0d 74 3e 95 ba 81 bd 53 3a 8a bf
       0.027523274 0.23833448 -0.06334416 -1.0799049
000260 0a 5e 7b 3d 9e 57 94 3e 9f f8 45 be 31 e9 87 bf
       0.06136898 0.28973097 -0.19333123 -1.0618039
000270 1a db 63 be 7e 94 71 3e 4f 34 3a 3f db 50 ff bd
       -0.2225155 0.23591802 0.72736067 -0.12466594
000280 aa 07 ef 3c 9e 85 8e bf 8b 02 cd be be 3e 1c be
       0.02917846 -1.1134527 -0.40041003 -0.15258309
000290 f1 de 8d 3e 9d 97 f9 be 92 cb 84 3e cd 1f 0a bf
       0.27709153 -0.48748484 0.25936562 -0.53954774
0002a0 79 cf 48 bf 2a ed af be 7b e6 4d be 27 da 2e be
       -0.7844158 -0.3436063 -0.20107453 -0.17075406
0002b0 4f a3 81 3e 9a 83 09 bf d3 4b 3f be 48 36 00 3e
       0.25319907 -0.53716433 -0.18681268 0.12520707
0002c0 15 c3 e6 3d a7 cd 6c bf 0a bf 83 bf 01 11 19 bf
       0.11267678 -0.925013 -1.0292675 -0.5979157
0002d0 93 cb aa be 74 f4 86 be ef d6 4d bd 08 29 61 be
       -0.3335844 -0.26358378 -0.050253805 -0.21988308
0002e0 4f c3 59 3e 87 7a e4 be 40 9d d5 bd e3 3f a2 be
       0.2126591 -0.4462473 -0.10430384 -0.31689367
0002f0 bd 6e 87 bd c7 12 1e bf 81 36 e2 3e 79 9a b0 3e
       -0.066129185 -0.617474 0.44182208 0.34492853
000300 30 ed 06 bf 9a 4b 6f 3e ba c9 6f be 55 ce 1b bf
       -0.5270567 0.23368683 -0.23416796 -0.6086171
000310 fb f0 fe be 64 e9 50 bf c3 8d ea bd a1 00 05 be
       -0.49793229 -0.81606126 -0.1145282 -0.12988521
000320 3c 4e 22 bf 3c a1 37 bf ca 6a c5 be bf 20 f9 be
       -0.63400626 -0.717304 -0.38558036 -0.48657796
000330 9e 38 91 bf 97 f7 13 3e ee 38 17 bf 46 d7 f3 bc
       -1.1345403 0.14449917 -0.5907124 -0.029765736
000340 65 bf 0e be a2 6d 25 bf bb 52 02 3f b9 0b df bd
       -0.13940199 -0.6462041 0.50907487 -0.10890908
000350 9b c9 89 3e d1 26 6b bf 77 77 82 be 2d 30 6c be
       0.26911625 -0.91856104 -0.2548177 -0.23065253
000360 a3 5f 12 bd 52 5d e9 bd 7b 95 69 be 4b e6 cc 3e
       -0.035735738 -0.113947526 -0.22810929 0.4001945
000370 f8 f7 9e 3e 9d 72 19 bc f3 bf 84 3d bf 98 00 3f
       0.3104856 -0.009365705 0.06481924 0.5023307
000380 db d9 a1 3d 71 6b 76 bf 99 47 39 3e 09 43 38 3d
       0.07902881 -0.9625769 0.18093719 0.044985805
000390 4b de e4 bd 6f 1d 5b 3e 6d 1e 01 3e 7d 08 61 bf
       -0.111752115 0.21397947 0.12609263 -0.8790358
0003a0 47 7f 2d bd 16 82 19 be 5a 44 e7 be 70 bc 3c bf
       -0.04235771 -0.1499103 -0.45169336 -0.7372503
0003b0 bb bd 46 bf 62 49 07 bf ee 80 58 be 87 b4 df be
       -0.77633256 -0.5284635 -0.21142933 -0.4369242
0003c0 67 ad 0e bf 1c b3 b0 3e 9b 1d 27 bf cb a2 dc be
       -0.5573334 0.3451165 -0.6527955 -0.4309295
0003d0 1a 32 17 bf df 22 22 bd 30 cc 3f be f5 10 e5 bd
       -0.59060824 -0.039584037 -0.18730235 -0.11184875
0003e0 0d c6 84 3d 5d b3 1e bf de e9 f8 be 51 47 53 3e
       0.06483088 -0.61992437 -0.48615927 0.20632674
0003f0 0e 8d 3e bf 46 b5 ce be fc 89 2c 3f ce 85 5f be
       -0.7443398 -0.40372676 0.6739805 -0.21828386

fc2.weight f4 [256, 256]
000000 56 f7 93 bd f3 a9 f9 be 37 ff 7e bd aa d2 99 3c
       -0.0722491 -0.48762473 -0.06225511 0.01877721
000010 d2 44 14 3e d7 4b 61 bf 6d 22 87 be c4 a3 6a 3e
       0.14479378 -0.8800635 -0.26393452 0.22914034
000020 2b 6b b4 bc 41 d1 2b 3d 92 aa 02 bf 38 71 a4 3d
       -0.022023758 0.041947607 -0.5104152 0.08029407
000030 3b c6 05 3e 61 ee d1 be 26 f5 1d be 0b c4 2f 3e
       0.130639 -0.4100218 -0.15425548 0.17164628
000040 7e de 1e 3b f9 8f 44 bf 7e 47 3f bf e6 29 ed be
       0.0024241502 -0.76782185 -0.74718463 -0.46321028
000050 97 81 b0 bd 71 5c aa bc 16 e1 ab be 4d 61 37 3e
       -0.08618467 -0.020796033 -0.33570164 0.17908211
000060 a4 d1 8c 3c bc e9 fb be 45 78 e6 be d0 89 87 3e
       0.017189808 -0.49201763 -0.45013633 0.2647233
000070 48 cf 28 bd f7 53 35 3b 41 1c 4d bd f2 65 c2 3d
       -0.041213304 0.0027668455 -0.050075773 0.09492101
000080 6f 3f 62 be 3d cb d9 3d cf a0 82 be 98 2e c3 be
       -0.2209451 0.10634468 -0.25513312 -0.38121486
000090 ce 79 7a 3e d6 15 95 be e1 16 61 be 47 98 37 3e
       0.24460527 -0.29118222 -0.21981384 0.17929183
0000a0 0e a9 34 bf 87 df 20 3e a5 4b 8f bd ce d0 92 bd
       -0.70570457 0.15710269 -0.0699685 -0.071687326
0000b0 75 89 e8 be 21 43 04 bf 14 e9 0c bd 38 9e a0 bd
       -0.4541737 -0.5166493 -0.034401968 -0.07842678
0000c0 59 fd 44 be 87 12 01 bf a0 37 b1 bc f8 b6 d9 3c
       -0.1923727 -0.50418895 -0.02163297 0.026576504
0000d0 86 1d 65 bf 7b d1 03 3e e8 a5 86 bf 3a fa aa be
       -0.89498174 0.12872879 -1.051938 -0.33394033
0000e0 f7 9b f6 bc 66 e6 2d bf ec c9 53 3e 2f 6d de be
       -0.030103667 -0.67929685 0.20682496 -0.43442675
0000f0 df 30 da 3d 51 47 1c 3e 4f c0 0c bf 23 90 16 bd
       0.10653853 0.1526158 -0.5498094 -0.036758553
000100 55 d7 9c 3e f7 fa 12 bc 44 0e b4 be 51 c3 b5 3d
       0.30633035 -0.0089709675 -0.35167134 0.08875144
000110 34 06 d6 be 26 ca 81 3d 26 ca 5f bd 85 89 c7 bd
       -0.41801608 0.06337385 -0.054636143 -0.09743027
000120 40 c1 23 bf bb 18 34 be a9 dc cf be 02 32 7e 3e
       -0.6396675 -0.17587559 -0.40598038 0.24823764
000130 82 5b e9 3c c1 16 a2 3e 4c d8 7e be f2 41 30 be
       0.028486017 0.31657985 -0.24887198 -0.17212656
000140 d7 3a 2e bf 96 32 c1 be 9d d7 8e be 86 bb d5 bb
       -0.6805853 -0.37733907 -0.27898875 -0.0065225987
000150 23 2e cc be 15 6a bb be cc 75 cb 3b 83 36 6b bf
       -0.3987895 -0.36604372 0.006209111 -0.91880053
000160 a9 e4 2a 3e 5e e3 8e bd 84 63 1f bf 4a 43 71 be
       0.1668879 -0.069769606 -0.62261224 -0.23560825
000170 5b 34 a5 be 8d 58 34 be 93 2c 50 3d 86 4a 2a bf
       -0.32266507 -0.17611904 0.05082376 -0.66519964
000180 f9 f9 a4 be d6 05 32 bf 3e f8 9c be c8 57 3e bf
       -0.32221964 -0.69540155 -0.30658144 -0.74352694
000190 ad 49 ac bf 34 c5 6d 3e 72 77 34 bf 35 89 90 3c
       -1.3459984 0.23219758 -0.7049476 0.01764355
0001a0 d2 20 04 bf 2c 53 03 be 17 b6 0d bf 84 c5 36 bf
       -0.5161258 -0.12824696 -0.5535597 -0.71395135
0001b0 39 b7 49 bf 55 07 29 be 91 17 a7 3d b2 86 ed bd
       -0.787952 -0.16506703 0.08158792 -0.11597957
0001c0 83 41 e0 be 89 03 ac be dd ff 79 bf 23 f2 5d 3c
       -0.4379998 -0.33596447 -0.9765604 0.013546499
0001d0 a9 d5 ce be 8b 6f 45 bd 61 e4 0b be 81 e9 2a bf
       -0.40397385 -0.04820208 -0.13661338 -0.6676255
0001e0 02 58 db bd 90 15 13 3c 3b d3 81 bd 8a ef 4d be
       -0.107101455 0.008977309 -0.06339117 -0.20110908
0001f0 84 9a 70 be 36 63 03 bd f8 fc dc be b7 4e b9 3e
       -0.23496443 -0.032077037 -0.4316175 0.36192867
000200 dc 16 48 bf 71 31 b0 be 77 a7 6b 3e 84 14 5e bf
       -0.7815988 -0.3441272 0.23013102 -0.86750054
000210 9f 25 e4 be 98 3b ad be 94 b8 7e 3e 95 13 88 be
       -0.44559953 -0.3383453 0.24875098 -0.2657744
000220 2e 44 15 bf b1 e5 17 bf cc 47 40 3e 23 72 08 bf
       -0.5830716 -0.59334856 0.18777388 -0.5329916
000230 cb 44 c4 3e ea 09 d0 3d 16 22 b3 be c0 07 a0 3d
       0.38333735 0.10158141 -0.34986943 0.07813978
000240 f2 79 2c 3e 17 d1 29 be c8 a0 b6 bd 08 5e ed be
       0.16843393 -0.16583668 -0.08917385 -0.46360803
000250 36 9e 30 be 57 25 a1 3d 37 68 bb be 50 f2 4d 3c
       -0.17247853 0.0786845 -0.36602947 0.012569979
000260 4e f0 24 3e 76 7a 10 be 15 80 0d bd 44 72 01 bf
       0.16107294 -0.14109215 -0.034545977 -0.5056498
000270 f5 e1 a9 be c3 44 83 bf cd 62 c5 3d 9a 38 8e 3d
       -0.33180204 -1.025536 0.096379854 0.0694439
000280 59 2a 88 bf d2 68 66 3b 2f d8 42 be c1 eb f6 be
       -1.0637923 0.0035157693 -0.1902778 -0.4822674
000290 00 b9 d1 3d 3f 0b bb be c4 08 29 bf 77 2b a9 3d
       0.10240364 -0.36532018 -0.66029 0.082602434
0002a0 e1 85 d7 3d 7e 81 9e 3d 3a 27 0d bf 3e 26 11 bf
       0.10523582 0.077395424 -0.5513798 -0.5669898
0002b0 3a f1 8d 3e f8 64 b8 be a7 98 16 bf b7 3c a4 3d
       0.27723104 -0.36014533 -0.5882668 0.08019393
0002c0 e0 98 82 3e ea f7 43 bf ac e9 ef bd de 95 32 3e
       0.2550726 -0.7655016 -0.11714491 0.17439982
0002d0 4a c7 53 be 13 06 d1 be 80 c5 26 bd 83 22 19 3e
       -0.20681491 -0.40824947 -0.040715694 0.14954571
0002e0 c3 c5 85 bf 90 f5 85 3b 4a e8 ec be 5e f1 91 bd
       -1.0450977 0.004088111 -0.46270972 -0.07126115
0002f0 f3 2b 80 be c8 ee 42 be d8 06 e6 bd a0 7c 44 3e
       -0.2503353 -0.190364 -0.11231774 0.19188166
000300 ba 26 b0 3e 37 81 e7 3d ce f4 a4 be cb 16 66 bd
       0.34404546 0.11303943 -0.3221802 -0.05617408
000310 82 53 22 bf 0e 4d 90 3e 60 79 3e bd e1 c4 f7 be
       -0.6340867 0.28183788 -0.04650247 -0.48392394
000320 f0 66 c9 be e1 73 17 bf f5 21 14 3e 34 b9 9b be
       -0.39336348 -0.5916119 0.14466079 -0.30414736
000330 e8 b4 ba be 9f e8 97 bf 79 c0 57 3e 92 6d e8 be
       -0.36466146 -1.1867865 0.21069516 -0.45396096
000340 15 a8 9b be db eb 06 bf 13 98 28 3e bc 51 f7 be
       -0.30401674 -0.52703637 0.16464262 -0.48304546
000350 17 e2 68 3e 26 22 a3 3d ab 2e 1c bc ce 9e df 3e
       0.22742496 0.07965498 -0.009532611 0.43675846
000360 a2 21 ef be 8a da 26 3e 21 7c 57 3e 28 1f 59 3e
       -0.46705347 0.16294304 0.21043445 0.21203291
000370 10 3a 36 3e e3 3d 06 be 88 93 1b 3e 61 ee 32 3e
       0.17795587 -0.13109545 0.15192997 0.17473747
000380 40 cb b6 be eb 30 14 bf 5c 58 3a be 79 25 ea bd
       -0.35701942 -0.5788714 -0.18197769 -0.114329286
000390 e7 88 ae bd 45 02 a6 bf 1f 85 62 be 6a f6 92 3e
       -0.08522206 -1.2969443 -0.22121094 0.28703624
0003a0 e4 30 7a bd 79 11 d7 be c9 48 02 bf 3a 8c 2d bf
       -0.061081782 -0.42005518 -0.5089231 -0.67792094
0003b0 f8 ea 39 bd 12 f2 01 3f 2f a0 96 3d c4 2c be be
       -0.0453901 0.50759995 0.07354771 -0.37143528
0003c0 74 81 71 be 24 8f b0 3d ac 00 ac bc a1 3b 5a be
       -0.23584539 0.08621052 -0.020996414 -0.21311809
0003d0 3b 61 1e bf 94 44 2c be 47 df b4 3c bb 01 df be
       -0.6186711 -0.16823035 0.022079123 -0.43556008
0003e0 0f a3 13 bf 32 d6 9b be 21 c8 d0 3e 9b 41 36 be
       -0.5767068 -0.30436856 0.40777686 -0.17798464
0003f0 95 81 2d bf d2 36 05 bf 72 12 1f 3d bd aa 42 bf
       -0.6777585 -0.52036774 0.03883595 -0.76041776

fc2.bias f4 [256]
000000 89 6f a2 bb 7c a6 85 3d 48 ce 3d bb 91 73 e1 3d
       -0.0049571437 0.06525895 -0.0028962065 0.11008371
000010 ea 4c d1 bb 29 1d 41 bd 88 ad b7 bd 61 64 ce bd
       -0.0063873427 -0.04714695 -0.08968645 -0.100777395
000020 e1 75 49 bd 49 f6 c7 bd 4e d3 1c bd 90 02 18 be
       -0.049184684 -0.09763772 -0.038287453 -0.14844728
000030 cd 29 19 bd c7 07 2a bd a2 85 d6 bd 78 b5 5f 3e
       -0.03739338 -0.041511323 -0.10474707 0.21846569
000040 8d 7d 8a bc a2 f7 57 3c a0 c9 ba bd 77 89 2a be
       -0.01690557 0.013181599 -0.09120488 -0.16654001
000050 34 76 76 b9 0a 13 57 bd 5e 88 17 bd 2f e1 2e bd
       -0.00023504422 -0.05250839 -0.036995284 -0.04269522
000060 e6 5c 94 bd 65 5a 8a bd 2a 35 56 bc fc 55 8b be
       -0.072442815 -0.06755523 -0.013074199 -0.27214038
000070 26 4b 18 3d 77 86 89 be 20 fb 3a 3d 26 26 3e 3e
       0.037181042 -0.268604 0.045649648 0.1856924
000080 d1 85 44 bd 29 9a c1 bc 85 50 88 bc f2 8f e0 3c
       -0.04797918 -0.02363308 -0.016639957 0.027412388
000090 c3 47 65 bd d9 35 c6 bd 36 55 fc 3d ac 1d 0e 3d
       -0.05597664 -0.096782394 0.1232094 0.034696266
0000a0 98 1f 38 bd fe 09 08 bc 6e e3 47 3d f0 af 31 bb
       -0.044952005 -0.008303164 0.04880088 -0.0027112924
0000b0 d2 8e 68 3b d3 f2 68 be 15 7f 0d be 59 1d 48 bd
       0.0035485518 -0.2274888 -0.13818009 -0.048856113
0000c0 39 8d 51 3e 95 69 02 be 73 f0 14 be bb fe ef bc
       0.20464028 -0.12735589 -0.14544849 -0.02929627
0000d0 19 8f 52 bd 26 a8 95 bc a6 51 19 3d 59 9c 50 3c
       -0.051406 -0.018268656 0.03743138 0.012732589
0000e0 b4 a9 7c bd 67 e6 2d bd 8b e3 79 3b 86 b7 14 bc
       -0.06168528 -0.042456057 0.003813001 -0.0090769585
0000f0 18 4a 33 bd fb 32 80 bd f7 d0 35 3b 9c 36 fb bc
       -0.043771833 -0.06259724 0.002774296 -0.030665688
000100 d7 85 28 bc 9d fb 08 bd 10 7b b2 bd 69 69 46 bd
       -0.010285816 -0.033443082 -0.087148786 -0.04844037
000110 8b b9 e7 bc 63 0b 61 bd 00 81 b7 bd cd 1d 1b 3d
       -0.028286716 -0.0549425 -0.08960152 0.037870217
000120 e8 aa 76 3c 77 68 bc 39 58 65 3c bd f6 12 92 bd
       0.015055396 0.00035935987 -0.045995086 -0.07132523
000130 ee 2c 99 bd 58 63 4d 3c 99 08 c2 ba e4 37 7d bd
       -0.07479273 0.012535892 -0.0014803588 -0.06182088
000140 a2 85 6f 3c 72 ae dd bd db f9 68 bd 9b 1c 77 3a
       0.014619263 -0.108242884 -0.056878906 0.0009426565
000150 86 b8 98 bc f4 c8 7c bb 22 7e d1 bd a8 4a 48 3c
       -0.018642675 -0.0038571926 -0.10229136 0.012224831
000160 87 6c 2d bd 0a d6 5c bc 3a 82 d8 bc a0 43 8b 3d
       -0.042339828 -0.013478765 -0.026429284 0.06800008
000170 a8 82 52 bd 61 af 4e bd 41 9e c8 bd 90 e4 16 bd
       -0.051394135 -0.050460223 -0.097958095 -0.036839068
000180 be a5 1b bd 9d 65 88 bc de b3 2e 3b ac ab 87 3c
       -0.03799986 -0.016650015 0.0026657502 0.016561352
000190 81 8c cc bb 29 cc c1 bd b7 96 2d bd 0e 0e a7 3c
       -0.0062423353 -0.094627686 -0.04238006 0.020392444
0001a0 14 e3 f4 bc 6d 27 83 bd c7 b4 a2 bd 56 d5 21 3d
       -0.029893436 -0.06404004 -0.07944637 0.039510094
0001b0 1f 5a 25 3c f1 b5 c9 bd a8 44 30 bd 3f 56 22 bd
       0.010092287 -0.09849156 -0.043034226 -0.039633032
0001c0 1e ac 28 bd 5a 52 d4 bc e9 11 c6 bc b2 8d 57 bd
       -0.04117977 -0.025918175 -0.024178462 -0.052625366
0001d0 4c 64 a9 3d e4 bf f7 bd d7 e5 22 be d3 19 6f bb
       0.08271083 -0.12097147 -0.1590799 -0.0036483898
0001e0 af 4a ac ba 35 30 8a bc 99 62 a3 be 99 ff cd bd
       -0.0013144816 -0.01686869 -0.31911162 -0.10058517
0001f0 a5 6d 19 bc 95 31 83 bd dd 07 08 be d4 d0 76 bd
       -0.00936452 -0.064059414 -0.1328425 -0.060257748
000200 a1 99 c2 bd 0e 5f 74 bc de f2 97 3c 2c f1 71 bd
       -0.09501959 -0.014915241 0.018548425 -0.05906789
000210 6a e6 5f bd 1f b4 af bd 40 1b 30 bd 56 e5 96 bd
       -0.0546631 -0.08579277 -0.042994738 -0.07367961
000220 07 aa 30 bb 2d ca 04 bd 6f a3 b1 bd 44 2c 74 bc
       -0.0026956813 -0.032419372 -0.086737506 -0.014903132
000230 52 8d fb 3a 5c 81 ae bc 4c 4a c3 bd 3f ed 26 bd
       0.0019191897 -0.021301918 -0.095356554 -0.0407536
000240 17 6a 03 3e 5c 2f f7 bd 10 b5 39 bd 26 50 02 bf
       0.12833439 -0.1206958 -0.04533869 -0.50903547
000250 b9 e0 c2 bd f6 01 19 bd da 4c 57 bc 08 41 c7 3b
       -0.09515519 -0.037355386 -0.013140881 0.0060807504
000260 45 da 09 bd ac 05 f9 bd b8 d2 3c bc b3 8c 8a bd
       -0.033655424 -0.12159285 -0.011524849 -0.067651175
000270 3b a4 63 bc 60 58 37 bc 22 7e 9d 3e db 75 e9 bb
       -0.013894136 -0.011190504 0.30760294 -0.007124645
000280 d4 dd b2 3d 67 a8 7a bd af c2 31 3d a1 03 42 bd
       0.087337166 -0.061195757 0.043398555 -0.047366742
000290 67 5b ad 3d 70 c9 b3 bc 50 fe b2 bd 11 53 c1 bb
       0.08464699 -0.021946639 -0.087399125 -0.005899795
0002a0 f2 1b 52 bd 0d 0b 1b 3d e8 83 3f bd 08 a2 3b bc
       -0.051296182 0.037852336 -0.046756655 -0.0114522055
0002b0 aa b7 53 bd 06 cb 17 bd 9b 1d e2 bc f4 a5 86 3c
       -0.051688828 -0.037058853 -0.027602008 0.016436554
0002c0 46 47 ae 3d 03 3c e8 bb 59 f8 49 bd 03 d8 e7 bd
       0.08509688 -0.007087232 -0.04930911 -0.11320498
0002d0 e5 47 0b be 2c e5 73 bd fc c9 fd bc d2 80 e2 3c
       -0.13601644 -0.059544727 -0.030980103 0.027649317
0002e0 40 b4 3c bd 75 8c 04 bd 3d 7c 0b bd f3 7d fc 3c
       -0.046070337 -0.032360513 -0.03405403 0.030821776
0002f0 66 95 95 bd 43 10 68 be 95 89 05 bd d1 b8 c8 bc
       -0.07303886 -0.22662453 -0.03260191 -0.02450219
000300 c6 0a 9d bc b5 d5 96 3c cc 66 84 bc 76 4d 9b bc
       -0.019170176 0.01841245 -0.016162299 -0.018957835
000310 20 70 32 bd 26 f8 10 be 9d 5a 8e bd d1 56 d0 3c
       -0.043563962 -0.14157161 -0.06950877 0.025432022
000320 e7 e1 21 3e 98 50 b4 bc 4a 75 e9 3a db 08 f3 3c
       0.15808831 -0.022011086 0.0017811444 0.029667309
000330 fa 5b d5 bd 11 ea de bd b0 03 01 bd b5 be 05 bd
       -0.10417934 -0.108844884 -0.031497657 -0.032652576
000340 bf e2 2e bd 9b 90 ec bd c6 8c 18 be d5 f3 9e 3c
       -0.04269671 -0.11551019 -0.14897451 0.019403378
000350 06 b4 1f bd 4d 5c 1b bc f7 4f 85 3e a5 cf 04 bd
       -0.038990043 -0.009482455 0.2603757 -0.032424588
000360 c7 b2 b3 3c 5e 7a 90 bc 6e ec 2e be 35 f3 8f bd
       0.021935834 -0.017636474 -0.17082378 -0.0702881
000370 c3 3d 6f bc 73 85 7e 3e ae 43 90 bd a0 6f b0 bd
       -0.0146021275 0.24855594 -0.07044159 -0.08615041
000380 cb 17 ea bc c8 ed b3 bc 63 d2 f6 3c 1a 5b 5e bd
       -0.028575798 -0.021963969 0.030129617 -0.0542861
000390 0f af a1 bd a0 3d 30 bd 9c a1 fe bd 01 1d 50 3c
       -0.07894718 -0.04302752 -0.12433168 0.012702228
0003a0 b5 c6 8c bd 95 44 84 bc 7a cb ea 3c 74 c9 fe bd
       -0.06873838 -0.016145984 0.028661478 -0.12440768
0003b0 75 15 40 3e bf dc 2f bd 80 f0 33 bd 3c 06 bf bc
       0.18758185 -0.04293513 -0.04393053 -0.023318402
0003c0 b7 1c 80 bd fd ad 0a bd 46 28 96 bc 7d 9b 0b bd
       -0.06255477 -0.033857334 -0.01832975 -0.034083832
0003d0 5e 57 9a bd b3 b0 e6 bc 4d 55 18 3d a5 54 8c bd
       -0.07536195 -0.028160429 0.037190724 -0.06852082
0003e0 38 69 44 3d 1b 8b 26 3c 21 45 4c 3d fe 85 19 bd
       0.047951907 0.010165001 0.049870614 -0.0374813
0003f0 d5 b0 8c bc c9 40 46 bd 27 25 3f 3e b3 58 7d 3c
       -0.017174164 -0.048401628 0.18666516 0.015463042

mu.weight f4 [1, 256]
000000 48 0f 9e 3f ee 7d 2b bf 54 ad fe 3a 21 fb dc bf
       1.2348413 -0.6698903 0.0019430318 -1.7264138
000010 fa 52 63 3b 78 c5 b9 3d 8a e2 5c 3c 55 96 9f 3e
       0.003468691 0.09070867 0.0134817455 0.31169382
000020 58 ec 4b bd 84 51 0c 3d 8c 34 79 3c c3 17 ea be
       -0.04978594 0.034257427 0.015210282 -0.45721254
000030 9c 32 84 3e a6 66 a2 3d 7c 98 ff 3c 8d 7c a8 bf
       0.25819862 0.07929735 0.03120064 -1.316301
000040 bc e0 8d 3c 57 47 97 3d ba 74 d4 3d 8b aa 76 3e
       0.017319076 0.07386654 0.10373826 0.24088494
000050 53 4e 00 ba b0 e0 c5 3d ab ee 1b 3f da 5a dd 36
       -0.0004894484 0.09661996 0.60911053 6.5968898e-06
000060 37 d4 a9 3d 26 1b a0 bc d7 77 bb bc 3d b0 2b bf
       0.0829243 -0.019544195 -0.022884293 -0.67065793
000070 dd e6 80 bb 0f 61 ad 3d 05 9e ac c0 eb 3a e4 3e
       -0.003933771 0.08465778 -5.3942895 0.445762
000080 18 51 4f 3a cd 9c 8a bd 7c 1a 7b bc 96 0b 9a bc
       0.0007908507 -0.067681886 -0.015326139 -0.018804353
000090 1d 5a 0c bd b4 cc 72 bc bb d4 91 be 31 31 dc bc
       -0.034265626 -0.014819313 -0.28482613 -0.026878925
0000a0 48 31 ba 39 67 f2 97 3c 35 71 6b bf 76 5d 29 3c
       0.00035513402 0.018548204 -0.91969615 0.010337224
0000b0 7d 8b 16 3d d3 cb fb 3d 15 cf 08 3e 48 b9 4d bd
       0.03675412 0.12294736 0.13360246 -0.050225526
0000c0 aa 62 6a 3e 05 cd 06 3c 2f d4 66 c0 fb c2 7a bb
       0.228892 0.008227591 -3.6067007 -0.003826319
0000d0 4d df 96 3f 2f 4f 25 3d 49 cb 4a 3b 18 ee b9 bc
       1.1786896 0.04035872 0.0030943921 -0.02269654
0000e0 ae f6 a0 3d d0 21 44 3d 81 81 52 bd 62 b6 d1 3d
       0.078595504 0.04788381 -0.051393036 0.10239865
0000f0 32 1a 64 3f 7d 65 14 3e af 6e 26 3d 2d d0 9c 3d
       0.8910247 0.1449184 0.0406329 0.07656894
000100 0e 67 ad bc 8d 49 02 3d dc 2b 82 bc 04 8f 08 3a
       -0.021167304 0.031808425 -0.015890054 0.0005209299
000110 d4 9c 87 3b db 75 65 bc 76 51 ab 3e f2 2c e4 3b
       0.0041385684 -0.01400515 0.33460587 0.0069633657
000120 b6 9e 96 40 7f 42 37 3b 4d f4 0a 3d a8 58 ce 3c
       4.706874 0.0027963219 0.03392439 0.025188759
000130 89 8b 5e 3d 61 39 d1 b6 18 a0 9a 3c d1 74 cb 3c
       0.05433229 -6.235365e-06 0.018875167 0.024835976
000140 46 c2 26 bd e5 7d 9b 3f b6 44 aa bc 60 f8 c6 be
       -0.040712617 1.2147795 -0.020784717 -0.3886137
000150 3c 2b 0c 3e 8b 6c 78 bc 35 70 90 3e f2 67 6f bc
       0.13688368 -0.015162597 0.28210607 -0.014612185
000160 b3 19 fb bc 7d 23 86 ba d8 f9 b6 3c e7 b9 63 be
       -0.030651903 -0.0010233965 0.022335932 -0.22238885
000170 8e 54 b5 3b 06 73 2e 3d 98 05 b4 3d 7a a8 71 bf
       0.0055337613 0.042590164 0.087901294 -0.943977
000180 d1 dc 42 3c bd 8c 02 3b 6f 29 bd 3a 5c 3e 01 bc
       0.011893467 0.0019920312 0.0014431904 -0.007888403
000190 e2 cf ec bd 85 37 08 3b 43 1b fb bc 84 0c 0b 3e
       -0.11563088 0.0020785045 -0.030652648 0.13578993
0001a0 7d 6b 93 be 76 dc 98 3b 2f c0 27 3e 5c 36 7a 3a
       -0.28792945 0.004664953 0.16381906 0.00095448433
0001b0 22 52 5b 3e 99 55 c8 3a 95 3d 1a bd e7 0a 2a bd
       0.2141805 0.0015284299 -0.037656385 -0.041514304
0001c0 59 fa d1 3b a5 9d 9d bc 9b f7 f8 bc 1f 56 ae 3c
       0.0064080176 -0.01924021 -0.030391505 0.0212813
0001d0 40 03 82 bf c0 65 47 be 04 7f a1 bd 35 75 0b bc
       -1.0157242 -0.19472408 -0.078855544 -0.008511831
0001e0 d8 6f 4d bd b7 ee 2f 39 e8 a6 6b 40 e7 b0 38 3d
       -0.05015549 0.00016778229 3.6820621 0.045090582
0001f0 00 41 3f 3c c0 70 c1 bc 14 21 73 3e 1a b3 e0 bc
       0.011673212 -0.023613334 0.23743087 -0.027429152
000200 2c 05 77 bb 36 51 c5 3f 3d 14 94 3f 8e a5 ad 3c
       -0.0037692292 1.5415409 1.1568676 0.021197107
000210 0d 82 03 bc 4e de af 3c 2e ff 29 3e 36 ce 2a bd
       -0.008026612 0.021468308 0.1660125 -0.041700564
000220 c0 5a cf bc 81 33 5f 3c 60 a8 39 bc 34 3d 0c bd
       -0.025311828 0.013623119 -0.011331648 -0.034238055
000230 3a e7 dc 3c 48 e0 e4 3d e2 19 b0 3f de 60 a7 3c
       0.026965726 0.11175591 1.3757899 0.020431932
000240 7c 59 82 bf 66 d0 a0 bd ed bc 01 bd ff d0 df be
       -1.0183558 -0.07852249 -0.031674314 -0.4371414
000250 82 b4 d6 3c 9e b8 a8 bc 68 cf b5 bc e7 98 23 bc
       0.02620912 -0.020595845 -0.022193626 -0.009985185
000260 75 ef 80 3b 9c 01 08 3e da 95 e8 bc d7 99 aa 3e
       0.0039347955 0.13281864 -0.028391767 0.33320495
000270 1d 77 9c bc 0e 2f 15 3b ad d7 92 3e e4 89 ee ba
       -0.019099766 0.0022763642 0.28680173 -0.0018199054
000280 02 b8 04 3f b9 10 09 bf 92 a0 64 3c a5 01 1e bc
       0.51843274 -0.5354114 0.013954299 -0.009643947
000290 98 e6 27 be c4 fd 01 3e 55 32 06 3e 94 21 f5 3d
       -0.16396558 0.1269446 0.13105138 0.11969295
0002a0 4b af f0 bc d2 e1 6f ba 04 fc 06 bf 09 1d cd 3d
       -0.029380461 -0.00091507763 -0.52728295 0.10015304
0002b0 ff 75 24 3d e1 4e dc 3a 19 1a 54 bd 25 d5 9a 3d
       0.040151592 0.0016808176 -0.0517827 0.07560185
0002c0 a7 32 33 3c 7f 72 af 3b 75 e8 96 bc c8 f1 b5 bc
       0.010937369 0.005354225 -0.018421391 -0.022210017
0002d0 bf ff be bc 4f 3e b9 3c 1e b5 1a bc 6f b1 37 bc
       -0.023315309 0.022612719 -0.009442596 -0.011211737
0002e0 64 b4 7b 3c f6 42 a3 3c 05 d7 95 3e b9 5d 5c bb
       0.015362833 0.01992939 0.2926561 -0.00336252
0002f0 1a 49 e1 bb 75 52 96 3f cb f2 6b 3b 3c bb 74 bc
       -0.0068751695 1.1743914 0.003600287 -0.014937218
000300 fd 15 82 3c a3 bf 76 ba 0b 43 5d 3e cd 66 93 bc
       0.015879625 -0.00094127114 0.21607606 -0.017993355
000310 01 a4 df ba 26 88 ab 3d d9 d1 5e 3a f6 4a 2a 3e
       -0.0017062427 0.08375578 0.00084998977 0.16630158
000320 6a 74 d9 be f6 c1 12 3e 9c 78 89 3a fe 0b a5 bc
       -0.4247163 0.14331803 0.0010488215 -0.02014732
000330 a4 fd 8d bd d3 d1 61 3b 0d d8 10 bf 6f 18 ab bc
       -0.06933144 0.003445734 -0.5657967 -0.020885674
000340 9c 12 01 bd 89 10 4d bb 37 9b 3f 3e f0 8f c7 ba
       -0.031511888 -0.0031290373 0.18711554 -0.0015225392
000350 a0 18 cb 3d 65 f4 81 bc fe 2d d1 be 69 5c 5d bc
       0.09916806 -0.015863607 -0.40855402 -0.013510802
000360 27 de 3e 3d 8c 7d 0a bc f9 7d 51 be ae 25 2e 3d
       0.04659858 -0.008452784 -0.20458211 0.042516403
000370 47 8a 27 3b 11 b5 9d 3f f6 89 93 bc 65 b3 90 3f
       0.0025564597 1.2320882 -0.01801012 1.1304747
000380 24 54 0a 3d 30 ef d8 3c 5d a3 1e bd c9 f7 cd 3c
       0.03377165 0.026481241 -0.038730014 0.025142567
000390 b6 0e 1a 3b a2 ee 6a be 18 b4 cb 3d 4b c4 e0 3d
       0.0023507304 -0.22942594 0.099464595 0.1097494
0003a0 cd 9a 02 3e 7c 48 84 bc 29 3e 48 3c b4 f5 67 3f
       0.12754364 -0.016147844 0.012221851 0.9060929
0003b0 c2 b0 2f 3e 55 b8 91 bc c3 54 e7 bc a5 cc 1c 3b
       0.17157272 -0.017788092 -0.02823866 0.0023925689
0003c0 9d 14 09 3d a1 90 50 3e fc cf 63 3b 4d d9 9b 3c
       0.033466924 0.20367672 0.003476142 0.019024516
0003d0 f1 db 4b bd cf 99 30 bd 1a db d1 bb d4 4c 8c 3c
       -0.0497703 -0.043115433 -0.006404293 0.017126478
0003e0 82 52 d1 3f b5 ba 23 3f 44 06 7f 3f 52 da d1 3d
       1.6353304 0.6395677 0.99618936 0.102467194
0003f0 3f bb 3f 3d 00 ec ba bc 8d b1 a2 bf 76 a3 ae bc
       0.04680943 -0.022817612 -1.2710434 -0.021318179
