TD3/models/pendulum/00000500/target_critic_2.pth (torch, 271127 bytes, 5 tensors)

fc1.weight f4 [256, 4]
00000000: 6681 1b3e b33c 79be f29f babe 2912 d13d
00000010: dc8f 3d3f f655 babf 3b0f bfbe 51b1 e7bc
00000020: 2eb1 0cbf 1b16 9c3f 8aab 0dbe 1e85 e0bb
00000030: 4b66 32bf 0b0d 0b3f aa2b 673e b45a 51bd
00000040: 047f f23e c814 9ebf 0a73 3cbe 802d 79be
00000050: 5f62 2cbf db61 863f f23e 993e c38c a43c
00000060: 8a92 b2be 076e 6e3e 932b 00bd d315 5abd
00000070: 7069 79bd 197e 94bd 0aae 31bd d1fa 813e
00000080: bb8d 9c3e 75e3 cebd 4421 4bbe f059 f33b
00000090: e9e7 df3f 6ac2 103f 78b7 00be bbc9 f23c
000000a0: bb21 233f ac2c 89be d89e 453e 2340 883e
000000b0: a3fe b83e ff52 dfbe 0efd 953d 9f03 9abe
000000c0: c81d 64bd 4ae8 813f 665b 343e ede2 6a3c
000000d0: f008 533f 77a1 9c3e 8ed1 b83e 92eb 6c3d
000000e0: bb09 5f3f 5ce6 8b3f 08d0 c9bd db04 f9bd
000000f0: 2d31 ebbe e7c4 863f 6faa e13c 62b1 8fbc
00000100: 47f6 4abf 81c9 93be 4e92 28be e15f 8b3d
00000110: db53 533f 5028 9b3e df23 b13e 9c57 723d
00000120: 08f2 d3bd 459b b53f 3d68 e93e 1fe4 603d
00000130: 839f 88bf f122 f1be 500b 4cbe e137 283d
00000140: ea71 3bbf 5768 2bbf 34ea 8dbe 17b5 e7bc
00000150: a816 9b3e 59aa 78bf d1eb cc3e 8571 f43d
00000160: b6b9 05bf 89c6 2f3f 80fd 74be bb98 b83c
00000170: 7fa1 c63e 7418 a23f ddf4 193d 1561 16be
00000180: dbc2 81bd 6930 063f f680 8d3e 6ba2 b9bd
00000190: f19d 8a3f df04 f03e 536c a63e 2951 7a3d
000001a0: 821f febe 88b2 c13f 81db bc3e 4d8c 783c
000001b0: 588b 53bf 388b 84be 6c37 4cbe 38f6 da3d
000001c0: bfea fe3c 4740 f9bf 6d90 dabe 2512 d53c
000001d0: 1f4c 33bf 482d c63c 0df0 1c3e c2e3 a23c
000001e0: 64f0 26bf e102 133e 0eb7 fdbd ff68 6d3e
000001f0: 3673 46bf d933 6f3f 682b 7e3e fd10 ed3c
00000200: 9781 113f b2ae 5fbd acff bdbd ecba 2c3e
00000210: 100f d1be bb2d a1bf 3af8 96be e68a d4bc
00000220: 6493 04bf fbc5 88be 07bd 66bd 158b 51be
00000230: b65b 483f 1608 c13e 2aed e53d 0e19 9dbc
00000240: 5795 1d3f 725f d03f 7c2a d33e 0f47 813c
00000250: 6e14 22bf ddda 8fbe 0176 f7bd 9655 95be
00000260: 2698 4dbd b558 4d3f 2068 813e b3bd 87be
00000270: 2136 9d3f e9b6 0a3f 143f d83e a5fe 9dbb
00000280: 430c b03d 77ca 43bd ef6b d53d 3080 c83c
00000290: 9c05 41bf a69d 3b3f 48fb 643e 547e 1b3d
000002a0: 624a c2be 5251 3a3e dc4a 403e e07b 013d
000002b0: 8b74 a0be 6528 4b3e 2ed2 973d 3835 473d
000002c0: f0c6 8d3e 0dab a33d 03d2 cc3e 70c0 973e
000002d0: 6366 3d3f 7f6b 86be 0796 bbbe d35d 6cbd
000002e0: aab2 463f 0b3b 9dbe de5c 9cbe a306 3fbd
000002f0: b9e9 7e3f e662 b5be c204 6ebe a560 87bd
00000300: 1f37 19bf b8c9 2fbe f7e7 18be e0fe bd3d
00000310: b6ee c03d 433d 22bc f87f 6fbe 153d 883e
00000320: 9617 283f 3595 ac3f 2813 9c3e 21ed 2b3e
00000330: 25a6 60bf 7d4b 733f 6f6a 62bc 07c2 473e
00000340: 5333 d9be a358 b5bf 0de5 a8be d389 803d
00000350: 9d0a 023d 8217 d03c bcc8 8f3d c4c5 e1be
00000360: ad60 9d3e d3af a03d 1dc6 e1bd 80e1 1b3d
00000370: 0160 bd3f cb19 78bc 2162 d4bd 992e 953b
00000380: 7ff1 31bf c193 8fba 01d0 423c 3e25 813a
00000390: 6894 643f cbdd b63e 5629 a33e c54f 203d
000003a0: bc1e 05bf 4973 e43e 41c0 103e 3fd6 24bf
000003b0: 046d 04bf f419 803e 9c20 10bd 1932 2c3c
000003c0: a9e7 263e a54f 4d3f 4e72 333d c64a 10be
000003d0: a8de a3bd 8e0b eb3f 2054 cd3e e96f b83d
000003e0: 39f7 44bf 6bdc 2bbe dd0f cbbe 89cf 06bd
000003f0: cce4 3bbf 094e 39be 0bd7 40be bef9 c13d
0.1518608 -0.24339561 -0.36450154 0.10208542 0.74047637 -1.4557483 -0.37316307 -0.028282793
-0.54957855 1.2194246 -0.13834968 -0.0068518063 -0.69687337 0.54316777 0.2257525 -0.051111892
0.4736253 -1.2350092 -0.18403259 -0.24333763 -0.673376 1.0498613 0.29930836 0.020086652
-0.34877425 0.2328416 -0.031291556 -0.05324347 -0.06089157 -0.07250614 -0.043378867 0.2538667
0.30576882 -0.10101978 -0.19836909 0.007426493 1.7492648 0.5654665 -0.12569988 0.029637208
0.63723344 -0.26791894 0.19298875 0.26611432 0.36131772 -0.43618008 0.07323657 -0.30080888
-0.055692464 1.0149014 0.1761299 0.01433633 0.8243551 0.30591938 0.36097378 0.057841845
0.8712422 1.0929675 -0.09854132 -0.12159129 -0.45935956 1.052884 0.02754709 -0.017540637
-0.7928204 -0.28864673 -0.16462061 0.06805397 0.8254983 0.30304193 0.3459768 0.059165582
-0.10348898 1.418801 0.4558734 0.054905053 -1.0673679 -0.4709697 -0.1992619 0.041068915
-0.73220694 -0.66956085 -0.27717745 -0.028284593 0.30290723 -0.9713493 0.40023664 0.11935715
-0.522365 0.68662316 -0.23924828 0.022533765 0.38795087 1.2663713 0.037587035 -0.14685471
-0.06335994 0.5241762 0.27637452 -0.09064182 1.082945 0.46878716 0.3250452 0.061112557
-0.49633414 1.5132608 0.36886218 0.015170169 -0.82634497 -0.25887465 -0.19943017 0.10691494
0.031117795 -1.9472741 -0.42688313 0.026009629 -0.70038027 0.024191514 0.15325947 0.019883994
-0.65210557 0.14356567 -0.123884305 0.23184584 -0.7751955 0.9343849 0.24821246 0.028938765
0.56838363 -0.05460996 -0.09277281 0.1686818 -0.40831804 -1.2592081 -0.29486257 -0.025945138
-0.517874 -0.26713547 -0.056332614 -0.20463212 0.7826494 0.37701482 0.11226876 -0.019176986
0.61556 1.6279128 0.4124335 0.015780954 -0.63312423 -0.28096667 -0.12083054 -0.2916686
-0.05019393 0.8021348 0.25274754 -0.26511917 1.2282144 0.5418535 0.42235625 -0.0048216158
0.08596089 -0.047800507 0.10420977 0.024475187 -0.75399184 0.7328743 0.22361481 0.037962273
-0.37947375 0.18195084 0.18778557 0.031612277 -0.31338915 0.19839628 0.074131355 0.048634738
0.2769084 0.0799161 0.40003976 0.29639006 0.73984355 -0.26253888 -0.366379 -0.057706665
0.7761637 -0.3070911 -0.30539602 -0.04663719 0.9957538 -0.35427016 -0.23244002 -0.0661023
-0.59849733 -0.17166793 -0.14932238 0.09277129 0.094205305 -0.009902301 -0.2338866 0.26609102
0.6566099 1.3483034 0.30483365 0.16789676 -0.87753516 0.9503706 -0.013819321 0.1950761
-0.4242197 -1.4167675 -0.32987252 0.06276288 0.031748403 0.025401834 0.07020709 -0.44096196
0.3073782 0.07846036 -0.11024115 0.03805685 1.4794923 -0.015142868 -0.10370279 0.004552674
-0.6950912 -0.0010954068 0.011890412 0.0009853018 0.8928895 0.3571609 0.31867474 0.039138574
-0.5200002 0.44619206 0.14135839 -0.64389414 -0.51728845 0.250198 -0.03518735 0.010509991
0.16299309 0.8019965 0.04381018 -0.14091024 -0.08001453 1.8362901 0.40103245 0.0900572
-0.7693973 -0.16783302 -0.3966054 -0.032912765 -0.7339599 -0.18096174 -0.18832032 0.09471463

fc1.bias f4 [256]
00000000: 7b53 bb3d 4ba9 6ebf a117 02bf 72cd 133f
00000010: 02bf 88be 7349 ff3e 2fdf d23e 9cf2 4d3c
00000020: e1c9 d2be 6e69 5ebe 5f1b e23e 25e3 acbe
00000030: d5cc fabd 87ff bfbf 59c9 dabe 6fd1 7a3e
00000040: 3d01 393f 3f95 b4bf 901a 52be 4220 723f
00000050: 63e8 473f 4f08 62bf c92d 1bbf eac4 cfbe
00000060: 2544 d1be 925c 9bbf eaeb 7b3e 20bb 4c3f
00000070: 3977 aabe 933d c33e c0ae 343f 4f22 1d3f
00000080: e009 0d3f 1999 5c3e e414 5a3e 7568 c1be
00000090: 51a2 5abf 71fd 72bf f74e 0dbf 9f7d babf
000000a0: 8da4 013f 5713 233f 2424 103f 4951 703d
000000b0: 8455 01bf 99a8 ccbf 9336 96bf b1c5 7fbf
000000c0: 11a0 133f 7c97 b4be b7a9 0abf a136 9fbe
000000d0: 1596 0f3e 04a7 4cbd 6503 20be e827 acbe
000000e0: 9984 123e c8bf 96bf 0cf3 22bf 795c 15bf
000000f0: ff79 2bbe 6323 893e b796 4bbf df8f 453f
00000100: 5e8d d8be 3432 8abe a735 cc3e 320e 96bf
00000110: 4cb8 1ebf 2962 d83e 60e9 003e bbeb 2abf
00000120: a4ca 323e 579e dd3e 7c84 013f 5cf2 2cbf
00000130: 1b10 24bf 4440 51bf 939a 2d3e 826f 2fbf
00000140: 8dec 203e 8f73 093f dab1 fa3e 5555 703f
00000150: 06c5 a83e a0dc 4dbf d20d 033f e807 ef3e
00000160: 709f 55bf aef2 14bf 2882 49bf cb11 ecbf
00000170: ac97 51bf ddb2 79bf c6d5 3cbf bbd5 2a3f
00000180: 687e 4bbf d62a 1abf f6d7 2abf 0c44 abbf
00000190: de00 87bf e6f3 8ebf 222d 92bf e05c 65be
000001a0: 7f4f a63e 4fd9 e3be 9709 673f b321 ec3e
000001b0: 9591 693e b04b dbbe f7af 0b3f ef30 c5be
000001c0: 6704 983d 5c99 b83e 129f 8cbe ef99 75bf
000001d0: d43c cf3e f456 efbe fb8a 303e 87a1 35bf
000001e0: 5dc8 c9bf ae26 5f3e f6e3 9c3e 5481 423f
000001f0: e0ac 4fbb 04f6 b1bf 3928 1cbe 277e 8f3e
00000200: 8668 323d 32b1 81bf 2b52 103f 6c0a 5d3e
00000210: 9da1 9dbe 711f 0f3f e179 1cbe c402 1cbf
00000220: 79ac 82bf f68e 20bf a633 5abf 6470 873e
00000230: bf10 8dbf 5e3c 75be c131 033f 4fa6 eabe
00000240: d015 87be b3c8 93be 14b0 c53e aa6c 21be
00000250: 2851 423e 41ff 6bbf cc25 80be 3aa0 bebe
00000260: a8b7 3d3f ffdb 13be 9d90 8d3e 4ab8 6dbf
00000270: 6b35 8cbf 2c34 f9be 38cd 4ebe 3f26 113f
00000280: 95d3 fcbe 9016 94bf 5e09 adbd 96ff 23bf
00000290: a28b 4abf 8404 9bbe e15f 4a3f 678f 783f
000002a0: f433 cabe 1b6d 12be 0f8b 7fbf 7d79 23be
000002b0: 3ebb 3abd b4a0 2dbf ec1c 30be 6110 51bf
000002c0: 8d0d 5e3f 6c36 88be 9359 dbbe 5182 d63e
000002d0: 4e7d 41bf 4d54 683f cba2 313f a2b3 0ebf
000002e0: 8db4 35bf d91e b7bf cec6 8abf 0f5e 18bf
000002f0: 031b 9a3e 998c 4ebf d0ca e0be 7a19 6dbf
00000300: 8e18 39bf 1e60 223f cd30 453f b8b4 553f
00000310: 10de 573f 8fa0 f4be bbbb e03e 4994 aabe
00000320: 6c2d 89bf 5083 983e 829d 07bf 9bad 903e
00000330: bc4d 263f e966 7ebe 9c79 a5bd 04ae 6fbe
00000340: 07bf 1d3f 9e0c 043f 0327 27bf 6258 6cbf
00000350: 2fa0 0dbf 892d f33e f9c1 fabe 369e 013f
00000360: cb46 29bf 5f61 adbe f32f 15bf e552 403f
00000370: ee70 efbd b066 303f 19ef 0cbe 4545 92bf
00000380: 3f1d d43e fdfe 42bf 3907 3c3f e097 2cbd
00000390: 70e2 bd3d f976 303f f016 22bd 0e7a aebf
000003a0: 4039 85be aaca d13e ed91 febe ada0 8cbd
000003b0: aa37 d4be 409a a7bf 77f7 573e 7859 ccbe
000003c0: f65f 02be 4752 0bbf 0f41 04bf d9b6 fdbc
000003d0: 9775 a83e 444d 0d3f 5765 053f bde2 1c3f
000003e0: f4b1 513f 6594 be3e 8d7e 2cbf e312 14bf
000003f0: 8775 3d3f 7e58 a13d 2c07 5fbf 6047 2ebf
0.09146782 -0.9322707 -0.50817305 0.5773536 -0.26708227 0.49860725 0.411859 0.01257005
-0.41169646 -0.21719906 0.44161507 -0.33767048 -0.122461 -1.4999856 -0.4273174 0.24493955
0.72267514 -1.4108046 -0.20517945 0.9458047 0.7808897 -0.8829393 -0.6061674 -0.4057992
-0.40872303 -1.2137625 0.24601713 0.7997303 -0.33294085 0.38132915 0.7057915 0.61380476
0.55093193 0.21542777 0.21297032 -0.37775007 -0.85403925 -0.9491797 -0.55198616 -1.4569587
0.5064171 0.63701385 0.56305146 0.05867127 -0.5052111 -1.5988952 -1.1735405 -0.9991103
0.57666117 -0.35271823 -0.54165214 -0.31096366 0.14022096 -0.049963966 -0.15626295 -0.33624196
0.14308394 -1.1777277 -0.6365211 -0.5834423 -0.16745757 0.2678481 -0.7952685 0.77172655
-0.42295355 -0.26991427 0.39884683 -1.1723082 -0.61999965 0.4226239 0.12589025 -0.66765946
0.17460114 0.43284866 0.5059278 -0.6755731 -0.64087075 -0.81738687 0.16953497 -0.6852952
0.15715237 0.53691953 0.48963815 0.93880206 0.32962817 -0.8041477 0.51192963 0.4668572
-0.8344641 -0.581828 -0.7871423 -1.844293 -0.8187206 -0.9753855 -0.7376369 0.66732377
-0.79489756 -0.6022161 -0.6673578 -1.3380141 -1.054714 -1.1168182 -1.1420023 -0.2239871
0.32482526 -0.4450173 0.9024901 0.4611946 0.22809441 -0.42831182 0.54565376 -0.38513896
0.07422715 0.36054504 -0.2746511 -0.9593801 0.40476096 -0.46746027 0.17240517 -0.70949596
-1.5764271 0.21792099 0.3064267 0.7597859 -0.0031688735 -1.3903203 -0.15249719 0.28025934
0.043556713 -1.0132201 0.5637538 0.21586007 -0.30787364 0.5590735 -0.15280868 -0.6094172
-1.0208884 -0.6271814 -0.8523506 0.26452935 -1.1020736 -0.2394881 0.51247793 -0.45830008
-0.2638383 -0.2886406 0.386109 -0.15764108 0.18976271 -0.9218636 -0.25028837 -0.37231618
0.7410836 -0.1443939 0.27649394 -0.9285933 -1.0953802 -0.48672616 -0.20195472 0.56698984
-0.49380174 -1.1569386 -0.08449052 -0.6406187 -0.7911931 -0.30276883 0.7905255 0.97093815
-0.39492762 -0.14299433 -0.9982156 -0.15964313 -0.045588724 -0.6782334 -0.17198533 -0.8166562
0.86739427 -0.2660402 -0.42841777 0.418963 -0.75581825 0.9075363 0.6938903 -0.5574285
-0.70978624 -1.4306289 -1.084192 -0.5951852 0.30098733 -0.80683285 -0.43904734 -0.92617
-0.7230309 0.63427913 0.7702759 0.8347888 0.84323215 -0.47778746 0.43893227 -0.33316258
-1.0716987 0.29787683 -0.5297471 0.2825745 0.64962363 -0.24843945 -0.08079836 -0.23406225
0.6161961 0.5158175 -0.652939 -0.9232236 -0.55322546 0.47495678 -0.48976114 0.50632036
-0.66123646 -0.3386335 -0.5827629 0.75126487 -0.116914615 0.6890669 -0.13763084 -1.1427389
0.41428563 -0.7617033 0.7344852 -0.042137027 0.09271705 0.6893154 -0.039572656 -1.3630998
-0.2602024 0.40974933 -0.49720708 -0.06866584 -0.41448718 -1.3093948 0.21090494 -0.3991201
-0.12731919 -0.5442242 -0.5166177 -0.030970978 0.32902214 0.55196023 0.5210776 0.61283475
0.8191216 0.3722259 -0.673806 -0.5784132 0.7400746 0.07878207 -0.8712032 -0.6807766

fc2.weight f4 [256, 256]
00000000: d030 35bd 3d9d 923b 4c86 7bbc 8b15 61bd
00000010: 31a1 41bd c62e 97bd 3ab6 603c e9cc c4bc
00000020: e0e5 473d cef9 203d dfa3 393d 1ca3 843c
00000030: cab7 e03c 984c bdbc c475 073b 1fd5 363d
00000040: 9c53 0b3d e7a4 3a3c e898 3cbd 940e 0d3c
00000050: b7ce 2cbc 3ac8 ddbc 2f2e b73c 8b03 e4ba
00000060: b79c 2cbd f380 6fbc ff1b 333d d0cc 4d3d
00000070: 777c 28bd 9537 82bd bd0b 8bbd 257a 0cbc
00000080: 7c3c 063d 410a 503d 7c70 8e3c dc95 813c
00000090: 1ec9 1fbd cda7 04bb 0b97 733c da8b 59bd
000000a0: 6ca7 8f3c 611a d23c 6944 48bd 3dd2 05bd
000000b0: fa00 003c 93c3 f33c 8482 7e3d b764 2dbc
000000c0: 7b13 783c e716 28bd 7625 91bd 878f bc3c
000000d0: ab8e f73b a4be f2ba 1c50 fdbc 0be5 66bd
000000e0: 8609 98bd 60dc 3abd aeca 70bd 4ccc 003d
000000f0: 34d2 083d f07c 463c 8205 56bd 4f4b 3b3b
00000100: 5dae 183d 647d 92bc 832e fd3c a55e 1b3d
00000110: 42d1 653c 6d02 1e3c 46ae 213b d62d a63c
00000120: 2864 31bd cd5d 88bd 0134 48bd afdb b13c
00000130: 6e44 2c3d 306e 3dbc 1512 9b3c 49ca 5f3c
00000140: 6287 5dbd 0683 233d 5ae5 613d 38c9 483d
00000150: c595 0abc e723 aabc 5c27 70bd 3b07 00bd
00000160: 7e71 12bc 0e4e 2d3d 8c2a 833c 9b5b 80bd
00000170: 1060 c33c cd01 0fbd 21f1 42ba 8484 77bd
00000180: f7b3 3e3d fccc f0bc b1a8 46bd 4a7c 53bd
00000190: 0ffb a5bc 6c58 7fbc a002 023b 5746 a4bb
000001a0: 7189 df3a 1d5e 03bd bd74 1f3d d52c 09bd
000001b0: 8ca6 ffbc adb8 89bd 687f 3abd e42f f6bb
000001c0: 9986 5d3d 7e5e aa3c e45b 77bd b3d6 68bc
000001d0: d2d7 603d 9ac0 643d e9cc c4bc 7598 02bd
000001e0: 07db 3e3d 795d 5b3d ab19 65bd b859 4c3c
000001f0: 2dd2 8bbd 4a01 5bbd 5fb0 a0bc 119e 41bd
00000200: 6f04 bf3c d3a1 69bd ea77 e73c 64b2 0c3d
00000210: cfec 373c cd3e 89bd 0e22 ac3b 6e3c 253d
00000220: e1e4 43bd 2b35 6fbd 9967 c5bc 84b0 78bd
00000230: 676d 24bc e5a3 1d3d 2703 bd3c 748e 8c3c
00000240: 05b3 1b3d 496a d63b 52dd 763b 8f58 be3b
00000250: 5528 903a babe 50bd 48d2 b4bc 262a 2a3d
00000260: 2524 123c ef62 29bc 2063 b0bc 3505 8dbb
00000270: d661 ae3b aeda ad3c 2e63 91bd ef4d 393d
00000280: 4895 babc 8e10 18bd 66f2 ab3c 20e8 37bd
00000290: cfba 373d c1ad d43c e5bc 04bd 4b3f f239
000002a0: 5577 07bc 5686 aa3c 04a4 f8bc 4818 3abd
000002b0: 3db1 173c 451f 8bbd 8ee2 a73c e79e 22bd
000002c0: 5b6e 80bd f616 a23c da05 e73c 286a 30bd
000002d0: 4e0c 203d c978 45bd 6a59 ea3c 4b3e eebc
000002e0: efa1 2bbd c3d2 6bbd ca62 51bc da87 e23a
000002f0: 842f 013d f5a4 9b3c 96b1 283b de8a 203c
00000300: 35b0 963c b346 67bc 5a3b 5cbb de0e 243d
00000310: 7072 35bd 9829 c73c 06c6 9cbc aab7 d3bc
00000320: ace3 063d 5786 aabc 7ca4 7dbd 25c4 88bd
00000330: 5bcd fe3c 8e7f 12bd 3f3d bb3c d6c2 223d
00000340: 052a 9d3a da1b 5bbd fd0f 83bd 7e9d ac3c
00000350: 6ff2 a8bb d5c6 00bd 9714 be3b 534e 80bd
00000360: 40fd 8ebb b883 38bd 504c bfbc f9aa 4cbd
00000370: 8225 d9bc 1b12 e6bc 0a50 51bd 4fc9 26bd
00000380: 366f 253c 7676 10bd 1e8a 9dbc d5c1 1e3d
00000390: 2efb 99bc 6e82 91bd 9d88 973c 9c49 7cbd
000003a0: eb63 62bd f73e 2cbd d544 85bd 2c08 033d
000003b0: 6c5b 72bd c737 3b3d f617 263d a5e3 89bc
000003c0: 7069 c33c d868 4a3d 7488 74bc aac0 debc
000003d0: b243 dbbc 0614 10bd 4ff7 2fbd 4523 9b3c
000003e0: 5ab0 55bc db30 fd3b 99f3 cfbc 5863 cd3c
000003f0: 5021 423d 77ba bf3c 3d9a 1f3d 8f32 bc3c
-0.044236004 0.0044743107 -0.015351843 -0.054952186 -0.047272865 -0.07381968 0.013715321 -0.02402349
0.04880321 0.039300732 0.045322295 0.016191058 0.027431387 -0.023107812 0.002066956 0.044636842
0.034015283 0.011391855 -0.04604426 0.008609433 -0.0105473315 -0.027073015 0.02236089 -0.0017396075
-0.042141642 -0.014618146 0.04372787 0.050244153 -0.041134324 -0.06358258 -0.06789348 -0.008574043
0.032772526 0.05079103 0.017387621 0.015818529 -0.03901016 -0.0020241619 0.014867554 -0.05311189
0.017535888 0.025647344 -0.048893366 -0.032671202 0.007812733 0.029756343 0.06213619 -0.010583094
0.015141363 -0.041037466 -0.07087223 0.023017658 0.007554849 -0.001851995 -0.030921988 -0.056370776
-0.074236915 -0.045620322 -0.05878704 0.031444833 0.03340359 0.012114748 -0.052251346 0.0028578823
0.03727566 -0.017882057 0.030905968 0.037932057 0.014026942 0.009644133 0.0024670525 0.020285528
-0.043308407 -0.06658516 -0.04887772 0.021711199 0.042057447 -0.011561915 0.01892952 0.013659068
-0.05408419 0.039919876 0.055150367 0.049020022 -0.008458559 -0.020769073 -0.058631286 -0.031256896
-0.008938191 0.042310767 0.016011499 -0.06267472 0.023849517 -0.034913827 -0.00074364437 -0.06042911
0.046558347 -0.02939462 -0.04850072 -0.051632203 -0.020261316 -0.015585046 0.001983799 -0.005013268
0.001705451 -0.032072175 0.03892969 -0.03349002 -0.031207345 -0.06724677 -0.04553166 -0.007513033
0.05408344 0.02079701 -0.060390368 -0.0142113445 0.054893322 0.05584774 -0.02402349 -0.031883676
0.0465956 0.05355594 -0.055932682 0.0124725625 -0.06827197 -0.053468026 -0.01961535 -0.047269884
0.023317544 -0.057039093 0.028255422 0.034349814 0.011225893 -0.067014314 0.005253083 0.040340833
-0.047825698 -0.058400314 -0.02409725 -0.060715213 -0.010035849 0.03848638 0.023072792 0.01715777
0.038012523 0.006543432 0.0037668538 0.005808897 0.0010998348 -0.05096314 -0.022072926 0.041544102
0.00891975 -0.010338529 -0.021531641 -0.0043035992 0.0053217215 0.021222439 -0.07098995 0.04524034
-0.022776261 -0.037125163 0.020989608 -0.044899106 0.04485589 0.025961759 -0.032406706 0.00046204994
-0.008268197 0.02081601 -0.030351646 -0.045433313 0.0092585655 -0.067930736 0.020493772 -0.039702322
-0.06271049 0.01978634 0.028201032 -0.04306999 0.039074235 -0.048210893 0.02860709 -0.029082438
-0.04190248 -0.057574045 -0.012779901 0.0017282919 0.031539455 0.018999556 0.0025740615 0.0097987335
0.018394569 -0.014115977 -0.0033604712 0.04005324 -0.04429859 0.024311826 -0.019137394 -0.025844414
0.03293197 -0.020816011 -0.061924443 -0.066780366 0.03110378 -0.035766177 0.022856353 0.03973659
0.0011990672 -0.05349336 -0.06399534 0.021071192 -0.0051558535 -0.03143962 0.0058007943 -0.06264939
-0.004363686 -0.04504749 -0.023351818 -0.04996774 -0.026507143 -0.028084805 -0.05110172 -0.040719327
0.010097316 -0.035269223 -0.019230898 0.03875907 -0.01879653 -0.071049556 0.01849776 -0.061593637
-0.05527107 -0.042052235 -0.06507269 0.031990215 -0.059169218 0.04570749 0.040550195 -0.016832182
0.023853987 0.049416393 -0.014925111 -0.027191479 -0.026765678 -0.035175346 -0.04296046 0.018937716
-0.013042534 0.0077267713 -0.025384711 0.025071785 0.04739505 0.023404343 0.038965452 0.022973327

fc2.bias f4 [256]
00000000: 33f6 e9bc 33eb 6fbd cd4b d73e 2ff1 a3bc
00000010: dc0c 743e 0e7a 95bd cd4c 0fbc d893 c43e
00000020: 4046 8b3e 2855 fb3e 0678 c93d 65e1 80bd
00000030: 6563 163e ae3a 083e b7c5 21bb f149 db3c
00000040: c16c 4abc 0e6b 243d 3658 94bb 719b af3e
00000050: 55f7 133e 3c2f bb3e 382e 34bc 0804 34bd
00000060: b6e1 94bb 5251 a13e 0998 de3c efd3 f83d
00000070: b0c2 b1bd 0811 cf3b 153a 0cbd 9458 093c
00000080: aa4e 58bd 0b4c 5e3e 43b5 e83e ddbb 83bd
00000090: e30e 6fbd bac2 093f cce7 ba3e a546 86bd
000000a0: 79c1 c2bc 9e8e 96bd 6e01 1abd 07ab d83e
000000b0: 36f0 db3e 8ec9 913e 3edc 2d3c 4f6e 7c3e
000000c0: 84b9 9b3e 7508 01bb b57e 0a3e d297 833e
000000d0: 6106 053f 3b69 e73e 19fa 503d fbe4 a73e
000000e0: d57d de3e f5e1 153d 9049 4d3d 30bb b13e
000000f0: 22ba cf3e 7829 453e 9247 5ebc 0545 883e
00000100: 74ec 8d3c 67aa b73c 4d7c 85bd 2149 45bd
00000110: a528 8bbd 2668 a83b 34aa 7ebd c68e 203c
00000120: fbd4 dd3e f374 ff3e 8f44 20bd 7ea1 233c
00000130: d0d0 c43c 1e4a 17bd 3629 a03c 866d cb3e
00000140: 5d32 83bb d3dd 253e 84e1 9e3e 3be4 e9bc
00000150: 4942 b63e d638 003d 0daa 0dbd 2c6f 8f3c
00000160: 25f8 d63e c16b c6ba e6cf 8e3d fc11 8b3c
00000170: 3e24 a23c a161 c3bd 2247 6f3c 2054 3fbd
00000180: 1c0a bd3e 6afc 53bd 00bc 173f ee00 18bd
00000190: 4b1b bb3e 24b3 76bd d5eb ca3d 4f4e aebd
000001a0: c1e4 4fbd 0c99 7bb9 b5da 913c 02a3 5bbd
000001b0: bbb9 c63e 81b0 5f3b a7c6 483e 7d6f 8abd
000001c0: 72cb b03e 7d5e 913c 8dec 04bd 1410 993e
000001d0: e3e7 e8bc 2d72 1b3d 5466 0e3d a051 b53e
000001e0: d296 ea3e c6e3 96bd 9004 33bd 285f b6bd
000001f0: 9803 933e f8ca 753e 71ca a33e 9432 073c
00000200: f1b8 553d 5e1c d03e 98e6 133f 6629 113f
00000210: ab38 e4bc 8b7a ff3e 5e3f 083f fce2 e53e
00000220: 53c2 eebc 12bb a63e 95eb 6e3e 9159 42ba
00000230: 1afe 7b3b 1ec8 383e 3bde 6abd 307c a13e
00000240: 5452 893c c7c1 3d3d 914f c13d 727f e93d
00000250: 4923 97bc 8f5a adbc fe4a 273c 4f78 27bd
00000260: d066 c53c 14cc c73e 21d3 bd3e 04c4 7bbd
00000270: 5e8c d23e 2416 73bd 7d73 db3e bd21 dc3e
00000280: 5707 22bd ffad bc3c 5854 e23e 1112 d03c
00000290: 3dff 8abd 30f4 483d 6499 0c3d 402a 3abd
000002a0: 82a4 613c d979 d73e 279d 343c b39c 61bc
000002b0: 3891 493d f8da 443d c982 a33e 8bee ec3e
000002c0: 32b4 5bbd e91e c8bc 30ee 113f becb 9dbd
000002d0: f305 a33e d6b1 e73e 5017 cc3b 0d3f 8abc
000002e0: fa06 023f c1cb 4fba e2c4 d9bb 1ff4 b53d
000002f0: f43e 7abb 18a8 9f3e 37fc 343f 63da 6b3e
00000300: 45cb 933d 7520 de3e 3137 c2bc 5ace f53e
00000310: 474a 21bb 75b7 1a3d 95ec 81bd a6b5 19bb
00000320: 5b92 8a3e d6d4 9fbc e01e b2bb aba5 6fbd
00000330: c6e2 2b3d 8957 d63b 9214 dabb 06b8 2f3d
00000340: f2c0 5cbd 0f1b 333e ceec 1ebd 677f a1bd
00000350: 0010 35bd c2b2 843e 945d 423e 6e41 003d
00000360: 16b4 6b3e cba5 063f add2 8dbc bca9 e23e
00000370: 727d c23e 35c0 8bbd 40ff e73e 23e1 66bd
00000380: bfed 493e 9192 5e3d 4d0d 8bbd 5b7c 66bd
00000390: 687f 9dbc 97da 363c 1e8c 5c3e e367 f539
000003a0: f4e6 d83e 4b43 08be 28fb 35bc 6e81 fc3e
000003b0: ba81 56bd fecc c1bd f2b3 dabc 83c5 e8bc
000003c0: 8599 193d 4426 f5bc 1d2e 0bbd b893 babd
000003d0: 7ee3 b63e 4625 b73e 487b 173f 9963 cebc
000003e0: da38 9a3e add8 d33e 1162 e43e ff91 443e
000003f0: d187 143e 97bd 26bd c025 a53d b06b a33e
-0.02855978 -0.058573913 0.4205002 -0.020012466 0.2383303 -0.07298671 -0.008746338 0.38394046
0.27202034 0.49088407 0.09837346 -0.062929906 0.14686354 0.13303635 -0.0024684498 0.026768656
-0.0123550305 0.040141158 -0.004527117 0.3429828 0.14449818 0.36559474 -0.0109973475 -0.043949157
-0.0045435084 0.31507355 0.027172105 0.12149798 -0.08679712 0.006319169 -0.03423508 0.008382935
-0.052809395 0.21708696 0.45450792 -0.064323165 -0.058363806 0.53812754 0.36504972 -0.06556443
-0.023773896 -0.07351421 -0.03759902 0.42317984 0.42956704 0.28474087 0.010611592 0.24651454
0.30414975 -0.0019688879 0.13524897 0.25701767 0.5196286 0.45197472 0.05101976 0.32791886
0.43455377 0.036592443 0.050118983 0.34713125 0.40571696 0.192541 -0.013566868 0.26615158
0.017324664 0.022420121 -0.06517849 -0.048165444 -0.06794862 0.0051393686 -0.062174037 0.009799665
0.43326554 0.49893913 -0.039127883 0.009987233 0.02402535 -0.036935918 0.0195509 0.39731997
-0.0040038065 0.161979 0.3103143 -0.028551212 0.35597447 0.031304203 -0.034586 0.017509066
0.41986194 -0.0015138314 0.06973247 0.016976349 0.019792672 -0.095401056 0.014604362 -0.046711087
0.36921775 -0.051754393 0.5927124 -0.03711026 0.3654426 -0.060229436 0.09908263 -0.0851103
-0.050755266 -0.0002399424 0.017804483 -0.053622253 0.38813576 0.0034132304 0.1960703 -0.06759546
0.34530216 0.01774525 -0.032452155 0.2989508 -0.028430885 0.037950683 0.034765556 0.35413837
0.45818192 -0.07367663 -0.043705523 -0.08904868 0.2871368 0.24003208 0.31990388 0.008251805
0.052178327 0.40646642 0.57773733 0.56703794 -0.027859053 0.4989818 0.5322169 0.44899738
-0.029145395 0.32564598 0.23332055 -0.0007413859 0.0038451017 0.18045089 -0.05734084 0.3154006
0.01676289 0.04632738 0.09439004 0.114012614 -0.018449442 -0.021161346 0.010210751 -0.04088622
0.024096876 0.39022887 0.3707514 -0.061466232 0.41122717 -0.059347287 0.42861548 0.4299449
-0.03955778 0.023032187 0.44204974 0.02539924 -0.06786964 0.049061 0.034325972 -0.04545045
0.013772132 0.4208515 0.011023796 -0.01377027 0.049210757 0.048060387 0.3193572 0.46275744
-0.053638645 -0.024428802 0.5700407 -0.07704876 0.31840476 0.45252866 0.006228365 -0.016875768
0.50791895 -0.0007926785 -0.0066457847 0.08884453 -0.0038184496 0.31182933 0.7069735 0.23032527
0.07216505 0.43384138 -0.023707958 0.48008996 -0.0024610923 0.037772615 -0.063439526 -0.0023454218
0.27064785 -0.019510668 -0.0054358095 -0.058507603 0.041964315 0.0065411967 -0.006655284 0.042900108
-0.053894944 0.17490791 -0.038800053 -0.07885628 -0.044204712 0.2591763 0.1898101 0.0313124
0.23017916 0.5259673 -0.017312372 0.44270122 0.37986332 -0.0682377 0.45311928 -0.05636705
0.19719599 0.054338995 -0.06789646 -0.05627094 -0.019225791 0.011160514 0.21537825 0.00046807443
0.42363703 -0.1330692 -0.011107244 0.49317497 -0.05236981 -0.09462927 -0.026697133 -0.028414493
0.037499923 -0.029925473 -0.033979524 -0.09110206 0.35720438 0.35770625 0.5917249 -0.025193976
0.301215 0.41376248 0.4460607 0.19196318 0.14504935 -0.04070815 0.08063841 0.31918097

q.weight f4 [1, 256]
00000000: c86e cf3b 82f2 6d3b bb6f 06bf 6284 d1bc
00000010: f93f 1ebc 503c 4a3b e60d 1dba 5ed1 33bd
00000020: 56b1 62c0 1b20 9fbd 7cd9 893b 24d2 8ebc
00000030: d140 babf ea88 2d3b 9acd e6bb dc15 0e3d
00000040: 1829 453d 2543 113c d424 023d 4de2 20bc
00000050: 45d6 923b 9453 30bf 04c9 8f3c b922 513c
00000060: e7e3 bc3c d005 14bc ac5d 7bbb 7463 4d3b
00000070: c0b7 ca3c ce0d 263d de33 223d 1771 b93a
00000080: 766b 2f3b c55e 34bc 3148 e6bd 0dab 11bd
00000090: 4816 4b3d 3330 a3be ea6a d8bc 26a6 263d
000000a0: 0cef 8e3c c904 503c 4d6c 903b 29db 45bd
000000b0: 7ac7 34bd 50e1 b4bc 8e12 a03c 0d89 39bd
000000c0: 0d4e 53bc 96ca 283d 668d 043b 0c0b 42bc
000000d0: 179b e3bd 9d49 ccbf 2df6 9e3c db8a 8cbc
000000e0: ffdd 7abf 769b a739 fed6 98bb 9b0a 19bd
000000f0: 0e37 9cbd db13 0fbc dbfd f83b 8ec9 73bc
00000100: bc81 883c 2a53 ea3c 66d3 ac3c 7d01 143b
00000110: 3c9f 01bd 2e18 2a3c 338a e23b 7fbb 27bb
00000120: 1566 7ebf 4cd7 87bd 8160 cbbc 8f60 2cba
00000130: 7cb5 0f3d 4aa2 ee3c bb1a 7c3c fae3 70bd
00000140: 8583 8cbb 7641 84bc 978d 0abe ffe3 b33b
00000150: 953d ae40 7e74 1e3c 4111 533d e068 473d
00000160: 66d4 b4bd 3063 c33c d18c 8f3e 0796 3d3d
00000170: 6e26 18bc cc7e f6bc 661b a13c 7cd2 063d
00000180: 8954 55bc a4ce 003d b818 9abe 55ed 9d3c
00000190: a019 99bc cf48 313d 96ea ab3b db01 f03a
000001a0: 0e74 2fbd 93f1 e3bb 925b 633d c1f3 593c
000001b0: dad0 78bf 4015 31bb 5cd9 88bc 8a56 eb3c
000001c0: 5358 09bd 1eec ae3c 84f7 813c 5a39 b740
000001d0: c9f2 523d a61e 2e3d 3162 583b 18c7 9dbc
000001e0: 3764 83bd 26a9 99bb 383f 5f3d 5695 9b3c
000001f0: 1340 18bc 803f a7bc c8c8 0bbd 765e 2d3d
00000200: 3983 5c3d f60b c8be 8b69 9dbf a42b 09bf
00000210: 4879 473d 5a1d 8ebd 0189 b1be cd99 10bd
00000220: d959 403d e6e1 2ebc fa1d 14bf 0880 493d
00000230: 06c0 9dbc 4a77 b0bc 94fc 8f3c 476c 9abc
00000240: ca9b 6d3c b319 fb3c f646 413e d3f8 673c
00000250: f0c5 9d3e eca0 0e3c bddc 163d 2e4a aa3c
00000260: 509e 423d 56e0 9cbc 9899 48bf 898a 5a3d
00000270: db3e 9cbc c23d efbb b8fb dbbc 5cd8 01bd
00000280: a0d1 413d 3ea5 993a b9fb 97bf de97 223d
00000290: a5cf 9d3b 2439 023b 75af 933c 2674 a63c
000002a0: b232 623c 1ced 7ebd 6ba9 7e3c f320 7f3c
000002b0: 3479 023d 8f62 343d a850 b3bc 130a 14bf
000002c0: 6f29 3d3d ed3d 123d b2fe b7be 1fb5 b33c
000002d0: caf3 8abb 1838 bebd 1d1d 123d 0446 f7bc
000002e0: 7ad1 a0be 5047 443d 33c7 753c 9757 b73a
000002f0: deec 98bb 86c7 b9bb 358f d4be a7fb ddbc
00000300: 6b81 90c0 3a62 5ebd b4a9 fcbc 94ab d0bd
00000310: f5f4 163d 737d fa3c 5a65 6e3c 5f27 3b3c
00000320: 8866 f7bb c8ac 4d3d 5f96 b53b 7284 643c
00000330: 6d40 1c3d 4a88 ea3c 046e 813c 44ba 063d
00000340: 43a4 f93c 9654 febc 2619 18bb dd32 853c
00000350: 233e 643c 337d 57bc 48f9 abbc 29cc da3c
00000360: 0ece 38bc 3642 c3be 3f55 373c af4f 63bd
00000370: 658c 4ebd e263 653c 5d57 46bf 5ba1 fd3c
00000380: f691 27bf 30f5 4cbd 29df db3c 7c61 043c
00000390: 8731 a2ba 5366 f53c 9af8 debc 4972 ddbc
000003a0: 9b10 4cbd aa23 de3f f890 c83c fd94 80be
000003b0: 2d3a 83bb 6fe9 a03e 78b0 c93c 2865 b53c
000003c0: 3261 ed3c 5721 3f3d 3bab ff3c 0bea e1bc
000003d0: eab3 1cbf 3391 81bc a447 9cbe b81e c13c
000003e0: 64a6 cbbf 1fbd 5abd 7b06 dfbc b6bb aa3b
000003f0: 2a75 b2bb a291 d43c 6987 683b f369 39bd
0.006330345 0.0036307876 -0.5251424 -0.02557582 -0.009658807 0.0030858703 -0.0005991146 -0.04390084
-3.5420737 -0.077697955 0.0042068344 -0.017434187 -1.455103 0.0026479312 -0.0070435526 0.034688815
0.048134893 0.008866106 0.031773403 -0.009819579 0.0044811093 -0.6887753 0.017551906 0.012764626
0.023057891 -0.009034589 -0.0038355393 0.0031339796 0.024745822 0.04054051 0.039600246 0.0014148083
0.0026766933 -0.011008923 -0.11244238 -0.035563517 0.049581796 -0.3187271 -0.026418168 0.040685795
0.01744797 0.012696453 0.0044074417 -0.04830471 -0.04413555 -0.022080094 0.019540098 -0.045296717
-0.012897027 0.041208826 0.0020225882 -0.011843454 -0.111135654 -1.5959965 0.019404495 -0.017156055
-0.9799499 0.0003196855 -0.004664301 -0.03736363 -0.07627688 -0.008732761 0.0075986213 -0.014879597
0.016663425 0.028604109 0.021096896 0.0022583895 -0.031646 0.010381741 0.0069134473 -0.0025593934
-0.99374515 -0.066328615 -0.02482629 -0.00065756676 0.035085186 0.02913012 0.015387232 -0.058811165
-0.0042881393 -0.016144495 -0.13530575 0.0054898257 5.4450173 0.009671329 0.051530126 0.048684
-0.08829574 0.023851007 0.28037122 0.046285655 -0.009286506 -0.030089758 0.019666385 0.032915577
-0.013020643 0.031447068 -0.30096984 0.019278208 -0.018688977 0.043282326 0.0052464707 0.00183111
-0.042835288 -0.006956288 0.05550725 0.013302744 -0.9719368 -0.0027020723 -0.016705208 0.028727788
-0.0335315 0.021352824 0.015865095 5.725751 0.05150107 0.042509697 0.003301751 -0.019259974
-0.06415599 -0.0046893535 0.05450365 0.018992107 -0.00929262 -0.020416021 -0.034127027 0.042326413
0.05383608 -0.39071625 -1.2297834 -0.53582215 0.048699647 -0.06939192 -0.34674838 -0.035302926
0.046960685 -0.010673976 -0.5785824 0.049194366 -0.019256603 -0.021541256 0.017576493 -0.018850459
0.014502475 0.030651903 0.18874726 0.014158445 0.30815077 0.008705359 0.036831606 0.020787325
0.04751426 -0.01914994 -0.78359365 0.053354774 -0.01907294 -0.0073010633 -0.026853427 -0.031700477
0.047319055 0.001172222 -1.1873695 0.039695613 0.004816013 0.0019870484 0.018028 0.020319056
0.013806032 -0.062237844 0.015543322 0.015571821 0.03185387 0.044039305 -0.021889046 -0.5782787
0.046182092 0.03570359 -0.35936505 0.021936951 -0.0042404877 -0.09288043 0.035672296 -0.030184753
-0.31409818 0.04791957 0.015001106 0.0013987896 -0.0046669086 -0.005669537 -0.41515508 -0.027097536
-4.515798 -0.054292895 -0.03084264 -0.10188976 0.036854703 0.030577397 0.014550531 0.011422961
-0.0075500645 0.050213605 0.0055416073 0.013947593 0.03814738 0.02862944 0.01579953 0.03289248
0.030473834 -0.031046193 -0.002320835 0.016259605 0.01393083 -0.013152408 -0.02099289 0.02670868
-0.011279596 -0.38136452 0.011189758 -0.055495914 -0.05042686 0.014000865 -0.77477056 0.03096073
-0.65457094 -0.050038517 0.02683981 0.008079883 -0.001237438 0.029956019 -0.027218152 -0.027032034
-0.049820524 1.7354634 0.024483189 -0.2511367 -0.004004738 0.31428096 0.02462028 0.022142962
0.02897701 0.046662655 0.031209579 -0.02757742 -0.6121203 -0.015816307 -0.30523407 0.023574218
-1.5910153 -0.053403016 -0.02722477 0.005210365 -0.005446096 0.02594835 0.0035481101 -0.045267057
