TD3/models/pendulum/00000500/target_critic_1.pth (torch, 271127 bytes, 5 tensors)

fc1.weight f4 [256, 4]
00000000: da6c 733f fa10 37bf 3d1c 4b3e f324 58bd
00000010: ebff eebe ccef 3dbe db53 c3bd 0dda 14be
00000020: caba 373f 5b81 d3bf 9a73 d3be de5b 7bbd
00000030: 96c9 39bf be8b 9dbe 6191 c3be d164 1dbe
00000040: 7c41 53be 0bd7 83bf 2b7e 84be dc39 953e
00000050: 991d 1fbf 5fbf 2abf 5fc5 cebe f7fc 2abb
00000060: c86d dbbe a03b 5e3f b243 b73d 1b34 093d
00000070: e58c fa3f 7992 ccbe 0349 83be 12b6 c5bd
00000080: c1ec 8c3f 602f 873f dc6c c53e 81c6 893d
00000090: 0585 413f b9fc 133f 6d02 46be 5f58 873d
000000a0: 71e0 24bf 0e36 3fbe 9c53 bdbe e5e8 6d3d
000000b0: 828f 1a3f 1b9a bebf 562c b6be 688a 98bd
000000c0: 8265 94be 269f bd3e e10c 863e 066a 443e
000000d0: e920 003f 9434 5b3f 64ef 693e 0fc9 0d3e
000000e0: 1117 833e 49f2 0bbe d582 5b3d 191b 6c3c
000000f0: 079c 2e3f 1aa5 14c0 1400 0ebf 63ac 2cbd
00000100: 48f4 873f 191d a23d 65a6 663e 306b 873e
00000110: 2b35 0ebf a42f 61bf f2f0 593b 082e 04bf
00000120: b0bc eb3e c446 d73f acf1 473e 8680 313d
00000130: c93d 903f 538a 29bf d645 a03d 1e2f ccbb
00000140: 59c6 6bbf e02a a23f d2ce 83bb ff9e f93d
00000150: d31d 6abe 413a 77bf aba0 4fbe f30a b0bc
00000160: ac8f ac3d 1613 243e 62ab 82bd 530e bf3e
00000170: 7f79 873e 71b6 b6bf ceb8 9cbe 3864 8fbd
00000180: 125c 933f 07d1 ab3f 7363 df3e ebe7 fc3c
00000190: b55e c53e 253b b73e 6a96 5abc d5c2 5bbc
000001a0: 8621 9c3f 08e4 8a3f 2dfc d93e 8e6d 863d
000001b0: 1541 933f a67f 1dbf 700e abbe 1a48 86bd
000001c0: 5709 553f ceb5 b13e 4a58 a73e f884 263d
000001d0: be7a 78bd a82f 9f3f d7f3 973e 907c 003d
000001e0: 0cc2 e73d 1afe f9bd f463 b93d 3410 233e
000001f0: ee5f 70bd 74d6 0eba 2ff1 49bc b650 663e
00000200: 8656 793f dca9 e13e c04c b03e ed2b 063d
00000210: e8a7 7a3f b8b1 343f 8ead b13e bcde 8c3d
00000220: 41bc 563f 1a57 b33f c243 c43e 6df1 ca3d
00000230: 12f0 e03e d25b 73bf 761b 893e d0d2 1f3e
00000240: ad0f e33f bd1e a23e b235 a2bd 739c 01be
00000250: 4bc3 48bd 09e3 3abf 8c91 2bbd 29ef c8bc
00000260: 99e7 3dbf 5b29 753f 2243 833e 205a 6c3d
00000270: 2a75 9cbe e0ea 3cbf 38f6 0c3d 6877 c03e
00000280: 8084 4fbe ff83 b03e 42f6 4dbe 9682 0a3e
00000290: b415 4d3f 383d a0be 4983 aebe 4f74 87bd
000002a0: ebd4 003f fa8a b73f eafb 993e 84fd 4e3d
000002b0: fefa 19bf 2d23 9cbf 9f13 9cbe 4c38 8ebc
000002c0: b83d cb3e f8e2 69bd 6582 bb3e f873 673e
000002d0: 5061 08bf 9a49 63bf 28c4 35be 2df8 1dbc
000002e0: b1c3 1c3e be30 263f a8bf c53e 4523 013e
000002f0: 7506 6d3f c416 c13e 93d0 b83e 0c8b 5a3d
00000300: aff9 723f 64b9 b3bf fc4d c3be eda5 b0bd
00000310: 02d4 98be 9103 8bbf 2e94 15be 37b9 083d
00000320: 6678 693f 85b9 34bf d90c 98be 96eb 5ebd
00000330: f66a a23c 2b55 00be ad56 b6bc bbf7 563d
00000340: 3d89 57bf aa31 db3d 75a8 ccbd 85db 48be
00000350: 8b17 e2bd cc7b 5bbe b385 9f3e 1a93 babc
00000360: 25af 9ebe cc3f 3b3e 47fe 02be fcab 87bd
00000370: 6f5d 013f a304 aabf 08a4 a5be 9213 1ebd
00000380: fb80 3bbf 2bf1 833c a98d 7d3d d156 d53c
00000390: 401b d7be d07e c33e 922b 103e 3c77 713d
000003a0: 23af 903f 370c 123f 4750 243e ceb1 c5bc
000003b0: 73b5 5abe 519c d1bd ae88 c9be 491e 22be
000003c0: f1c8 9bbe 4e89 e4be 534e 8fbe 6bd2 c33e
000003d0: 4e69 8d3f 8daf 0f3f 88d6 c63e ee32 af3c
000003e0: 415f 1fbe d7e8 c43f fdfe 883e a14e 253d
000003f0: d9d9 05be bd26 0c3f 65dd 92be 44b3 f53c
0.9508797 -0.7151028 0.19834991 -0.052769613 -0.46679625 -0.18548506 -0.095374785 -0.14536305
0.7176939 -1.6523851 -0.41299134 -0.06136691 -0.7257322 -0.30770677 -0.38196853 -0.1537049
-0.20630449 -1.0300001 -0.2587751 0.29145706 -0.6215454 -0.6669826 -0.40384957 -0.002609072
-0.42857194 0.8680973 0.08948459 0.033496957 1.9574248 -0.399555 -0.2564164 -0.09653868
1.1009752 1.0561333 0.38559616 0.06727315 0.75593597 0.578075 -0.19336863 0.06608652
-0.6440497 -0.18672964 -0.3697785 0.058083434 0.60375226 -1.4890779 -0.355807 -0.07448274
-0.28983694 0.37035483 0.261817 0.1918107 0.50050217 0.856271 0.22845227 0.13846229
0.25603536 -0.13666643 0.053591568 0.014410757 0.6820683 -2.322577 -0.5546887 -0.04215659
1.0621424 0.07915706 0.22524412 0.26448965 -0.5554988 -0.8796332 0.0033255187 -0.5163274
0.46042395 1.6818471 0.19525784 0.04333546 1.1268855 -0.6622669 0.0782582 -0.0062312027
-0.9209953 1.2669334 -0.0040224576 0.12188529 -0.2286294 -0.96573263 -0.20276134 -0.021489596
0.08425841 0.16022906 -0.06380345 0.37315616 0.26459882 -1.4274427 -0.30609745 -0.07001537
1.1512473 1.3423165 0.4363056 0.030872306 0.38548818 0.3578731 -0.013341526 -0.013413151
1.219773 1.085084 0.42575207 0.06563865 1.1504236 -0.615229 -0.33409452 -0.06556721
0.83217376 0.34709018 0.32684547 0.040654153 -0.06066393 1.2436419 0.29678223 0.031368792
0.113163084 -0.12206669 0.09052268 0.1592415 -0.058685236 -0.0005448826 -0.012325569 0.22491726
0.9739765 0.44074905 0.34433556 0.032756735 0.97912455 0.7058368 0.34702724 0.06878421
0.83881 1.4010956 0.38332945 0.099093296 0.4393316 -0.9506198 0.26778764 0.15607762
1.7739159 0.31664076 -0.07920398 -0.12657337 -0.04901437 -0.7300268 -0.04188685 -0.024528103
-0.74181515 0.9576623 0.25637156 0.057703137 -0.3055814 -0.7379589 0.0344145 0.375911
-0.20265388 0.34475705 -0.20113471 0.13526377 0.8011124 -0.31296706 -0.34084538 -0.06613981
0.5032489 1.4339287 0.30075008 0.05053474 -0.6014861 -1.2198235 -0.3048372 -0.017360829
0.39695525 -0.05710122 0.3662292 0.22602832 -0.5327349 -0.8878418 -0.17750609 -0.009641689
0.15309025 0.64918125 0.38622785 0.1261111 0.9258798 0.3771268 0.3609663 0.05335526
0.94912237 -1.4040952 -0.38145435 -0.08625398 -0.2984925 -1.0860463 -0.14607307 0.03337976
0.9119934 -0.7059558 -0.29697302 -0.05442389 0.019826394 -0.12532489 -0.022258127 0.052482348
-0.84193784 0.10702832 -0.09993068 -0.1961499 -0.11039647 -0.21433944 0.31156692 -0.022775222
-0.30993 0.18286055 -0.12792312 -0.066246 0.50533193 -1.3282665 -0.32351708 -0.038592882
-0.73243684 0.016106209 0.061902676 0.026042374 -0.42012978 0.38182688 0.14079121 0.0589516
1.1303447 0.5704989 0.16046248 -0.024132635 -0.2135828 -0.10234893 -0.3936209 -0.15831865
-0.30426744 -0.44636005 -0.27989444 0.38246474 1.1047761 0.56127244 0.3883555 0.02138659
-0.1556368 1.5383557 0.2675704 0.04035819 -0.13071384 0.5474661 -0.28684536 0.029992707

fc1.bias f4 [256]
00000000: f08a e6be 9ca9 173f f76a efbe ccc0 4abf
00000010: 304e 4bbf 584a 13bf 9393 ff3e b93c cbbe
00000020: bafa 6ebf ad9e 07bf 2a67 24bf 918f 40bf
00000030: 526d 19bf f013 ea3d 4e87 5a3e dc7c 31be
00000040: 0ecd 9f3b 0f1f 37be 7b8c 12bf 210f a53e
00000050: 51bf 6bbe b813 efbe 2fa2 9dbe 56d3 cbbe
00000060: 625f 5dbf 6ecf 97be 7b6d 87bf fef4 6abf
00000070: 30f9 a1bf 9aca 39be 6636 dd3e 1b39 343f
00000080: bc53 9bbf 2156 85bf d076 13bf fd54 ba3e
00000090: d4ca 7c3d 7922 8e3e 3c4a a93e d1e4 113f
000000a0: 7c86 7ebf 0dff b0bf 338c 34bf 8cd2 ca3e
000000b0: cfbb 6abf e037 cc3e 6846 6fbf f36e b2bf
000000c0: 9441 07bf af6d 223e caa5 49bf e665 113f
000000d0: e328 183f 567b 9cbf 7748 6b3f 8ba5 98be
000000e0: 4107 383e aaac aa3e bbfa 16bf e661 b0be
000000f0: e69a 38bf c61c a7bf 3ca9 65be be8e 8bbf
00000100: 7383 01be 7478 2abf be8d f53e fc90 8f3e
00000110: 936b 2c3f 6a49 5dbf d939 84be fdd5 dfbe
00000120: 0a0a f1be ea8b c43e 7510 453f e0fd 643f
00000130: 3670 e63e b5e3 77bd 65fd db3e 70cb 6bbe
00000140: 1cac c3be f26b 44bf 1aae 14bf db21 2c3f
00000150: 63b5 a63e 14ec e23e f9cf 7fbf e3ba 63be
00000160: e5e0 613f 3592 18bf cdf4 c53e 35e3 e63e
00000170: e35d 66bf b694 053f 7730 3f3f 3d28 1cbf
00000180: 2376 1b3f 5110 f93e 250b d5bf 58db 7bbf
00000190: 1173 d2be 7857 a6be a5f6 8cbf d6cd f6be
000001a0: ca87 013f 5fa3 22bf 761d 573d e975 c6bd
000001b0: 44ae 63be e24f a6be 2e0f 07bf 16a0 4cbf
000001c0: 9474 1c3f b437 d5bd afc8 2a3f af85 e93c
000001d0: 8b50 2abe c4bc 72be 565b 4ebf 12b0 4bbd
000001e0: 8866 083f ae24 2cbf b8f5 6bbe 5957 d3bf
000001f0: dd2b d5be 65b9 32bf b8df 59bf a1c6 213e
00000200: b003 413f b1b0 1cbe ad2c 563e 1f8e 5e3e
00000210: 0e30 9fbe 42b4 0a3f 74c2 62bd 3f06 0b3f
00000220: 0f3f 223f f220 4fbf 5ee3 0d3e 13bf b83d
00000230: 73a8 a83e c56b 8dbf 1afd a03d b55c 07bf
00000240: 9082 55bf acd8 473e 5cf3 c4be b8e3 85bf
00000250: e874 f0be 6bec a43e bb0e 17bf ce2c 54bf
00000260: 7030 293f f3f2 0b3e 3978 843f d09a bfbe
00000270: b8a5 97be 34bc 913d 870f d4bf 65cb 93bf
00000280: adc9 6d3d 351f 27bf bfa1 083f c266 c83d
00000290: cc1b 293f 6e48 55bf bfc2 84bf a7e9 1cbf
000002a0: 36e9 22be 81da c6bf ca75 d3bf e70b 8d3a
000002b0: 2582 a3be d0b1 7ebf cf9a fabe f05b 37bf
000002c0: d6ee e73e 0ac4 353f 469b c43e bde8 3abe
000002d0: ee58 e03d 5ebf 78bf 5366 dfbe 69f9 a93e
000002e0: 6728 9ebf 8bc4 48bf a1da 3c3f 3f7f 3d3f
000002f0: c910 7ebf 9aae 00bf b47c 11bf 1dba 94bf
00000300: 9e44 a6be da4c 45bf da5c 30be 5913 1e3e
00000310: 05a8 21bf 9815 b23e 0282 fcbe ac29 1d3e
00000320: 7db8 aabe e61a bcbe 4593 0a3f 566e 703f
00000330: 0bb4 473f b8cc 97be 28bf b8be 9d86 14bf
00000340: d9eb e03e 99b4 d2be 17ef f1be b1ea df3e
00000350: f6e5 5dbe e6c9 b7be cff6 68bf 7878 9dbd
00000360: 2f10 453f d0ca 81bf 00c1 163e 26b7 4cbf
00000370: d5b3 65bf f487 f6be 85b8 1ebf 9b49 f8bd
00000380: 66fd 373e cf9c 013f 6caf 76bf 83c8 99bf
00000390: 6fc3 71be cb08 febd 36d9 a3be c7ed 273f
000003a0: b383 533f f8fb cebe b0fa 493f 0435 3fbe
000003b0: f204 953e 7032 b93d e856 5abe c79a c2bf
000003c0: 2144 81bf 5527 c93e c310 2ebf 5665 643e
000003d0: c549 9dbf ffe7 26bf 79a2 ed3e b366 b3bf
000003e0: 14a4 a7bf 0726 d93c 9229 88bf 7515 50bf
000003f0: b46d bebd 6c51 8fbe 70c5 5cbf 9755 da3e
-0.45027876 0.5924318 -0.46761295 -0.79200435 -0.7941618 -0.57535315 0.49917278 -0.39694765
-0.9335133 -0.52976495 -0.64219916 -0.75219065 -0.59932435 0.11429584 0.21340677 -0.17332786
0.0048767393 -0.17882942 -0.57245606 0.32238105 -0.230222 -0.46694732 -0.307878 -0.39809674
-0.8647367 -0.29650444 -1.0580286 -0.9178008 -1.2654171 -0.18143693 0.43205565 0.70399636
-1.2134929 -1.041691 -0.5760317 0.36392966 0.06171687 0.27760676 0.3306445 0.5698977
-0.99423957 -1.3827835 -0.7052643 0.3961376 -0.91692823 0.3988638 -0.93466806 -1.3940109
-0.5283444 0.15862153 -0.787686 0.5679611 0.5943739 -1.2225139 0.9190745 -0.298138
0.17971517 0.33334857 -0.58976334 -0.3444969 -0.72111356 -1.3055656 -0.22427839 -1.0902936
-0.126478 -0.66590047 0.47959703 0.28040302 0.67351645 -0.86440146 -0.25825384 -0.43717948
-0.47077972 0.38387996 0.76978236 0.8944988 0.45007485 -0.060519893 0.42966762 -0.23026824
-0.38217247 -0.7672721 -0.5807816 0.6723916 0.32560262 0.44320738 -0.99926716 -0.2223926
0.88233787 -0.59598094 0.3866333 0.4509522 -0.8998701 0.5218004 0.74683326 -0.609989
0.6072714 0.4864526 -1.6644026 -0.98381567 -0.41103414 -0.32488608 -1.101277 -0.48203915
0.5059782 -0.63530535 0.05251833 -0.09690458 -0.22234446 -0.3248282 -0.5275754 -0.7993177
0.61115384 -0.10411015 0.6671247 0.028506128 -0.16632287 -0.23704821 -0.8060812 -0.04972846
0.5328145 -0.6724347 -0.23042953 -1.6511031 -0.41635028 -0.6981414 -0.8510699 0.15798427
0.7539625 -0.15301777 0.2091548 0.21733902 -0.3109135 0.541813 -0.055361226 0.54306406
0.6337747 -0.80909646 0.13856265 0.090208195 0.32941017 -1.1048514 0.07860775 -0.52875835
-0.8340235 0.19516248 -0.38466918 -1.0460119 -0.46964192 0.32211623 -0.5900685 -0.82880867
0.66089535 0.13666897 1.0349189 -0.374228 -0.2961862 0.07115975 -1.6567239 -1.1546446
0.05805366 -0.65281993 0.53371805 0.097852245 0.6605804 -0.83313644 -1.0371932 -0.61294025
-0.15909275 -1.5535432 -1.6520321 0.0010760993 -0.3193523 -0.9949007 -0.48946235 -0.7162466
0.45299405 0.71002257 0.38399714 -0.18252845 0.10954462 -0.97167003 -0.43632755 0.33198097
-1.235608 -0.784249 0.737711 0.7402229 -0.9924436 -0.5026642 -0.56830907 -1.1619297
-0.32474226 -0.7707039 -0.1722292 0.15437068 -0.63147 0.347821 -0.49317938 0.15347928
-0.33343878 -0.36739272 0.54130965 0.9391836 0.780091 -0.29648376 -0.3608334 -0.58017904
0.43929937 -0.4115341 -0.47252724 0.43733743 -0.21669754 -0.35896224 -0.910016 -0.07688993
0.7697782 -1.0140018 0.14722061 -0.7996696 -0.89727527 -0.481506 -0.62000304 -0.12123414
0.17967758 0.50629896 -0.9636142 -1.2014316 -0.23609708 -0.12404021 -0.32001656 0.65597194
0.8262283 -0.40426612 0.78898144 -0.18672568 0.29105335 0.09042823 -0.21322215 -1.5203484
-1.0098916 0.3928782 -0.67994326 0.22304282 -1.2288138 -0.6519775 0.4641302 -1.4015716
-1.3096948 0.02650739 -1.0637686 -0.8128274 -0.09298268 -0.27991807 -0.86238766 0.42643425

fc2.weight f4 [256, 256]
00000000: fabb 5ebd fb7e e4b9 4cc1 063d 57ef 3e3d
00000010: 940e 74bd 1ab8 5bbd 479f 303c 4016 4e3d
00000020: 28b1 d7bc 3c9b 71bd 3a1a e13c c0fc cb3c
00000030: 90ed 2dbd b560 84bc 59b6 d43c 5d6e 1238
00000040: 0819 bdbc 5d11 153d 7c89 75bd 7df0 1a3d
00000050: b290 1cbd 4b4e 63bd 660d 1bbc 5439 70bd
00000060: e82e 12bd cd56 85bd 6282 763d e0dd 07bb
00000070: bcc7 483d 1a32 6dbd 14d6 f2bc 8b48 e5bc
00000080: 36ba 0dbd 60ee 3fbd beab 1abd e0d4 b5bc
00000090: 5a45 d2bc 8938 573d 248d 743d d42d f4bb
000000a0: 2f2c 2fbd 339f 6bbd 0697 16bd 35cb 9e3b
000000b0: d484 65bd b7bc afbc 06e6 683d 9897 59bd
000000c0: 6c9a 8d3c cc2f 7fbd 92da 52b9 6d20 193d
000000d0: 765f 18bd 5ca3 20bd 0733 28bd e381 00bd
000000e0: 5dc1 993c 3b1b 65bd efa6 3f3c 1488 ffbc
000000f0: 2826 33bd 281f 70bc a863 08bd 1e7e 1fbd
00000100: 0c5e 893c 53a2 ebbc 983a 403d 8af8 50bb
00000110: 293d 5d3d 1d71 84bd 7cb5 0f3d 8a4a 6d3c
00000120: 34ab 2a3d 9690 213d 680b 453d c671 90bd
00000130: 5760 28bc f199 563d b055 3fbd 90cd 643c
00000140: 60cd 65bc ecd9 9ebc 5540 8cbd 8067 35bd
00000150: 06c3 90bd b634 1cbd 7455 f0bc 337d 603c
00000160: fcad f1bc 303d 413d baf1 54bc 0584 8ebd
00000170: 25bb 963b 7d80 03bd 7e2c aa3b 88b9 4e3b
00000180: 7c4a 73bb 20ed 4b3b 409e 1f3b 7164 48bd
00000190: 2423 8e3a 08df ce3c 9e76 61bd f224 7dbd
000001a0: 26b7 1fbd e304 60bd 10ed 44bc fa61 ed3b
000001b0: d4db d0bc 9c1d 7d3d a614 243d eed8 763d
000001c0: fbbe 6abd 8464 74bd 1dfc 8abd 14f0 8f3c
000001d0: 5068 32bd 72d3 60bd ab82 793c cf77 3e3d
000001e0: e6fb 9fbc 52c2 55bc 0c7a fcbb 521c 3abd
000001f0: f511 8ebb a802 3bbc 46d3 1fbc 14d2 7bbc
00000200: 3605 263b c03c 1abd b442 dbbc 17ca bf3c
00000210: 961e 1bbc dd1f 9d3b ff4d b33b ccee 74bd
00000220: d78b 27bd 5258 ef3c 0437 063d 7d63 0cbd
00000230: b612 aa3b ea79 56bc 6e33 1abd e6c7 593d
00000240: a04d 52bc 01cb 4cbc 00c4 aebb 02ff ed3c
00000250: a596 01bd f5d6 02bd 03b2 fe3c 9de7 1c3d
00000260: ea9a ddbc 5316 61bd a826 35bd 0b0a 65bd
00000270: 21d9 5f3c efe7 303c 20a8 10bb 55d0 8dba
00000280: a375 61bc 28aa 643d d4a6 fdbc 8614 12bc
00000290: 5b51 e9bb 8737 3a3d f64b 74bd 24c5 73bc
000002a0: 9dd5 1f3c 40f0 d8bb 0018 e4bc d802 423c
000002b0: 1563 01bd e21e e43c c03d 2dbc 34bd 7fbd
000002c0: 9df9 80bd 0e7a 2e3c 902e c53c b7f9 a9bc
000002d0: 6001 39bc b1e3 513d d84b f43c 5077 bcbc
000002e0: 52cf d7bc bd7b 89bd ba66 e73c 7b24 f13b
000002f0: b952 c9bc 2fd7 383d 2c1d 0c3c cd11 9d3c
00000300: 459b 87bd e499 0e3d d556 02bc d230 673b
00000310: c256 7b3d 5d61 103d 357b 8abd aad7 56bd
00000320: c87a 4d3d d729 2fbb d091 c23b e53a 89bd
00000330: 6df5 82bd 8824 9b3c 5c5a 723d ce9e ab3a
00000340: ebfc eebc 8d68 9a3c 40ed 3fbd e369 7d3c
00000350: 2ebd 6fbd 926d 803c 880b b9bb 87ae bb3c
00000360: f16b 4dbd 5e06 42bd 9063 1b3d 22cf d0bc
00000370: 9574 953c 6bc6 f53c c4d9 8e3c 7c20 213d
00000380: a4ac 75bd b663 10bc 0659 73bd 0c22 fabc
00000390: 710e cebc ef17 29bd 8d5f 0fbd cd74 993c
000003a0: 39ad d53c 99cc 49bd 4eec 1cbd 4495 083d
000003b0: 0a1e 6a3c 1d22 8dbd 01f1 cebb 53fd 60bd
000003c0: 44ec 9e3c d32f fc3c 5be8 6dbc f452 7fba
000003d0: f37b 743c 1e37 7cbd 5d39 1f3c f7e6 a9bb
000003e0: 7599 86bd 6baf e4bc ed1a 03bd 6ae4 d7bc
000003f0: 08d6 433c 3525 103c 859a 1d3d 52d8 623d
-0.054378487 -0.00043582157 0.032899186 0.04661497 -0.059584215 -0.05364237 0.010780162 0.050314188
-0.026329592 -0.058985934 0.027478326 0.024900794 -0.042462885 -0.016159395 0.025965856 3.4911896e-05
-0.023083225 0.036393512 -0.05994557 0.037827004 -0.03822393 -0.055494588 -0.009463644 -0.058648422
-0.035689265 -0.065106966 0.060182936 -0.0020731613 0.049018607 -0.05790911 -0.029643096 -0.027988693
-0.034601413 -0.04685819 -0.037761442 -0.022196233 -0.025667835 0.05254415 0.059704915 -0.007451752
-0.042766746 -0.05752487 -0.03676512 0.0048460015 -0.056034878 -0.021452291 0.056859992 -0.053123087
0.017285548 -0.062301442 -0.00020108584 0.03738444 -0.037200414 -0.03921829 -0.04106429 -0.03137387
0.01876896 -0.055934172 0.011697515 -0.031192817 -0.04373756 -0.014655866 -0.033298165 -0.038938634
0.016768478 -0.028763926 0.04693088 -0.0031886422 0.054013405 -0.06466887 0.035085186 0.0144831035
0.04166718 0.03944453 0.04810658 -0.070529506 -0.010276875 0.052392904 -0.046712577 0.013965026
-0.014026016 -0.019391023 -0.06848208 -0.04428816 -0.07068448 -0.038136207 -0.029337622 0.013701725
-0.029501908 0.047177494 -0.012997085 -0.069587745 0.004599946 -0.032104958 0.005193292 0.003154369
-0.0037123254 0.003111668 0.00243558 -0.048923913 0.0010844213 0.025252834 -0.055044763 -0.061802812
-0.038993023 -0.05469216 -0.012019411 0.0072443457 -0.025495447 0.061795816 0.040058754 0.060265474
-0.05731104 -0.05966617 -0.06786368 0.017570533 -0.04355651 -0.05488915 0.015228908 0.046500977
-0.019529294 -0.013046818 -0.007704979 -0.045437165 -0.0043356367 -0.0114142075 -0.009754961 -0.015369911
0.0025332696 -0.037655592 -0.026765205 0.023411794 -0.0094677415 0.004795058 0.0054719443 -0.059798047
-0.040904846 0.02921692 0.03276731 -0.034274567 0.005190219 -0.01309059 -0.037646703 0.053169154
-0.01283589 -0.012499572 -0.0053334236 0.029052261 -0.031637806 -0.03194328 0.031090742 0.03830682
-0.027051408 -0.05495293 -0.04422632 -0.05591778 0.013662607 0.010797485 -0.0022072867 -0.0010819534
-0.013760957 0.055826336 -0.030963339 -0.008916026 -0.007120294 0.04546311 -0.059642754 -0.014878545
0.009755519 -0.006620437 -0.027843475 0.011841498 -0.031588633 0.027846757 -0.010573804 -0.062436298
-0.0629761 0.010649217 0.024070054 -0.020748956 -0.011291832 0.051242534 0.029821321 -0.023006111
-0.026343975 -0.06713054 0.028247226 0.007359085 -0.024575578 0.04512709 0.008551877 0.019173527
-0.06621412 0.03481473 -0.007955273 0.0035276902 0.061362036 0.035249103 -0.06761781 -0.052451767
0.05016592 -0.002672782 0.0059377924 -0.06700686 -0.063944675 0.018938318 0.059168205 0.0013093592
-0.029173335 0.018848682 -0.04685712 0.01546714 -0.058530025 0.015677247 -0.0056471266 0.02291037
-0.05015177 -0.047369353 0.037936747 -0.025489394 0.018244067 0.03000184 0.017437823 0.03933762
-0.059979096 -0.008812835 -0.05941107 -0.030533813 -0.02515337 -0.04128259 -0.035003234 0.018732453
0.026083576 -0.049267385 -0.038311295 0.033345476 0.014289388 -0.06891272 -0.006315351 -0.05492909
0.01939977 0.030784523 -0.01452073 -0.0009739839 0.01492213 -0.061576 0.009718266 -0.005185004
-0.06572238 -0.027915677 -0.0320081 -0.026354033 0.0119528845 0.008797933 0.03847744 0.05538208

fc2.bias f4 [256]
00000000: 62bb e53c b0a2 473d 976d 463e 8595 09bd
00000010: ee2d f53e 2d05 903c 1d1f 1a3d d41c 7bbd
00000020: 94e2 bf3e 98c9 3dbd 8196 f63e ec6d 0f3f
00000030: 157d 85bd 664b 323d f635 0f3f ddec 983c
00000040: c11a c7bd df8c 013f 26dd 213d 3f9c a7bc
00000050: 141a 093e d622 2c3e f97c a23e 867a 9abd
00000060: 7157 093f cc22 da3e 5234 1d3e 46ae a93e
00000070: b4b0 753d a5a3 c73e 1e5d 98bd 3e40 95bd
00000080: cbb9 013e 8933 5c3e 1d3f 84bd fcdf 71bd
00000090: 6e05 aa3d f84e e33e 9d86 8fbd 6ff5 343d
000000a0: 4589 f5bb 4338 1dba 6805 e63e d418 043e
000000b0: 6afe dbbc b47a 883c ab1e 60bd f5a5 06bb
000000c0: 7ad0 653a 2499 8b3d 4fcb aebb 802e f43e
000000d0: a2f4 50bd ca62 51bd b405 76bd 8aec d2bd
000000e0: 220c bd3e b21b 6b3d 268d 263e 1dbc 1d3e
000000f0: e85b 423e af3b a2bb 1dbe 8cbd 179d ba3c
00000100: c8c4 30bd 6719 323c e142 5e3e dad2 623e
00000110: 8676 273f 814c 7d3e b7b1 353e e915 563d
00000120: 5d2e 8cbd 109a e13e 22b3 0d3f 1f88 2ebd
00000130: a792 3c3e cbe4 673e 714a fc3e 44da 093e
00000140: 98f7 463e 85ab 163c 69bf c0bd 028e 52bb
00000150: c5ea 80bd 0a9e 893e af18 bd3d 24d7 093e
00000160: dc34 0d3d 3a04 3d3f 4642 1abc e702 3c3d
00000170: 3476 76bd 7436 0a3e f717 3f3e cd23 bf3e
00000180: c36f efbc 5d19 0b3e 944a 033e 1941 cb3e
00000190: cef6 ad3c 7a7c ed3e 868a 283e e391 713e
000001a0: 87a6 343d ad83 163e d020 403e 225c 46bd
000001b0: f7f2 103f 9b95 e13e 60c5 623f b370 583e
000001c0: 6544 153e 7a1b 8d3d f6ec 283e 55ce f23e
000001d0: 726a 003e 3282 5bbd b25f 023e d222 e13c
000001e0: e643 2d3e 4985 45bc c89f cb3c 70e6 433c
000001f0: 8e2b 883d 761a 17bd 9587 853e a04b 003e
00000200: a147 d83d 5022 463e 53db 723e 9ad5 54bc
00000210: 32a5 893d 94de 7bbd 62b9 5dbb 5cdc 883c
00000220: cbbb ec3e b507 173e 3f35 b43d da34 5bbd
00000230: dfa8 343c 5725 363e 7fcd 3d3d fe62 ee3e
00000240: 8dc2 2b3e 0d0f 123d 8cc1 873c 32b2 ec3c
00000250: 305b bcbd 6068 c53c c28b dc3e 0748 b13c
00000260: 2e40 9bbd 9bd8 60bc 6365 313e 91e8 583e
00000270: 76a8 283f c065 473d 0518 07bd 2549 103d
00000280: cf82 383e dcfc d43e e18d 5e3e 8efc ee3e
00000290: 5230 8b3e a4bb 7fbc f964 1f3f dbf8 e4bc
000002a0: 0b09 fa3c e7a3 463d 31ea d23c f528 1f3d
000002b0: fc91 d43e 36a0 a13c 6151 db3e 76f9 283e
000002c0: 9d70 9b3b 9d21 8bbc 9dd0 8bbd 6658 1bbd
000002d0: d48a 0a3e 240f 933d 7831 413d 6334 6fbc
000002e0: 8726 28bc d222 953e 4b99 e3bc bbcc d83e
000002f0: 183f 39bd 3d76 0cbb 1749 2fbd 603e ca3e
00000300: 664e 82be 8006 233e e74e a7bc b2d7 d3bb
00000310: 80f2 113f f155 ff3d 9d44 f23e 5f21 3c3e
00000320: 691e 5f3e 7be3 ff3b a7f6 383e 78dc 31bd
00000330: 1060 433e 02da ef3d b967 d23d e30b 6c3e
00000340: f5c6 0dbd 751c 86bd a5ef 07bd 6a00 843e
00000350: a5bf 0fbc 023b e43c 960a 343e 0e79 643e
00000360: c589 6d3e e74a 6b3e 7f4b 5e3e 6086 403d
00000370: 2bf1 1c3f 9f0a 583e 043b fdbc f48b 313e
00000380: 3613 ac3b 2cb6 ffbc 0b2c e83e 2261 5abd
00000390: 3fe5 383a ef83 b03c 6dae 123c 9280 613e
000003a0: c72c 173e 6c21 713e d26f 693e a2a6 5dbd
000003b0: b5d7 9e3c a9f0 563e a73f 573e 3bd0 fa3e
000003c0: bd0e a03e c8bb 093f 1461 f9bc 0908 dd3d
000003d0: 53bd a13d d328 f93d 3e07 92bc c6b5 263d
000003e0: bcea 033e 9225 253e cdd0 123e 4f39 3e3e
000003f0: bb13 793c 6aad 5cbd 493f 40bc 46cd 203e
0.028043453 0.048739135 0.19377743 -0.03358986 0.47886604 0.017580593 0.03762733 -0.06130679
0.37477553 -0.046334833 0.481617 0.560271 -0.06517998 0.043528937 0.5594171 0.018667633
-0.097219 0.5060558 0.039517544 -0.020460246 0.13388854 0.16810164 0.31735972 -0.07542901
0.5364905 0.42604673 0.1535199 0.33140773 0.05998297 0.38992038 -0.07439636 -0.07287644
0.1266853 0.21504034 -0.064573504 -0.0590515 0.08301817 0.44396186 -0.07008097 0.044179376
-0.0074931704 -0.00059974584 0.44926 0.12900096 -0.026854713 0.016660072 -0.054716747 -0.0020545695
0.0008766722 0.06816319 -0.005334295 0.47691727 -0.05101455 -0.051119603 -0.060064033 -0.102990225
0.3692332 0.05739946 0.16264781 0.15403791 0.18980372 -0.0049509625 -0.06872199 0.022779984
-0.043156415 0.010870314 0.217052 0.22150746 0.6541523 0.24736215 0.17743574 0.05226699
-0.068447806 0.44062853 0.5535146 -0.042610284 0.18415318 0.22645871 0.49275544 0.13462168
0.19430387 0.009196167 -0.094115086 -0.00321281 -0.06294779 0.26878387 0.09233224 0.13460976
0.03447424 0.73834574 -0.009415215 0.045901205 -0.06017132 0.13497335 0.18661486 0.37332
-0.029228097 0.13583894 0.12821418 0.39698103 0.02123585 0.4638403 0.16459092 0.23590808
0.044104125 0.14698668 0.18762517 -0.04842771 0.56620735 0.44059452 0.8858242 0.21136741
0.14576872 0.06890006 0.16496643 0.47423044 0.12540606 -0.05359096 0.12731817 0.027482424
0.16920432 -0.012055703 0.024856463 0.011956796 0.066489324 -0.03689047 0.26080003 0.12528849
0.10560537 0.19349027 0.23716478 -0.01299038 0.06720962 -0.061491564 -0.003383242 0.016706638
0.46237025 0.14749034 0.087992184 -0.0535172 0.01102659 0.17787682 0.046338554 0.465599
0.16773434 0.035658885 0.016571783 0.028893564 -0.0919708 0.024097621 0.43075377 0.02164079
-0.07580601 -0.013723518 0.17323832 0.21182467 0.6588205 0.04868102 -0.03298189 0.035226006
0.1801865 0.41599166 0.2173381 0.4667706 0.27185303 -0.015608702 0.6226345 -0.027950695
0.03052189 0.048496153 0.025746437 0.03885742 0.41517627 0.019729715 0.42835525 0.16501412
0.004743649 -0.016983801 -0.06826899 -0.0379261 0.13529521 0.07180622 0.047166318 -0.014599892
-0.010263092 0.29128128 -0.027783057 0.42343697 -0.045226187 -0.002143278 -0.042794313 0.39500713
-0.25450438 0.15920448 -0.020423366 -0.006464922 0.5701065 0.12467564 0.47317973 0.18372105
0.21788944 0.0078091 0.1806284 -0.043423146 0.19079614 0.117115036 0.1027369 0.2305141
-0.03461357 -0.065483965 -0.033187527 0.25781566 -0.008773719 0.027860168 0.17582163 0.22311804
0.23197086 0.22977792 0.21708487 0.04700315 0.61305493 0.21097802 -0.03091193 0.17338544
0.0052513136 -0.031214796 0.45346102 -0.05331529 0.00070532033 0.021547286 0.008952719 0.22021702
0.14763175 0.23547906 0.22796562 -0.05411399 0.019389967 0.20990242 0.21020375 0.48986992
0.31261244 0.53802156 -0.030441798 0.10792548 0.07897439 0.1216599 -0.017825719 0.040700696
0.12882513 0.16127613 0.14337464 0.18576549 0.015202458 -0.053876318 -0.011733838 0.15703306

q.weight f4 [1, 256]
00000000: c333 60bb d807 bdbb 4911 8f3a 6fea a13b
00000010: d660 6ebf b83d 403d 43ee 753c f667 213c
00000020: 0e79 90bf 8613 273a 2d7d a9be 3983 8cbf
00000030: 9daf 9d3c 1627 a43c a35a c9bd b2ed 603b
00000040: a598 093c 2b1c ddbe 0bac fc3c 32ac ed3c
00000050: a5d0 883c 0113 da3b b670 4abf 466b a83c
00000060: 45b2 1abe d8a1 b8be 73d0 bebc c486 0dbf
00000070: 8098 8740 3240 73bf ae4a acbc 314a 43bc
00000080: 0d80 79c0 a5e7 99ba 1025 513d 47b3 353d
00000090: 1b1e 643a 1455 88bd b62e 9db9 fcc1 8f3c
000000a0: 71af 90bf 64bd a6bf abc3 a6bd 8262 533c
000000b0: 4079 4a3d 3ee1 a83c c85e 413d 3dfc 173d
000000c0: 0880 c93c b486 86bb 47c4 aebb 44fe 2bbe
000000d0: c171 de3c 1d39 05bb 7574 08bc e18d c53c
000000e0: b9ee eebc 8065 8a3a 9d2f 1139 c3a5 cc3c
000000f0: d88d 34bd a852 363a 06ee a63c 684c cf3c
00000100: dee4 2a3c a423 103d f4ff 773a 08a1 af40
00000110: 5906 a7bd 93d1 b83e cb7f 613b f1f6 533d
00000120: 918b db3c 6a3f 65bf 0340 c6be a31f e7ba
00000130: 3074 3c39 fc83 5339 3a79 9cbe 88e5 cf3a
00000140: e2e1 d03c 3833 c83c cf38 233c bd9c 103b
00000150: 6c2f 0a3b 040e 53bd a532 15bf 0f5a abbb
00000160: 1f19 b43b e113 4fbf 6c92 063d 3111 593d
00000170: 420a d0bb cef0 953a dda1 983b d4ea acbf
00000180: 91aa 5a3c 7c1e 963a 2335 72bc 03d3 15bf
00000190: dd3a 8c3a 8431 a9be e609 a6ba a61f 80bb
000001a0: 19f1 5e3b a9df dd39 efb8 88ba 6407 833c
000001b0: ec0c 4cbf 718f 81be 0464 32bf 71e0 b53b
000001c0: 9fc1 d43c 87f0 4d3c 8660 16bb 6630 4fbe
000001d0: 5cf5 88ba db2f e0bc d3f8 eeba ba10 54ba
000001e0: aa15 d53b 4073 32ba ba3f 613c a27b e03b
000001f0: 4330 983f 67b3 29bc cfe4 cf3e e387 4a3a
00000200: 9285 72bc 159e 8c3a 3e04 c63e 76b5 2b3d
00000210: e3d3 f4bf 916d c7bb b722 383a 7dde 1d3d
00000220: a10f 8cbf 3bf6 e63c 50f1 b0bc 9354 803c
00000230: 3377 613c 00d6 c6bc 097c 523d 1ba9 b4be
00000240: e8dc 01bf b04c 4d3c 922c ef3b eef6 213d
00000250: b13a 50bc 228f e33c 832b 36bf d985 c1ba
00000260: bd60 1a3d d882 b5bb 1424 f53a 99c5 dfba
00000270: 2b5c 48bf 8b41 fb3c 78fc cd3c 4f43 343c
00000280: 64e3 08b9 2c98 cdbe ad08 85ba 48d0 abbe
00000290: f0ae ae3e db12 e9bc 7660 a5bd 994a 4eba
000002a0: ce33 a83b cf35 40c0 f663 2a3d c41f 0d3c
000002b0: 5e27 d2be 9d29 123d d5ea 07bf 78b2 b83a
000002c0: c051 423d 4cc3 8e3c ddd2 143d 6b21 ebbc
000002d0: 277a 25bb bdd8 5d3f 35c8 123d 39ba d73a
000002e0: e85e b5bb b1fd 04bf 397d c43c 9f8a 31bf
000002f0: 73e2 fe3c ebaa ebbb 9d89 1b3d 5a95 b3bf
00000300: 3476 733f 77fd 10bb bf79 b33c 3cc6 073d
00000310: d98b b6be 54d6 f9bf bc5a a1bd 2aba dd3a
00000320: 6298 efba 5e5b 2a3d 78c1 a63c 3a43 ef3c
00000330: 8eea 953b a9b9 42ba 9264 553c 5d11 c13e
00000340: ff72 b1bc e967 c03b dfae 333d 460a bdbe
00000350: df88 b13c 3ff9 3d3d ce28 db3e c974 0a3b
00000360: c561 da3e c95b debe ca3c 2e3e 6cab 063d
00000370: 508a 2abe 29fa 84bf b80d 483d d4e6 b739
00000380: b3da f83a 5622 11bb cfd4 b3bd 8509 983b
00000390: 092c 573c 180f 413c b937 5a3c a1a1 ccba
000003a0: 3f0b e83c 16f8 55ba 0c6b 0b3a e795 303d
000003b0: d665 253b 4e42 97bc 58d4 b23e 4d63 f7be
000003c0: ac60 65bf d69a 23bf 622a e03c 4c3f f23c
000003d0: ecf6 66bf 60d7 bfbb 2e87 243c 162a 17bb
000003e0: 885b 4d3c 4fa3 433a 95eb 16ba 7307 643c
000003f0: 901b c43a 21ce ccbb d08c 473d 78fe 3cba
-0.003421054 -0.0057687573 0.0010915186 0.0049412767 -0.9311651 0.04693386 0.015010419 0.009851446
-1.1286943 0.00063734537 -0.33103314 -1.0977546 0.019248778 0.020038169 -0.09831741 0.0034321365
0.00839821 -0.43185553 0.030843755 0.029012773 0.016701052 0.0066550975 -0.79078233 0.020558964
-0.15107067 -0.36060977 -0.023292756 -0.5528376 4.2373657 -0.9501983 -0.021031704 -0.011919544
-3.8984406 -0.0011742009 0.051060736 0.044360425 0.0008701996 -0.06656852 -0.00029980176 0.017548554
-1.130354 -1.3026547 -0.081427895 0.012901904 0.04943204 0.020615216 0.04720953 0.037105788
0.024597183 -0.0041054133 -0.0053334567 -0.16796213 0.027153851 -0.0020328232 -0.008328547 0.024115505
-0.029166566 0.0010558814 0.00013846015 0.024981385 -0.044080585 0.0006955066 0.02037717 0.025304988
0.010430543 0.03519024 0.0009460442 5.488407 -0.081555076 0.36097392 0.0034408446 0.051749174
0.026799949 -0.8954989 -0.38720712 -0.001763333 0.0001797236 0.00020171696 -0.3056124 0.0015861252
0.025498334 0.024438486 0.009962275 0.002206608 0.0021085395 -0.05152704 -0.582804 -0.0052292417
0.0054961587 -0.8088971 0.032854483 0.05299491 -0.006348879 0.0011439563 0.0046579675 -1.3509164
0.01334633 0.0011453177 -0.014783177 -0.58525103 0.0010698695 -0.3304559 -0.0012667745 -0.003910023
0.0034018217 0.00042319045 -0.0010431091 0.015994735 -0.7970722 -0.2530475 -0.6968386 0.005550437
0.025971232 0.012569553 -0.0022945716 -0.20233306 -0.0010449099 -0.02736657 -0.0018232114 -0.00080896507
0.0065028267 -0.0006807335 0.013748104 0.0068506757 1.1889728 -0.010357714 0.40604255 0.0007725937
-0.014802353 0.0010728264 0.38675112 0.0419211 -1.9127163 -0.0060860594 0.0007024216 0.03854226
-1.094227 0.028193584 -0.021599442 0.015665328 0.013761329 -0.024271965 0.05138782 -0.35285267
-0.507277 0.012530491 0.0072990144 0.03954213 -0.012709306 0.027778212 -0.71160144 -0.0014764621
0.037689913 -0.0055392794 0.0018702769 -0.0017072438 -0.7826564 0.030670902 0.0251448 0.011002376
-0.0001305468 -0.4015516 -0.001014968 -0.33557343 0.34117842 -0.028451374 -0.08075039 -0.0007869392
0.0051331287 -3.0032842 0.041599236 0.008613531 -0.4104566 0.035684217 -0.530927 0.0014091274
0.047441244 0.01742711 0.036333907 -0.028702458 -0.002524981 0.8665884 0.035835464 0.0016458697
-0.0055349953 -0.519496 0.023985492 -0.69352144 0.031113839 -0.007192006 0.037973035 -1.4029953
0.9510224 -0.0022123733 0.021908639 0.033148035 -0.3565357 -1.9518533 -0.07878634 0.0016916443
-0.0018279667 0.04159104 0.020355925 0.02920686 0.0045750802 -0.0007428178 0.013024466 0.3770856
-0.02166128 0.005871762 0.043867942 -0.369219 0.02167171 0.046380278 0.4280457 0.0021126738
0.42652717 -0.43429402 0.17015377 0.032878324 -0.16654325 -1.0388843 0.04884121 0.0003507646
0.0018986076 -0.002214571 -0.087808244 0.0046398067 0.013133057 0.011783384 0.013318949 -0.0015612134
0.028325675 -0.0008162273 0.00053183804 0.043111708 0.00252377 -0.018464234 0.3492763 -0.48317948
-0.89600635 -0.63908136 0.02736396 0.029571198 -0.9022052 -0.005854532 0.010041995 -0.0023065857
0.01253403 0.00074629945 -0.00057571504 0.013917792 0.0014961828 -0.0062501584 0.048718274 -0.00072095497
