TD3/models/lunarlander/00001000/actor.pth (torch, 276247 bytes, 6 tensors)

fc1.weight f4 [256, 8]
0	0x3ea8143f	0.32827947
1	0xbe3bac96	-0.18327555
2	0xbec33072	-0.38122898
3	0xbec2a6e1	-0.38017944
4	0x3f8d5f94	1.1044793
5	0x3ef62c64	0.48080742
6	0xbea0a87b	-0.3137854
7	0xbf82c6db	-1.0216936
8	0x3d6af542	0.057362802
9	0xbe70a2cd	-0.23499604
10	0xbea556b3	-0.3229271
11	0x3ed4f121	0.41590217
12	0xbf4ac1e9	-0.79202133
13	0xbe4ebfdc	-0.20190376
14	0x3eb1894c	0.34675062
15	0x3e26999d	0.16269536
16	0xbc375579	-0.011189812
17	0x3d327761	0.04357088
18	0x3eb59dd8	0.35471988
19	0x3ddd2569	0.10798151
20	0xbf1ae922	-0.6051198
21	0x3edec97c	0.43513095
22	0xbd48b515	-0.04900082
23	0x3cb44502	0.022005562
24	0x3ef75b14	0.48311675
25	0xbddf3e8f	-0.10900604
26	0x3ed91a97	0.424031
27	0x3dd19c7d	0.10234926
28	0xbcf98e19	-0.030463265
29	0xbe9afa6d	-0.30269185
30	0xbd71ba77	-0.059015717
31	0xbebe471f	-0.37163636
32	0xbf0d559e	-0.55208766
33	0xbfb02da4	-1.3763928
34	0xbd89a0dc	-0.067201346
35	0xbee1d1e6	-0.44105452
36	0xbeaf1372	-0.34194523
37	0xbe8c2df2	-0.27378803
38	0x3d9c5498	0.076333225
39	0xbe714df5	-0.23564894
40	0xbf68e809	-0.9097906
41	0xbd9abc34	-0.07555428
42	0xbf1f5761	-0.62242705
43	0xbe824e7e	-0.2545051
44	0x3e5c312f	0.21503137
45	0x3dca9659	0.09891958
46	0x3e8b12f4	0.27162898
47	0xbc6f3948	-0.014601059
48	0xbc41d910	-0.011831537
49	0x3eadf28b	0.33974108
50	0xbeef32dc	-0.4671849
51	0x3efcf79a	0.49407655
52	0x3f531e3c	0.8246801
53	0x3f125f27	0.5717644
54	0xbd09540c	-0.03352742
55	0xbed834bd	-0.42227736
56	0xbf481ddc	-0.7817056
57	0x3d4313bf	0.047626253
58	0xbac4e636	-0.0015022221
59	0xbdeb9458	-0.11502904
60	0x3dcea36e	0.100897655
61	0x3f3053a0	0.688776
62	0xbea4e6fe	-0.32207483
63	0x3ed88c66	0.42294616
64	0x3f15b4ba	0.5847889
65	0x3e29e658	0.16591775
66	0x3f08c7fa	0.5343014
67	0x3e72fd3f	0.23729418
68	0xbc969745	-0.018382678
69	0x3e372078	0.1788348
70	0x3e449225	0.19196375
71	0xbe66c632	-0.22536543
72	0x3f350423	0.7070944
73	0x3e217499	0.15767135
74	0xbf1dc26f	-0.6162481
75	0xbe88c3d3	-0.26711902
76	0x3ccacca9	0.024755793
77	0x3e065ecb	0.13122098
78	0x3ef1a952	0.47199494
79	0xbead07ca	-0.33795005
80	0x3e452419	0.19252051
81	0x3e518141	0.20459463
82	0xbeb07790	-0.3446622
83	0x3eaa4582	0.33256155
84	0x3f2c3f36	0.6728395
85	0x3f5de831	0.8668242
86	0x3ecb9848	0.3976462
87	0xbe5f28b2	-0.21792868
88	0xbec7ae5f	-0.39000222
89	0xbf816165	-1.0107847
90	0xbf136e7a	-0.5759045
91	0xbe285be7	-0.16441308
92	0xbe9dae1a	-0.3079689
93	0xbee7f857	-0.45306656
94	0x3db2db67	0.08733254
95	0xbf7a2988	-0.9771962
96	0xbe571648	-0.21004593
97	0xbd2eab89	-0.042644057
98	0xbecbdb04	-0.39815533
99	0x3f47edd2	0.7809726
100	0xbdd3a8df	-0.10334944
101	0x3ec5e190	0.38648653
102	0xbf2c6dba	-0.6735493
103	0x3e89101e	0.2677011
104	0x3e86a79e	0.26299757
105	0xbf992dcf	-1.1967105
106	0x3bb8c370	0.0056385323
107	0xbf0b9872	-0.5452949
108	0xbf16ac4e	-0.58856666
109	0x3f05a3a4	0.5220282
110	0x3eaa057c	0.3320731
111	0xbe3695b5	-0.17830546
112	0x3e3cafb4	0.184264
113	0x3f040b66	0.5157989
114	0xbf0143c2	-0.50494015
115	0xbd82b027	-0.06381255
116	0x3f089a57	0.53360504
117	0xbd442f2b	-0.047896545
118	0x3ed3d9f1	0.41377214
119	0xbe1bdd13	-0.15221052
120	0x3ee224b1	0.44168618
121	0xbc783637	-0.015149645
122	0x3e5c8030	0.21533275
123	0x3faf4a74	1.3694596
124	0xbd51e400	-0.05124283
125	0xbece760d	-0.4032444
126	0x3e4cbed1	0.19994666
127	0xbf5acc6d	-0.8546818
128	0xbf36ace1	-0.7135754
129	0xbe80d182	-0.25159842
130	0x3ed67a22	0.41890055
131	0xbf00201e	-0.50049007
132	0x3e80c59c	0.25150764
133	0x3e276190	0.16345811
134	0xbe65b717	-0.22433124
135	0xbf095416	-0.5364393
136	0xbeebae43	-0.4603139
137	0xbe372d3f	-0.17888354
138	0x3e31f3e5	0.17378195
139	0xbf5f71e2	-0.87283146
140	0xbe720208	-0.23633587
141	0xbd07fd84	-0.033200756
142	0xbe0ed72d	-0.1394927
143	0xbf64d255	-0.8938344
144	0xbea34258	-0.31886554
145	0x3dfac66a	0.12244876
146	0xbf25d8f5	-0.64784175
147	0xbe204fc9	-0.15655436
148	0xbed6d3c1	-0.4195843
149	0xbe8dee7e	-0.27721018
150	0xbec4fdef	-0.38474986
151	0x3db74c74	0.08950129
152	0x3eb4a4ea	0.3528207
153	0xbfb79e31	-1.4345151
154	0x3eb22aef	0.3479838
155	0x3f67a0a7	0.9047951
156	0xbe16d463	-0.14729457
157	0x3e3e7797	0.18600307
158	0x3d42646c	0.04745905
159	0x3e9fea23	0.3123332
160	0x3d80e760	0.06294131
161	0xbb0b0c4b	-0.0021217044
162	0x3d073bde	0.03301608
163	0x3e87a53d	0.26493254
164	0x3f08786e	0.5330876
165	0xbef6899a	-0.48151857
166	0xbd8626fb	-0.06550404
167	0x3d4fe968	0.050759703
168	0x3e9030d7	0.28162262
169	0x3e776c9f	0.2416253
170	0xbf1df15c	-0.6169641
171	0xbec72903	-0.38898477
172	0x3e1f10c5	0.15533741
173	0xbdfc295b	-0.123125754
174	0x3ec18c95	0.37802568
175	0xbf0e3dc6	-0.5556301
176	0x3f44ca56	0.7687124
177	0x3e7fba96	0.2497352
178	0xbe4c379c	-0.19943088
179	0xbf2b88f8	-0.6700587
180	0xbe83c789	-0.2573817
181	0x3d9f2060	0.07769847
182	0x3e609192	0.2193053
183	0xbe1c3a13	-0.15256529
184	0xbddcef47	-0.10787826
185	0xbf31f2e8	-0.6951127
186	0x3e8ec91d	0.27887812
187	0xbd706922	-0.058694012
188	0x3db646e5	0.08900241
189	0x3d92fa60	0.071766615
190	0xbeed9567	-0.46403047
191	0xbea46ea0	-0.3211565
192	0x3ce0b2ce	0.02742901
193	0x3edc8261	0.4306822
194	0xbe66c18f	-0.22534774
195	0x3fa02388	1.2510843
196	0x3f4884c1	0.78327566
197	0x3e9691fb	0.2940825
198	0x3f1e37b7	0.61803764
199	0x3d710e6d	0.058851648
200	0x3f4381f4	0.7637017
201	0x3db5bb6a	0.08873637
202	0x3e7aa590	0.2447722
203	0x3f0af758	0.54283667
204	0x3f13003e	0.57422245
205	0x3de3b08e	0.111176595
206	0xbf78a77b	-0.97130555
207	0xbeef0ed9	-0.46691015
208	0xbf11b943	-0.5692331
209	0x3e974e59	0.29551962
210	0xbeff85f9	-0.499069
211	0xbe976727	-0.29570886
212	0x3f676c0f	0.9039926
213	0xbec994b1	-0.39371255
214	0xbecf485f	-0.40484902
215	0xbf17503e	-0.59106815
216	0x3f3cb128	0.7370782
217	0x3e3da2bc	0.1851911
218	0x3e3fa008	0.18713391
219	0x3ebd08ba	0.3692072
220	0x3e8148f6	0.25250977
221	0x3eced9d8	0.40400577
222	0x3e1a8826	0.15090999
223	0xbd563559	-0.05229697
224	0x3daf9253	0.08572831
225	0x3e1d2b08	0.15348446
226	0x3eac7a51	0.3368707
227	0xbf59f4a5	-0.8513892
228	0xbe5cc502	-0.21559528
229	0x3e9dce9b	0.3082169
230	0xbdf36c87	-0.11885934
231	0xbe02327c	-0.12714571
232	0xbf7cd28e	-0.9875878
233	0xbd64466f	-0.055731233
234	0x3df9aa3c	0.12190673
235	0xbecfa79c	-0.40557563
236	0x3e67aa49	0.22623552
237	0xbecf535f	-0.40493295
238	0xbdfc1b6e	-0.12309919
239	0xbe5265c7	-0.20546637
240	0xbbf24b49	-0.0073942286
241	0xbf5f641d	-0.87262136
242	0x3dc24d36	0.09487383
243	0xbec8c2f1	-0.39211228
244	0xbddffb56	-0.109366104
245	0xbf027659	-0.50961834
246	0xbea84b30	-0.32869864
247	0x3f32fcb2	0.6991683
248	0x3f9148bd	1.1350323
249	0x3dedb256	0.116062805
250	0x3e84baa5	0.25923648
251	0x3e6418d7	0.222751
252	0x3e5dc98a	0.21658912
253	0x3e1a1f01	0.1505089
254	0xbf090617	-0.5352492
255	0x3e37693d	0.17911239

fc1.bias f4 [256]
0	0x3e47e865	0.19522245
1	0x3daff72f	0.085920684
2	0xbd8a4bf2	-0.06752767
3	0x3e2dbbd8	0.16966188
4	0xbe622b4b	-0.22086827
5	0xbe1a78df	-0.15085171
6	0xbe4d0967	-0.20023118
7	0x3d737aa4	0.05944313
8	0xbdc623f7	-0.096748285
9	0xbedbfcc9	-0.42966297
10	0x3df9b15f	0.12192034
11	0x3c362334	0.0111167915
12	0x3e9ed392	0.3102079
13	0xbdc140b2	-0.09436168
14	0xbe5b1df7	-0.2139815
15	0x3c61fb2b	0.013792793
16	0x3c7e4688	0.015519746
17	0x3e0614e9	0.13093914
18	0xbeac44c7	-0.33646223
19	0xbe6ffeaf	-0.23436998
20	0x3d949234	0.072544485
21	0xbea42bc2	-0.32064635
22	0xbe4868de	-0.19571254
23	0x3eadf3a0	0.33974934
24	0xbef1344b	-0.4711021
25	0xbe0bbd63	-0.13646464
26	0xbe68451f	-0.22682618
27	0xbdaf2ef2	-0.08553876
28	0xbd91db89	-0.07121951
29	0xbd482c32	-0.048870273
30	0xbed879dd	-0.42280474
31	0xbed2a7c4	-0.4114362
32	0x3eb8c8a5	0.3609058
33	0x3c99fbce	0.018796828
34	0xbe0fd854	-0.14047366
35	0x3eb218fe	0.34784693
36	0xbf4b35b1	-0.793788
37	0x3da5e219	0.08099765
38	0xbbab8ce2	-0.0052353004
39	0x3bbfc127	0.005851883
40	0xbee1ce80	-0.4410286
41	0xbe20518f	-0.15656112
42	0x3d7686a5	0.060187
43	0xbe9921c9	-0.2990859
44	0xbe4aa74b	-0.1979038
45	0xbe8fde77	-0.28099415
46	0x3e102c01	0.14079286
47	0xbe07a56f	-0.13246702
48	0xbe6bb67c	-0.23018831
49	0x3dd188e3	0.10231187
50	0x3eaa7d11	0.33298543
51	0x3db7e7dc	0.089797705
52	0xbc297b84	-0.01034439
53	0xbe4b08bd	-0.19827552
54	0x3e8a56c9	0.27019337
55	0xbf2d8b9b	-0.67791146
56	0x3e24991c	0.16074032
57	0x3e7b867d	0.24563022
58	0xbe3b9649	-0.18319048
59	0x3e3b2062	0.18274072
60	0xbedff6b8	-0.4374292
61	0xbe0d1816	-0.1377872
62	0x3e9bbd3f	0.3041782
63	0x3e0dedcf	0.13860248
64	0x3c82c817	0.01596455
65	0x3e80d85e	0.25165075
66	0xbeaf53f3	-0.34243736
67	0xbe04db16	-0.129742
68	0x3e745a22	0.23862508
69	0xbe90915d	-0.28235903
70	0xbef36f26	-0.47545737
71	0xbec56e0e	-0.38560528
72	0x3e9f9748	0.31170106
73	0xbca0cc67	-0.019628717
74	0xbdd9b57b	-0.10630318
75	0x3cb2a5f7	0.021807654
76	0xbee15714	-0.44011748
77	0xbe57da31	-0.21079327
78	0xbe32f097	-0.1747459
79	0x3e923eb5	0.28563467
80	0x3c671689	0.014104494
81	0x3d800264	0.06250456
82	0x3dbfdd8f	0.09368431
83	0xbe966ef6	-0.2938153
84	0xbd604a6e	-0.05475848
85	0x3ed39821	0.41327003
86	0x3e1ca4d9	0.1529726
87	0xbd61cf91	-0.05512959
88	0xbe8937c3	-0.26800355
89	0x3e282e56	0.16423926
90	0x3ea640b2	0.32471234
91	0xbe1a2f52	-0.15057114
92	0xbded970f	-0.11601078
93	0xbe86d6cd	-0.26335755
94	0xbef5c58d	-0.48002282
95	0xbf05c7ac	-0.522578
96	0x3e2f1523	0.17097907
97	0xbebb03e0	-0.36526394
98	0xbf03869b	-0.51377267
99	0xbf1105e3	-0.5664961
100	0xbe9a0f88	-0.30089974
101	0xbf05a0d1	-0.5219851
102	0xbd68ca01	-0.05683327
103	0xbed4c0bc	-0.41553295
104	0xbe664589	-0.22487463
105	0x3e09f62a	0.1347281
106	0xbbd2596f	-0.0064193527
107	0x3e7d6029	0.24743713
108	0xbdafa8b4	-0.085770994
109	0xbe2e8f8f	-0.17046951
110	0x3d35c982	0.044381626
111	0xbdec7ad9	-0.11546869
112	0x3eb137f2	0.34612995
113	0xbe43c79b	-0.19119112
114	0xbdc6acf0	-0.09700954
115	0xbe151757	-0.14559685
116	0xbe3e330e	-0.18574163
117	0x3e66a42f	0.22523569
118	0xbe98ed8b	-0.2986873
119	0xbee6a944	-0.45051014
120	0x3d809102	0.06277658
121	0xbdec7e80	-0.115475655
122	0x3ceaff3d	0.02868616
123	0x3e5cac0f	0.2155001
124	0xbf055a7d	-0.520912
125	0x3b29f975	0.0025936041
126	0xbd4f2fc9	-0.05058268
127	0xbe903f79	-0.28173426
128	0xbe92eb32	-0.28695065
129	0xbf0cd70f	-0.55015653
130	0x3d69b662	0.0570587
131	0xbeadb7e7	-0.3392937
132	0x3e427b75	0.18992408
133	0x3e12e848	0.14346421
134	0xbe242053	-0.16027956
135	0xbf085f56	-0.5327047
136	0xbe3b88f0	-0.18313956
137	0xbe8681d1	-0.26270917
138	0x3eaa5fed	0.3327631
139	0xbed42f1c	-0.41442192
140	0xbe218a86	-0.15775499
141	0x3cf83b5f	0.030301748
142	0x3dfee950	0.124468446
143	0xbeb578a6	-0.3544361
144	0x3e19f937	0.15036474
145	0xbf06d1b4	-0.5266373
146	0xbe2fbb41	-0.17161275
147	0xbe7b4d46	-0.24541196
148	0x3ed390fb	0.4132155
149	0xbf0ca096	-0.54932535
150	0xbebd54d8	-0.36978793
151	0xbe5aa415	-0.21351655
152	0xbe6f6aff	-0.2338066
153	0xbe50286c	-0.2032792
154	0x3b6276b7	0.0034555623
155	0xbdf2a1d3	-0.11847272
156	0xbed57111	-0.41687825
157	0x3e84dac8	0.25948167
158	0xbddbd2cf	-0.10733568
159	0xbe96e295	-0.29469743
160	0xbea61b06	-0.32442492
161	0x3db8ee30	0.09029806
162	0xbe4df9be	-0.201148
163	0x3ea34608	0.31889367
164	0xbdabfea7	-0.083981805
165	0xbebdffdc	-0.37109268
166	0xbec1d439	-0.37857226
167	0x3e386063	0.18005519
168	0x3e8429ad	0.25813046
169	0xbec89187	-0.3917353
170	0xbe8bc97a	-0.27302152
171	0xbe4daf8e	-0.200865
172	0x3e5d19c9	0.21591868
173	0xbdaa1344	-0.08304456
174	0x3d4432f8	0.04790017
175	0xbc4adb13	-0.012381333
176	0xbe33cd5c	-0.17558807
177	0xbda899d2	-0.08232464
178	0xbc4efd65	-0.012633656
179	0xbee352d0	-0.44399118
180	0x3e1dad5b	0.15398161
181	0xbe976ebb	-0.29576668
182	0xbc4a4b7c	-0.012347098
183	0x3e9fa1e5	0.31178203
184	0xbed4a651	-0.4153314
185	0xbc90ac11	-0.017660173
186	0xbef6eb5e	-0.48226446
187	0x3e3bee7d	0.18352695
188	0x3df7a03f	0.120911114
189	0xbe008f12	-0.12554577
190	0x3e8cd9f7	0.27510044
191	0x3d9fb048	0.07797295
192	0xbea5c873	-0.32379493
193	0xbf0a113a	-0.53932536
194	0xbdedf8fc	-0.116197556
195	0xbed5d0b7	-0.417608
196	0xbf08f11e	-0.53492916
197	0xbe50310d	-0.20331211
198	0x3d840179	0.064455934
199	0x3d94e45b	0.07270118
200	0xbd913b0a	-0.07091339
201	0xbe17dc6f	-0.14830182
202	0xbe48f666	-0.19625244
203	0x3d8ba49f	0.06818508
204	0x3d195b0a	0.037440337
205	0xbe9919dc	-0.29902542
206	0x3e325176	0.17413887
207	0xbee415ed	-0.44547978
208	0xbef0c6aa	-0.4702657
209	0x3d9ba73a	0.07600255
210	0x3d358232	0.044313617
211	0x3dd17249	0.10226876
212	0xbe8cdffe	-0.27514642
213	0xbf07363e	-0.5281714
214	0x3ea63c3f	0.3246784
215	0xbed0a011	-0.4074712
216	0xbee9da1d	-0.4567422
217	0x3e24f1e0	0.16107893
218	0xbd9b31ff	-0.075778954
219	0xbf00d103	-0.50318927
220	0x3c8cc7f2	0.017185185
221	0x3e846c97	0.25864097
222	0x3e7e8a82	0.24857524
223	0xbed9fc31	-0.4257522
224	0x3ca78024	0.020446844
225	0x3d90cb82	0.07070066
226	0xbe42b248	-0.19013321
227	0xbdd83e94	-0.10558811
228	0xbe26dd62	-0.16295388
229	0xbe96f933	-0.29487
230	0xbe418f5b	-0.18902342
231	0xbe7d74eb	-0.24751632
232	0x3e820bca	0.2539962
233	0xbf195e0a	-0.5990912
234	0xbdeb3e95	-0.11486546
235	0xbd9f1ee7	-0.07769566
236	0xbc938cc8	-0.018011466
237	0x3eef8721	0.46782783
238	0x3d9cca16	0.07655732
239	0xbc4d4bb3	-0.012530255
240	0x3c08d050	0.008350447
241	0xbe9dbe32	-0.3080917
242	0x3e92a7aa	0.28643543
243	0xbf2210fa	-0.63307154
244	0xbe0bd519	-0.13655509
245	0x3dc110b9	0.09427018
246	0x3e826d00	0.25473785
247	0xbea8fc84	-0.33005154
248	0xbecb9c4b	-0.3976768
249	0x3d8bd81e	0.068283305
250	0xbc9c0465	-0.019045064
251	0xbde7fd01	-0.113275535
252	0xbecb85fd	-0.39750662
253	0xbea903b7	-0.33010647
254	0xbcf82660	-0.030291736
255	0xbe9d470a	-0.3071826

fc2.weight f4 [256, 256]
0	0x3cfdd1bd	0.0309838
1	0xbc5027e0	-0.012704819
2	0xbd458615	-0.048223574
3	0x3d42a83d	0.047523726
4	0xbd7a2762	-0.061072715
5	0x3cf10f7c	0.029426329
6	0xbd4c932c	-0.04994504
7	0xbd5501d4	-0.052003697
8	0xbd838b05	-0.06423
9	0x3c722521	0.01477936
10	0xbd2f83c3	-0.042850267
11	0xbc12ab3f	-0.008951961
12	0xbcd0a65a	-0.025469948
13	0x3ca08c94	0.019598283
14	0x3cf99cae	0.030470219
15	0x3d483612	0.04887969
16	0xbb2c4c00	-0.0026290417
17	0x3d2a0abe	0.04151415
18	0x3b84ac6d	0.004048875
19	0xbd600452	-0.05469162
20	0x3d4b0e80	0.049574375
21	0xbd7dec96	-0.061993204
22	0xbd6b6eb0	-0.057478607
23	0xbce95244	-0.02848161
24	0x3c1ce022	0.009574922
25	0xbd700261	-0.05859602
26	0xbc1f2d83	-0.009715441
27	0xbd466cf3	-0.048443746
28	0xbc63e3f6	-0.013909331
29	0xbd37f45d	-0.044910777
30	0xbca4b048	-0.020103589
31	0x3cb0e89a	0.021595288
32	0xbd7e63b2	-0.062106796
33	0x3c5b9148	0.013401337
34	0x3b89453e	0.0041891625
35	0x3caf163f	0.021372912
36	0xbd66d294	-0.056353167
37	0xbc2e2e1d	-0.010631111
38	0xbd1acaa8	-0.037790924
39	0x3d1614e0	0.036641
40	0x3c89dd7c	0.016829245
41	0x3b934140	0.0044938624
42	0x3bf08e6f	0.007341198
43	0xbcc01ef6	-0.023452263
44	0x3ce10c00	0.027471542
45	0x3c9ca84c	0.019123219
46	0x3ceb5a18	0.028729483
47	0x3d4b6a0b	0.049661677
48	0x3caf54a6	0.021402668
49	0xbb82f7e0	-0.003996834
50	0xbd6c4034	-0.057678416
51	0xbc5933ed	-0.013257009
52	0xbcaf8cff	-0.021429537
53	0x3d1f0a84	0.038828388
54	0xbd6a52e4	-0.057207957
55	0x3cd9b250	0.026574284
56	0x3ce8b6e8	0.028407529
57	0xbd4d6c9a	-0.0501524
58	0xbd194b1e	-0.037425153
59	0x3cc2325f	0.02370566
60	0xbd50dfcf	-0.05099469
61	0x3cf3afd3	0.029746925
62	0xbd32b5a2	-0.04363025
63	0xbd1f0e30	-0.03883189
64	0xbd75d5e0	-0.06001842
65	0x3ccf2ab5	0.025288919
66	0x3d2766ac	0.0408694
67	0x3d0b37d3	0.033988785
68	0xbd56e9e2	-0.05246914
69	0x3d4ac6fb	0.04950617
70	0x3d19a7e0	0.037513614
71	0xbd0eb9e8	-0.034845263
72	0x3ceee6d5	0.029162804
73	0xbce53189	-0.027977722
74	0xbd887ea8	-0.06664783
75	0x3d5d703f	0.054062124
76	0x3caec870	0.02133581
77	0xbd2f3ff4	-0.0427856
78	0xbd60fa08	-0.05492595
79	0xbd489196	-0.048966967
80	0x3d07c6bb	0.03314851
81	0xbcf9b308	-0.030480877
82	0xb9fa6d8c	-0.00047765335
83	0xbb3b2217	-0.0028554255
84	0x3d63954b	0.0555623
85	0x3cad0502	0.021120552
86	0xbd8ae1b7	-0.06781333
87	0x3ce2f930	0.027706712
88	0xbd8fd50a	-0.07023056
89	0x3bdd8e1c	0.0067613255
90	0xbd2763f0	-0.040866792
91	0xbcdbf96a	-0.026852328
92	0xbd65f4ec	-0.05614178
93	0xbcfe6741	-0.031055095
94	0xbd7062e5	-0.058688063
95	0x3c5e8149	0.013580629
96	0xbd8457bb	-0.06462046
97	0xbcc6558c	-0.024210714
98	0x3c15ee66	0.009151077
99	0xbd7c61f6	-0.06161686
100	0xbd1f05da	-0.03882394
101	0xbc530a54	-0.01288088
102	0x3d5ec9a1	0.054391507
103	0xbd322f6f	-0.043502267
104	0x3d768a32	0.060190387
105	0x3b486387	0.00305769
106	0xbbcf1b69	-0.006320406
107	0xbd5d1693	-0.053976607
108	0x3d15ff16	0.036620222
109	0x3cb3b34e	0.021936085
110	0x3bcd24bc	0.0062604826
111	0x3d2cd6af	0.042196926
112	0xbcc9cac4	-0.024632819
113	0xbd578da8	-0.05262533
114	0x3c0baa8a	0.008524546
115	0xbbe96771	-0.007122927
116	0xbcdd53e8	-0.027017549
117	0x3b04915d	0.0020228245
118	0x3c4edc26	0.01262573
119	0x3c857368	0.016290382
120	0x3ce9f7df	0.028560577
121	0xbd253e36	-0.040342532
122	0xbd528920	-0.051400304
123	0x3d58a81e	0.052894704
124	0x3bd13809	0.0063848537
125	0xbd98b612	-0.07456602
126	0x3c9aaff3	0.018882727
127	0xbc3f9b78	-0.0116947815
128	0xbd3f33bc	-0.046680197
129	0xbd4bdaa0	-0.049769044
130	0xbb432d21	-0.0029781538
131	0xbd1764a2	-0.036961205
132	0xbd5bb4e5	-0.05363931
133	0xbd4a7dcf	-0.049436387
134	0xbd8a512d	-0.06753764
135	0x3b4753f3	0.0030415028
136	0xbc8b1e20	-0.016982138
137	0xbd272db8	-0.040815085
138	0xbd296d99	-0.041364286
139	0xbc9a5855	-0.018840948
140	0xbd980637	-0.074230604
141	0xbc7d7079	-0.01546871
142	0xbbf4d18c	-0.007471269
143	0xbd1a853f	-0.03772473
144	0x3d3f6934	0.04673119
145	0xbd04429f	-0.032290097
146	0x3d5eb952	0.054375954
147	0x3cd9dfe4	0.026596017
148	0x3d1cba6e	0.03826373
149	0xbd02b1b4	-0.031907752
150	0xbce9698d	-0.028492713
151	0xbd30e0e2	-0.043183215
152	0xbd1a06bd	-0.037604082
153	0x3d09a6c4	0.033606306
154	0xbd4c51ab	-0.049882572
155	0xbc625e19	-0.01381638
156	0x3cadb99c	0.02120667
157	0xbac9f380	-0.0015407652
158	0xbaf9930a	-0.0019041013
159	0x3c8c0a3c	0.017094724
160	0x3cd6314c	0.026146553
161	0x3cbb082e	0.022831049
162	0xbd3190c0	-0.043350935
163	0xbc3061d4	-0.010765512
164	0x3c27ffd2	0.010253863
165	0xbd84ec18	-0.06490344
166	0x3d565cd2	0.052334614
167	0xbd2e5ba9	-0.042567883
168	0xbd810c4f	-0.06301176
169	0xbd8a0b92	-0.06740488
170	0x3d4c6f44	0.0499108
171	0xbd6b3bbf	-0.057430025
172	0x3bd7e4e6	0.006588566
173	0xbc46b8e1	-0.0121290395
174	0x3b9852c8	0.00464854
175	0xbd7aa743	-0.06119467
176	0x3c14d4b0	0.009083912
177	0xbd8ee6a5	-0.06977586
178	0x3cfef421	0.03112227
179	0x3d4707b0	0.048591316
180	0xbc0076d8	-0.007840835
181	0xbc6cab1d	-0.014445093
182	0xbd1a73fe	-0.037708275
183	0xbb38b860	-0.0028186068
184	0x3bfe9b90	0.0077700093
185	0x3d592ef4	0.053023294
186	0x3d1daaef	0.038493093
187	0xbd611c9d	-0.05495893
188	0xbce1906c	-0.027534686
189	0x3c7ce55f	0.015435546
190	0xbcd8c183	-0.026459461
191	0x3ceef7e8	0.029170945
192	0xbd87fdf0	-0.066402316
193	0x3d0cb81c	0.034355268
194	0x3cd0b458	0.02547662
195	0xbd66aa4c	-0.05631475
196	0xbc56c6a0	-0.013108879
197	0x3d03ee76	0.032209836
198	0x3d4f0d41	0.05054975
199	0xbd89c150	-0.067263246
200	0xbd3f17ec	-0.046653673
201	0x3d21892a	0.03943745
202	0x3cd4164b	0.025889536
203	0x3d329f48	0.043608934
204	0xbd96639d	-0.073432185
205	0xbc147b4c	-0.009062599
206	0xbd771067	-0.060318377
207	0xbc711218	-0.014713787
208	0x3d195ad7	0.037440147
209	0xbd6e2e91	-0.058149878
210	0x3c2a5b54	0.010397751
211	0xbaa660c0	-0.0012693629
212	0xbd4bcfa4	-0.04975857
213	0x3d7cb286	0.06169369
214	0xbca6b3c6	-0.020349395
215	0xba4d8ed5	-0.0007841413
216	0xbd8db54d	-0.06919346
217	0xbd1379c9	-0.036004815
218	0x3c40f062	0.011776062
219	0xbb8a93b8	-0.004229035
220	0x3d089ee9	0.033354674
221	0xbcf62c4f	-0.030050425
222	0x3cb57844	0.022152074
223	0xbce20d2c	-0.027594171
224	0x3d2a18c7	0.041527536
225	0xbc80c209	-0.015717523
226	0xbd324de6	-0.04353132
227	0x3cc1b506	0.023645889
228	0xbd6e995e	-0.05825173
229	0xbd8b1e0e	-0.06792842
230	0x3c2c6125	0.010521208
231	0xbab3a6a3	-0.0013706278
232	0x3c65e24d	0.014031005
233	0x3d11fa88	0.035639316
234	0x3ce65a58	0.028119251
235	0x3d365276	0.044512235
236	0xbd884ff4	-0.06655875
237	0x3d093df2	0.03350634
238	0x3c91554e	0.017740872
239	0x3d32dd3c	0.043668017
240	0xbb619240	-0.0034419447
241	0x3cfcc1d8	0.03085415
242	0x3d140cd4	0.036145046
243	0xbcb50e88	-0.022101656
244	0xbcb9b1f8	-0.02266787
245	0xbc9eef0c	-0.019401096
246	0xbd0a90f2	-0.033829637
247	0xbd8eeac0	-0.06978369
248	0xbd178992	-0.03699643
249	0xbd14c9da	-0.036325313
250	0x3d2546ea	0.040350832
251	0xbd622da3	-0.055219304
252	0x3d25a288	0.040438205
253	0xbd82ac0f	-0.06380474
254	0xbc6ec409	-0.014573106
255	0xbca1c038	-0.019744977

fc2.bias f4 [256]
0	0xbd23dbde	-0.040004604
1	0x3cca1b60	0.024671257
2	0xbdc6a999	-0.09700317
3	0xbdad64f5	-0.08466522
4	0xb9ce98b1	-0.00039405146
5	0x3cf07673	0.029353356
6	0x3e41ddd4	0.18932277
7	0xbd9bfa59	-0.076161094
8	0x3c6c4406	0.014420515
9	0xbdb7da46	-0.08977179
10	0x3cb04523	0.021517342
11	0x3de8c8bd	0.11366413
12	0xbcf88ad4	-0.030339636
13	0xbbd567e7	-0.0065126303
14	0xbda9335d	-0.0826175
15	0xbcd9b787	-0.02657677
16	0xbd1e3ab9	-0.03863022
17	0xbc8fa27f	-0.017533539
18	0x3c6f66b0	0.014611885
19	0x3de942aa	0.11389668
20	0x3e2230e7	0.15838967
21	0xbd81d042	-0.0633855
22	0x3c8c4ee5	0.017127464
23	0xbe1023f1	-0.1407621
24	0x3e38a41b	0.18031351
25	0xbddd421e	-0.108036265
26	0x3e7fbdd6	0.2497476
27	0xbcc4b70b	-0.024013063
28	0x3cee32d8	0.029076979
29	0x3e0c4047	0.13696395
30	0xbe34acc3	-0.17644028
31	0x3c6ccffc	0.014453884
32	0xbde39aec	-0.111135334
33	0x3e422057	0.18957649
34	0x3e07b6ef	0.13253377
35	0x3cd9ce10	0.026587516
36	0xbed6a0b4	-0.41919482
37	0xbd6e90e8	-0.058243662
38	0x3ceffd07	0.029295458
39	0xbd300963	-0.042977702
40	0x3e62d4b8	0.22151458
41	0xbe702b1b	-0.23453943
42	0xbda975b8	-0.08274406
43	0xbc9c684e	-0.019092705
44	0xbd3ecd54	-0.046582535
45	0xbcc5c02a	-0.024139483
46	0xbe1c50cd	-0.15265198
47	0xbd5ac547	-0.053410795
48	0x3c90b25b	0.017663172
49	0x3cb46e16	0.02202515
50	0x3db634a2	0.08896758
51	0xbe5fec95	-0.21867593
52	0xbd78c04c	-0.060730264
53	0xbd850ced	-0.06496606
54	0xbd2199b1	-0.039453212
55	0xbe587d76	-0.2114161
56	0xbd8d8c5d	-0.06911538
57	0x3b87b767	0.0041417363
58	0xbeaad565	-0.33365932
59	0x3d9da311	0.07697118
60	0xbd599c3d	-0.053127516
61	0x3d878f15	0.066190876
62	0x3e108faa	0.14117303
63	0xbdbff2ff	-0.0937252
64	0xbd06c3da	-0.032901622
65	0xbd66d977	-0.056359734
66	0xbe361b4c	-0.1778385
67	0xbe1e2921	-0.15445377
68	0xbe81deb4	-0.25365222
69	0xbd9e0921	-0.07716585
70	0xbd93380f	-0.07188427
71	0xbce25865	-0.02763004
72	0x3e13e894	0.1444419
73	0x3e0a65e9	0.13515438
74	0x3e3981ed	0.18115969
75	0x3e2d76c0	0.16939831
76	0xbb7906d9	-0.0037998466
77	0xbd608e81	-0.054823402
78	0x3c4c50bc	0.01247042
79	0xbe1ee4e3	-0.15517001
80	0x3d00d09f	0.031448957
81	0xbcfd9ada	-0.030957628
82	0xbde29830	-0.11064184
83	0x3e7a71f0	0.24457526
84	0xbd518fb1	-0.051162425
85	0xbd959ed4	-0.07305685
86	0xbca919a0	-0.020642102
87	0xbc8839b3	-0.016629076
88	0xbcc1fcef	-0.023680178
89	0x3ca2458a	0.01980855
90	0xbea05288	-0.31312966
91	0x3dd92cc5	0.10604242
92	0x3bd29502	0.0064264545
93	0xbacbeb50	-0.00155578
94	0xbde73d43	-0.112909816
95	0xbe339d22	-0.1754041
96	0x3ccd35e1	0.025050106
97	0xbd46040b	-0.0483437
98	0x3cc1c352	0.023652706
99	0xbcdeb4a1	-0.02718574
100	0xbc66167d	-0.014043448
101	0xbd29b760	-0.041434646
102	0x3c9495bc	0.018137805
103	0xbe3a45d7	-0.18190704
104	0x3dc0df40	0.094175816
105	0xbd935532	-0.07193984
106	0x3c626293	0.013817447
107	0xbcc002c7	-0.023438824
108	0xbdde2475	-0.108467974
109	0x3d971e9e	0.07378887
110	0xbd867897	-0.065659694
111	0x3de99fe1	0.114074476
112	0xbcf3225e	-0.029679473
113	0xbd9327e8	-0.07185346
114	0xbd92afae	-0.071624145
115	0xbe6459c7	-0.22299872
116	0xbd5ef531	-0.05443305
117	0x3d627e32	0.05529613
118	0xbe550d7e	-0.20805928
119	0xbd07e686	-0.03317883
120	0x3cde9970	0.027172774
121	0x3e155087	0.145815
122	0x3ca5ba90	0.020230561
123	0xbd6ede59	-0.058317516
124	0xbcdf9a80	-0.027295351
125	0x3e476405	0.19471748
126	0x3d23d986	0.04000237
127	0xbe8acdfa	-0.27110273
128	0xbd3a8ecc	-0.045546338
129	0x3dc9a161	0.09845234
130	0x3d44ad54	0.04801686
131	0xbe52c23c	-0.20581907
132	0xbd88c395	-0.06677929
133	0xbc513793	-0.012769598
134	0x3d439b4e	0.047755532
135	0xbd670768	-0.056403548
136	0x3de3d7c7	0.11125141
137	0x3ce43a86	0.027859937
138	0x3e2dd753	0.16976671
139	0xbd71d3ff	-0.059040066
140	0x3da6ec18	0.081505
141	0x3d1f9467	0.038959887
142	0x3c37fac5	0.011229222
143	0xbd1c8f27	-0.03822246
144	0xbd233945	-0.03984954
145	0x3c78d5f1	0.015187726
146	0xbdb416a6	-0.08793382
147	0xbe8256a9	-0.2545674
148	0xbd456813	-0.048194956
149	0x3e206735	0.1566437
150	0x3e0c5810	0.13705468
151	0xbb9b12fb	-0.0047324873
152	0xbc45ad68	-0.012065269
153	0xbd241b3a	-0.040065028
154	0x3baee8f5	0.0053378292
155	0xbe6aa432	-0.22914198
156	0x3d10b7db	0.03533159
157	0xbe992227	-0.2990887
158	0xbd51f1cd	-0.05125599
159	0x3e58abbf	0.21159266
160	0x3e4e3aed	0.20139666
161	0xbdb5ec22	-0.088829294
162	0xbdffe791	-0.1249534
163	0xbd1af4e9	-0.03783122
164	0xbcd7955f	-0.026316343
165	0xbc487cf3	-0.012236821
166	0xbcea64e6	-0.028612565
167	0xbe2187dd	-0.15774484
168	0xbce1a671	-0.027545186
169	0xbd771cff	-0.060330387
170	0x3dc826c6	0.097730204
171	0xbc9a9d38	-0.018873796
172	0xbca65e18	-0.02030854
173	0x3d0a4b73	0.03376336
174	0x3dad51c8	0.08462864
175	0xbd8c96dd	-0.068647124
176	0xbe66173f	-0.22469805
177	0xbdc433d2	-0.095801964
178	0x3daaea23	0.08345439
179	0x3d09503d	0.033523787
180	0xbe015963	-0.12631755
181	0x3cea774a	0.028621335
182	0xbd5a6086	-0.05331471
183	0x3db8e39f	0.0902779
184	0x3b3a3514	0.0028412985
185	0x3e4a75c3	0.19771485
186	0xbd92276b	-0.07136425
187	0xbe3c9b33	-0.18418579
188	0xbe3e64b4	-0.18593103
189	0xbd7f2354	-0.06228955
190	0xbcb8488c	-0.02249553
191	0xbd0788cb	-0.03308944
192	0xbddbd995	-0.1073486
193	0x3dab22de	0.0835626
194	0x3ccdb2e2	0.025109712
195	0x3d8d41ff	0.068973534
196	0xbdec7215	-0.11545197
197	0x3bebfecc	0.007202005
198	0xbcf7cb78	-0.030248389
199	0xbbc24208	-0.0059282817
200	0xbda21991	-0.07915033
201	0x3d5031bb	0.050828677
202	0xbd5ea6dc	-0.05435835
203	0x3dd547f4	0.104141146
204	0x3d1776a0	0.036978364
205	0x3d59d412	0.05318076
206	0x3db9b17b	0.09067055
207	0x3e81c027	0.25341913
208	0x3c70900e	0.014682783
209	0xbd673f8d	-0.05645709
210	0x3e265032	0.1624153
211	0xbd9c552c	-0.07633433
212	0x3da59404	0.08084872
213	0xbc0d9626	-0.008641755
214	0xbc1c7af5	-0.0095508
215	0xbe9977b6	-0.29974145
216	0x3da54a28	0.08070785
217	0x3e0c4ce0	0.137012
218	0x3ca34d7e	0.019934412
219	0x3d13cf98	0.03608665
220	0x3e897132	0.26844174
221	0x3ceed813	0.029155767
222	0xbe2684b0	-0.16261554
223	0xbe699143	-0.22809319
224	0x3e6b2d48	0.22966492
225	0x3d09a284	0.033602253
226	0xbd4b7a3c	-0.04967712
227	0x3dad05cb	0.084483705
228	0x3c20b611	0.009809033
229	0x3c308efc	0.010776278
230	0x3e84b4aa	0.25919086
231	0x3d8751b3	0.0660738
232	0xbcf3555e	-0.029703792
233	0xbd0d0881	-0.034431938
234	0xbcebb7c7	-0.028774155
235	0xbe325e22	-0.17418721
236	0x3e5392bb	0.20661442
237	0xbe14f953	-0.14548235
238	0x3e3d9356	0.18513235
239	0x3d1b1a46	0.037866853
240	0xbd554b1b	-0.05207358
241	0x3a37f1b2	0.00070169114
242	0x3ccbc348	0.02487339
243	0xbd273df5	-0.04083057
244	0xbd86b49c	-0.06577417
245	0xbc9df172	-0.01928017
246	0xbc841077	-0.016121132
247	0xbd409e2c	-0.047025844
248	0xbd77bff7	-0.060485806
249	0x3cbef951	0.023312243
250	0xbe82d721	-0.25554755
251	0xbdabe036	-0.08392374
252	0xbddddb34	-0.10832825
253	0x3d8b5d03	0.0680485
254	0xbe843bb5	-0.25826803
255	0xbc6a9c45	-0.014319484

mu.weight f4 [2, 256]
0	0x3ccce283	0.025010353
1	0xbd1a81de	-0.037721507
2	0xbf4014ea	-0.7503191
3	0xbea6f5d5	-0.3260943
4	0xbc32f036	-0.010921529
5	0x3bcc000b	0.006225591
6	0x3e6ebdfc	0.23314661
7	0xbcbee903	-0.023304468
8	0xbe897f4a	-0.26854926
9	0xbebe6927	-0.371896
10	0xbd24f1a5	-0.040269513
11	0xbedc26d4	-0.42998374
12	0xbd081a66	-0.0332283
13	0xbe3f9924	-0.18710762
14	0x3cd7d222	0.026345316
15	0xbe3564e0	-0.17714262
16	0x3d7cfe25	0.06176581
17	0xbca621b6	-0.020279747
18	0x38db9bc9	0.00010471751
19	0xbfa6d64e	-1.3034151
20	0x3d92968d	0.071576215
21	0xc0f070f1	-7.513787
22	0xbc071cde	-0.008246629
23	0x3e8b48e6	0.27204055
24	0xbe16b89c	-0.1471886
25	0xbeda8675	-0.42680708
26	0xbe5b7e37	-0.21434866
27	0xbbebe6a0	-0.0071991235
28	0xbcd8063a	-0.026370157
29	0xbe4467a0	-0.19180155
30	0xbe6d3944	-0.23166376
31	0x3bc7fc53	0.0061030774
32	0x3ee4fb1a	0.44722825
33	0x3eb0d460	0.3453703
34	0x3e66d593	0.2254241
35	0x3f45b32e	0.7722653
36	0xc01ec7cc	-2.4809446
37	0x3f418cd7	0.7560553
38	0x3c63e958	0.013910614
39	0x3d0d1440	0.03444314
40	0xc0b8f68c	-5.780096
41	0x3d0d188c	0.034447238
42	0xbca86d38	-0.020559892
43	0xbbd83e1b	-0.0065992004
44	0x3daa1920	0.083055735
45	0xbd4e7de5	-0.05041303
46	0xbeae91ad	-0.34095517
47	0xbd29c1cd	-0.04144459
48	0xc07f6eb5	-3.991132
49	0x3c2fb2f7	0.010723821
50	0xbeaf9ed6	-0.3430087
51	0x3fa4a0e6	1.2861602
52	0xbf96b36c	-1.1773505
53	0xbf1f5249	-0.6223493
54	0xbb8ca760	-0.0042924136
55	0x405cc462	3.4494863
56	0xbe5f1052	-0.2178357
57	0xbcdc8eed	-0.026923621
58	0xbec9a575	-0.39384046
59	0x3f200807	0.6251225
60	0x3c2f56a7	0.010701812
61	0xbf0ebd1f	-0.55757326
62	0xbf11c7c5	-0.5694545
63	0x3c86e78b	0.01646783
64	0xbcdbb471	-0.02681944
65	0x3cde5ea9	0.027144747
66	0xbe3f9af1	-0.18711449
67	0x3ed90462	0.42386156
68	0x3ea0064a	0.31254798
69	0xbe92cc76	-0.28671616
70	0x3d31df01	0.043425564
71	0x3eb78dee	0.3585047
72	0xbfdf96db	-1.7467912
73	0x3fb2f57b	1.3981165
74	0xbf877897	-1.0583676
75	0xbd3fa685	-0.046789665
76	0xb9c3746f	-0.00037280048
77	0x403b8e69	2.930567
78	0x3f564db6	0.8371233
79	0x3eaa6563	0.33280477
80	0x3e30b299	0.1725563
81	0x40b80873	5.7510314
82	0xbf72f38b	-0.9490287
83	0x3d8701db	0.06592151
84	0xbb6921fa	-0.003557323
85	0x3d1cb263	0.03825606
86	0x3ff64aaf	1.9241542
87	0x3ca76ef2	0.020438645
88	0xbf2a8f51	-0.66624933
89	0xc01ee323	-2.4826133
90	0xbf0d8473	-0.55280226
91	0xbeef2173	-0.46705207
92	0xbcb78703	-0.022403246
93	0xbc01885a	-0.007906044
94	0xbe9f3bf1	-0.3110042
95	0xbe8809e7	-0.26570055
96	0xbf278c39	-0.6544834
97	0xbc6ff3f6	-0.014645567
98	0x3f1d0a31	0.61343676
99	0x3e8b7b4d	0.2724251
100	0xbe6aaa15	-0.22916444
101	0x3efd4687	0.4946787
102	0xbc0fb3ed	-0.008770925
103	0x3f05e9a9	0.5230966
104	0x3e041906	0.1290017
105	0xbd688f46	-0.05677726
106	0xbc9d9cca	-0.019239802
107	0x3bbdb1d5	0.0057890215
108	0x3eeb3a0d	0.45942727
109	0x3ebec8a8	0.37262464
110	0x3d1a2aaf	0.037638362
111	0xbe518864	-0.20462185
112	0x3c38e8e4	0.011285994
113	0x3c8e4bec	0.017370187
114	0x40886dd9	4.263409
115	0x3fb21eba	1.3915627
116	0x3d1fb9fe	0.038995735
117	0xc00fc192	-2.2461896
118	0xbca515d8	-0.020152017
119	0x3e7b41fa	0.24536887
120	0xbe144322	-0.14478734
121	0x3e2ec88a	0.17068687
122	0x3cf57303	0.029962068
123	0x3d259a76	0.04043051
124	0x3c0d1905	0.008611922
125	0xbd1229d1	-0.03568441
126	0x3c3edbfa	0.011649126
127	0x3fa41199	1.281787
128	0x3e456dbc	0.19280142
129	0x3ea58aa1	0.32332328
130	0xbe06ef50	-0.13177228
131	0x3cad1315	0.021127263
132	0xbd514ee7	-0.051100638
133	0x3c897bad	0.016782606
134	0xbf781796	-0.9691099
135	0xbd0e2ebf	-0.03471255
136	0x3e53f4a0	0.20698786
137	0x3f8ffad4	1.1248422
138	0xbd975832	-0.07389869
139	0xbd5c0e3e	-0.05372452
140	0xbe8458c2	-0.25848967
141	0xbf5b0eed	-0.8556965
142	0x3ca61a01	0.020276072
143	0xbe4ed4f9	-0.2019843
144	0xbd06515e	-0.03279244
145	0xbb16234c	-0.0022909222
146	0xbdc1fafd	-0.094717
147	0x3f6d6695	0.9273465
148	0x3c886227	0.016648365
149	0x3e21cf4d	0.15801735
150	0x3e5dc935	0.21658786
151	0x3b90b91b	0.0044165975
152	0xbcd37983	-0.025814777
153	0xbd0e5287	-0.034746673
154	0xbcbcff37	-0.023070915
155	0x3e92442f	0.28567645
156	0x3b3840ce	0.0028114798
157	0xbe19e89d	-0.15030141
158	0xb911dc54	-0.00013910356
159	0xc1297a38	-10.592339
160	0x3ee02554	0.4377848
161	0xbcc9dc01	-0.024641039
162	0x3defdadd	0.11711667
163	0x3f9c9c19	1.2235137
164	0xbd308dec	-0.043104097
165	0x3d2e9762	0.04262484
166	0x3ce86855	0.028370062
167	0xbe2b32f8	-0.16718662
168	0xbc6439e6	-0.01392982
169	0xbb7903f1	-0.0037996734
170	0x3dbfc0f7	0.09362977
171	0x3ebd7ba4	0.37008393
172	0xbe95be6b	-0.2924684
173	0xbc12cbbd	-0.008959708
174	0xbebcb0db	-0.3685368
175	0x3eebe8b3	0.46075973
176	0xbfe2b1ed	-1.7710549
177	0x3cab714d	0.02092805
178	0x3d0ca67a	0.034338452
179	0xbcdcbcba	-0.02694546
180	0x3f49653f	0.78670114
181	0x3e06eded	0.13176699
182	0xbdf61090	-0.12014878
183	0x3da1fbc8	0.079093516
184	0xbc9b3acd	-0.018948937
185	0xbf3e85c5	-0.74422866
186	0xbc946efd	-0.01811933
187	0x3e40ac82	0.18815807
188	0xbe71a496	-0.23597941
189	0xbf4089bf	-0.75210184
190	0xbd578485	-0.052616615
191	0xbcd2139f	-0.025644122
192	0x3f0468b9	0.51722294
193	0xbf9a107c	-1.2036281
194	0xbc381ad2	-0.011236863
195	0x3df08406	0.117439315
196	0x3ead4442	0.3384114
197	0xbea8629d	-0.32887736
198	0x3fce65ae	1.612478
199	0xbcf2651f	-0.029589234
200	0x3c66038e	0.014038933
201	0x3e648d97	0.22319637
202	0xbd150841	-0.036384825
203	0x3ebbb5b8	0.36662078
204	0x3da44bb0	0.08022249
205	0x3dd3294f	0.10310613
206	0x3e7afee5	0.24511297
207	0xbd8ddfe5	-0.0692747
208	0x3cfd481a	0.03091817
209	0x3efc9bc4	0.4933759
210	0x3d836e6f	0.06417548
211	0x3e9cb673	0.30607948
212	0x40994785	4.7899804
213	0xbbd9b09d	-0.0066433684
214	0x3bfb027a	0.0076602073
215	0xbd60d1c9	-0.054887567
216	0xbdbc1bee	-0.09185015
217	0x3f06b9b9	0.5262714
218	0xbc3ef1f3	-0.011654365
219	0x3e538c43	0.20658974
220	0x3f26031a	0.6484848
221	0xbd0c0b33	-0.034190368
222	0xbe322384	-0.1739636
223	0xbec9d08c	-0.3941692
224	0x3ef3dda9	0.4763005
225	0xbe3fd264	-0.18732601
226	0xbc2f3298	-0.010693215
227	0xc11bef9c	-9.745998
228	0xbf5fa0dc	-0.87354827
229	0xbc6e5e8d	-0.01454891
230	0xc145d6dc	-12.364956
231	0x4004ab96	2.0729728
232	0xbe981042	-0.29699904
233	0xbe2e877e	-0.17043874
234	0x3ceae282	0.02867246
235	0xbef61600	-0.4806366
236	0xbce83b99	-0.02834873
237	0xbf883dee	-1.06439
238	0x3f83a0be	1.028343
239	0x3faf8591	1.3712636
240	0xbcb5c5f4	-0.022189118
241	0xbe58ef18	-0.21184957
242	0xba8f1ab9	-0.0010917998
243	0xbcd2ea68	-0.02574654
244	0xbce1b1a8	-0.027550533
245	0x3e72d349	0.23713411
246	0xbbfa4002	-0.007637025
247	0xbb047ab2	-0.0020214734
248	0xbcaf4e07	-0.021399511
249	0x3f6f052e	0.9336728
250	0xbd655087	-0.055985
251	0xc027c56c	-2.6214247
252	0x3eec914a	0.46204597
253	0x3c2d7b7b	0.010588522
254	0x3ece285f	0.40265176
255	0x3e95a518	0.2922752

mu.bias f4 [2]
0	0xbc7c1bd0	-0.01538749
1	0x3d120743	0.035651457
