TD3/models/lunarlander/00001000/critic_1.pth (torch, 277271 bytes, 5 tensors)

fc1.weight f4 [256, 10]
-0.6731725 -0.8990854 0.29172042 -0.11306088 -0.9698328 -0.3792807 0.24659549 0.010565411
-0.16110104 -0.14878196 0.17589605 -0.11721932 0.13960317 -0.77469885 -0.16433239 -0.5757528
0.43816388 0.057943456 -0.044290755 0.008984208 0.37898377 -0.42626455 0.016575161 0.3625955
-0.62224877 -0.6139621 0.22475624 -0.027429674 -0.121627554 0.09718572 -0.7012987 0.1396294
-0.4417139 -0.46562716 -0.7473935 -0.9356256 1.0654985 0.36024633 0.30222407 0.020426184
-1.0442286 -0.9351587 -0.5655556 -0.4186177 -0.40713462 -0.5367852 -0.35371506 -0.27708817
-0.28745067 -0.042440567 -0.32686368 -0.36817554 -0.26970688 -0.72420835 0.26572534 -0.15086795
0.4639589 0.6578588 -0.085561134 -0.107357174 0.1806256 0.178351 -0.28922957 0.26615825
0.3697344 -0.19148506 0.78645223 0.11710841 -0.04369142 0.09999451 -0.93990517 0.031243114
-0.3194145 -0.40437654 -0.40070823 0.13230531 0.4149501 -0.8517952 -0.008127165 0.0008553557
-0.73955643 0.01974511 -0.5543307 0.007086592 -0.8877062 -0.12279331 0.05632142 0.35355097
-0.006564073 -0.07601923 -0.20913832 -1.0988492 0.23380786 0.6181131 -0.18820956 0.84068435
0.08732906 -0.7108148 -0.018107722 -0.25552613 -0.05799044 -0.34421098 0.28353405 -0.04595905
-0.56611437 -0.29259554 0.00022105503 -2.032211 -0.027028415 -0.006482715 -0.22475253 -0.5027641
0.36589208 0.0016268805 -0.3483718 -0.25690934 0.49711707 -0.6511989 0.58047366 -0.08626379
1.0950071 -0.008568843 0.4392485 0.08571592 0.24701461 0.064817555 -0.7023675 -0.19358301
-0.029867478 0.088263296 0.43409798 0.251163 0.41620833 -0.06933002 -0.30794314 0.10589699
-1.0159637 -0.4013778 -0.07965969 0.07603803 -0.91571444 -0.35739118 -0.1933532 -0.4402767
-0.5074986 -0.09033246 -0.34749106 0.6772304 0.5516013 -0.27936995 -0.06995592 -1.0327051
0.18227865 -0.7984059 0.061036725 0.41785967 -0.59816587 -0.219368 0.32908672 -0.1280889
-0.6971264 0.05926637 0.16749947 0.23826568 0.41719818 0.48201516 0.058133233 -0.108575076
0.18270095 -0.04090835 0.33401152 -0.13193737 0.33699346 0.55783695 -0.5516095 0.31721142
0.47357285 -0.46623296 -0.068490155 0.12429152 -0.046026673 0.007756366 0.02528153 -0.66780096
-0.26374167 -0.63496983 0.52339286 0.3951463 -0.08633242 0.10722414 -0.19870013 -0.57648015
-0.073874116 -0.07756057 -0.69961476 -0.29213154 0.37614754 -0.5797138 -0.21084096 0.28581026
-0.22073293 -1.432798 -0.17129193 -0.02499631 0.40867865 -0.63202274 0.8211523 0.16968
0.32458124 -0.40392748 0.0076484545 0.25182748 -0.68158704 0.46293938 0.34014067 1.0852997
0.054735333 -0.07053285 -0.017251093 -0.10191328 -0.4292794 0.43153873 0.27795658 0.17952773
0.04454254 0.8225134 -0.07414884 -0.08608133 -0.010748545 0.07417057 0.08409789 0.39309168
-0.09614405 0.20651709 0.6032305 0.25988567 0.16781847 -0.08168118 0.06911301 -0.021299163
-0.17486595 -0.76487345 -0.48092493 0.5301166 -0.5290545 -0.52462083 0.13915356 0.13672346
-0.19898163 -0.043858822 -0.5990533 -0.3052139 -0.099241905 -0.68799275 -0.27781734 -0.30738238
00000000: 0855 2cbf 762a 66bf 615c 953e 768c e7bd
00000010: f646 78bf 1431 c2be 8783 7c3e 8c1a 2d3c
00000020: acf7 24be 4c5a 18be 181e 343e af10 f0bd
00000030: 22f4 0e3e aa52 46bf c046 28be 8964 13bf
00000040: 0457 e03e 1e56 6d3d 396a 35bd 8032 133c
00000050: 290a c23e 593f dabe a2c8 873c 1ea6 b93e
00000060: b24b 1fbf 9f2c 1dbf 8026 663e 32b4 e0bc
00000070: de17 f9bd 4f09 c73d 5088 33bf 02fb 0e3e
00000080: 5328 e2be af66 eebe 2e55 3fbf 2985 6fbf
00000090: 4162 883f 3572 b83e 1dbd 9a3e d054 a73c
000000a0: 48a9 85bf 9066 6fbf 40c8 10bf 0f55 d6be
000000b0: f373 d0be c16a 09bf 241a b5be 80de 8dbe
000000c0: bc2c 93be 29d6 2dbd ad5a a7be 8181 bcbe
000000d0: 0517 8abe b865 39bf 270d 883e 217d 1abe
000000e0: 058c ed3e 6f69 283f ad3a afbd 14de dbbd
000000f0: ebf5 383e a5a1 363e e615 94be e545 883e
00000100: d44d bd3e a914 44be ef54 493f 89d6 ef3d
00000110: c6f5 32bd ecc9 cc3d a09d 70bf 8ff1 ff3c
00000120: 4c8a a3be 710a cfbe a129 cdbe 0b7b 073e
00000130: 5774 d43e 400f 5abf cd27 05bc f339 603a
00000140: 9253 3dbf 7fc0 a13c 9ee8 0dbf a436 e83b
00000150: b740 63bf 0f7b fbbd 4ab1 663d a204 b53e
00000160: 6f17 d7bb f8af 9bbd 5b28 56be 17a7 8cbf
00000170: 546b 6f3e a93c 1e3f 02ba 40be 1737 573f
00000180: 94d9 b23d f5f7 35bf a556 94bc 52d4 82be
00000190: 6287 6dbd 6c3c b0be 602b 913e 8f3f 3cbd
000001a0: dfec 10bf 15cf 95be 02cb 6739 bf0f 02c0
000001b0: b26a ddbc f46c d4bb 8725 66be 26b5 00bf
000001c0: 3556 bb3e 0d3d d53a ca5d b2be 9f89 83be
000001d0: 2186 fe3e f9b4 26bf ec99 143f 12ab b0bd
000001e0: 3129 8c3f 5564 0cbc 2ee5 e03e d48b af3d
000001f0: 66f1 7c3e 11bf 843d 5bce 33bf a03a 46be
00000200: a4ac f4bc 63c3 b43d 1742 de3e 7098 803e
00000210: 4219 d53e e6fc 8dbd b9aa 9dbe 85e0 d83d
00000220: 190b 82bf 6481 cdbe 9f24 a3bd d4b9 9b3d
00000230: 436c 6abf fafb b6be 62fe 45be f36b e1be
00000240: 6eeb 01bf 3a00 b9bd 59ea b1be f95e 2d3f
00000250: be35 0d3f 9409 8fbe 0d45 8fbd ae2f 84bf
00000260: 41a7 3a3e 5464 4cbf a501 7a3d b4f1 d53e
00000270: 6621 19bf 01a2 60be 0e7e a83e bd29 03be
00000280: e076 32bf 4bc1 723d fb84 2b3e ebfb 733e
00000290: 009b d53e b1ca f63e 1d1d 6e3d 9c5c debd
000002a0: f515 3b3e 848f 27bd 8f03 ab3e 971a 07be
000002b0: 688a ac3e 67ce 0e3f 4836 0dbf 8969 a23e
000002c0: 2478 f23e 16b6 eebe 9144 8cbd 8d8c fe3d
000002d0: 7786 3cbd 1d29 fe3b 361b cf3c 01f5 2abf
000002e0: 2609 87be 628d 22bf 13fd 053f 9e50 ca3e
000002f0: 0dcf b0bd 5498 db3d 0c78 4bbe 3494 13bf
00000300: 504b 97bd 13d8 9ebd f419 33bf 4492 95be
00000310: 6996 c03e 2068 14bf b1e6 57be b955 923e
00000320: d007 62be ed65 b7bf 2767 2fbe 10c5 ccbc
00000330: 543e d13e 3ecc 21bf 0a37 523f 98c0 2d3e
00000340: 832f a63e 95cf cebe e39f fa3b 88ef 803e
00000350: 7d7c 2ebf 6406 ed3e eb26 ae3e 1aeb 8a3f
00000360: 2832 603d 8773 90bd 2a52 8dbc e9b7 d0bd
00000370: 82ca dbbe a5f2 dc3e 5350 8e3e 1ed6 373e
00000380: 3d72 363d 3d90 523f 59db 97bd 694b b0bd
00000390: aa1a 30bc bde6 973d 843b ac3d 5043 c93e
000003a0: 2ce7 c4bd 3779 533e 506d 1a3f bc0f 853e
000003b0: 9bd8 2b3e 7648 a7bd 1f8b 8d3d 957b aebc
000003c0: 0f10 33be bfce 43bf cb3b f6be b9b5 073f
000003d0: 1e70 07bf 8d4d 06bf 457e 0e3e 3c01 0c3e
000003e0: d7c1 4bbe 4fa5 33bd 8f5b 19bf ff44 9cbe
000003f0: 573f cbbd 4b20 30bf 133e 8ebe 3961 9dbe

fc1.bias f4 [256]
0.345029 -0.26628798 0.009498317 0.38012663 0.528397 -0.35993695 0.33278814 -0.8224946
0.2010144 -0.11414707 -0.5223949 -0.2014882 0.027916927 0.23780902 -0.03651981 -0.110279486
-0.5318983 -0.44715828 -0.55032057 -0.24621783 -0.1446502 0.090731 0.7025222 0.82754916
-0.39857066 -0.5299994 -0.09287892 0.72057885 0.124883845 0.36668867 -0.17673731 -0.6215265
0.29625216 1.4912994 -0.18352231 -0.52511424 -0.62571675 -0.4936249 -0.0060571767 0.2863853
-0.48349306 -0.21615623 -0.36971417 -0.6617423 0.17559558 0.5621468 -0.43062595 -0.5808473
0.46360424 -0.75788355 -0.7047366 0.65739805 -0.684482 -0.29598543 -0.66125834 -0.16298997
-0.27060184 0.10124377 0.19211337 -0.28801447 -0.60941744 -0.33122766 -0.5641918 -0.3477111
-0.06511455 0.85842407 0.692177 0.0533516 0.63355124 -0.58662605 -0.21679574 -0.16976687
-0.7771896 0.31169602 0.7744272 0.5574131 -0.16740985 -0.57797265 0.73658925 -0.53688616
-0.52073723 0.4588337 0.014703199 -0.64819187 -0.15316111 0.1417409 0.24776162 0.2137188
0.46809193 -0.9638949 0.4944313 0.19306543 0.37797287 -0.3942901 -0.0160561 -0.72516
-0.0626535 -0.37864125 0.53471726 -0.46147954 0.24408183 0.54169756 0.004813831 0.85786724
-0.13911647 -0.68221486 0.37510183 0.97533214 -0.52141154 0.4887627 0.31467482 0.3126458
0.69826174 -0.210226 0.09547499 -0.07101968 -0.21200742 0.08807496 -0.39580062 0.5366984
0.8649066 0.6001613 -0.14876273 -0.25054646 -0.5622272 -0.4145227 0.63602096 0.4948852
0.039841715 0.84113884 -0.16135696 -0.6257755 -0.5639025 -0.3454824 0.3265287 -0.27811342
0.45317695 -0.08239171 0.61641735 0.47002348 -0.47831255 0.63060904 -0.19057965 -0.31897542
-0.07756286 0.6404374 -0.9352299 0.32373393 0.30714837 0.6578329 0.7378339 0.5955822
0.06572034 -0.35775468 0.4767954 0.01898069 -0.24224028 -0.1242003 0.21743616 0.2556061
-0.47765028 0.7578677 0.5158336 0.31663004 0.7919608 0.07531848 -0.01914361 0.31461674
-0.40580025 0.8491086 -0.39668494 -0.07900944 0.62335205 -0.22152126 0.013436013 0.24263868
-0.02986127 0.5438823 0.49237654 0.23207854 -0.1828805 0.03488213 0.5562083 0.59615505
-0.07238533 0.1543722 0.63195795 -0.14793313 0.76104295 0.4061862 0.049755007 0.030027837
0.43940538 0.08900441 -0.5633163 0.09298101 -0.15572087 0.45875198 0.65938836 -0.478233
-0.052654024 -0.11296912 0.25491056 0.17701635 0.18359089 0.060069364 0.6189964 -0.5666292
0.4818113 -0.099045224 0.10785407 -0.30767897 -0.29841116 0.028430382 0.46059644 -0.3157949
-0.50195843 -0.032651395 -0.23295 -0.48441797 0.5339355 -0.09752066 -0.255083 0.44549346
0.29831794 0.64910954 0.7108588 -0.0017525533 0.57560253 -0.19776489 0.6170262 0.20984204
0.33955646 -0.52408683 -0.030398365 -0.8207046 -0.47010484 0.40419927 0.32468787 0.17911313
0.9424495 -0.13447478 0.6112041 0.107137345 -0.5665304 0.16506492 0.11084751 0.31044894
-0.6142117 0.20464124 0.36217383 0.72419834 0.1699594 -0.18208568 0.27617395 -0.13417618
00000000: a4a7 b03e e656 88be d49e 1b3c f59f c23e
00000010: 0745 073f a849 b8be 3563 aa3e 028f 52bf
00000020: b8d6 4d3e f0c5 e9bd acbb 05bf ec52 4ebe
00000030: 0ab2 e43c 3584 733e cc95 15bd 36da e1bd
00000040: 7d2a 08bf eef1 e4be cfe1 0cbf 8720 7cbe
00000050: 2f1f 14be 2dd1 b93d 7fd8 333f 43da 533f
00000060: 7411 ccbe 0aae 07bf 4e37 bebd db77 383f
00000070: 1ac3 ff3d 9ebe bb3e a0fa 34be 5c1c 1fbf
00000080: 5dae 973e e6e2 be3f 46ed 3bbe e36d 06bf
00000090: f92e 20bf 67bc fcbe 487b c6bb 18a1 923e
000000a0: 678c f7be 0f58 5dbe 2d4b bdbe f267 29bf
000000b0: 54cf 333e dae8 0f3f 017b dcbe 69b2 14bf
000000c0: 895d ed3e a804 42bf 9e69 34bf 3d4b 283f
000000d0: 363a 2fbf 678b 97be 3a48 29bf d8e6 26be
000000e0: 538c 8abe e558 cf3d 5eb9 443e a276 93be
000000f0: c802 1cbf ac96 a9be e06e 10bf 3007 b2be
00000100: c75a 85bd aec1 5b3f 8332 313f 3587 5a3d
00000110: 6a30 223f 202d 16bf b4ff 5dbe 5ed7 2dbe
00000120: e6f5 46bf 9f96 9f3e dc40 463f a0b2 0e3f
00000130: 7d6d 2bbe 04f6 13bf 1d91 3c3f 5f71 09bf
00000140: 094f 05bf 40ec ea3e b0e5 703c e7ef 25bf
00000150: 44d6 1cbe 8724 113e 39b5 7d3e 1ad9 5a3e
00000160: bfa9 ef3e d1c1 76bf 1926 fd3e f2b2 453e
00000170: a985 c13e 64e0 c9be 1588 83bc 16a4 39bf
00000180: 7a50 80bd 44dd c1be 3be3 083f 0c47 ecbe
00000190: 96f0 793e b1ac 0a3f 57bd 9d3b 309d 5b3f
000001a0: 8c74 0ebe a2a5 2ebf 590d c03e 5eaf 793f
000001b0: 3a7b 05bf 1b3f fa3e 0f1d a13e 1c13 a03e
000001c0: 48c1 323f 7c45 57be 6488 c33d c472 91bd
000001d0: 7918 59be a560 b43d 61a6 cabe 1165 093f
000001e0: 856a 5d3f 2ca4 193f 4255 18be a047 80be
000001f0: 1fee 0fbf 523c d4be 45d2 223f 9861 fd3e
00000200: 1131 233d e054 573f c23a 25be d332 20bf
00000210: ea5b 10bf 12e3 b0be c52e a73e e264 8ebe
00000220: cf06 e83e fcbc a8bd 87cd 1d3f eba6 f03e
00000230: 62e5 f4be 986f 213f 5027 43be bf50 a3be
00000240: 47d9 9ebd b5f3 233f 3a6b 6fbf 74c0 a53e
00000250: 8d42 9d3e bd67 283f afe2 3c3f 1378 183f
00000260: 6398 863d 9f2b b7be 871e f43e 647d 9b3c
00000270: d60d 78be ba5c febd 96a7 5e3e cede 823e
00000280: 948e f4be 9e03 423f ac0d 043f 551d a23e
00000290: f1bd 4a3f 9340 9a3d 0fd3 9cbc 7215 a13e
000002a0: 0dc5 cfbe 2e5f 593f 4a1a cbbe b4cf a1bd
000002b0: 0094 1f3f 78d6 62be b922 5c3c 4676 783e
000002c0: 9f9f f4bc df3b 0b3f c718 fc3e ffa5 6d3e
000002d0: 0745 3bbe 90e0 0e3d ab63 0e3f 9e9d 183f
000002e0: c33e 94bd bf13 1e3e ffc7 213f c87b 17be
000002f0: b6d3 423f a3f7 cf3e e8cb 4b3d f0fc f53c
00000300: bef9 e03e f247 b63d 7f35 10bf d46c be3d
00000310: 4b75 1fbe 8ae1 ea3e adcd 283f f5da f4be
00000320: bfab 57bd 5b5c e7bd a383 823e c643 353e
00000330: 40ff 3b3e 4b0b 763d 8c76 1e3f 9c0e 11bf
00000340: f9af f63e 39d8 cabd 98e2 dc3d 1988 9dbe
00000350: 59c9 98be d5e6 e83c 4cd3 eb3e deaf a1be
00000360: 5980 00bf 78bd 05bd 728a 6ebe a205 f8be
00000370: ffaf 083f e9b8 c7bd 3d9a 82be b817 e43e
00000380: 21bd 983e 0b2c 263f d8fa 353f eeb5 e5ba
00000390: b05a 133f e182 4abe 6ef5 1d3f d5e0 563e
000003a0: 58da ad3e 8e2a 06bf fe05 f9bc b219 52bf
000003b0: 95b1 f0be 35f3 ce3e 7d3d a63e 6f69 373e
000003c0: 5f44 713f c2b3 09be df77 1c3f d36a db3d
000003d0: 2308 11bf c706 293e 0504 e33d 2af3 9e3e
000003e0: fa3c 1dbf 798d 513e d96e b93e 1065 393f
000003f0: d609 2e3e ab74 3abe ac66 8d3e 7b65 09be

fc2.weight f4 [256, 256]
0.3146484 0.3825864 0.36171868 0.20965435 0.16823243 0.33147135 -0.1043519 1.5855815
0.33937907 -0.024081666 0.61988753 0.37457332 0.67033464 0.6365274 0.35090667 -0.4827156
-0.1855609 1.281898 0.18591283 0.2989628 -0.22279222 0.17418821 -0.17600232 -0.13314192
0.26665276 0.25791293 -0.059009604 0.018308552 0.41064003 0.24592055 0.24766383 -1.1548234
0.16844401 0.16406515 0.27261218 0.27931124 -0.019138398 0.59073913 0.5852665 -0.10157047
0.82550967 0.5625315 0.2215663 0.59979403 -0.11074676 0.4763682 1.1602613 0.45550588
0.198027 0.45299318 0.9488832 0.35113254 1.1639775 0.3367296 -0.059894525 0.46299672
0.2981649 0.12631567 -0.0022413922 0.35418385 0.498987 -0.046910577 0.47868955 0.6128634
0.33361483 0.2364985 0.45669344 -0.17743708 0.08739257 0.47809222 0.15320505 0.13127142
1.1666275 0.41041377 -0.20319043 0.33544594 0.79799384 0.7108146 -0.03480143 0.7905628
0.68997425 0.33322358 -0.07976732 0.5915654 0.24771166 0.18546018 0.22071491 -0.3533765
-0.055180047 1.7620597 0.33643526 0.24802864 0.518151 0.34424323 0.3699546 0.18892558
0.54273003 0.23061167 0.26819777 0.79679865 0.27529418 0.4694906 0.2833405 0.013945478
0.28417128 0.43170804 0.18025003 0.18323421 0.20511523 -0.57368225 0.34529674 0.25379416
-0.111036584 0.22968386 0.22729719 -0.29334396 0.52347237 0.25727147 1.1785148 -0.03131072
-0.23496757 0.18127413 0.066570036 0.39747283 0.52287096 -0.9056573 0.12236252 0.23445433
-0.24644026 0.17421962 0.101817146 1.143079 0.5147459 0.50200355 0.46150318 0.33214995
0.22542731 0.45589116 0.5702253 0.28654698 0.6069637 0.28464574 -0.3078005 -0.61395955
-0.3104312 0.089973524 -0.9981183 0.12906423 0.08469312 0.30645478 0.027016832 0.32162845
-0.12420697 -0.5240136 0.29484499 0.15664326 0.15830396 0.50920707 0.0029112925 0.1119165
-0.02704448 0.28663108 0.2624147 0.2994481 -0.2807805 0.6599971 -0.115850165 0.7775534
0.7861572 -0.36616546 0.2673076 0.52405334 0.23436877 0.3185818 0.34103295 0.37119752
0.27767852 0.3459469 0.5525022 0.14798096 -0.24459615 -0.18020137 0.18915825 0.28638497
0.4288275 0.13063924 0.032208312 0.9103414 0.3779435 0.32292193 0.07387992 0.20770611
0.23739575 -0.24408568 0.8676199 0.24116386 0.5039754 0.20547368 0.19592965 -0.47599125
0.4128106 0.2777047 0.26903692 0.086266994 0.3184391 0.22772974 -0.11582573 0.94926345
-0.13535915 0.41342732 0.3867923 0.80646986 0.30120924 -0.054373603 0.40226254 0.48065394
1.6435695 0.3447207 1.1345947 -0.25018176 0.55317205 0.49530682 0.3750231 0.22110407
0.3786865 0.388215 0.17620943 -0.1578269 0.48726285 0.30939454 0.322428 -0.026274234
0.33369225 0.37492567 0.5067046 0.34453797 1.0537342 0.3055024 0.18822344 -0.07812506
0.20412318 0.485134 -0.03511581 0.26935318 0.69486725 0.61697495 0.30391073 0.46488833
0.3550097 -0.19002113 0.3526117 0.23535939 0.44255581 0.20388491 0.16027628 0.25894102
00000000: 9819 a13e 5de2 c33e 3133 b93e a1af 563e
00000010: 1f45 2c3e 9db6 a93e 73b6 d5bd 56f4 ca3f
00000020: 18c3 ad3e ea46 c5bc f3b0 1e3f 13c8 bf3e
00000030: 0d9b 2b3f 76f3 223f 0aaa b33e 8026 f7be
00000040: ad03 3ebe 3c15 a43f ef5f 3e3e a711 993e
00000050: a523 64be 655e 323e f439 34be 5b56 08be
00000060: b686 883e 2a0d 843e 0eb4 71bd d1fb 953c
00000070: 693f d23e 99d2 7b3e 969b 7d3e 41d1 93bf
00000080: 967c 2c3e b200 283e d393 8b3e e201 8f3e
00000090: 21c8 9cbc ae3a 173f 06d4 153f 2e04 d0bd
000000a0: 9a54 533f 1002 103f 47e2 623e 1a8c 193f
000000b0: 33cf e2bd 88e6 f33e 7183 943f 1138 e93e
000000c0: 97c7 4a3e b9ee e73e 02ea 723f a5c7 b33e
000000d0: 37fd 943f d267 ac3e f653 75bd e80d ed3e
000000e0: 12a9 983e e558 013e 52e4 12bb 9657 b53e
000000f0: 397b ff3e 4e25 40bd cc16 f53e 9ee4 1c3f
00000100: 90cf aa3e aa2c 723e b9d3 e93e 11b2 35be
00000110: e0fa b23d 81c8 f43e c9e1 1c3e 046c 063e
00000120: 0d54 953f c121 d23e 2711 50be 92bf ab3e
00000130: 5349 4c3f f2f7 353f f28b 0ebd 5362 4a3f
00000140: 27a2 303f 489c aa3e 0c5d a3bd d470 173f
00000150: 20a8 7d3e 46e9 3d3e 1703 623e c4ed b4be
00000160: 7904 62bd 2c8b e13f 3e41 ac3e 38fb 7d3e
00000170: 8ba5 043f a640 b03e b06a bd3e b575 413e
00000180: 5bf0 0a3f 7725 6c3e 3851 893e fffa 4b3f
00000190: 5cf3 8c3e 1261 f03e 0212 913e 937b 643c
000001a0: e67e 913e d608 dd3e 7793 383e c0a1 3b3e
000001b0: ba09 523e d7dc 12bf bcca b03e 4ff1 813e
000001c0: 2667 e3bd 3f32 6b3e 98c0 683e 2e31 96be
000001d0: 4902 063f 16b9 833e 93d9 963f ab3f 00bd
000001e0: 579b 70be ed9f 393e df55 883d 8f81 cb3e
000001f0: dfda 053f 28d9 67bf 3399 fa3d cc14 703e
00000200: d65a 7cbe a166 323e 8285 d03d 6a50 923f
00000210: 63c6 033f 4e83 003f 254a ec3e 8f0f aa3e
00000220: 6bd6 663e 916a e93e 49fa 113f 49b6 923e
00000230: f961 1b3f 16bd 913e 0798 9dbe 742c 1dbf
00000240: d7f0 9ebe 0a44 b83d ae84 7fbf 6a29 043e
00000250: 9673 ad3d a4e7 9c3e 6752 dd3c 7cac a43e
00000260: 3960 febd c125 06bf ecf5 963e 1767 203e
00000270: 6f1a 223e 655b 023f 62cb 3e3b 7a34 e53d
00000280: 638c ddbc 4fc1 923e 385b 863e 4351 993e
00000290: 76c2 8fbe 92f5 283f da42 edbd bd0d 473f
000002a0: 9941 493f 0a7a bbbe 8bdc 883e 5c28 063f
000002b0: 5efe 6f3e 271d a33e df9b ae3e 9a0d be3e
000002c0: e12b 8e3e f41f b13e c970 0d3f 5288 173e
000002d0: 6a77 7abe b586 38be b3b2 413e 0da1 923e
000002e0: 478f db3e 4bc6 053e ddec 033d 220c 693f
000002f0: cf81 c13e 0656 a53e 5b4e 973d e9b0 543e
00000300: df17 733e 99f1 79be 561c 5e3f a9f3 763e
00000310: 8804 013f b167 523e c8a1 483e 20b5 f3be
00000320: e95b d33e 4f2f 8e3e 35bf 893e c0ac b03d
00000330: 730a a33e fc31 693e 0a36 edbd ee02 733f
00000340: 979b 0abe bfac d33e a409 c63e cf74 4e3f
00000350: 1938 9a3e dbb6 5ebd 5bf5 cd3e 4618 f63e
00000360: 7c60 d23f 3b7f b03e 663a 913f d317 80be
00000370: af9c 0d3f db98 fd3e 0703 c03e 1b69 623e
00000380: 32e3 c13e 1ec4 c63e 3f70 343e 609d 21be
00000390: 847a f93e f668 9e3e 4815 a53e 103d d7bc
000003a0: b6d9 aa3e 42f6 bf3e 65b7 013f 4867 b03e
000003b0: c3e0 863f d06a 9c3e a5bd 403e 0800 a0bd
000003c0: ab05 513e 7c63 f83e 98d5 0fbd a9e8 893e
000003d0: d2e2 313f 12f2 1d3f 309a 9b3e d805 ee3e
000003e0: d5c3 b53e e694 42be 8589 b43e 0d02 713e
000003f0: ad96 e23e 35c7 503e 771f 243e eb93 843e

fc2.bias f4 [256]
0.2515246 0.037720527 -0.15654203 -0.04821656 -0.2581938 0.43139675 -0.102243364 0.25006855
0.4463466 -0.027553737 0.41781247 0.398865 0.49557 0.2506651 0.28177783 0.25695786
0.12753451 -0.0064430027 0.2050825 0.24111448 -0.5094088 0.27036864 -0.29408044 -0.03090304
0.21404082 0.28942508 0.37817138 0.28319526 0.055732846 0.1504436 0.18083085 -0.043502014
0.31567344 0.2211962 0.33189282 0.40905103 0.1912192 0.2751441 0.22042847 0.053780254
0.49480784 0.2789013 0.06374113 0.2720959 0.24965118 0.10232309 -0.08328288 0.024959877
0.5382732 -0.11616043 0.029274054 -0.16670385 -0.33601898 -0.011391843 -0.04864998 -0.01903718
-0.020013819 0.20919228 0.2973058 0.32487983 0.1929128 0.2978299 0.27368665 0.29614726
0.10156626 0.28450468 0.29728827 -0.2340592 -0.003518342 -0.07950695 0.28531438 0.22861408
0.412574 0.08619997 -0.04455336 -0.3076974 -0.32764363 0.2551144 -0.07766701 0.26276058
0.023511844 0.26973006 0.007870272 0.46959963 0.30565223 0.11239183 -0.2538285 -0.046345487
-0.014615938 0.20791586 0.22065292 0.1690889 0.2508642 0.41204727 0.31239864 -0.38393658
0.26926416 0.09807769 0.29299632 0.25311533 0.14400125 0.098861575 -0.060430594 0.2561499
0.47941846 0.28188977 0.22851437 0.22651044 0.26172298 0.30676138 -0.32818785 -0.06353666
-0.07021521 0.3165872 -0.0152185485 0.23292074 -0.25332135 0.5199026 0.33693492 0.32994175
0.35888284 0.08515974 0.24776477 -0.067688935 0.3468058 -0.05537357 0.21140304 -0.054061927
-0.041807987 0.3889794 -0.15659066 -0.2964206 -0.058536727 0.32332852 0.40638077 -0.42671967
0.19525798 -0.33954155 0.31397986 0.046293024 -0.040540446 -0.17254254 0.22755553 -0.06719878
0.2703026 0.23483802 0.32852796 -0.33090425 0.0077962326 0.39563513 0.26182052 0.04767461
0.14503372 0.16017981 -0.08400881 -0.02911088 -0.4418535 0.3126006 0.17331496 0.1525937
-0.035006694 0.26020655 0.087826416 0.24415159 0.17558654 -0.07017234 -0.19543488 0.28542504
0.23927197 0.042446807 0.113945946 -0.42957145 0.4043126 0.32304955 0.040907428 0.03035483
0.30945313 -0.39899606 0.010926343 0.29145658 0.31199542 0.2404879 -0.064668216 -0.29182753
-0.0074850773 0.32690966 0.22110768 0.32370448 0.2153167 -0.008103175 0.18126099 0.29302952
0.2564469 0.26117876 0.27641693 -0.06011669 0.2399707 0.1496037 -0.052852362 -0.031890854
0.32747355 0.20404398 0.43454972 0.26666996 0.22041418 -0.032033626 0.3076431 0.18891375
0.1915201 0.28716943 0.3181416 0.43988556 0.28653914 0.2487506 0.28276935 0.36338973
0.41747752 0.22068702 0.102786064 0.20448348 -0.04251065 -0.4294644 -0.32616135 0.25322697
0.21128947 0.022498574 0.32626316 -0.08584823 0.25317588 -0.024697617 0.32897457 0.30929747
0.3206717 0.31994218 -0.07785396 0.21788022 -0.012407883 0.24681586 0.23127714 -0.05379269
-0.07395902 0.011272903 0.18655165 -0.44706407 0.24526298 0.14419962 0.22808951 0.46239498
0.25957432 -0.06900382 0.29819286 0.290496 0.23453085 -0.4566247 0.27554548 0.043778468
00000000: d5c7 803e d780 1a3d 8e4c 20be ba7e 45bd
00000010: fa31 84be 09e0 dc3e f864 d1bd fc08 803e
00000020: 8b87 e43e 60b8 e1bc 84eb d53e 0938 cc3e
00000030: 5abb fd3e 2d57 803e 2f45 903e fb8f 833e
00000040: 6898 023e d31f d3bb 2601 523e b7e6 763e
00000050: 9d68 02bf c26d 8a3e b691 96be 5f28 fdbc
00000060: 842d 5b3e 862f 943e ae9f c13e f8fe 903e
00000070: 2048 643d e30d 1a3e b92b 393e 2b2f 32bd
00000080: f39f a13e 4281 623e dbed a93e 236f d13e
00000090: f7ce 433e b0df 8c3e 00b8 613e af48 5c3d
000000a0: 7457 fd3e 27cc 8e3e b68a 823d 2750 8b3e
000000b0: 8fa4 7f3e c58e d13d 3790 aabd a878 cc3c
000000c0: 46cc 093f 85e5 edbd 24d0 ef3c 6ab4 2abe
000000d0: ae0a acbe daa4 3abc 3445 47bd dcf3 9bbc
000000e0: 05f4 a3bc 8036 563e 7738 983e a656 a63e
000000f0: ef8a 453e 297d 983e a820 8c3e 9da0 973e
00000100: f901 d03d 99aa 913e 2b36 983e 37ad 6fbe
00000110: fc93 66bb 8ad4 a2bd ba14 923e cf19 6a3e
00000120: e63c d33e 9c89 b03d 967d 36bd 838a 9dbe
00000130: e8c0 a7be 5b9e 823e e20f 9fbd 8e88 863e
00000140: e99b c03c 0f1a 8a3e 50f2 003c 5d6f f03e
00000150: 737e 9c3e b02d e63d cff5 81be c4d4 3dbd
00000160: b077 6fbc e5e7 543e d7f2 613e a425 2d3e
00000170: 4671 803e dcf7 d23e b7f2 9f3e 5693 c4be
00000180: fedc 893e f5dc c83d 9d03 963e 5598 813e
00000190: 1075 133e f077 ca3d 1286 77bd 1426 833e
000001a0: 5676 f53e db53 903e acff 693e 5af2 673e
000001b0: 8e00 863e d40f 9d3e 3d08 a8be 821f 82bd
000001c0: fecc 8fbd b817 a23e 3857 79bc c682 6e3e
000001d0: 56b3 81be 5618 053f bc82 ac3e 20ee a83e
000001e0: 7ebf b73e 3b68 ae3d 0cb6 7d3e 7fa0 8abd
000001f0: 8890 b13e 66cf 62bd 0a7a 583e 0a70 5dbd
00000200: da3e 2bbd 4f28 c73e 4d59 20be 71c4 97be
00000210: 35c4 6fbd 518b a53e 2411 d03e 007b dabe
00000220: b5f1 473e 64d8 adbe f8c1 a03e c19d 3d3d
00000230: bd0d 26bd feae 30be 5104 693e 849f 89bd
00000240: 1a65 8a3e 6179 703e d134 a83e 486c a9be
00000250: 8a77 ff3b b090 ca3e 570d 863e 7446 433d
00000260: b883 143e 2d06 243e d00c acbd f179 eebc
00000270: 9f3a e2be 300d a03e 7a79 313e 8641 1c3e
00000280: 2e63 0fbd cb39 853e 56de b33d e002 7a3e
00000290: f5cc 333e 84b6 8fbd 1520 48be 3b23 923e
000002a0: b603 753e b4dc 2d3d 7e5c e93d caf0 dbbe
000002b0: 1002 cf3e c066 a53e 8c8e 273d b1aa f83c
000002c0: a470 9e3e 3649 ccbe 6704 333c cc39 953e
000002d0: ddbd 9f3e 7642 763e c570 84bd 6b6a 95be
000002e0: 6145 f5bb b460 a73e 0d6a 623e 98bc a53e
000002f0: fb7b 5c3e 2ec3 04bc 7b9c 393e f707 963e
00000300: 024d 833e 39b9 853e 8586 8d3e eb3c 76bd
00000310: e1ba 753e b631 193e b87b 58bd fc9f 02bd
00000320: 9daa a73e e8f0 503e 4d7d de3e f788 883e
00000330: 41b4 613e b135 03bd 6583 9d3e 9b72 413e
00000340: d81d 443e df07 933e 75e3 a23e ae38 e13e
00000350: 42b5 923e 7ab8 7e3e 25c7 903e 380e ba3e
00000360: 9dbf d53e c7fb 613e 8081 d23d 1e64 513e
00000370: a61f 2ebd c2e2 dbbe 9ffe a6be f7a6 813e
00000380: 445c 583e ee4e b83c f70b a73e 32d1 afbd
00000390: 45a0 813e a852 cabc 5b6f a83e 3d5c 9e3e
000003a0: 152f a43e 76cf a33e e671 9fbd fe1b 5f3e
000003b0: 6f4a 4bbc 4cbd 7c3e ead3 6c3e b955 5cbd
000003c0: d477 97bd fbb1 383c 6507 3f3e 95e5 e4be
000003d0: 3826 7b3e 11a9 133e 4c90 693e 09bf ec3e
000003e0: ede6 843e e051 8dbd bcac 983e e4bb 943e
000003f0: db28 703e b6ca e9be 4c14 8d3e 0d51 333d

q.weight f4 [1, 256]
-0.53754413 0.006881452 3.1950057 0.0054018083 -1.5402808 1.2667018 -1.6691054 1.0706632
2.2359152 0.0060121557 1.8204229 1.9941871 2.602797 -0.56373066 -0.53380203 -0.5646529
1.1205704 -0.005598746 0.9958661 -0.5406822 -1.5280911 1.0679718 2.6399496 0.007070642
-0.5149911 -0.555215 1.0068316 1.0093955 0.9904902 3.1493652 -0.5476851 0.04032699
-0.52690816 -0.54229003 -0.5243905 1.2798578 0.99202013 -0.56747586 -0.57088405 1.9120507
1.424734 1.0565566 1.29446 -0.5732903 2.8442078 1.1517179 2.1316552 0.022129014
1.9599196 -0.27364972 -0.73160917 1.6297132 -1.4292669 2.9671366 -0.026228722 0.04362468
0.005926995 -0.5229211 -0.5866418 -0.49797437 -0.522784 -0.582808 -0.5475586 -0.54614383
0.9080287 -0.5302323 -0.55979913 -0.97366345 -0.023885539 -0.064443864 -0.5088855 4.450674
1.2668631 3.0656843 0.008207712 -1.3532517 -1.5192991 -0.5334435 2.0210407 -0.54026437
0.01396364 2.5988839 0.017374484 1.3395063 -0.55056983 -0.85274667 1.9046115 0.025225673
0.009073685 -0.5592549 -0.5290393 -0.5535768 -0.53502786 1.5060892 -0.5636098 -1.5377716
1.0016363 1.0336916 -0.5138021 -0.53048205 -0.56399715 1.4367344 0.020879671 -0.5890694
1.2646605 -0.5910626 2.2442253 -0.53572947 -0.5238473 -0.5370604 -1.3621153 0.013818992
0.036832083 1.0287137 -0.04115374 -0.51597714 -1.541372 2.439119 -1.1772304 -0.5074067
-1.2584678 3.2483761 -0.52892524 1.3064048 0.975403 -0.030824339 -0.49275032 0.053114474
0.003987136 2.7213666 -0.8121197 -1.3078607 0.026386797 1.0642967 1.1037805 -2.0285134
1.0383724 -1.4264816 -0.539736 2.5902905 -0.003529183 2.399764 -0.526925 0.02923819
-0.53040814 -0.52705765 -0.5462173 -1.5199609 0.011694744 1.0518253 -0.5585135 1.2174256
1.5443842 1.0715303 1.9123169 0.01100713 -1.7616512 -0.544121 -0.58702296 0.9890871
-0.0047576465 4.658322 0.88749456 -0.5468899 1.483198 -0.0045009926 2.4882548 1.1014258
-0.5191904 1.106657 1.2334318 -1.5215378 1.3511056 -0.5154305 1.3663096 0.046648204
-0.5664113 -1.5087836 -0.03837136 3.4743721 -0.5647832 -0.530439 0.046430603 -1.0538561
0.0034460183 -0.5643776 -0.5342137 -1.2261931 -0.53707266 -0.0048390906 0.9573608 -0.5555064
-0.5413133 -0.5593909 -0.5350257 0.04513605 -0.5383405 1.0097134 0.019701703 0.021239415
-1.2349328 -0.5175993 1.9437174 -0.5377334 -0.58953416 0.034681022 -0.7069498 -0.5699272
3.1467822 -0.53217363 -0.56251985 1.1213063 -0.53041583 -0.5345428 -0.5523377 1.0086167
1.200981 -0.5685492 1.2018712 -0.5463702 1.6618967 -1.5617348 -1.7100008 1.0198752
-0.66560894 0.008723014 0.9650972 -1.3880385 -0.5630112 0.002971642 -0.52798164 -0.51736486
-0.53071177 1.7297225 0.02202157 -0.5316823 -0.011104792 -0.55169195 1.0080277 0.038015146
0.042168595 1.0108014 2.531266 -1.3330752 -0.5379622 -0.8800784 -0.55398226 1.1379533
-0.5560739 -0.041966688 -0.5079354 -0.5319749 -0.55093956 -1.6159858 -0.50900286 1.2347342
00000000: 7e9c 09bf ce7d e13b f97a 4c40 a701 b13b
00000010: ec27 c5bf 4923 a23f 3fa5 d5bf 7e0b 893f
00000020: 3c19 0f40 9e01 c53b 9e03 e93f 8641 ff3f
00000030: 3a94 2640 a750 10bf 40a7 08bf 188d 10bf
00000040: da6e 8f3f af75 b7bb 15f1 7e3f 266a 0abf
00000050: 7d98 c3bf 4db3 883f eff4 2840 d8b0 e73b
00000060: 75d6 03bf 9222 0ebf dcdf 803f df33 813f
00000070: c490 7d3f 338f 4940 1735 0cbf ea2d 253d
00000080: 74e3 06bf 85d3 0abf 753e 06bf 61d2 a33f
00000090: 08f5 7d3f 1946 11bf 7525 12bf 14be f43f
000000a0: af5d b63f 3f3d 873f deb0 a53f 27c3 12bf
000000b0: 8007 3640 7e6b 933f 0a6d 0840 e847 b53c
000000c0: a5de fa3f d11b 8cbe bd4a 3bbf 719a d03f
000000d0: 38f2 b6bf 91e5 3d40 9edd d6bc cbaf 323d
000000e0: 3d37 c23b 28de 05bf 282e 16bf 7ff6 febe
000000f0: 2cd5 05bf e832 15bf cd2c 0cbf 15d0 0bbf
00000100: 9274 683f 4ebd 07bf ff4e 0fbf 0242 79bf
00000110: 9bab c3bc 25fb 83bd 5246 02bf ec6b 8e40
00000120: 9228 a23f 2c34 4440 a479 063c 5a37 adbf
00000130: 6578 c2bf c18f 08bf bb58 0140 c44e 0abf
00000140: c0c7 643c 1d54 2640 ef54 8e3c f174 ab3f
00000150: 25f2 0cbf 9b4d 5abf 4fca f33f 12a6 ce3c
00000160: cba9 143c 542b 0fbf 1f6f 07bf 36b7 0dbf
00000170: 96f7 08bf 88c7 c03f bb48 10bf b3d5 c4bf
00000180: 9e35 803f 0250 843f 8988 03bf accd 07bf
00000190: 1e62 10bf eae6 b73f d80b ab3c 41cd 16bf
000001a0: 65e0 a13f e14f 17bf 63a1 0f40 9125 09bf
000001b0: db1a 06bf ca7c 09bf cb59 aebf 0e69 623c
000001c0: 3ddd 163d e4ac 833f d390 28bd 1417 04bf
000001d0: ad4b c5bf 871a 1c40 7caf 96bf 68e5 01bf
000001e0: 7915 a1bf 65e5 4f40 a567 07bf 4638 a73f
000001f0: 03b4 793f 5383 fcbc c549 fcbe 908e 593d
00000200: 85a6 823b df2a 2e40 14e7 4fbf fb67 a7bf
00000210: 2029 d83c e03a 883f ae48 8d3f 2ad3 01c0
00000220: 63e9 843f f396 b6bf 232c 0abf 52c7 2540
00000230: de49 67bb bc95 1940 8fe4 06bf ee84 ef3c
00000240: d4c8 07bf 40ed 06bf e6d4 0bbf 148e c2bf
00000250: 509b 3f3c 36a2 863f befa 0ebf 9ad4 9b3f
00000260: 62ae c53f e827 893f cdc6 f43f 4057 343c
00000270: c97d e1bf 844b 0bbf 2347 16bf d034 7d3f
00000280: 08e6 9bbb f910 9540 d832 633f fa00 0cbf
00000290: 6fd9 bd3f 107d 93bb 913f 1f40 85fb 8c3f
000002a0: a9e9 04bf f0a6 8d3f 18e1 9d3f c0c1 c2bf
000002b0: 07f1 ac3f 41f3 03bf 3ce3 ae3f 3012 3f3d
000002c0: 5500 11bf d21f c1bf 4a2b 1dbd 1d5c 5e40
000002d0: a295 10bf daca 07bf 042e 3e3d c2e4 86bf
000002e0: 98d6 613b 0d7b 10bf 3bc2 08bf e5f3 9cbf
000002f0: 987d 09bf 3c91 9ebb 9915 753f ab35 0ebf
00000300: 8293 0abf 3e34 0fbf 72f7 08bf 94e0 383d
00000310: afd0 09bf 4a3e 813f 7765 a13c 48fe ad3c
00000320: 4712 9ebf 6381 04bf bbcb f83f e5a8 09bf
00000330: b6eb 16bf b00d 0e3d a9fa 34bf c0e6 11bf
00000340: e164 4940 883c 08bf 4d01 10bf f786 8f3f
00000350: 55c9 07bf ccd7 08bf 0166 0dbf 5a1a 813f
00000360: bfb9 993f 718c 11bf ead6 993f ebde 0bbf
00000370: 08b9 d43f ede6 c7bf 4ee1 dabf 458b 823f
00000380: 5965 2abf f9ea 0e3c 9c10 773f 3fab b1bf
00000390: 8121 10bf e1bf 423b ce29 07bf 0672 04bf
000003a0: badc 07bf 8c67 dd3f 9466 b43c 551c 08bf
000003b0: e0f0 35bc af3b 0dbf 0d07 813f c5b5 1b3d
000003c0: fab8 2c3d f161 813f 4300 2240 35a2 aabf
000003d0: e4b7 09bf d14c 61bf c8d1 0dbf 74a8 913f
000003e0: dc5a 0ebf 43e5 2bbd 0e08 02bf 822f 08bf
000003f0: 600a 0dbf 9fd8 cebf 034e 02bf c50b 9e3f
