TD3/models/lunarlander/00001000/critic.pth (torch, 554305 bytes, 10 tensors)

fc1_q1.weight f4 [256, 10]
0	0x3d81d4f1	0.063394435
1	0xbd3fa656	-0.04678949
2	0x3e3218ca	0.17392269
3	0x3e3c7765	0.1840492
4	0x3e187f00	0.14892197
5	0xbe686f77	-0.2269877
6	0xbe5f9682	-0.21834758
7	0x3e9510d9	0.29114416
8	0x3d0c872f	0.03430861
9	0x3e05e93f	0.13077258
10	0x3e6a5a02	0.22885898
11	0x3e525558	0.20540369
12	0xbe3adf1f	-0.18249176
13	0xbe815466	-0.25259703
14	0x3e215d35	0.15758212
15	0xbe464445	-0.1936198
16	0xbdae0b58	-0.084982574
17	0x3e25d5aa	0.16194788
18	0x3dfab0f8	0.12240785
19	0xbdf26e51	-0.118374474
20	0xbdb72725	-0.08943013
21	0x3e777ecd	0.24169464
22	0x3c95bff4	0.018280007
23	0xbe9547cf	-0.29156348
24	0xbe905d13	-0.2819601
25	0x3e2554df	0.16145657
26	0x3e48fdda	0.19628087
27	0xbdb1ae10	-0.08675778
28	0xbe5a1567	-0.21297227
29	0x3e923fa7	0.28564188
30	0x3e3836c2	0.17989638
31	0xbd58c7af	-0.052924808
32	0x3d9b08af	0.07570016
33	0xbcffb1fd	-0.031212801
34	0xbcd18c31	-0.025579544
35	0x3ddcf627	0.10789137
36	0x3e61eb12	0.22062328
37	0x3da37994	0.079821736
38	0x3ca8a960	0.020588577
39	0x3e07b62b	0.13253085
40	0x3d35e97e	0.04441213
41	0x3d234c59	0.039867733
42	0xbe5116fd	-0.20418926
43	0x3ce7dc60	0.028303325
44	0x3d37f54c	0.044911668
45	0xbe978554	-0.2959391
46	0xbe93ad78	-0.28843284
47	0x3dd63df0	0.104610324
48	0xbd958273	-0.07300272
49	0x3e92a16d	0.28638783
50	0xbd971321	-0.073766954
51	0x3e7d49cf	0.24735187
52	0x3e740b38	0.23832405
53	0xbdf933e3	-0.121681
54	0x3e347152	0.17621353
55	0xbe3c29f1	-0.18375374
56	0xbe3cf465	-0.18452604
57	0xbe62ed48	-0.22160828
58	0xbe927902	-0.28607947
59	0x3c8c2974	0.01710961
60	0xbe23ea2d	-0.160073
61	0x3e40238c	0.1876356
62	0x3e501454	0.20320255
63	0x3e1bb73b	0.15206616
64	0x3e004cd8	0.12529314
65	0xbe5a42a3	-0.21314482
66	0xbe36a15e	-0.17834994
67	0x3d253ee8	0.040343195
68	0xbe84cf00	-0.25939178
69	0xbe97fbc9	-0.29684284
70	0x3e800997	0.25007316
71	0x3e52f5a0	0.20601511
72	0xbdd38c53	-0.10329499
73	0x3e7a80b7	0.24463163
74	0xbe331fc9	-0.17492594
75	0x3c9ac624	0.018893309
76	0x3dd0d490	0.10196793
77	0xbe2f1d12	-0.17100933
78	0xbe8b0a0e	-0.2715611
79	0x3e9c68ed	0.30548802
80	0x3dfc2485	0.12311653
81	0x3a4543c6	0.00075250526
82	0xbc252a41	-0.010080875
83	0x3e8d1233	0.27552947
84	0x3e4d7c18	0.2006687
85	0x3d9659f4	0.07341376
86	0xbd2d74d0	-0.04234773
87	0x3e03011e	0.12793395
88	0xbe803e73	-0.25047645
89	0xbe14b343	-0.14521508
90	0xbdc6d97e	-0.09709452
91	0xbdf6ea56	-0.12056415
92	0xb9b88400	-0.00035193563
93	0x3e911e4b	0.28343424
94	0x3d9b4e9c	0.07583353
95	0x3ea14f65	0.31505886
96	0xbe5322bc	-0.20618719
97	0x3e8eb725	0.27874103
98	0x3d40adf8	0.04704091
99	0x3cbe0430	0.023195356
100	0xbd30bc48	-0.04314831
101	0x3e966f81	0.29381946
102	0xbe1a3b88	-0.15061772
103	0xbe23005a	-0.15918103
104	0x3e93e411	0.28884938
105	0x3e883d21	0.26609138
106	0xbd91d120	-0.071199656
107	0x3e5fb07a	0.21844664
108	0x3de855f1	0.11344517
109	0x3e4f228f	0.20228027
110	0xbe5fa465	-0.21840055
111	0xbe51ea30	-0.20499492
112	0x3dbf10c0	0.09329367
113	0x3c12ada0	0.008952528
114	0x3deff46c	0.11716542
115	0x3e92d1ed	0.28675786
116	0x3e99f62d	0.3007063
117	0xbe27d77f	-0.16390799
118	0xbdbd4d60	-0.09243274
119	0xbe04f157	-0.12982689
120	0xbdd34db0	-0.10317552
121	0xbe4b9a64	-0.19883114
122	0x3d99e324	0.07514027
123	0xbc93ae10	-0.018027335
124	0xbd8f3b5c	-0.06993744
125	0xbe636f16	-0.22210345
126	0x3e65d3fa	0.22444144
127	0xbd84f820	-0.064926386
128	0xbe743719	-0.23849143
129	0xbdb79542	-0.089640155
130	0x3c595f06	0.013267284
131	0xbdf09da1	-0.11748815
132	0x3e2ea80d	0.17056294
133	0xbe5bb190	-0.21454453
134	0xbceb64d2	-0.028734598
135	0x3e40d531	0.18831326
136	0xbe9970ad	-0.29968777
137	0xbde80d06	-0.11330609
138	0x3e864f6d	0.26232472
139	0x3d92883e	0.071548924
140	0x3e2e5a77	0.17026697
141	0x3e3dd3d5	0.18537839
142	0x3e4115ee	0.18856022
143	0xbe80073e	-0.25005525
144	0xbe39e4fe	-0.1815376
145	0x3e0fc95f	0.1404166
146	0x391a9800	0.00014743209
147	0x3bb81800	0.0056180954
148	0xbcb4fb64	-0.022092529
149	0x3e8c090f	0.2735066
150	0xbe3f49e0	-0.18680525
151	0xbdf41e4c	-0.11919841
152	0xbdd0ceeb	-0.101957165
153	0x3e1eb69f	0.15499352
154	0x3def4cf5	0.116846
155	0x3e467864	0.19381863
156	0xbddbbf5c	-0.10729858
157	0xbc9009b0	-0.017582744
158	0x3e8917b5	0.267759
159	0x3df567ef	0.119827144
160	0xbe457f9d	-0.19286962
161	0x3e2f41bb	0.17114918
162	0x3e6bd798	0.23031461
163	0xbe9183dd	-0.28420916
164	0x3e954bc7	0.29159376
165	0xbe63e60c	-0.22255725
166	0xbd1eaa60	-0.0387367
167	0xbe987f2d	-0.29784527
168	0x3e3ddfc6	0.18542394
169	0xbea0fe94	-0.31444228
170	0xbdcc277a	-0.09968467
171	0xbe7a8e68	-0.24468386
172	0xbe4e5e79	-0.20153226
173	0xbd8ff59e	-0.0702927
174	0x3e8b692d	0.2722868
175	0x3c2f0e00	0.01068449
176	0xbe7e020b	-0.24805467
177	0xbca165f0	-0.019701928
178	0x3e41dc2e	0.18931648
179	0x3c913bb0	0.017728657
180	0x3e80c863	0.25152883
181	0xbac5db00	-0.0015095174
182	0xbdbd3750	-0.09239066
183	0x3dc4c994	0.096087605
184	0x3e62707e	0.22113225
185	0xbe0bb777	-0.13644205
186	0x3e03ddd2	0.12877586
187	0xbe61d3af	-0.22053407
188	0x3e94d203	0.29066476
189	0x3e97c149	0.29639652
190	0x3e1a4acb	0.15067594
191	0x3de21b66	0.11040382
192	0x3e11f115	0.14252122
193	0x3d89d27d	0.067296006
194	0x3cbafac4	0.022824652
195	0x3d9356f0	0.071943164
196	0xbdce62ce	-0.10077439
197	0x3dbe9e90	0.09307587
198	0x3e229150	0.15875745
199	0xbd567a95	-0.052362997
200	0xbea3af0b	-0.31969485
201	0xbe18f2ec	-0.14936417
202	0xbdbe9ede	-0.09307645
203	0x3e79c76b	0.24392478
204	0x3e8d2299	0.27565458
205	0xbdb7e74f	-0.089796655
206	0xbd758c08	-0.059947997
207	0x3e3dd36a	0.1853768
208	0xbe71cb6b	-0.23612754
209	0x3e54e8ba	0.20791903
210	0xbd77b510	-0.06047541
211	0xbe328ea2	-0.17437223
212	0xbe1d8de7	-0.15386163
213	0xbe8ab6ee	-0.2709269
214	0x3d46acf8	0.0485048
215	0x3e9913b7	0.29897854
216	0xbd99a9a6	-0.07503061
217	0xbe7f75e4	-0.24947315
218	0x3e130a88	0.14359486
219	0xbba2a9c0	-0.0049640834
220	0x3e2e8251	0.170419
221	0x3e10a67f	0.14126013
222	0xbe8effcd	-0.27929536
223	0xbaf561d9	-0.0018721177
224	0xbd9e554f	-0.07731115
225	0x3e05da44	0.13071543
226	0x3e9f6e5f	0.31138894
227	0x3e892201	0.26783755
228	0xbdb1d811	-0.086837895
229	0x3e975b38	0.29561782
230	0xbe3887c0	-0.18020535
231	0xbcb264c2	-0.02177656
232	0x3e8985a3	0.2685977
233	0x3d5d3e91	0.054014746
234	0x3e3e2837	0.18570028
235	0x3e15102b	0.14556949
236	0xbe8e7df4	-0.2783047
237	0xbe12aff0	-0.14324927
238	0x3e33bfc5	0.17553623
239	0x3e0459d2	0.12924889
240	0xbe4d232c	-0.20032948
241	0xbe946fda	-0.28991586
242	0x3dc41dfc	0.095760316
243	0x3ce868c0	0.028370261
244	0xbe255d34	-0.16148835
245	0xbe9123d0	-0.28347635
246	0x3e99049d	0.29886332
247	0x3e9b21b1	0.30299142
248	0xbe022636	-0.12709889
249	0xbe6d499d	-0.23172612
250	0xbcac90c9	-0.021065133
251	0x3e0658bb	0.13119785
252	0x3df3355e	0.11875413
253	0xbbbc06ba	-0.0057381066
254	0x3e9c3daf	0.3051581
255	0xbc3da847	-0.011575765

fc1_q1.bias f4 [256]
0	0x3e872f3f	0.26403233
1	0xbe4a263a	-0.19741145
2	0x3dc839b7	0.09776633
3	0xbe382e92	-0.17986515
4	0xbe0c9e6a	-0.13732305
5	0xbde6c894	-0.11268726
6	0xbe85f944	-0.26166737
7	0x3e1ef9ea	0.15525022
8	0x3d300a57	0.04297861
9	0xbe80b10a	-0.2513507
10	0xbe571a90	-0.21006227
11	0x3dfbc37c	0.12293145
12	0xbe802998	-0.25031734
13	0xbe09cceb	-0.13457076
14	0xbd39e20f	-0.045381602
15	0x3b22f56a	0.0024865516
16	0xbe6ad604	-0.22933203
17	0xbcbe1f60	-0.02320832
18	0xbe167518	-0.14693105
19	0x3e894d1f	0.2681665
20	0x3da8e52a	0.082468346
21	0xbdd33314	-0.10312477
22	0xbe082d40	-0.13298512
23	0x3df5904e	0.119904146
24	0xbe25c7b1	-0.16189457
25	0xbd1443a0	-0.036197305
26	0xbe30edb8	-0.17278183
27	0x3ea11e40	0.3146839
28	0x3da0a397	0.07843702
29	0x3e970db9	0.29502657
30	0xbe0dfa30	-0.1386497
31	0x3d3ac0b7	0.045593943
32	0x3e9d77e4	0.30755532
33	0x3dade32a	0.08490594
34	0x3af42f16	0.0018629755
35	0x3e323893	0.17404394
36	0x3d7c813a	0.061646678
37	0x3e316c55	0.17326482
38	0xbe617e92	-0.22020939
39	0xbe2bf475	-0.16792472
40	0xbdf9c80a	-0.121963575
41	0x3e7bfce2	0.24608186
42	0xbcb81342	-0.02247012
43	0x3db5d8a8	0.088792145
44	0xbc2ad658	-0.01042708
45	0xbe1e11bb	-0.15436451
46	0xbe221369	-0.15827717
47	0x3e28c14b	0.16479985
48	0x3ded6b27	0.11592703
49	0x3d731008	0.05934146
50	0xbe8da45c	-0.2766446
51	0x3e1398c6	0.14413747
52	0x3e371ef3	0.178829
53	0xbdec2c98	-0.11531943
54	0x3d8ceb89	0.06880862
55	0xbcb4add2	-0.02205554
56	0x3e2c8c8f	0.16850494
57	0x3ca2ed80	0.01988864
58	0x3e9abd35	0.30222479
59	0x3da826cd	0.08210526
60	0x3e9cca03	0.30622873
61	0x3e3a8615	0.1821521
62	0xbca82e2b	-0.020529827
63	0xbd451fd2	-0.04812605
64	0x3e69672f	0.22793268
65	0x3df660df	0.120301954
66	0x3bb81cf2	0.005618685
67	0xbbd26940	-0.006421238
68	0x3b1b80c1	0.0023727866
69	0xbe9a8aba	-0.30183965
70	0xbe052871	-0.13003708
71	0xbe91cb56	-0.28475446
72	0xbe63b1de	-0.2223582
73	0xbe8ad74a	-0.27117378
74	0x3e817ade	0.25289053
75	0x3e35c45b	0.17750685
76	0x3e7ab717	0.24483906
77	0xbe0f9716	-0.14022478
78	0xbe0bd0db	-0.13653891
79	0x3d7b4dd0	0.061353505
80	0x3d3a9449	0.045551572
81	0x3e1ddb24	0.15415627
82	0xbe1322ec	-0.1436879
83	0xbe8e9c40	-0.27853584
84	0xbe1138f9	-0.1418189
85	0x3e8213fa	0.25405866
86	0xbdf6462c	-0.12025103
87	0xbe0bb744	-0.13644129
88	0x3e21cba9	0.15800346
89	0x3e898849	0.2686179
90	0x3d900caa	0.070336655
91	0xbe34ece9	-0.17668499
92	0xbe8bbdcc	-0.2729324
93	0x3cd8c2d2	0.026460085
94	0x3e8bd967	0.27314302
95	0xbe86f954	-0.26362097
96	0x3e8cb6ad	0.2748312
97	0xbe9028e6	-0.28156203
98	0xbe7ec968	-0.24881518
99	0x3d826b3a	0.06368108
100	0xbca52de2	-0.02016348
101	0x3e4a73f8	0.19770801
102	0x3caa806f	0.020813195
103	0x3da0486a	0.07826312
104	0xbe10c0bf	-0.14136027
105	0x3e8ad7d3	0.27117786
106	0x3e8dc209	0.276871
107	0x3d85e534	0.06537858
108	0x3e02851d	0.12746091
109	0x3bdab9e1	0.0066749905
110	0xbe677a5b	-0.22605269
111	0x3e6097e0	0.21932936
112	0x3df90c32	0.12160529
113	0xbe2ecef0	-0.17071128
114	0x3cb5e8ed	0.022205794
115	0xbe3330e7	-0.17499124
116	0x3dd93bd9	0.10607118
117	0x3d0a6c98	0.03379497
118	0xbcbf6104	-0.02336169
119	0x3e9cbd49	0.30613163
120	0xbdded12d	-0.10879741
121	0xbe2f52a6	-0.17121372
122	0x3e8bddc3	0.27317628
123	0x3e85b30b	0.2611316
124	0x3e85e7b5	0.2615334
125	0xbe79c296	-0.24390635
126	0x3d11f736	0.03563615
127	0xbe1a2961	-0.15054847
128	0x3bb4b146	0.0055142967
129	0x3d1414b6	0.036152564
130	0x3e55376c	0.20821923
131	0x3e052672	0.13002947
132	0x3e06164e	0.13094446
133	0xbe8521c4	-0.26002324
134	0xbd5827d2	-0.05277235
135	0xbe708076	-0.23486504
136	0xbe2a17fb	-0.1661071
137	0x3e9ec807	0.31011984
138	0xbd88e599	-0.06684417
139	0x3e01cdcc	0.12676162
140	0xbddf7d03	-0.10912516
141	0xbd039978	-0.03212878
142	0xbe64a5c9	-0.22328867
143	0x3e991f57	0.29906723
144	0xbe92002b	-0.28515753
145	0x3e96bf29	0.2944272
146	0xbde723ec	-0.112861484
147	0x3dde3d30	0.10851514
148	0x3dac626d	0.08417211
149	0xbe08bfe5	-0.13354452
150	0xbe1c1e2f	-0.15245889
151	0xbe6c2171	-0.23059632
152	0xbdb17083	-0.08664038
153	0xbe5a64d3	-0.21327524
154	0xbe23a963	-0.15982585
155	0x3d6eecba	0.05833123
156	0x3e9781ef	0.2959132
157	0x3e06a78d	0.13149853
158	0xbe70a12e	-0.23498985
159	0xbd8d19ee	-0.06889711
160	0x3dd84e5a	0.105618194
161	0xbd5b8ca8	-0.053600937
162	0xbdbd9e0e	-0.09258662
163	0x3e4f160d	0.20223255
164	0xbdcf1606	-0.101116225
165	0x3e8f3d39	0.27976397
166	0xbd9fafb6	-0.07797186
167	0x3e8e09bf	0.2774181
168	0xbbef4aba	-0.0073026093
169	0xbe2628f3	-0.16226558
170	0xbd477eb7	-0.04870483
171	0x3d7234c4	0.059132352
172	0xbe293e9d	-0.16527791
173	0xbe399003	-0.18121342
174	0x3e7dbeab	0.24779765
175	0x3d153bf6	0.036434136
176	0xbe20665e	-0.1566405
177	0x3d8223b9	0.0635447
178	0xbde58583	-0.11207106
179	0xbe82dfbc	-0.2556132
180	0xbd9bda76	-0.076100275
181	0xbd33f499	-0.04393444
182	0x3e18b5ec	0.14913148
183	0xbe904b60	-0.28182507
184	0xbe309700	-0.17245102
185	0xbcb6a1fb	-0.022294035
186	0x3e819340	0.25307655
187	0xbe824024	-0.2543956
188	0xbe7bcb86	-0.24589357
189	0xbe8238b0	-0.25433874
190	0x3e06eabd	0.13175483
191	0x3d6e47a6	0.058173798
192	0xbe52362e	-0.2052848
193	0xbdfb0836	-0.122574255
194	0xbe406d2f	-0.1879165
195	0x3df04622	0.11732127
196	0xbd84a56e	-0.06476866
197	0x3e3b64e0	0.183002
198	0x3e7ef748	0.24899018
199	0xbe680ca7	-0.22661076
200	0x3dbbc4c1	0.09168387
201	0xbddff570	-0.10935485
202	0xbe07257a	-0.1319789
203	0x3e85f277	0.26161548
204	0x3e27dbb8	0.1639241
205	0xbe04c378	-0.1296519
206	0xbe2f8a5b	-0.17142622
207	0x3e7d4bc7	0.24735938
208	0x3db37a47	0.08763557
209	0xbde7c876	-0.11317532
210	0xbe879072	-0.2647739
211	0x3db02c4e	0.086022004
212	0xbe9b93ba	-0.30386144
213	0x3d168ce6	0.036755465
214	0x3d914057	0.0709235
215	0xbda02b32	-0.07820739
216	0x3e857a75	0.2606999
217	0x3e458a6b	0.19291084
218	0xbda77463	-0.08176496
219	0x3cad6990	0.0211685
220	0x3d7d4370	0.06183189
221	0xbda07440	-0.07834673
222	0xbea0bda8	-0.31394696
223	0xbddea4c0	-0.10871267
224	0x3d9f1374	0.07767382
225	0x3d9ac916	0.07557885
226	0xbd8c0653	-0.06837144
227	0x3e9797b9	0.29607943
228	0xbe3f48ad	-0.18680067
229	0xbd83df78	-0.06439108
230	0x3e073f1a	0.13207665
231	0x3e66d503	0.22542195
232	0x3be8460c	0.0070884284
233	0xbe9829fe	-0.29719537
234	0xbe255210	-0.16144586
235	0x3e3c89ca	0.18411937
236	0xbdc6d15b	-0.097079
237	0x3c7bb360	0.015362591
238	0xbe83fe1c	-0.25779808
239	0xbe1dc43f	-0.15406893
240	0xbe05d46a	-0.13069311
241	0xbe497545	-0.19673641
242	0xbe4a2024	-0.19738823
243	0xbe55a260	-0.20862722
244	0xbe3409f3	-0.1758192
245	0xbe1c34b5	-0.15254481
246	0x3ea1b7a9	0.31585434
247	0xbe3e63e5	-0.18592794
248	0x3e891d03	0.26779947
249	0xbe221293	-0.15827398
250	0x3e1f4462	0.1555343
251	0x3e004066	0.12524566
252	0xbe4f27b7	-0.20229994
253	0xbdd5d49c	-0.10440943
254	0x3e7cf83f	0.24704073
255	0xbe03f4a7	-0.12886296

fc2_q1.weight f4 [256, 256]
0	0xbc4e761f	-0.012601404
1	0xbd3c764a	-0.046011247
2	0xbc79dbdf	-0.015250175
3	0xbd702704	-0.05863096
4	0x3c9b3992	0.01894835
5	0x3cbb8bc9	0.022893803
6	0x3d277643	0.040884268
7	0x3cb56d97	0.022146983
8	0xbd159d83	-0.036527168
9	0xbd490540	-0.049077272
10	0x3d4f2bc3	0.050578844
11	0x3d148eae	0.036268882
12	0x3cd1a608	0.025591865
13	0xbd2b3d0e	-0.041806273
14	0x3cc45b0d	0.023969198
15	0xbd01de9b	-0.031706434
16	0x3d1dd552	0.038533516
17	0xbd4bfc82	-0.049801357
18	0xbd46ccd2	-0.048535176
19	0x3cf14426	0.029451441
20	0xbd663e4d	-0.05621176
21	0xbd5ce774	-0.05393167
22	0xbbf38999	-0.0074321744
23	0x3b17d8ca	0.0023169988
24	0x3ceb0da0	0.02869302
25	0xbbd95f1e	-0.0066336533
26	0x3d78ef1c	0.060774907
27	0x3d6193b5	0.055072505
28	0xbc856c22	-0.016286913
29	0xbd0feb9c	-0.035136804
30	0xbd8aa010	-0.06768811
31	0x3d6161ba	0.05502484
32	0xbcbfd0cc	-0.023414992
33	0xbc221952	-0.009893732
34	0x3d3cafa1	0.04606593
35	0xbc77536c	-0.015095573
36	0xbd81b294	-0.06332889
37	0x3ca0eb2a	0.019643385
38	0x3d78274e	0.06058436
39	0xbcf0feb4	-0.029418327
40	0xbd6b4806	-0.057441734
41	0xbc54ede4	-0.012996171
42	0x3d0b5315	0.03401478
43	0x3abb8d00	0.0014308989
44	0xbd6f834f	-0.058474835
45	0x3ced6641	0.028979423
46	0xbd3758ec	-0.044762537
47	0xbad12bbf	-0.0015958472
48	0x3d0cd33d	0.03438114
49	0x3d708348	0.05871895
50	0x3d47ee8f	0.04881149
51	0x3d20c941	0.03925443
52	0xbd7cb1fe	-0.061693184
53	0xbd4fa8c3	-0.050698053
54	0x3cc4d4c0	0.024027228
55	0xbd08b907	-0.03337958
56	0x3d36ac89	0.044598136
57	0x3d47b366	0.048755072
58	0x3beaf6d8	0.0071705393
59	0x3bfb3a87	0.007666889
60	0xba92b2bd	-0.0011192184
61	0xbd5714e3	-0.052510154
62	0xbd627383	-0.05528594
63	0x3d6193de	0.055072658
64	0x3d198b57	0.0374864
65	0xbcb11325	-0.021615574
66	0x3c3a3d4c	0.011367153
67	0xbd5d1054	-0.05397065
68	0xbd790ca2	-0.060803063
69	0xbd3af11c	-0.045640096
70	0x3c360050	0.011108473
71	0x3d5aea24	0.05344595
72	0xbc6d7b18	-0.01449468
73	0xbd33de90	-0.043913424
74	0xbd2633c5	-0.040576715
75	0x3bc10489	0.005890433
76	0xbd1cbcc7	-0.03826597
77	0x3cba7ae1	0.022763671
78	0x3ca8281c	0.020526938
79	0x3b3dc6da	0.0028957636
80	0x3c6f6c65	0.014613246
81	0x3cf98a70	0.03046152
82	0xbb89024d	-0.0041811825
83	0x3d680d7a	0.056653477
84	0x3c6f29e8	0.014597394
85	0xbd3720f0	-0.044709146
86	0x3d1fc956	0.03901037
87	0xbd200efa	-0.039076783
88	0xbd3a4afb	-0.045481663
89	0xbb015366	-0.0019733547
90	0xbc07e4e3	-0.008294317
91	0xbcae8a5c	-0.02130621
92	0xbc4e3699	-0.012586259
93	0xbd3b983b	-0.045799475
94	0x3ca7637f	0.020433186
95	0x3d0f0d3e	0.034924738
96	0x3cbf4ab8	0.023351058
97	0xbcff35e0	-0.03115362
98	0xbce5ba64	-0.02804298
99	0xbcb21778	-0.021739706
100	0x3c48eca2	0.012263449
101	0xbd58eded	-0.05296128
102	0xbd88c919	-0.06678981
103	0x3c4e2d78	0.012584083
104	0xbc25913e	-0.010105429
105	0x3d1879cb	0.037225526
106	0xbd7cdab5	-0.061732013
107	0x3cb9f8b2	0.022701595
108	0x3d5e8485	0.0543256
109	0x3d0c4064	0.034241095
110	0x3cd252e4	0.025674291
111	0xbce790ca	-0.028267283
112	0xbd68d225	-0.056841034
113	0x3d0703c3	0.03296257
114	0xbd3bd342	-0.045855768
115	0x3c287736	0.010282328
116	0xbd53bf9b	-0.0516964
117	0xbd0bb800	-0.034111023
118	0x3cd087e4	0.025455423
119	0xbd81bc81	-0.063347824
120	0xbd7ffa88	-0.062494785
121	0x3d44fd00	0.048092842
122	0xbcbe085b	-0.023197344
123	0xbce03d67	-0.027373029
124	0x3d4d2973	0.050088357
125	0xbd49142e	-0.04909151
126	0xbcfe1415	-0.031015435
127	0x3c77effd	0.015132901
128	0x3c87640d	0.0165272
129	0xbcd5826b	-0.026063165
130	0xbca4e064	-0.020126529
131	0x3c85cb68	0.016332343
132	0xbb58dd04	-0.003309072
133	0xbd0ef15e	-0.034898154
134	0xbd898995	-0.06715695
135	0x3c6bf785	0.014402275
136	0x3cab1ddc	0.020888261
137	0xbd27f60c	-0.041006133
138	0xbbdee7e8	-0.0068025477
139	0xbcfadbb6	-0.030622344
140	0x3b009955	0.0019622643
141	0xbd7f82b6	-0.062380515
142	0xbbb5a9f0	-0.00554394
143	0xbcc35fbd	-0.023849363
144	0xbd44f15f	-0.048081752
145	0x3c1ab87e	0.0094434
146	0x3ccdc495	0.025118152
147	0x3c1f4bd0	0.009722665
148	0xbd398965	-0.045297045
149	0xbc4ef2c0	-0.012631118
150	0xbd0ce496	-0.034397684
151	0x3c1d84d6	0.00961419
152	0x3d3bb77c	0.04582928
153	0xbd697c96	-0.05700358
154	0xbd3f9bea	-0.04677955
155	0xbd818b73	-0.06325426
156	0x3cac3337	0.021020515
157	0x3d4ad3d9	0.04951844
158	0x3d1e74d5	0.03868564
159	0x3cf6a7eb	0.030109366
160	0x3d0a38a3	0.03374542
161	0xbcbf47dc	-0.023349695
162	0x3d597597	0.053090658
163	0xbd756e21	-0.05991948
164	0x3cfb9695	0.030711452
165	0xbd801dd2	-0.06255688
166	0xbb4c8d81	-0.0031212273
167	0xbb8d7ea3	-0.004318075
168	0xbd8221c2	-0.06354095
169	0xbb9132c3	-0.0044311
170	0xba20a0c4	-0.00061274716
171	0x3d07fc4d	0.033199597
172	0xbc7b468e	-0.015336646
173	0xbd7f2bea	-0.06229774
174	0x3d29bd98	0.041440576
175	0x3d606afb	0.054789525
176	0xbcc0ed83	-0.023550754
177	0xbd27e246	-0.040987276
178	0x3bb89c7d	0.005633889
179	0xbd385163	-0.04499949
180	0x3d5d9288	0.05409482
181	0xbd4fd085	-0.05073597
182	0x3c161263	0.009159657
183	0xbd6d7758	-0.057975143
184	0x3d65c49d	0.05609571
185	0x3d2ad0ec	0.04170315
186	0xbcd7c387	-0.026338352
187	0x3d2929f8	0.04129979
188	0x3d350f8a	0.044204272
189	0xbd10c208	-0.035341293
190	0xbd4e9470	-0.05043453
191	0x3d113d46	0.035458826
192	0x3ca26044	0.019821294
193	0xbd84af27	-0.0647872
194	0xbcf70578	-0.030153975
195	0x3c8b2a8c	0.016988061
196	0x3d5cceba	0.053908087
197	0x3d0177ff	0.031608578
198	0xbd7080d6	-0.058716618
199	0x3d4bdf2c	0.04977338
200	0xbd800385	-0.06250671
201	0x3d2615a8	0.040547997
202	0xbd5d0e9c	-0.05396901
203	0x3d5831dc	0.052781925
204	0x3c3129bf	0.010813176
205	0x3d1f5fa8	0.038909584
206	0x3d4ec968	0.050485045
207	0xbbd829b7	-0.0065967697
208	0x3d5b88fd	0.05359744
209	0x3c666db8	0.014064245
210	0xbc84d184	-0.016213186
211	0xbcba2524	-0.022722788
212	0x3c46ae68	0.012126543
213	0x3c22a116	0.009926101
214	0x3ccc9080	0.024971247
215	0x3cdf0504	0.027224071
216	0x3cec8baf	0.0288752
217	0x3a6d669e	0.00090561237
218	0xbd4ea91b	-0.05045424
219	0xbd59ac81	-0.05314303
220	0xbd74bf22	-0.05975259
221	0xbd376212	-0.04477126
222	0x3c5d2b96	0.013499161
223	0xbd44baf4	-0.048029855
224	0xbd6f810b	-0.058472674
225	0x3d1780d6	0.036988102
226	0xbccf06ef	-0.02527186
227	0x3cf01b9a	0.029310036
228	0xbd8ae6e2	-0.06782319
229	0xbd04d6fe	-0.032431595
230	0xbd18a0bb	-0.03726266
231	0xbcd60cd2	-0.02612916
232	0xbd76450c	-0.060124442
233	0x3cb36a50	0.02190128
234	0x3d4683b1	0.048465434
235	0x3d5234dc	0.051319942
236	0xbd819fb4	-0.06329289
237	0x3c90a498	0.01765661
238	0xbd776630	-0.060400188
239	0x3d049380	0.03236723
240	0x3be81110	0.007082112
241	0x3cc5f4a0	0.024164498
242	0xbd7e03ec	-0.06201546
243	0xbd7277e0	-0.059196353
244	0x3cd7405c	0.026275806
245	0x3ca8ee84	0.020621546
246	0xbd17e259	-0.037081096
247	0x3d20292b	0.03910176
248	0x3d27483b	0.04084037
249	0x3ca20744	0.019778855
250	0x3b4f7a60	0.0031658635
251	0xbc0bb6e2	-0.008527489
252	0xbc6b8f38	-0.014377408
253	0xbccb48d0	-0.024814993
254	0xbd7eeb38	-0.06223604
255	0xbb03c67f	-0.0020107327

fc2_q1.bias f4 [256]
0	0x3cf3640f	0.029710798
1	0x3d84d64e	0.06486188
2	0x3d4b5a0c	0.049646422
3	0x3b4e4be0	0.003147833
4	0xbd61373c	-0.054984316
5	0x3cb8783d	0.022518272
6	0x3c402e52	0.011729794
7	0x3d83f897	0.06443899
8	0x3c922c88	0.0178435
9	0x3d017352	0.03160412
10	0xbc2be9cf	-0.010492756
11	0x3cb383dc	0.021913461
12	0x3d8bd300	0.068273544
13	0x3bab3550	0.005224861
14	0x3d543374	0.051806882
15	0x3d50f152	0.05101139
16	0xbd0c991a	-0.034325697
17	0xbbbd8bc0	-0.0057844818
18	0x3d2ca935	0.042153556
19	0xbb7ba6a0	-0.0038398877
20	0xbd3379b6	-0.043817244
21	0x3cca6d0c	0.0247102
22	0x3c40f338	0.011776738
23	0xbd46f0a8	-0.04856935
24	0x3d39b540	0.04533887
25	0x3cdf1014	0.027229346
26	0xbd2682fe	-0.040652268
27	0xbbf89e3c	-0.0075872224
28	0x3d42f92a	0.047600903
29	0xbcddcc39	-0.02707492
30	0xbd564d74	-0.05231996
31	0xbd187fb8	-0.037231177
32	0xbd255da7	-0.040372517
33	0x3b37bda6	0.0028036623
34	0x3d2ab090	0.04167229
35	0x3cad5d04	0.021162517
36	0x3c41def8	0.011832945
37	0xbd2c5d10	-0.04208094
38	0xbc84fcfb	-0.016233912
39	0xbc13de20	-0.009025127
40	0x3d0b4d25	0.034009118
41	0xbd7fc30c	-0.06244187
42	0x3d41b13a	0.047288157
43	0x3d562674	0.052282766
44	0x3d3dca5f	0.046335574
45	0xbbd28c32	-0.006425404
46	0x3d0eb14c	0.034837052
47	0xbc844548	-0.016146317
48	0x3cd34598	0.02579002
49	0xbccfae34	-0.025351621
50	0xbcbb91b1	-0.02289662
51	0x3d311b96	0.0432392
52	0xbd6555f2	-0.055990167
53	0xbc18625b	-0.0093007935
54	0xbcee1957	-0.029064817
55	0xbd74e3d4	-0.059787586
56	0x39a4d300	0.00031437725
57	0x3bbb1f0b	0.0057104877
58	0xbd4173b4	-0.047229484
59	0x3c70cfee	0.014698012
60	0x3acf4cce	0.0015815736
61	0xbc484d37	-0.012225441
62	0x3b9d7ea0	0.0048063546
63	0xbd3ce21c	-0.046114072
64	0x3cd8f4b8	0.026483878
65	0xbc4526b8	-0.012033157
66	0xbd459b9e	-0.04824411
67	0xba964c40	-0.0011466816
68	0x3ca46a34	0.020070173
69	0x3d2398d0	0.039940655
70	0xbd567a02	-0.05236245
71	0xbc8e8928	-0.017399386
72	0xbd18fcf0	-0.037350595
73	0xbca4c564	-0.020113654
74	0xbd800f78	-0.062529504
75	0xbd379d3e	-0.044827692
76	0xbd1c0eca	-0.03810004
77	0xbc622c08	-0.013804443
78	0x3cbb426a	0.022858817
79	0x3d5478fe	0.0518732
80	0xbd148364	-0.036258116
81	0xbc087aee	-0.00833009
82	0xbd1aaf08	-0.03776458
83	0xbc887ef4	-0.016662098
84	0xbb91fdef	-0.00445532
85	0xbcc9b3c3	-0.02462185
86	0x3d629e74	0.055326894
87	0x3d16a42d	0.036777664
88	0x3d83f454	0.06443086
89	0xbd7a9752	-0.061179467
90	0x3ca50a71	0.02014658
91	0x3c477418	0.012173675
92	0x3bee46b0	0.00727161
93	0xbb9e45be	-0.0048300913
94	0xbd70a5cc	-0.058751866
95	0x3cecd1f0	0.0289087
96	0x3cc4c8a7	0.02402146
97	0x3d5520d3	0.052033257
98	0xbd0eb79e	-0.03484308
99	0x3b8066f8	0.003918525
100	0xbbc81b7c	-0.006106792
101	0x3d74eb2a	0.059794582
102	0xbd3fd1ce	-0.046830945
103	0xbd5cb9e2	-0.05388821
104	0xbc82663c	-0.01591789
105	0xbb4dd8c0	-0.003140971
106	0xbd417782	-0.047233112
107	0x3c02beb6	0.007980039
108	0x3d63ba32	0.05559749
109	0xbc86fe57	-0.0164787
110	0x3d42e1c7	0.0475786
111	0xbd433db8	-0.04766628
112	0xbd2a45ce	-0.041570477
113	0xbc2d2080	-0.010566831
114	0x3c792388	0.015206225
115	0x3b68a2c0	0.0035497397
116	0x3cb952b3	0.022622442
117	0x3d6f6f0a	0.058455504
118	0xbc22cf00	-0.009937048
119	0x3d0fa71f	0.03507149
120	0xbcffa47a	-0.031206358
121	0x3b16ddd0	0.0023020394
122	0xbd2a67c2	-0.041602857
123	0x3d7907e6	0.06079855
124	0x3cec9bbe	0.028882857
125	0xbc201cae	-0.009772463
126	0xbd31525a	-0.043291427
127	0xb8b57cba	-8.653985e-05
128	0xbc5af63f	-0.013364374
129	0xbd0356f4	-0.032065347
130	0x3bf49d4b	0.00746504
131	0xbc5ef4a7	-0.013608134
132	0x3d0b3cde	0.033993594
133	0x3d841929	0.064501114
134	0x3c5bb519	0.013409876
135	0x3b950ab8	0.004548397
136	0xbcd20bc4	-0.025640376
137	0xbd553757	-0.05205473
138	0xbd5467b2	-0.051856704
139	0x3c681fc8	0.0141677335
140	0x3d6c6d2e	0.05772131
141	0x3d5a83fc	0.053348526
142	0xbd6b279e	-0.05741083
143	0x3cd8f46d	0.026483739
144	0x3c7fcc1a	0.015612626
145	0x3c879c73	0.016554093
146	0x3d1338dd	0.0359429
147	0x3d6f45ea	0.058416285
148	0xbd433834	-0.04766102
149	0x3d301870	0.042992055
150	0xbd27ef11	-0.040999476
151	0xbd1b81a2	-0.037965424
152	0xbd127b6c	-0.035762236
153	0x3d195a3e	0.037439577
154	0xbd4de660	-0.05026853
155	0xbd3369da	-0.04380212
156	0x3c91bf14	0.017791308
157	0xbd5c4c34	-0.05378361
158	0x3d415cca	0.04720763
159	0x3d64cf4e	0.055861764
160	0x3d1f902c	0.038955852
161	0xbc2db888	-0.010603078
162	0xbd59fc96	-0.0532194
163	0x3a7a4cf2	0.0009548209
164	0xbd12b104	-0.035813347
165	0xbd72dd96	-0.059293352
166	0x3a901c40	0.0010994747
167	0x3d520c82	0.05128146
168	0xbd75731a	-0.059924223
169	0xbc8ddf18	-0.017318293
170	0xbd4afb4c	-0.04955606
171	0xbc814164	-0.015778251
172	0xbca70948	-0.020390168
173	0xbb45a280	-0.0030156672
174	0xbbd97573	-0.0066363155
175	0x3d42b660	0.047537208
176	0xbcdc967c	-0.026927225
177	0xbcdb0237	-0.026734455
178	0xbc61d3a0	-0.0137833655
179	0x3ce74dd5	0.028235355
180	0xbd36a704	-0.044592872
181	0xbca4b9d4	-0.020108141
182	0xbcf066cd	-0.029345894
183	0x3d38e80c	0.045143172
184	0x3d6d7fd2	0.057983227
185	0xbc146600	-0.009057522
186	0x3c4451f7	0.011982433
187	0xbd780c74	-0.06055875
188	0x3d1a39f0	0.03765291
189	0x3d364a74	0.044504598
190	0x3d1a2142	0.037629373
191	0xbd16f858	-0.036857933
192	0xbcedd1a0	-0.029030621
193	0x3d4be3e4	0.04977788
194	0xbd2f6daa	-0.042829193
195	0xbd07d348	-0.033160478
196	0x3d43c58e	0.047795825
197	0x3d50748a	0.05089239
198	0x3d1d4122	0.038392194
199	0x3cfe6aa3	0.031056708
200	0x3cc303c5	0.023805508
201	0xbd1354fa	-0.03596971
202	0x3c8f3fc7	0.017486466
203	0x3d7aba2c	0.061212704
204	0x3cf4496c	0.029820167
205	0x3d5c8322	0.053835995
206	0xbd81cbe6	-0.06337719
207	0xbc31f4cc	-0.010861587
208	0x3d00f15c	0.03148018
209	0xbd032c30	-0.032024562
210	0x3ca46ab1	0.020070406
211	0x3c2426e8	0.010019042
212	0xbb456300	-0.0030118823
213	0xbc8d6d61	-0.01726407
214	0xbd1e28dc	-0.038613185
215	0x3cf2363d	0.029566878
216	0xbd0b0a5a	-0.03394542
217	0xbd5bcea8	-0.05366388
218	0x3d841ca7	0.064507775
219	0xbd32ed86	-0.04368355
220	0xbcaf9c28	-0.021436766
221	0xbd1c7b37	-0.038203444
222	0x3d0917f8	0.033470124
223	0xbc1817d8	-0.009283029
224	0x3d24fb08	0.040278465
225	0xbb9d5e2c	-0.004802486
226	0x3d60c4c2	0.054875143
227	0x3cacaf82	0.021079782
228	0x3d39cad2	0.04535944
229	0xbc362180	-0.011116385
230	0xbd6dd33a	-0.05806277
231	0x3b861f64	0.0040930975
232	0xbc3e3a40	-0.011610568
233	0xbd28a7d4	-0.04117568
234	0xbb4d1a65	-0.003129625
235	0x3b13e3bb	0.0022566158
236	0xbcbbce07	-0.02292539
237	0x3cf0e7b5	0.029407362
238	0xbd06fa34	-0.032953456
239	0xbd389b72	-0.04507012
240	0x3d5635c8	0.052297384
241	0x3d15184a	0.036400117
242	0x3d5e3f3a	0.054259516
243	0xbc7ca8ef	-0.015421136
244	0xbc9202b8	-0.017823562
245	0x3cde1a5a	0.027112175
246	0x3c9fbfc4	0.01950062
247	0xbc9f0706	-0.019412529
248	0xbd0396aa	-0.032126106
249	0x3b772e47	0.0037716792
250	0x3cac9491	0.021066936
251	0xbcc0a577	-0.0235164
252	0x3d80eb64	0.06294897
253	0xbd27dff4	-0.040985063
254	0xbac301a5	-0.001487781
255	0x3cb4137a	0.021981943

fc3_q1.weight f4 [1, 256]
0	0x3cf5b9d5	0.029995838
1	0xbc44b0d0	-0.012005046
2	0x3d013570	0.031545103
3	0xbd5dde36	-0.054166995
4	0xbc51a028	-0.012794532
5	0xbce233c9	-0.027612584
6	0xbbccb3ee	-0.006247035
7	0xbd6cc344	-0.057803407
8	0xbc9e0201	-0.019288065
9	0x3bccd5e8	0.0062510855
10	0x3d5e36f8	0.05425164
11	0xbbcf72aa	-0.0063308077
12	0xbd046d62	-0.032330878
13	0x3cc3a860	0.023883998
14	0x3c64f270	0.013973817
15	0xbd126dad	-0.035749126
16	0xbccee940	-0.025257707
17	0xbc2b67b0	-0.010461733
18	0xbc9af07d	-0.018913502
19	0x3d47b4c8	0.04875639
20	0x3d274174	0.040833905
21	0xbd4de85c	-0.050270423
22	0x3ba97348	0.0051712133
23	0x3d17e77e	0.037086003
24	0x3d4c31f6	0.049852334
25	0x3d22c2a6	0.039736412
26	0x3d69463a	0.05695174
27	0xbd018284	-0.03161861
28	0x3d5b6b08	0.05356887
29	0xbcec2ff9	-0.028831469
30	0x3d3b544e	0.045734696
31	0xbd4c10b4	-0.049820617
32	0xbcbf6b71	-0.023366662
33	0xbd8b5fdb	-0.06805392
34	0xbc992c88	-0.018697992
35	0xbcc94a58	-0.024571583
36	0xbd80d310	-0.06290257
37	0x3cdfb8bd	0.02730977
38	0xbd079755	-0.033103306
39	0xbd2a2184	-0.04153587
40	0xba05db6a	-0.00051062426
41	0x3a073f5b	0.0005159282
42	0x3d3adc96	0.045620523
43	0xbd369f96	-0.044585787
44	0xbcc1dfe8	-0.023666337
45	0x3c6ecf84	0.014575843
46	0x3c272428	0.010201491
47	0xbd177962	-0.036980994
48	0x3d373684	0.044729725
49	0xbd476ed8	-0.048689693
50	0x3d3808c2	0.044930227
51	0xbd054108	-0.03253272
52	0x3cf95076	0.030433875
53	0xbd136bbc	-0.035991415
54	0xbd2bedde	-0.041974895
55	0xbd4725ce	-0.048620038
56	0x3d25582a	0.040367283
57	0x3d2049cc	0.03913288
58	0x3d073e66	0.033018492
59	0x3bd869c9	0.0066044074
60	0x3cb0cea3	0.021582907
61	0x3d61bd38	0.055112094
62	0xbcd40a50	-0.025883824
63	0xbd1928b6	-0.03739234
64	0x3d04c1f8	0.032411546
65	0xbd2a9b6e	-0.041652136
66	0x3bc7fdc0	0.0061032474
67	0x3d40705e	0.04698216
68	0x3c281d00	0.01026082
69	0xbcc5e79c	-0.024158292
70	0xbcb20db5	-0.021735052
71	0xbc38637f	-0.0112541905
72	0xbd71ed5a	-0.059064247
73	0x3cac6b14	0.021047153
74	0x3c1f82a8	0.009735741
75	0xbc757af0	-0.014982924
76	0x3d25db1e	0.04049217
77	0xbc0d42d2	-0.008621888
78	0xbc1fd4fc	-0.009755369
79	0x3c2da878	0.010599248
80	0x3d2f3236	0.042772494
81	0x3b805e76	0.0039175106
82	0xbcaba811	-0.020954164
83	0x3d0b82e4	0.034060374
84	0xbccc5145	-0.024941096
85	0xbd37a72e	-0.04483717
86	0xbd018a4c	-0.03162603
87	0xbcc899f4	-0.024487473
88	0xbd1c41fd	-0.03814887
89	0x3ccc2f1c	0.024924807
90	0xbd74d81a	-0.059776403
91	0x3c8db5a2	0.017298523
92	0x3d5bd87e	0.05367326
93	0xb999cb57	-0.00029333934
94	0x3d03a186	0.032136463
95	0x3d4a1478	0.049335927
96	0x3d3b16b6	0.045675956
97	0xbc0f1a01	-0.008734227
98	0x3ce9f2ac	0.028558098
99	0xbd0c2d7a	-0.034223057
100	0xb8a728ca	-7.970778e-05
101	0xbd74ee56	-0.059797607
102	0xbc312318	-0.01081159
103	0x3d164bb8	0.036693305
104	0x3d352f7a	0.04423473
105	0xbbfd4f10	-0.0077303723
106	0x3a4c26e5	0.0007787778
107	0xbc8433cb	-0.016137978
108	0x3d1d7bf8	0.038448304
109	0x3cd83f08	0.026397243
110	0x3bc4bbbf	0.0060038264
111	0xbcb8e635	-0.022570709
112	0x3d1c2c96	0.038128458
113	0xbd471326	-0.048602246
114	0x3c9ced73	0.019156193
115	0xbd16d184	-0.036820903
116	0x3ccae2cb	0.024766346
117	0xbd760396	-0.060062014
118	0xbc6010d0	-0.013675883
119	0xbcd6e22d	-0.026230896
120	0xbd1d3578	-0.03838107
121	0xbccb60be	-0.024826404
122	0xbc4bd72e	-0.01244144
123	0xbd17efca	-0.037093915
124	0xba9d92cd	-0.00120219
125	0x3d49fff2	0.049316354
126	0x3bd57dcb	0.00651524
127	0x3c93c273	0.018037057
128	0xbb79e501	-0.0038130882
129	0x3d6b89f4	0.05750461
130	0x3b4e2775	0.0031456624
131	0x3c7e93c2	0.015538158
132	0x3c5391a0	0.012913138
133	0xbcd783b5	-0.02630792
134	0x3d16251c	0.036656484
135	0xbb9ab0b3	-0.004720771
136	0x3d38521c	0.04500018
137	0xbc27b928	-0.010237016
138	0xbd456282	-0.048189647
139	0xbd6d6dc4	-0.05796601
140	0x3d27e9b4	0.04099436
141	0x3d078bb8	0.03309223
142	0x3d2683e8	0.04065314
143	0xbd659968	-0.056054503
144	0x3cb4e48f	0.022081641
145	0xbcb3930c	-0.021920703
146	0xbb842945	-0.00403324
147	0xbbcd70e0	-0.0062695593
148	0x3c711484	0.014714364
149	0x3cf15999	0.029461669
150	0x3b85c3dc	0.004082186
151	0xbc875963	-0.016522115
152	0xbbed4360	-0.0072406977
153	0xbc5c7620	-0.013455898
154	0x3d2a33b0	0.0415532
155	0x3d567db1	0.052365962
156	0xbd23ed78	-0.04002139
157	0xbd727010	-0.059188902
158	0xbceb8605	-0.028750429
159	0x3abf4440	0.0014592484
160	0xbd11609f	-0.035492536
161	0x3d433912	0.04766185
162	0x3d26d178	0.04072711
163	0x3b948db5	0.0045334944
164	0xbcf2de52	-0.029647026
165	0x3d3955d2	0.04524786
166	0x3d354532	0.044255443
167	0x3d413d04	0.04717733
168	0x3c3314b8	0.010930233
169	0x3b2c9617	0.0026334578
170	0xbd407bae	-0.04699295
171	0x3d60182c	0.054710552
172	0x3c25fd78	0.010131232
173	0xbbac2210	-0.005253084
174	0xbd0ac7b4	-0.033881858
175	0x3d7430a0	0.059616685
176	0x3d3cd54e	0.04610186
177	0xbd202d04	-0.03910543
178	0x3c1598b0	0.009130642
179	0x3d0f1388	0.034930736
180	0x3d052f52	0.03251583
181	0x3bc4c210	0.0060045794
182	0xbd735506	-0.059407257
183	0x3d57409e	0.052551858
184	0xbd3258c4	-0.043541685
185	0xbcc21b38	-0.02369462
186	0xbd589b6c	-0.052882597
187	0x3c355ae0	0.01106903
188	0xbd1c0b60	-0.038096786
189	0x3ce13398	0.027490422
190	0x3c872338	0.016496286
191	0xbc218870	-0.009859189
192	0x3cdad560	0.026713073
193	0x3ba1d818	0.0049390905
194	0x3be9f6fb	0.007140038
195	0x3c228160	0.009918541
196	0x3c385548	0.011250801
197	0x3d489112	0.048966475
198	0x3d348894	0.044075564
199	0xbbb50177	-0.0055238563
200	0xbd8c0183	-0.06836226
201	0xbd0f234c	-0.03494577
202	0x3ccd90bf	0.025093434
203	0xbd30128e	-0.042986445
204	0xbd69743e	-0.056995623
205	0xbd1c1618	-0.038107008
206	0x3d31cb22	0.043406613
207	0x3c3d4f68	0.011554576
208	0x3d291a18	0.04128465
209	0xbcd7cdd5	-0.026343266
210	0xba98c142	-0.0011654275
211	0x3d18ce7c	0.037306294
212	0x3ca75260	0.020425022
213	0x3c61ce78	0.013782136
214	0x3c810dd7	0.01575367
215	0xbd2c0c00	-0.04200363
216	0x3cbf51af	0.02335438
217	0x3d6d2970	0.057900846
218	0xbd263b3a	-0.040583827
219	0xbbd87e6d	-0.006606868
220	0x3d688bc0	0.0567739
221	0x3cbce6ee	0.023059335
222	0xbd6131d4	-0.05497916
223	0x3cd212fc	0.025643818
224	0x3c508c3f	0.01272875
225	0xbd722390	-0.059115946
226	0xbc49a990	-0.012308493
227	0x3d0f3758	0.03496489
228	0xbd584342	-0.052798517
229	0x3ca8a984	0.020588644
230	0x3cbdaf60	0.023154914
231	0xbd04cfbc	-0.032424673
232	0xbcf6d56d	-0.030131066
233	0xbcd13c81	-0.025541546
234	0x3cd793c9	0.026315587
235	0x3bde119c	0.0067770015
236	0xbcb25bad	-0.02177223
237	0xbd6461ee	-0.055757456
238	0xbd4961a2	-0.049165376
239	0x3d349b76	0.04409357
240	0xbd86cea3	-0.065823816
241	0xbd6edd40	-0.05831647
242	0x3cb46bef	0.022024123
243	0x3d5dc312	0.05414111
244	0x3d505b78	0.05086848
245	0xbca4bb59	-0.020108866
246	0xbccbe870	-0.024891108
247	0x3d10d6fc	0.035361275
248	0x3bbbe30a	0.0057338523
249	0xbd20ca74	-0.039255574
250	0xbd49473c	-0.0491402
251	0xba79f3aa	-0.0009534905
252	0xbd84e61d	-0.06489203
253	0xbd05f917	-0.032708254
254	0x3c6c5704	0.014425043
255	0xbc5a6660	-0.013330072

fc1_q2.weight f4 [256, 10]
0	0xbe2cc8e4	-0.16873509
1	0xbdd4be12	-0.103878155
2	0xbe246f3e	-0.1605806
3	0xbe911c53	-0.28341922
4	0xbdb85336	-0.09000246
5	0xbd3e2890	-0.046425402
6	0xbe1875a2	-0.14888623
7	0x3e1d8342	0.15382102
8	0xbe042b8f	-0.12907241
9	0x3c9c4b20	0.019078791
10	0x3d9a2af8	0.07527727
11	0xbccb9d80	-0.024855375
12	0xbce8db50	-0.028424889
13	0x3e065550	0.13118482
14	0x3d415ae8	0.047205836
15	0xbe89f217	-0.26942512
16	0x3e5ee5ee	0.21767399
17	0x3e80c905	0.25153366
18	0xbe1c109a	-0.15240708
19	0x3e555162	0.20831826
20	0x3e84e00d	0.25952187
21	0x3e2194fd	0.15779491
22	0x3e258ef4	0.16167814
23	0x3e7ed4ef	0.24885915
24	0x3e879483	0.26480493
25	0xbe3ae231	-0.18250348
26	0xbe6bb6a2	-0.23018888
27	0x3dabf208	0.08395773
28	0xbea26fa6	-0.31725806
29	0xbd53271d	-0.051550973
30	0xbe967c33	-0.2939163
31	0x3e81a9f9	0.2532499
32	0xbe4d6a7e	-0.20060155
33	0xbd51aa90	-0.05118805
34	0x3dc92594	0.098216206
35	0x3c2ba820	0.010477096
36	0x3e148f18	0.14507711
37	0xbdaa76e0	-0.08323455
38	0xbe5c3d86	-0.21507844
39	0xbe97a622	-0.29618937
40	0x3db8eee8	0.09029943
41	0x3e81d9b5	0.2536141
42	0xbcda9e00	-0.026686668
43	0x3e139ffe	0.14416501
44	0x3cb650a0	0.022255242
45	0x3e78a76e	0.2428262
46	0x3e56d886	0.20981035
47	0xbd529160	-0.05140817
48	0xbe85519e	-0.2603883
49	0x3d1809e8	0.037118822
50	0x3d317f70	0.043334424
51	0xbe2e9d8b	-0.17052285
52	0x3d96d798	0.0736534
53	0xbdb5c2aa	-0.0887502
54	0x3e558156	0.20850119
55	0x3d76b968	0.06023541
56	0xbcc24610	-0.023715049
57	0x3e21c460	0.15797567
58	0xbc8e0cf0	-0.017340153
59	0xbe991c1c	-0.29904258
60	0x3e064c28	0.13114989
61	0x3e588eaa	0.21148172
62	0xbe240a02	-0.16019443
63	0x3b9382c0	0.0045016706
64	0x3e0e508a	0.1389791
65	0xbd3be798	-0.045875162
66	0x3dc24588	0.09485918
67	0x3e9f1cb7	0.31076595
68	0xbd7bd4c0	-0.06148219
69	0x3e1f2a64	0.15543514
70	0x3ea37ac5	0.31929603
71	0xbe69aff8	-0.22821033
72	0x3df6a7e7	0.120437436
73	0xbe153e04	-0.14574438
74	0x3c6255f8	0.013814442
75	0xbea49690	-0.3214612
76	0x3cfd4ce0	0.030920446
77	0x3e011364	0.12605053
78	0x3df652b2	0.12027492
79	0xbd5bb699	-0.053640936
80	0x3d9c4a68	0.07631379
81	0xbde9fcbc	-0.114251584
82	0xbe870547	-0.26371214
83	0x3ea16afd	0.31526938
84	0x3e76d842	0.24105933
85	0xbe1b7e3d	-0.15184875
86	0xbe20bd49	-0.15697207
87	0x3e7f5142	0.24933341
88	0xbe19bc97	-0.15013348
89	0x3e6fe762	0.2342811
90	0xbe8557ac	-0.2604345
91	0xbc97f800	-0.018550873
92	0xbd84a6e0	-0.064771414
93	0x3e8ff235	0.28114477
94	0x3a305400	0.0006726384
95	0xbe7e7223	-0.24848227
96	0xbd456638	-0.048193187
97	0xbc3ce700	-0.011529684
98	0xbd65c4f8	-0.056096047
99	0x3d184548	0.037175447
100	0x3e901a05	0.2814485
101	0x3be791c0	0.0070669353
102	0x3c984260	0.018586338
103	0x3e4534fa	0.1925849
104	0x3ddf93d8	0.10916871
105	0x3ea1e41f	0.31619355
106	0xbe8fad08	-0.280617
107	0xbd10a940	-0.03531766
108	0xbe1cf539	-0.1532792
109	0x3d5a0dc8	0.0532358
110	0xbe2c146f	-0.1680467
111	0xbe305650	-0.17220426
112	0x3e30f43a	0.17280665
113	0x3e0749c0	0.13211727
114	0x3e0cafa4	0.13738877
115	0xbd822570	-0.06354797
116	0x3c637300	0.013882399
117	0x3e297a70	0.16550612
118	0xbe5a564e	-0.21321985
119	0xbe301cd9	-0.17198505
120	0x3e66a0b0	0.22522235
121	0xbe2851d2	-0.16437462
122	0x3ea1a2f9	0.3156965
123	0xbe0abe21	-0.13549091
124	0xbe59b935	-0.21262057
125	0xbd3fb909	-0.046807323
126	0x3dd69dc4	0.1047931
127	0xbe8a4161	-0.27003005
128	0x3dd58b7a	0.10426994
129	0x3dd1afc2	0.10238601
130	0x3e109fcf	0.14123462
131	0x3e9d626b	0.3073915
132	0xbe237eea	-0.15966383
133	0x3e4dfae1	0.20115234
134	0x3e930fbf	0.2872295
135	0x3da39c7d	0.07988832
136	0x3d672f40	0.056441545
137	0xbea1c6f5	-0.31597105
138	0x3e7ed3b3	0.24885444
139	0xbd774f9b	-0.060378652
140	0xbcc174b0	-0.023615211
141	0xbe2c3be7	-0.16819726
142	0xbe5b4b82	-0.21415523
143	0x3d1c1210	0.038103163
144	0xbe29b4bc	-0.16572851
145	0xbd373bf8	-0.044734925
146	0x3cdd26f0	0.026996106
147	0xbe9056c2	-0.2819119
148	0xbe3fc0e8	-0.18725932
149	0x38989000	7.274747e-05
150	0xbe19326e	-0.14960644
151	0x3c15c680	0.009141564
152	0xbd8d7454	-0.069069535
153	0x3e594e42	0.21221259
154	0x3d0d9b48	0.034571916
155	0x3e460ef2	0.19341639
156	0xbe3f91bf	-0.18707941
157	0x3c856310	0.016282588
158	0xbe7dadff	-0.24773405
159	0xbe9fc271	-0.31203035
160	0xbe0f5430	-0.13996959
161	0x3dca54d1	0.09879459
162	0x3e2d4ea0	0.16924524
163	0x3e180aa7	0.14847814
164	0x3d96b602	0.07358934
165	0xbdcb6029	-0.099304505
166	0xbea0fb49	-0.31441715
167	0x3e962c1f	0.29330537
168	0xbd65caef	-0.056101736
169	0x3e59dbb7	0.21275221
170	0xbe4d4be1	-0.20048477
171	0x3e59fd08	0.2128793
172	0x3e8c6787	0.27422735
173	0x3e031c85	0.12803848
174	0xbe3a4a9d	-0.18192525
175	0x3dc69806	0.09696965
176	0xbe4e2095	-0.20129617
177	0xbe2d7782	-0.1694012
178	0xbd7d8306	-0.06189253
179	0xbea28514	-0.31742156
180	0xbea04039	-0.31298998
181	0xbe881ed4	-0.2658602
182	0xbe0a2ef3	-0.13494472
183	0xbe774051	-0.24145629
184	0x3dca1c88	0.09868723
185	0xbe3134b3	-0.1730526
186	0x3e8e9f19	0.27855757
187	0xbdeb80a6	-0.11499147
188	0x3e13891c	0.14407772
189	0xbe3e4dd5	-0.18584378
190	0xbe441594	-0.19148856
191	0xbe468fc4	-0.1939078
192	0xbd55c8a8	-0.052193314
193	0xbe843cfd	-0.2582778
194	0x3e54244e	0.20716974
195	0xbd5f8b30	-0.0545761
196	0xbe97e03c	-0.29663265
197	0xbe982810	-0.29718065
198	0xbe16bb9d	-0.14720006
199	0xbe08da9b	-0.13364641
200	0xbde58137	-0.112062864
201	0x3d3b0ecf	0.04566842
202	0xbe89184a	-0.26776344
203	0x3df8d9ed	0.12150941
204	0xbe8d53fa	-0.27603132
205	0xbe2b4275	-0.1672457
206	0x3db1c800	0.08680725
207	0xbe958046	-0.29199427
208	0x3e93060b	0.28715548
209	0xbe022939	-0.12711038
210	0x3e215dda	0.15758458
211	0xbe88ffcf	-0.26757666
212	0xbe8826d1	-0.26592115
213	0x3dc044b8	0.09388107
214	0xbe96959f	-0.29411027
215	0xbce63580	-0.028101683
216	0x3d13a878	0.036049336
217	0x3e236fc4	0.15960604
218	0xbdc073f4	-0.09397116
219	0x3d4d73c0	0.050159216
220	0x3c54a6f7	0.012979261
221	0x3e946eb9	0.28990725
222	0xbe186caa	-0.14885202
223	0xbd77a22a	-0.060457386
224	0xbd2478cc	-0.040154263
225	0xbe4cf9f0	-0.20017219
226	0xbd833adc	-0.06407711
227	0x3d7fe250	0.062471688
228	0xbe9d567f	-0.30730054
229	0xbdd6822e	-0.104740486
230	0x3e24695f	0.16055821
231	0x3e700459	0.23439158
232	0x3e97776d	0.29583302
233	0xbd24725f	-0.040148135
234	0xbe402e67	-0.18767701
235	0x3e411b05	0.18857963
236	0x3db53bd8	0.08849305
237	0x3e847d7f	0.25876996
238	0x3c97c480	0.018526316
239	0xbcb59ebe	-0.02217042
240	0x3c5d2bda	0.013499225
241	0xbe318ac7	-0.17338096
242	0x3d50bec9	0.050963197
243	0x3df120ea	0.11773856
244	0xbe3a9483	-0.18220715
245	0x3dfaf432	0.12253608
246	0xbde1d86a	-0.11027606
247	0xbe9b6a35	-0.30354467
248	0x3e87d683	0.26530847
249	0xbe2ad492	-0.16682652
250	0xbd673730	-0.056449115
251	0x3dbc9c54	0.09209505
252	0xbe18ad38	-0.14909828
253	0xbdcfaf46	-0.10140853
254	0x3923d000	0.00015622377
255	0xbd82ef64	-0.063933164

fc1_q2.bias f4 [256]
0	0xbdaebb72	-0.08531846
1	0x3d306968	0.043069273
2	0xbe5f1db5	-0.21788676
3	0xbe814368	-0.2524674
4	0xbe5887c6	-0.21145543
5	0xbd91a2d6	-0.071111366
6	0xbe7b9f34	-0.2457245
7	0x3e8966b7	0.26836178
8	0x3db4a818	0.08821124
9	0xbac2d900	-0.0014865696
10	0xbd5bb108	-0.053635627
11	0xbcfbb4a0	-0.030725777
12	0xbe2a58eb	-0.16635482
13	0xbe061cc7	-0.13096915
14	0xbe9c5851	-0.3053613
15	0xbdbe4912	-0.09291281
16	0x3dc5f915	0.09666649
17	0xbe7fd74d	-0.24984474
18	0xbe2f95c3	-0.17146973
19	0xbd9bd478	-0.076088846
20	0x3d82b836	0.06382792
21	0xbd99431c	-0.07483503
22	0x3d835f33	0.06414642
23	0x3dd985f2	0.10621251
24	0x3dd05f7a	0.10174461
25	0xbe2b3aaa	-0.16721597
26	0x3e6f8fb1	0.23394658
27	0xbccdd77d	-0.025127167
28	0xbe7d56bc	-0.24740118
29	0xbc7331b6	-0.014843395
30	0x3e3dd8de	0.1853976
31	0xbdb6db0a	-0.08928497
32	0xbdd891c4	-0.105746776
33	0x3dcb6fd4	0.09933439
34	0xbc52b3f3	-0.012860286
35	0xbe96e4e2	-0.294715
36	0x3e593573	0.21211796
37	0x3c81f284	0.01586271
38	0xbde270cc	-0.110566705
39	0xbe9b3960	-0.3031721
40	0x3dfa911c	0.12234709
41	0x3d3958be	0.045250647
42	0x3d051dc6	0.032499097
43	0x3d653aba	0.05596421
44	0xbe02251a	-0.12709466
45	0xbe6752e6	-0.22590217
46	0xbd93378c	-0.07188329
47	0xbe3da7b4	-0.18521005
48	0x3e5edf94	0.21764976
49	0xbe312935	-0.17300875
50	0x3e0c18fd	0.13681407
51	0x3da53489	0.08066661
52	0xbd2dad00	-0.042401314
53	0xbe940f2c	-0.28917825
54	0xbd507ca8	-0.05090013
55	0xbe8a7978	-0.27045798
56	0xbccc96d1	-0.024974259
57	0x3e94d763	0.29070577
58	0xbdfa517d	-0.12222574
59	0xbe268f13	-0.16265516
60	0x3e33918a	0.17535987
61	0xbdafea5b	-0.08589622
62	0xbe9d0ed0	-0.30675364
63	0xbe9a3492	-0.30118233
64	0x3e8fdd9f	0.2809877
65	0xbe8b8032	-0.27246243
66	0xbd921211	-0.07132352
67	0xbd89e626	-0.067333505
68	0x3e5d3c35	0.21604998
69	0xbe853d4a	-0.26023322
70	0x3e134438	0.14381492
71	0xbe150ab8	-0.1455487
72	0x3e659d37	0.22423254
73	0xbdf4ad9a	-0.11947174
74	0x3e9c8a9d	0.30574504
75	0x3e93271f	0.28740785
76	0xbc8c4610	-0.017123252
77	0x3ddc0aab	0.10744222
78	0x3e84fa69	0.25972298
79	0x3e07ff64	0.13281018
80	0xbe9f4174	-0.31104624
81	0xbd818a2c	-0.06325182
82	0xbe5acae5	-0.2136646
83	0x3d6728b2	0.056435294
84	0xbe1d0c68	-0.15336764
85	0xbd8fb2aa	-0.07016499
86	0x3c86c68e	0.0164521
87	0x3c84f9b0	0.016232342
88	0xbc9ba8ed	-0.019001449
89	0x3e233bf0	0.15940833
90	0x3e864ed1	0.26232007
91	0x3e23a24d	0.15979882
92	0xbd50c30a	-0.050967254
93	0x3d81355d	0.06309006
94	0x3bf6c540	0.0075308383
95	0x3da00c6e	0.07814871
96	0x3e04b129	0.12958206
97	0x3def6c36	0.116905615
98	0xbdad9505	-0.08475689
99	0xbe3df90b	-0.18552034
100	0xbe534bba	-0.20634356
101	0x3e6e81e8	0.23291743
102	0x3de5c415	0.1121904
103	0x3e9e9dcd	0.30979767
104	0xbe8eb63a	-0.27873403
105	0x3dd8d428	0.105873406
106	0x3d17b5ee	0.037038736
107	0x3e5893fd	0.21150203
108	0x3e08ca93	0.13358526
109	0xbe487c45	-0.19578655
110	0x3e9d3f25	0.30712238
111	0x3e6ff31b	0.23432581
112	0xbe95b1a8	-0.29237103
113	0xbe3c1d91	-0.18370654
114	0xbe84460c	-0.25834692
115	0x3e4ac3af	0.1980121
116	0x3e943133	0.28943786
117	0xbd839664	-0.06425169
118	0xbe054019	-0.13012733
119	0x3e7976ec	0.24361771
120	0x3dc6f0da	0.097139075
121	0x3de0a565	0.109690465
122	0xbe9bc528	-0.30423856
123	0x3dca2670	0.098706126
124	0x3d6f5507	0.058430698
125	0xbea03564	-0.31290734
126	0x3e7a9f54	0.24474841
127	0x3e61cf5a	0.22051755
128	0x3ea05743	0.31316575
129	0x3e964297	0.2934768
130	0xbca2da0b	-0.019879362
131	0xbca4155b	-0.020029714
132	0x3d569258	0.052385658
133	0xbe82d6e4	-0.25554574
134	0xbcabaece	-0.020957377
135	0xbe06a6ee	-0.13149616
136	0x3e66802a	0.22509828
137	0xbe80de78	-0.2516973
138	0xbe7cf4fe	-0.24702832
139	0xbd082d9f	-0.033246633
140	0x3d08a046	0.033355974
141	0x3e066e7e	0.13128087
142	0x3e922747	0.2854559
143	0xbe9e1c7a	-0.308811
144	0xbe843e7f	-0.2582893
145	0xbe8ec9dc	-0.2788838
146	0x3e2460e4	0.16052586
147	0xbdd8415a	-0.1055934
148	0xbe740eb1	-0.2383373
149	0x3e1e71f0	0.15473151
150	0x3d44fc10	0.048091948
151	0x3e7d58f3	0.24740963
152	0x3e4c3e65	0.19945677
153	0x3dcc31b0	0.09970415
154	0x3e9438cd	0.28949586
155	0xbe2b5974	-0.16733342
156	0xbe4553bc	-0.19270223
157	0x3cdc553f	0.026896117
158	0xbe857f9c	-0.2607392
159	0x3c3f4365	0.011673783
160	0x3e892219	0.26783827
161	0xbe78a89a	-0.24283066
162	0xbe93a4cb	-0.28836665
163	0x3e5b70ec	0.21429795
164	0x3e9415e9	0.28922966
165	0xbb00ba80	-0.0019642413
166	0x3e8878f1	0.2665477
167	0xbd58a1f8	-0.05288884
168	0xbe9e25a4	-0.30888093
169	0xbe3f7b47	-0.1869937
170	0x3dd8d303	0.10587122
171	0x3e8bcd01	0.27304843
172	0xbd8908fc	-0.06691167
173	0x3e8e758d	0.2782406
174	0x3e1150f9	0.14191045
175	0xbdf9af1e	-0.12191604
176	0xbea08694	-0.31352675
177	0x3e999421	0.29995826
178	0xbe2ea20a	-0.17054
179	0xbe489919	-0.19589652
180	0xbe9a61e0	-0.30152798
181	0xbe8d40ba	-0.27588445
182	0xbc35fcfa	-0.011107678
183	0x3e906663	0.28203115
184	0xbdef433e	-0.11682747
185	0xbe3d5f77	-0.18493448
186	0x3cf376a3	0.029719656
187	0x3bfb370c	0.007666474
188	0xbde7cdc3	-0.11318543
189	0xbdf1640e	-0.11786662
190	0xbe2e7ec8	-0.1704055
191	0x3e9761d9	0.2956684
192	0x3c8dcac7	0.017308606
193	0xbe162df9	-0.14665975
194	0xbe2c9c64	-0.16856533
195	0x3de29258	0.11063069
196	0xbdd8b040	-0.10580492
197	0xbe9ca016	-0.30590886
198	0xbde9794c	-0.11400089
199	0x3e516bf0	0.20451331
200	0xbe832dfe	-0.25621027
201	0xbd9f3bb6	-0.07775061
202	0x3e977155	0.29578653
203	0x3ea0a4fd	0.31375876
204	0xbe16cf54	-0.14727527
205	0x3e6af954	0.22946674
206	0xbd8a2896	-0.067460224
207	0xbd890786	-0.06690888
208	0x3de00a6a	0.10939486
209	0xbda3cf0f	-0.07998478
210	0xbdb380a8	-0.087647736
211	0x3e2b2285	0.16712387
212	0xbd6ffb0b	-0.058589023
213	0xbe2c0324	-0.16798073
214	0xbe0cad95	-0.13738091
215	0xbe69edfb	-0.22844689
216	0xbe3f7cb2	-0.18699911
217	0x3d9bacaf	0.07601296
218	0x3e9140e5	0.28369823
219	0xbe8b7580	-0.27238083
220	0xbe9e3522	-0.30899912
221	0x3d2f0928	0.04273334
222	0x3de9bfe0	0.114135504
223	0x3e9fd3d5	0.31216303
224	0x3bee5b00	0.0072740316
225	0x3d176c26	0.036968373
226	0x3e472e70	0.19451308
227	0xbc23c484	-0.009995583
228	0x3cc4d470	0.02402708
229	0xbd952273	-0.07281961
230	0xbda7aa7a	-0.08186813
231	0xbe9c1caf	-0.30490634
232	0xbdba5c2c	-0.09099612
233	0xbe09f4ca	-0.13472286
234	0xbc0085e2	-0.00784442
235	0x3e387b3b	0.18015759
236	0xbd9f9a0c	-0.07793054
237	0xbe698a89	-0.22806753
238	0xbe2c8401	-0.1684723
239	0x3b542a80	0.0032373965
240	0xbe6fe19a	-0.23425904
241	0xbd6b40df	-0.057434913
242	0xbe72d22f	-0.23712991
243	0x3e77c712	0.24197033
244	0x3e778c25	0.24174555
245	0x3db50204	0.08838275
246	0xbddcb09a	-0.107758716
247	0xbe9a86a9	-0.30180863
248	0x3e1be7e4	0.15225178
249	0x3e758078	0.23974788
250	0x3e00a1c5	0.1256171
251	0xbe14bd52	-0.14525345
252	0x3bf0f611	0.007353552
253	0x3d09c7c4	0.033637777
254	0x3e909baf	0.28243777
255	0x3e837a87	0.25679418
