TD3/models/lunarlander/00001000/critic_2.pth (torch, 277271 bytes, 5 tensors)

fc1.weight f4 [256, 10]
0.08895176 -0.25006938 -0.1921105 0.1736164 0.6782793 0.3084052 0.84724694 -0.20601802
0.011130053 -0.026344316 -0.34318691 0.2602595 -0.58027434 -0.8714483 -0.019366166 -0.22442006
0.97826016 0.12993842 0.2974144 -0.29076108 0.35600626 0.43400878 -0.10358102 0.06926461
0.5393045 0.44943157 -0.25898105 -0.17327584 -0.13570628 0.004067364 -0.519445 0.21614249
0.12633687 -0.66497356 0.25943345 -0.051143803 0.46614495 0.18514557 -0.39732087 0.10714401
0.13238107 -0.5067648 0.10068739 -0.24555777 -0.44960448 -0.46467277 0.10310122 0.5504552
-0.03323009 0.1632797 -0.11983926 0.2984364 0.4861444 1.5637299 -0.3207026 0.5597415
-0.22955982 0.10795732 -0.0038220617 -0.056787282 0.29402807 -0.3808749 -0.113155946 0.12697664
0.07199564 -0.3352405 0.99018586 0.21118045 0.15618038 0.38945776 -0.54429096 -0.060873073
-0.13358387 0.4266399 -0.47821337 -0.41675556 0.23725583 -0.43695062 0.12493958 -0.2510001
-0.45111313 0.25742528 -0.52939975 0.40445563 -0.5040134 -0.016960843 0.11396185 -0.2745391
0.52752846 -0.076803006 -0.29554147 0.23508246 0.31942594 -0.37496188 0.1057111 0.66526824
0.040229037 -0.6421964 -0.43848887 0.08325857 -0.016446577 -0.32004732 0.49851102 -0.19782537
-0.51818335 -0.7188954 0.27239233 -0.32926625 0.16597502 -0.6076301 0.59304565 0.6227656
-0.067254804 -0.7930455 -0.46435532 0.107444316 -0.20584327 -0.27970782 -0.09542967 0.05520639
-0.22536042 -1.3729514 0.58278275 -0.55428946 0.3177402 0.18356271 0.4951833 -0.0033397258
-0.26434904 -0.0564703 -0.4059349 0.26247907 0.15986353 -0.051579803 -1.1277304 -0.33031237
-1.821422 0.21033762 -0.055281684 0.037480008 -0.84690773 0.06284172 -0.035436172 0.5960975
-0.44505778 -0.25478077 -1.1214702 -0.23757976 0.3101027 0.23810948 -0.7145186 -0.69156414
-0.58541495 -0.97365946 -0.503582 -0.6026711 0.29041147 -0.05478306 0.08738851 -0.064484954
-0.79351795 -0.17671941 -0.41098893 -0.304141 0.015720785 0.019703373 0.45091197 -1.502073
-0.00027538126 -0.018703373 -0.38365582 0.23577242 -0.41303042 -0.48421028 0.41389176 0.0789964
-0.57663435 -0.53808093 -0.086567156 -0.044931937 0.18067902 0.18867294 -0.035075743 0.15237495
0.24781254 -0.35555634 -0.41056114 -0.22605295 0.4003623 0.30211174 -0.928847 -0.05535169
-0.93880916 -0.19827965 -0.4893758 -0.23301119 -0.513907 -0.104760006 -0.28509125 0.01003692
-0.09536041 -0.68603647 -0.41670123 -0.43768373 -0.4703145 0.37473327 0.70990056 0.35687548
0.07768794 0.09858835 -0.420042 -1.101495 0.42835635 -0.5267311 -0.3214615 0.49915016
-1.480857 -0.13731197 -0.3712233 -0.020412348 0.26473254 -0.27160555 0.13431746 0.10303866
-0.25725254 -0.86730003 0.101384506 0.2832184 0.032943778 0.03557743 0.031967733 -0.23991737
-0.21867849 -0.082978405 -0.02122388 0.27113557 0.02240124 0.013203425 -0.051791247 0.014529638
0.08249466 -0.08629647 0.48157364 0.17490724 -0.2528583 0.5738547 0.72021043 -0.14323087
-0.052245308 -0.070193104 -0.5460337 0.033499107 -0.2261495 -0.21716993 -0.007237122 0.30153507
00000000: 572c b63d 1809 80be 9db8 44be 7fc8 313e
00000010: b6a3 2d3f 49e7 9d3e 2de5 583f 63f6 52be
00000020: d35a 363c 09d0 d7bc 32b6 afbe bc40 853e
00000030: dc8c 14bf 3c17 5fbf cba5 9ebc 5fce 65be
00000040: 426f 7a3f 940e 053e b346 983e a3de 94be
00000050: 7446 b63e 6636 de3e 4922 d4bd 9bda 8d3d
00000060: dc0f 0a3f e51b e63e 2a99 84be 396f 31be
00000070: 96f6 0abe 8647 853b 59fa 04bf 7554 5d3e
00000080: 745e 013e b53b 2abf 76d4 843e 2a7c 51bd
00000090: 8daa ee3e cd96 3d3e a46d cbbe 526e db3d
000000a0: e78e 073e 57bb 01bf 3135 ce3d 7f73 7bbe
000000b0: 8f32 e6be 97e9 edbe bc26 d33d a2ea 0c3f
000000c0: 461c 08bd cb32 273e 496e f5bd a8cc 983e
000000d0: ebe7 f83e 4d28 c83f 2233 a4be 384b 0f3f
000000e0: bb11 6bbe ba18 dd3d 8e7b 7abb c899 68bd
000000f0: d98a 963e 0902 c3be 4ebe e7bd 2a06 023e
00000100: 7372 933d a5a4 abbe d27c 7d3f b03f 583e
00000110: c0ed 1f3e 0267 c73e a756 0bbf 0b56 79bd
00000120: 36ca 08be 8c70 da3e 62d8 f4be fc60 d5be
00000130: 31f3 723e feb7 dfbe 53e0 ff3d 1683 80be
00000140: 4df8 e6be 3fcd 833e be86 07bf cf14 cf3e
00000150: 0607 01bf 77f1 8abc d564 e93d 6490 8cbe
00000160: 1b0c 073f e54a 9dbd 3651 97be 75b9 703e
00000170: cc8b a33e 01fb bfbe 107f d83d 054f 2a3f
00000180: 34c7 243d fc66 24bf 9d81 e0be 7883 aa3d
00000190: f9ba 86bc 3edd a3be d63c ff3e bc92 4abe
000001a0: aaa7 04bf 8709 38bf 0277 8b3e 9695 a8be
000001b0: 5bf5 293e a58d 1bbf d7d1 173f 916d 1f3f
000001c0: e3bc 89bd 0805 4bbf fbbf edbe c40b dc3d
000001d0: 94c8 52be dd35 8fbe a170 c3bd 1820 623d
000001e0: e2c4 66be dfbc afbf 4031 153f eae5 0dbf
000001f0: d8ae a23e ddf7 3b3e aa88 fd3e 4ddf 5abb
00000200: c258 87be 674d 67bd b3d6 cfbe a863 863e
00000210: 44b3 233e 5845 53bd 7859 90bf b41e a9be
00000220: 5b24 e9bf bf62 573e 0c6f 62bd a384 193d
00000230: f2ce 58bf 29b3 803d 8525 11bd d999 183f
00000240: 9dde e3be a072 82be 568c 8fbf 1c48 73be
00000250: c8c5 9e3e f9d2 733e b1ea 36bf 590a 31bf
00000260: c1dd 15bf bf41 79bf c0ea 00bf a748 1abf
00000270: d0b0 943e 3464 60bd bff8 b23d b010 84bd
00000280: fe23 4bbf eff5 34be 246d d2be 5fb8 9bbe
00000290: e0c8 803c f868 a13c efdd e63e ee43 c0bf
000002a0: 0c61 90b9 d137 99bc 896e c4be 536e 713e
000002b0: b978 d3be 69ea f7be 9fe9 d33e ddc8 a13d
000002c0: 4f9e 13bf acbf 09bf 1f4a b1bd 8d0a 38bd
000002d0: ec03 393e 7b33 413e 95ab 0fbd 2e08 1c3e
000002e0: 92c2 7d3e 7b0b b6be 1235 d2be 6d7a 67be
000002f0: 4afc cc3e 64ae 9a3e ebc8 6dbf 74b8 62bd
00000300: cc55 70bf d209 4bbe 778f fabe 7c9a 6ebe
00000310: 698f 03bf 6a8c d6bd 7bf7 91be e571 243c
00000320: 524c c3bd 16a0 2fbf dd59 d5be 1518 e0be
00000330: 10cd f0be 0add bf3e 0bbc 353f 62b8 b63e
00000340: db1a 9f3d b0e8 c93d bf0f d7be cafd 8cbf
00000350: 8651 db3e d9d7 06bf 9a96 a4be 9c90 ff3e
00000360: b98c bdbf 829b 0cbe fb10 bebe cc37 a7bc
00000370: 068b 873e e20f 8bbe 848a 093e ef05 d33d
00000380: 9bb6 83be 6007 5ebf aea2 cf3d 0102 913e
00000390: 0ef0 063d a4b9 113d 99f0 023d e6ac 75be
000003a0: 41ed 5fbe 95f0 a9bd b4dd adbc 48d2 8a3e
000003b0: ce82 b73c 2e53 583c 0f23 54bd b80d 6e3c
000003c0: f6f2 a83d 34bc b0bd d290 f63e e21a 333e
000003d0: a576 81be 24e8 123f b65f 383f 1dab 12be
000003e0: 2dff 55bd 67c1 8fbd ddc8 0bbf 5c36 093d
000003f0: bc93 67be cb61 5ebe 6125 edbb ce62 9a3e

fc1.bias f4 [256]
-0.1910517 -0.45521513 0.44064286 -0.1195978 0.050390627 0.05845569 0.035120834 0.08219714
0.5251793 0.21656756 0.24435897 -0.096588604 0.35028756 -0.0890344 0.07032045 0.015191265
-0.72145426 0.37435353 0.27999514 -0.17007865 0.016402712 -0.50347185 -0.4117719 0.7284999
-0.6282091 0.90376675 0.6278982 0.23369575 0.33850098 -0.0063235317 0.07643483 -0.08664381
0.25015134 -0.50893277 0.5354239 -0.047206007 -0.107987046 -0.2922233 -0.31570023 -0.8432396
0.07053567 0.14932221 0.24735484 0.3223375 -0.0011739034 0.23887415 0.2145526 0.09747206
0.20955472 -0.19329046 0.54830205 -0.22896512 0.42384237 -0.27411503 0.29435223 -0.08018842
0.092921115 -0.37302113 0.21048523 0.14450373 -0.5360557 -0.55546886 0.3497774 -0.34985772
0.13346729 0.31116962 0.8325185 0.57118785 -0.31239054 -0.09616444 -0.6392976 0.6014908
-0.25318375 0.8034577 -0.41587058 -0.11472063 0.8503652 -0.27907795 0.15072015 -0.16554917
0.62074524 0.5397855 -0.54119927 0.502683 -0.40926328 -0.19804955 -0.10937653 0.7352691
-0.7117007 0.17147097 0.43196058 -0.1508948 0.5863914 -0.5709499 -0.32648215 -0.20078336
-0.13656776 -0.91788274 0.037166916 -0.042223852 -0.039566856 0.7580297 0.09405281 0.039603394
0.54142267 0.375877 -0.7378981 -0.70956236 0.44569814 -0.562791 0.3686607 -0.5147789
0.49481273 0.004236705 0.2745011 -0.7944589 -0.070405796 0.93831724 0.33618715 0.3329459
-0.48763102 -0.05239727 0.4650514 0.15622833 -0.34711447 0.15204692 0.00091627496 -0.030826725
-0.297373 0.20934834 -0.45732358 -0.594592 0.60090727 0.5270005 0.50037783 -0.6026377
-0.12975535 -0.21113539 1.0958254 0.5623437 -0.6579896 0.45246142 0.60858744 0.5488734
0.77930397 0.6089847 0.33463013 0.5548892 -0.16387421 0.19745328 0.6964971 -0.87870735
0.81648564 0.5897763 0.47489908 1.0570974 -0.29825333 0.58823305 -0.048689425 0.32367393
0.2752346 0.17640407 0.7655088 0.7731445 0.14823559 0.6817379 0.4931078 0.32614797
0.54424244 0.14339738 0.6279424 0.15007149 -0.35831517 0.100484855 -0.37192848 0.9585079
-0.08496432 0.49879637 -0.09448954 -0.012220135 0.14608942 0.52312946 -0.10562285 -0.021160807
0.9653833 -0.0736447 0.24938336 -0.7725632 -0.4108137 -0.41138637 -0.12936577 0.35972142
0.968921 -0.2647618 0.10018117 0.035959683 -0.2894334 0.03461182 0.3422566 -0.3307001
0.25015816 0.88676596 -0.49590135 0.85400105 0.7525023 0.64415294 0.97491705 -0.29025704
-0.5139494 0.0070822514 0.058408417 0.36936808 -0.7511644 -0.6816799 0.33446684 -0.6166497
-0.29899633 -0.30211264 0.67743015 -0.8432797 0.23480949 -0.6455599 0.92985076 -0.5335711
-0.06207095 -0.07315406 0.30088276 0.50277853 -0.30018198 0.17265397 0.08775001 0.53524214
-0.08623041 0.004985146 0.0773114 -0.11781404 0.89062655 0.4556902 0.6864295 -0.20451576
0.27016783 0.027956383 -0.4765806 0.34928662 -0.7632735 0.020758463 0.5069921 -0.700621
-0.7145765 0.058130722 -0.6940343 -0.12811373 -0.627264 1.040874 0.77155054 0.48429886
00000000: 0fa3 43be f511 e9be f19b e13e b1ef f4bd
00000010: 6766 4e3d 3c6f 6f3d ddda 0f3d f956 a83d
00000020: 2772 063f e3c3 5d3e 3d39 7a3e 3fd0 c5bd
00000030: e458 b33e ab57 b6bd 2b04 903d c9e4 783c
00000040: 3ab1 38bf 44ab bf3e 865b 8f3e 1929 2ebe
00000050: fb5e 863c 88e3 00bf c4d3 d2be f87e 3a3f
00000060: 50d2 20bf 425d 673f f0bd 203f f04d 6f3e
00000070: 0050 ad3e a135 cfbb dd89 9c3d 4f72 b1bd
00000080: d613 803e 6b49 02bf 8a11 093f 165b 41bd
00000090: 5028 ddbd 4b9e 95be 76a3 a1be 8dde 57bf
000000a0: 0175 903d ece7 183e 964a 7d3e 6c09 a53e
000000b0: a9dd 99ba 6d9b 743e adb3 5b3e 6e9f c73d
000000c0: 8395 563e efed 45be 865d 0c3f d575 6abe
000000d0: de01 d93e ce58 8cbe 56b5 963e d439 a4bd
000000e0: 6d4d be3d a0fc bebe 7189 573e c9f8 133e
000000f0: f23a 09bf 3533 0ebf 0616 b33e 8d20 b3be
00000100: a6ab 083e a051 9f3e ef1f 553f 5e39 123f
00000110: a7f1 9fbe ddf1 c4bd 02a9 23bf 4dfb 193f
00000120: 4da1 81be 67af 4d3f fdec d4be a6f2 eabd
00000130: 89b1 593f 4ee3 8ebe 6256 1a3e b985 29be
00000140: 29e9 1e3f 622f 0a3f 098c 0abf d5af 003f
00000150: f58a d1be 80cd 4abe cd00 e0bd 993a 3c3f
00000160: 0432 36bf 1696 2f3e f029 dd3e 2b84 1abe
00000170: bf1d 163f c629 12bf ab28 a7be 279a 4dbe
00000180: 6bd8 0bbe 5dfa 6abf 563c 183d ebf2 2cbd
00000190: db10 22bd 3c0e 423f c29e c03d 2b37 223d
000001a0: ad9a 0a3f f372 c03e e4e6 3cbf e1a5 35bf
000001b0: 8c32 e43e 1213 10bf 18c1 bc3e 8dc8 03bf
000001c0: 1858 fd3e 0fd4 8a3b 688b 8c3e a961 4bbf
000001d0: ea30 90bd 8f35 703f b920 ac3e e377 aa3e
000001e0: c6aa f9be 859e 56bd 381b ee3e 52fa 1f3e
000001f0: fdb8 b1be 30b2 1b3e 2c32 703a 5488 fcbc
00000200: 4641 98be 695f 563e 5126 eabe 2e37 18bf
00000210: 0fd5 193f 81e9 063f c318 003f 7746 1abf
00000220: 96de 04be e033 58be 0244 8c3f c2f5 0f3f
00000230: 0272 28bf 06a9 e73e 63cc 1b3f f882 0c3f
00000240: 7780 473f 6ce6 1b3f a454 ab3e 380d 0e3f
00000250: a4ce 27be 3131 4a3e a24d 323f f7f2 60bf
00000260: 3405 513f 94fb 163f f925 f33e f84e 873f
00000270: a9b4 98be 7196 163f 906e 47bd 97b8 a53e
00000280: 8deb 8c3e 45a3 343e 62f8 433f ccec 453f
00000290: 12cb 173e 6086 2e3f a078 fc3e defc a63e
000002a0: 7953 0b3f c3d6 123e d5c0 203f 57ac 193e
000002b0: 1675 b7be 01cb cd3d 696d bebe c660 753f
000002c0: c601 aebd 3d62 ff3e bb83 c1bd f636 48bc
000002d0: 7798 153e d0eb 053f cb50 d8bd 6e59 adbc
000002e0: 5c23 773f 08d3 96bd 5a5e 7f3e b4c6 45bf
000002f0: 2c56 d2be 3ca1 d2be 7678 04be 682d b83e
00000300: 350b 783f dc8e 87be c92b cd3d 764a 133d
00000310: 9d30 94be 20c5 0d3d 423c af3e 8651 a9be
00000320: bb14 803e 1803 633f c8e6 fdbe d09f 5a3f
00000330: fea3 403f 35e7 243f 2a94 793f 929c 94be
00000340: 3092 03bf 3b12 e83b aa3d 6f3d d01d bd3e
00000350: 4f4c 40bf 9382 2ebf 3d3f ab3e c1dc 1dbf
00000360: 0c16 99be 82ae 9abe 106c 2d3f 2ee1 57bf
00000370: e671 703e 6a43 25bf b30a 6e3f 1e98 08bf
00000380: 1c3e 7ebd ccd1 95bd 4e0d 9a3e 18b6 003f
00000390: 74b1 99be 34cc 303e 47b6 b33d a105 093f
000003a0: 9299 b0bd 705a a33b 7055 9e3d 7d48 f1bd
000003b0: 1a00 643f 3a50 e93e d8b9 2f3f 946c 51be
000003c0: 7053 8a3e c904 e53c 5f02 f4be b2d5 b23e
000003d0: e465 43bf a70d aa3c 3cca 013f e65b 33bf
000003e0: 7cee 36bf 7b1a 6e3d 3bac 31bf 3f30 03be
000003f0: 6094 20bf 5c3b 853f 5684 453f 05f6 f73e

fc2.weight f4 [256, 256]
0.43754154 0.06533372 0.29375717 0.32117712 0.26160803 -0.29475617 0.04092616 0.5556448
0.5194458 0.02792879 0.27794686 0.27270684 0.3875552 0.025626805 0.5453927 0.13429078
1.0922853 0.2672707 0.13334781 0.492384 0.089239925 -0.94372827 0.3307515 0.08848743
0.42293105 0.23450682 -0.04670643 -0.09836456 0.28116253 0.65390754 0.08923284 0.3861007
0.31238016 0.5552123 0.46966323 0.51713806 0.14433472 -0.03061215 0.6718778 0.85424334
0.025730163 0.33299813 0.4018102 0.22233267 0.37225014 -0.06381414 0.0514691 0.4904458
-0.20295101 0.4239816 0.23979512 0.28288433 0.18783468 0.61905545 0.08937054 0.012901461
-0.22214186 0.2600109 0.1776984 0.2975747 0.43750447 0.43599495 0.19520415 -0.47879076
0.3581618 0.35572225 0.10954821 -0.10823115 0.5484701 0.20550318 0.454857 0.20851842
-0.12555669 0.0156988 0.72024727 0.24950668 0.21401952 0.26621714 0.64337933 0.35678545
0.21993141 0.52439475 0.3665575 0.3671897 0.25074902 0.285318 0.11644202 0.67081064
0.4192536 0.53298813 -0.2289305 0.1582716 0.07658367 0.34543124 -0.96692264 0.6642144
-0.23473638 0.64469063 0.33891487 0.28544888 0.044796485 0.16945204 0.5723777 0.30708024
0.4199324 0.19826211 0.4808634 1.2057011 0.14147155 1.4232409 0.13869251 0.5925145
0.4752869 0.5405847 -0.028070716 1.6145122 -0.34023112 0.14805017 0.11212118 -0.060922693
0.29954052 -0.395824 0.21283533 0.52846867 0.38860196 0.21580812 0.1560417 -0.15543966
0.5482165 -0.07942349 0.3569457 0.6278407 0.45479193 0.13164988 0.49024218 0.49973035
0.40368092 0.46963894 0.32561085 0.2227603 0.7934928 0.4172636 0.283623 0.10491254
0.23449773 0.18223481 0.13586003 0.6139882 0.7676024 0.35669962 0.16094682 1.282242
0.24572115 0.34443703 0.33840147 0.12138073 0.49006444 -0.0714849 -0.061539844 0.38979176
0.2912707 0.30327213 0.1308664 0.1919038 -0.08713936 0.4033749 -0.08924605 -0.11862736
0.5838213 0.23064658 0.45132318 0.40023607 0.59484214 0.14665154 0.4101004 0.30260772
-0.49562925 0.34773222 0.6209235 0.37386632 0.4076431 -0.0043599345 1.3648335 0.2927253
0.27663702 -0.09754469 0.22320451 -0.81393254 0.5729851 0.30209062 0.19965503 0.17935328
0.22761631 0.7632432 0.5001188 -0.047511898 0.5080799 -0.35480914 0.59325874 1.2272539
0.024453985 0.20880952 0.59691364 0.2761989 -0.22600845 0.46306527 0.24719077 0.3463939
0.97132564 0.18224804 0.6134666 -0.27356923 0.92371994 0.37611467 0.36130673 0.79166967
0.3502229 -0.23947425 0.008902873 0.83931 0.35955173 0.452765 0.16309321 0.28046277
0.25361326 -0.12138565 0.36000204 0.069438644 0.17873469 0.41900262 0.11203558 0.1713303
0.1771158 0.38102552 0.28488275 0.1937354 0.27081385 0.09520438 -0.10068688 0.5440098
0.19834043 -0.04295192 0.47677994 0.1985727 0.7410213 -0.27150565 0.03967212 0.69649583
0.5389293 0.23131934 0.017064326 0.17886716 0.69195074 0.2542611 0.27134562 0.05511774
00000000: 7205 e03e afcd 853d 5767 963e 5471 a43e
00000010: 7df1 853e 48ea 96be 30a2 273d bd3e 0e3f
00000020: 66fa 043f ebca e43c 0d4f 8e3e 3ba0 8b3e
00000030: a36d c63e 4eef d13c db9e 0b3f 8683 093e
00000040: 01d0 8b3f b5d7 883e 548c 083e c119 fc3e
00000050: 6cc3 b63d 2d98 71bf 4358 a93e e638 b53d
00000060: 6b8a d83e 8e22 703e 3e4f 3fbd 5c73 c9bd
00000070: 89f4 8f3e 7c66 273f b5bf b63d feae c53e
00000080: 4bf0 9f3e 6522 0e3f b377 f03e 2963 043f
00000090: 7bcc 133e 55c6 fabc 2f00 2c3f b1af 5a3f
000000a0: 10c8 d23c bb7e aa3e 11ba cd3e 2dab 633e
000000b0: 9297 be3e fdb0 82bd 43d1 523d b61b fb3e
000000c0: 64d2 4fbe 1e14 d93e da8c 753e 37d6 903e
000000d0: bc57 403e 6b7a 1e3f e707 b73d a660 533c
000000e0: 2879 63be 2620 853e 92f6 353e b65b 983e
000000f0: 9600 e03e bb3a df3e 99e3 473e 1024 f5be
00000100: fc60 b73e 3a21 b63e d05a e03d 4ba8 ddbd
00000110: 8968 0c3f 6d6f 523e 04e3 e83e da85 553e
00000120: ef91 00be c59a 803c 2062 383f ae7e 7f3e
00000130: ef27 5b3e 9d4d 883e 82b4 243f 95ac b63e
00000140: b335 613e bc3e 063f 6dad bb3e 4a00 bc3e
00000150: 2d62 803e 3315 923e 2779 ee3d 3fba 2b3f
00000160: 68a8 d63e e971 083f c26c 6abe f311 223e
00000170: e6d7 9c3d 5ddc b03e 3e88 77bf f409 2a3f
00000180: bc5e 70be 720a 253f 4086 ad3e 5b26 923e
00000190: 857c 373d d684 2d3e 5887 123f 9f39 9d3e
000001a0: 6101 d73e 3905 4b3e ba33 f63e 6a54 9a3f
000001b0: ebdd 103e c22c b63f 6905 0e3e 08af 173f
000001c0: ce58 f33e c263 0a3f 8ff4 e5bc 56a8 ce3f
000001d0: c632 aebe 779a 173e ca9f e53d 138a 79bd
000001e0: 605d 993e 71a9 cabe 81f1 593e b949 073f
000001f0: d6f6 c63e cefc 5c3e 65c9 1f3e 932b 1fbe
00000200: eb57 0c3f c8a8 a2bd 96c1 b63e 2bba 203f
00000210: 7dda e83e 3acf 063e 0601 fb3e a8dc ff3e
00000220: 44af ce3e 8474 f03e 77b6 a63e 471b 643e
00000230: 5822 4b3f 93a3 d53e 0937 913e 63dc d63d
00000240: 2c20 703e c39b 3a3e e41e 0b3e 552e 1d3f
00000250: 9781 443f 55a1 b63e 3ecf 243e 8120 a43f
00000260: 539e 7b3e 0d5a b03e f542 ad3e 7696 f83d
00000270: bae9 fa3e ad66 92bd 3411 7cbd c992 c73e
00000280: 6f21 953e 7c46 9b3e d701 063e 6e82 443e
00000290: 1f76 b2bd 2887 ce3e a2c6 b6bd e7f2 f2bd
000002a0: 5075 153f 9e2e 6c3e d513 e73e beeb cc3e
000002b0: 9347 183f d22b 163e aef8 d13e 66ef 9a3e
000002c0: 1ec3 fdbe f509 b23e d8f4 1e3f 686b bf3e
000002d0: 99b6 d03e c8dd 8ebb ddb2 ae3f 17e0 953e
000002e0: 5ea3 8d3e 83c5 c7bd b98f 643e e25d 50bf
000002f0: 27af 123f 9fab 9a3e 5e72 4c3e 63a8 373e
00000300: 4014 693e e863 433f c907 003f d69b 42bd
00000310: 8611 023f 8ba9 b5be cedf 173f a816 9d3f
00000320: b953 c83c 2ad2 553e 55cf 183f f169 8d3e
00000330: c26e 67be e416 ed3e 941f 7d3e 8b5a b13e
00000340: cca8 783f 3b9f 3a3e 260c 1d3f 4411 8cbe
00000350: e978 6c3f 1a92 c03e 32fd b83e ddaa 4a3f
00000360: 6a50 b33e bd38 75be 5bdd 113c 05dd 563f
00000370: 2a17 b83e d0d0 e73e e801 273e d198 8f3e
00000380: 99d9 813e 0a99 f8bd 3052 b83e d935 8e3d
00000390: 3a06 373e 8387 d63e e972 e53d 3671 2f3e
000003a0: d85d 353e c715 c33e 27dc 913e 9362 463e
000003b0: 1da8 8a3e 84fa c23d ec34 cebd 3a44 0b3f
000003c0: c119 4b3e 5aee 2fbd 801c f43e a456 4b3e
000003d0: 92b3 3d3f ca02 8bbe 3c7f 223d 8d4d 323f
000003e0: 45f7 093f fade 6c3e 7cca 8b3c f428 373e
000003f0: af23 313f 832e 823e d0ed 8a3e 24c3 613d

fc2.bias f4 [256]
0.2314163 0.26742476 0.13845898 -0.059144698 -0.15494113 0.41161716 0.36146766 0.16548283
0.53844476 0.2564241 0.19312155 0.16370596 0.26807842 0.07967029 0.37760597 0.008846283
-0.3076 0.3971141 -0.21615066 0.27989614 0.016408522 -0.023019267 -0.012023383 0.55502087
0.16788784 -0.30802855 0.14825407 0.21173784 0.3004114 0.22341016 -0.119780906 0.22366488
0.28639984 0.2014651 0.1576846 -0.052878503 -0.12777458 0.39213887 -0.015506468 0.1703219
-0.4496787 0.2980178 0.16675349 -0.09189617 0.1978007 -0.40964848 0.18540506 0.26462883
-0.06283926 0.21920964 -0.02036182 0.25581485 -0.18401563 -0.0073680845 0.1921052 0.29784697
0.062361706 0.2308398 -0.35822427 -0.06117768 0.13194694 -0.68609166 0.24064109 0.102546975
0.23922879 0.41454124 0.30104044 0.22065851 0.25352323 0.25034213 0.2378941 -0.046780962
0.2859687 0.42899817 0.049255177 -0.019583244 -0.44716358 0.27361968 0.35287338 0.38760754
0.14210767 -0.43038955 0.22843635 -0.061146908 0.45248923 0.2376516 0.35224518 0.21115483
-0.5507609 0.27480423 0.29666406 0.19848044 0.19853638 0.2472036 0.06873269 0.23054494
0.26766604 -0.20345265 0.41122845 0.2724558 0.2456836 0.22608493 0.42565897 0.4564988
0.3382538 0.24616952 0.13973932 0.01894502 0.46816185 0.28919318 0.30646816 0.28458926
0.24613751 0.23602773 0.281478 0.1663651 -0.40408465 0.19918041 -0.3184003 0.4196068
0.18881018 0.22569236 -0.0796516 0.27175608 0.27519774 0.291017 0.23750067 0.25046927
-0.06170329 0.15022925 0.24416597 0.48405573 -0.3003976 0.4186266 -0.056825496 -0.6322238
0.15286663 -0.29121214 0.16042471 0.21312255 0.24563143 0.3045427 0.3070492 0.24409835
0.21839775 0.29935324 0.15836874 0.1922299 0.32285395 0.14376007 0.2984565 0.33522308
-0.2995629 0.24523228 -0.4044992 0.1400812 0.16355473 0.15995286 -0.41857186 -0.008639735
0.26440084 0.18832605 0.3869187 -0.074373394 0.2406455 0.23831509 0.23027854 0.4852939
0.6026304 0.2946295 -0.06942816 -0.0027467015 0.44788334 0.041654773 0.28769082 0.050784867
-0.04924632 0.202442 0.28749597 -0.3734545 0.2903675 -0.12386972 -0.031046825 0.029984849
0.16193633 0.29137078 0.25137985 0.22241116 -0.04655834 -0.24450876 0.14916462 -0.44128457
-0.0025400028 0.045422375 0.31830928 0.18600318 0.11595465 0.333486 -0.0043495744 0.29795232
0.4561306 0.09244005 0.29778767 -0.046622295 -0.20258619 0.13314237 0.43809128 0.15470658
0.25265625 0.16040234 0.013036706 0.034691934 0.29297632 0.23940267 0.23418002 0.25353345
0.23589158 -0.6919105 0.32953587 0.2104563 0.2573327 0.431399 0.19361661 0.21100324
0.28986582 0.29815146 0.30045277 0.4108178 -0.3980287 -0.10408919 0.012268457 0.018304754
0.24115767 -0.038467195 0.30427474 0.22115505 -0.3094533 0.5536024 0.2867154 0.15458405
-0.35314557 0.0051043886 -0.20552728 0.22814341 0.21523151 0.26895216 0.04397235 0.28006354
-0.04008183 -0.06741833 0.2898017 0.49345484 0.17362726 -0.015889244 -0.19514778 0.40326267
00000000: 65f8 6c3e e6eb 883e 31c8 0d3e b641 72bd
00000010: e3a8 1ebe 7cbf d23e 4a12 b93e 5574 293e
00000020: 84d7 093f 054a 833e a8c1 453e 89a2 273e
00000030: 9341 893e 2d2a a33d 9255 c13e 00f0 103c
00000040: bf7d 9dbe 8a52 cb3e 9956 5dbe 8c4e 8f3e
00000050: 2a6b 863c e792 bcbc b9fd 44bc d915 0e3f
00000060: caea 2b3e ebb5 9dbe eacf 173e ced1 583e
00000070: 86cf 993e a2c5 643e b14f f5bd 6808 653e
00000080: 00a3 923e de4c 4e3e 1278 213e 2197 58bd
00000090: 57d7 02be 6dc6 c83e d70e 7ebc dd68 2e3e
000000a0: 493c e6be ca95 983e 6dc1 2a3e 0f34 bcbd
000000b0: 448c 4a3e 72bd d1be d3da 3d3e 6e7d 873e
000000c0: dfb1 80bd 7e78 603e d5cd a6bc 2afa 823e
000000d0: 986e 3cbe f96f f1bb 3ab7 443e 667f 983e
000000e0: fd6e 7f3d 4561 6c3e 2c69 b7be 7295 7abd
000000f0: 191d 073e b4a3 2fbf 9e6a 763e 2604 d23d
00000100: 64f8 743e c03e d43e f921 9a3e 4ef4 613e
00000110: cccd 813e d82c 803e 839a 733e 659d 3fbd
00000120: 7d6a 923e a6a5 db3e ccbf 493d 0a6d a0bc
00000130: a0f2 e4be e117 8c3e d2ab b43e 7f74 c63e
00000140: ac84 113e 055c dcbe 38eb 693e 2e75 7abd
00000150: abac e73e f15a 733e 7b59 b43e f938 583e
00000160: abfe 0cbf 24b3 8c3e 5ae4 973e 753e 4b3e
00000170: 1f4d 4b3e f122 7d3e b9c3 8c3d f913 6c3e
00000180: 860b 893e e455 50be 898c d23e 547f 8b3e
00000190: 7b94 7b3e cf82 673e f9ef d93e 36ba e93e
000001a0: 9a2f ad3e dd13 7c3e d317 0f3e 9632 9b3c
000001b0: e9b2 ef3e 2111 943e 65e9 9c3e afb5 913e
000001c0: 790b 7c3e 41b1 713e e21d 903e 9d5b 2a3e
000001d0: 2fe4 cebe f3f5 4b3e 5d05 a3be b4d6 d63e
000001e0: 7557 413e e61b 673e 6120 a3bd 9d23 8b3e
000001f0: b8e6 8c3e 2e00 953e 6033 733e 823d 803e
00000200: 97bc 7cbd b2d5 193e a506 7a3e 27d6 f73e
00000210: b7cd 99be 3a56 d63e dac1 68bd 6bd9 21bf
00000220: 1289 1c3e c219 95be 6046 243e cc3c 5a3e
00000230: ce86 7b3e 05ed 9b3e 8e35 9d3e ebf4 793e
00000240: a9a3 5f3e d444 993e 6a2b 223e ead7 443e
00000250: 1d4d a53e d735 133e 4acf 983e 5ca2 ab3e
00000260: 4f60 99be 2c1e 7b3e 851a cfbe 7271 0f3e
00000270: e47a 273e afca 233e 0d4f d6be ad8d 0dbc
00000280: 8c5f 873e 8bd8 403e 351a c63e 1451 98bd
00000290: c66b 763e df08 743e 23ce 6b3e 7178 f83e
000002a0: fc45 1a3f aed9 963e 5a30 8ebd 0102 34bb
000002b0: f750 e53e 329e 2a3d 364c 933e cb03 503d
000002c0: 82b6 49bd f54c 4f3e ac32 933e 6e35 bfbe
000002d0: 0dab 943e 68af fdbd e955 febc c9a2 f53c
000002e0: a3d2 253e 8d2e 953e dcb4 803e c0bf 633e
000002f0: f5b3 3ebd 8160 7abe 9cbe 183e 0df0 e1be
00000300: 2d76 26bb d00c 3a3d 6ff9 a23e 9e77 3e3e
00000310: a279 ed3d adbe aa3e e086 8ebb 358d 983e
00000320: f389 e93e 3551 bd3d a077 983e 05f7 3ebd
00000330: c172 4fbe 7956 083e 804d e03e 676b 1e3e
00000340: 295c 813e 8340 243e e897 553c 2119 0e3d
00000350: fe00 963e f925 753e e3cc 6f3e 23cf 813e
00000360: 908d 713e 0c21 31bf edb8 a83e db81 573e
00000370: 1dc1 833e 54e0 dc3e 6f43 463e 3c11 583e
00000380: 4b69 943e 4fa7 983e f2d4 993e b656 d23e
00000390: 6bca cbbe b72c d5bd a301 493c daf3 953c
000003a0: 09f2 763e c78f 1dbd e6c9 9b3e 7876 623e
000003b0: aa70 9ebe e3b8 0d3f 5ccc 923e 484b 1e3e
000003c0: 7fcf b4be b742 a73b be75 52be 6d9e 693e
000003d0: a665 5c3e 19b4 893e 5a1c 343d 7d64 8f3e
000003e0: d82c 24bd 9f12 8abd e360 943e 1da6 fc3e
000003f0: 58cb 313e 292a 82bc d2d4 47be 7278 ce3e

q.weight f4 [1, 256]
-0.5296115 -0.50883186 -0.568753 0.04811516 3.9135303 1.3754903 1.5448009 -0.556556
1.4180146 -0.48310792 -0.5260898 -0.5741636 1.2863977 1.5397536 1.3911316 0.029189032
-1.2764813 1.6344967 2.6098714 -0.51485693 0.0072746375 0.03634281 0.0046879426 1.5309757
1.7914795 -1.8739988 -0.6098975 -0.5046092 -0.4955905 -0.52834463 2.41203 -0.46801257
-0.52927446 -1.0174557 -0.57770634 0.023739647 -1.3138626 1.0282518 -0.05034796 -0.5503453
-1.4339585 0.9339624 -0.5779704 1.7996168 -0.46700627 -1.4336944 -0.507348 0.9715339
0.041434146 -0.48320028 -0.023230841 -0.524315 -1.5881288 1.2694583 -0.5701254 -0.4501117
1.0646211 -0.5021676 -1.4552882 0.0035771646 -0.5673988 -1.9705184 -0.48900434 2.1495194
-0.5206394 1.5370523 -0.50470865 -0.48634863 -0.52783173 0.8469744 1.5208608 0.009556684
1.0565757 1.4722425 0.027284699 -0.0010056687 -1.3904896 -0.48418108 1.3238924 1.0197202
-0.5853596 1.7028117 -0.47255203 -0.042712253 1.5070404 -0.45938656 0.9252396 -0.51313746
-1.5770046 -0.48871884 -0.46377924 -0.5320099 -0.4864936 1.025807 1.7312464 -0.46250668
-0.45970148 -0.80945027 1.3309186 -0.4940857 -0.50893444 -0.56243837 1.3092237 0.96226734
1.3169335 -0.5053449 -0.5827246 -0.0039877784 1.393672 1.6601658 -0.46806833 -0.5281586
0.88261455 -0.50844985 -0.50450826 -0.56939197 -1.3584412 -0.4954585 -1.4183197 1.3511006
-0.5190188 -0.4971383 0.023952587 -0.5193231 1.0695144 1.3103083 -0.5596081 -0.5025037
-0.0028177223 -0.4656098 -0.52362746 1.3446966 -1.4105185 1.3775657 0.024981322 -1.7203586
-0.47379372 -1.5841899 0.95536476 1.1522862 1.351069 0.9120971 1.3313806 -0.49033317
-0.49888283 1.0564278 -0.6095451 -0.45896593 1.6023524 -0.5993929 1.3329829 1.3959285
-1.5108645 -0.46674237 -1.462364 -0.56247723 -0.45609924 0.94799757 -1.3653446 -0.0253784
0.89753544 -0.46180388 1.5706389 -0.013450292 -0.505062 -0.4766729 -0.45685324 1.4905012
1.3872626 -0.5141083 0.025137462 4.805734 2.538119 2.3638613 1.5849563 1.2119645
-0.7325202 -0.47693947 -0.5152621 -1.3922983 1.4336401 -0.8747847 0.03974861 -0.026305657
1.9878101 -0.46272376 0.87737674 -0.47932488 -0.0035521286 2.6963835 -0.46823815 -1.5141611
0.036578767 0.018734852 0.8974992 -0.6215268 0.9964534 1.3385373 0.052085645 -0.4664242
1.0019361 1.1289306 -0.50051653 0.032674607 -1.6202565 2.6446335 1.3819388 -0.512357
1.0049804 -0.5476999 0.00097502436 -0.73327833 1.0211729 -0.48837572 -0.50736886 -0.52646774
-0.5221828 -1.6277674 1.1887347 -0.48278922 -0.49331865 0.8876465 -0.44610044 1.0614489
-0.45611194 -0.49675614 0.9601177 0.91528356 -1.1424438 2.310465 -0.012732799 0.030684287
-0.5346856 0.021875724 -0.5007059 -0.5262528 -1.4821253 1.6293908 -0.5051564 2.6000614
-1.5287036 2.439567 3.989295 -0.47957283 -0.5177954 -0.49061507 1.1804192 1.37431
0.00720352 -0.027907211 -0.5385841 1.4632964 0.92916775 1.2576469 2.5405335 1.0360794
00000000: 9f94 07bf ce42 02bf cc99 11bf 6714 453d
00000010: 4877 7a40 1110 b03f 09bc c53f 747a 0ebf
00000020: 8181 b53f ec59 f7be d2ad 06bf 63fc 12bf
00000030: aea8 a43f a516 c53f 9a10 b23f d61d ef3c
00000040: bd63 a3bf 3037 d13f 2208 2740 aacd 03bf
00000050: 1560 ee3b 33dc 143d 509d 993b 03f7 c33f
00000060: 334f e53f 31df efbf 3e22 1cbf 122e 01bf
00000070: 0abe fdbe 9841 07bf b35e 1a40 589f efbe
00000080: 887e 07bf fd3b 82bf 90e4 13bf a679 c23c
00000090: a62c a8bf c19d 833f aa39 4ebd 6ee3 0cbf
000000a0: f48b b7bf 2918 6f3f def5 13bf d859 e63f
000000b0: 721b efbe 4c83 b7bf 8fe1 01bf 72b6 783f
000000c0: dab6 293d 0766 f7be 9b4e bebc 8239 06bf
000000d0: ce47 cbbf 9c7d a23f bdf3 11bf 0a75 e6be
000000e0: 8145 883f 0e8e 00bf e246 babf dd6e 6a3b
000000f0: 0c41 11bf f239 fcbf c75e fabe ba91 0940
00000100: a048 05bf 21be c43f 9634 01bf b002 f9be
00000110: fb1f 07bf 50d3 583f 91ab c23f a393 1c3c
00000120: df3d 873f 7172 bc3f 2984 df3c a4d0 83ba
00000130: 90fb b1bf 95e6 f7be 4e75 a93f 3186 823f
00000140: 20da 15bf bcf5 d93f 57f2 f1be 0bf3 2ebd
00000150: b3e6 c03f b734 ebbe 81dc 6c3f fa5c 03bf
00000160: 49db c9bf 5b39 fabe 7974 edbe cd31 08bf
00000170: b015 f9be a54d 833f 7b99 dd3f adcd ecbe
00000180: fe5d ebbe 2238 4fbf 8a5b aa3f cdf8 fcbe
00000190: 8749 02bf f6fb 0fbf a494 a73f 2757 763f
000001a0: 4791 a83f 495e 01bf 702d 15bf e9ab 82bb
000001b0: d863 b23f 5080 d43f a7a6 efbe 6735 07bf
000001c0: 07f3 613f c529 02bf 7427 01bf acc3 11bf
000001d0: 67e1 adbf bdac fdbe 808b b5bf ddf0 ac3f
000001e0: 6bde 04bf e988 febe 3738 c43c 5cf2 04bf
000001f0: d9e5 883f 2fb8 a73f 7a42 0fbf 15a4 00bf
00000200: 89a9 38bb 6864 eebe 730c 06bf 051f ac3f
00000210: df8b b4bf 1354 b03f a1a5 cc3c b634 dcbf
00000220: 1795 f2be bcc6 cabf c992 743f 1d7e 933f
00000230: d4ef ac3f 327f 693f ae6a aa3f f30c fbbe
00000240: 926d ffbe 0739 873f 260b 1cbf 95fd eabe
00000250: e219 cd3f d071 19bf 2f9f aa3f c9ad b23f
00000260: 0264 c1bf dbf8 eebe be2e bbbf 82fe 0fbf
00000270: d785 e9be f8af 723f 9dc3 aebf 5de6 cfbc
00000280: e2c4 653f 8f71 ecbe b20a c93f 9d5e 5cbc
00000290: be4b 01bf 780e f4be abe8 e9be bec8 be3f
000002a0: d291 b13f 9a9c 03bf 14ed cd3c 93c8 9940
000002b0: 8b70 2240 8149 1740 d9df ca3f a721 9b3f
000002c0: 7286 3bbf 6931 f4be 38e8 03bf d536 b2bf
000002d0: 8581 b73f e4f1 5fbf 70cf 223d f67e d7bc
000002e0: 9070 fe3f 21ea ecbe c39b 603f 126a f5be
000002f0: d4ca 68bb 8c91 2c40 e9bc efbe 08d0 c1bf
00000300: 9ed3 153d d579 993c 82c2 653f 611c 1fbf
00000310: 9217 7f3f 3155 ab3f c257 553d 27cf eebe
00000320: 713f 803f cc80 903f da21 00bf cfd5 053d
00000330: 9164 cfbf ad41 2940 5fe3 b03f d429 03bf
00000340: 33a3 803f 1036 0cbf c798 7f3a 21b8 3bbf
00000350: cbb5 823f 620c fabe ede2 01bf 97c6 06bf
00000360: c6ad 05bf af5a d0bf 7528 983f 2630 f7be
00000370: 4394 fcbe cd3c 633f 4767 e4be 8fdd 873f
00000380: 8187 e9be d256 febe 46ca 753f 0650 6a3f
00000390: 993b 92bf a9de 1340 3b9d 50bc 9d5d fb3c
000003a0: 28e1 08bf b834 b33c 432e 00bf 81b8 06bf
000003b0: 48b6 bdbf e18f d03f ee51 01bf 6867 2640
000003c0: 8fac c3bf de21 1c40 9c50 7f40 928a f5be
000003d0: 3d8e 04bf e631 fbbe fa17 973f 64e9 af3f
000003e0: 810b ec3b aa9d e4bc a6e0 09bf 4c4d bb3f
000003f0: f0dd 6d3f 93fa a03f 1a98 2240 409e 843f
