TD3/models/lunarlander/00001000/target_critic_2.pth (torch, 277271 bytes, 5 tensors)

fc1.weight f4 [256, 10]
0	0x3db9fa26	0.09080915
1	0xbe812d3a	-0.25229818
2	0xbe448ae3	-0.19193606
3	0x3e33e136	0.1756638
4	0x3f2da8bd	0.678356
5	0x3e9fb570	0.31193113
6	0x3f586b35	0.84538585
7	0xbe52cc38	-0.20585716
8	0x3bd9d0ec	0.00664722
9	0xbcf6913d	-0.030098552
10	0xbeaea869	-0.34112862
11	0x3e83c33d	0.25734892
12	0xbf13fb4d	-0.5780533
13	0xbf5eb3d4	-0.86993146
14	0xbcab40d0	-0.020904928
15	0xbe65e01b	-0.2244877
16	0x3f7a401e	0.97754085
17	0x3e022521	0.12709476
18	0x3e980fe7	0.29699633
19	0xbe959fa8	-0.2922337
20	0x3eb62a03	0.35578927
21	0x3ede20f7	0.43384525
22	0xbdd7ee25	-0.10543469
23	0x3d982e0a	0.07430656
24	0x3f0a6520	0.54060555
25	0x3ee6452f	0.44974658
26	0xbe8593e3	-0.2608939
27	0xbe3402bf	-0.17579173
28	0xbe09765b	-0.13424055
29	0x3aca654d	0.0015441567
30	0xbf04a696	-0.5181669
31	0x3e5c7104	0.21527487
32	0x3e03f055	0.12884648
33	0xbf2a66f3	-0.6656334
34	0x3e84b050	0.25915766
35	0xbd4ca855	-0.04996522
36	0x3eeee466	0.4665863
37	0x3e3d6b4c	0.18497962
38	0xbecbc0d2	-0.39795548
39	0x3dde0ada	0.108419135
40	0x3e041a72	0.12900713
41	0xbf01a8a0	-0.50647926
42	0x3dca4f53	0.09878411
43	0xbe7ad307	-0.24494563
44	0xbee635e6	-0.44962996
45	0xbeed7773	-0.46380195
46	0x3dd467f0	0.10371387
47	0x3f0c9b0e	0.54924095
48	0xbd0a7c66	-0.03381004
49	0x3e2766ad	0.16347761
50	0xbdf69b82	-0.120413795
51	0x3e9697c5	0.29412666
52	0x3ef8bd12	0.4858175
53	0x3fc83f30	1.5644283
54	0xbea438fc	-0.32074726
55	0x3f0f3e34	0.5595429
56	0xbe6a7baf	-0.22898744
57	0x3dd837c2	0.1055751
58	0xbc037d89	-0.008025535
59	0xbd6d9928	-0.05800739
60	0x3e95a97d	0.29230872
61	0xbec54dfd	-0.38536063
62	0xbde8fee2	-0.1137674
63	0x3e03911e	0.12848327
64	0x3d928119	0.0715353
65	0xbeac2323	-0.33620557
66	0x3f7d4cd3	0.9894535
67	0x3e5866ef	0.21133016
68	0x3e2030bf	0.15643595
69	0x3ec7536a	0.38930827
70	0xbf0c4628	-0.5479455
71	0xbd78ff65	-0.06079044
72	0xbe09f536	-0.13472447
73	0x3ed99992	0.42499977
74	0xbef46711	-0.47734883
75	0xbed4846e	-0.41507286
76	0x3e6f4ebf	0.23369883
77	0xbeded060	-0.43518353
78	0x3e025b3d	0.12730117
79	0xbe8039d1	-0.2504411
80	0xbee78811	-0.45220998
81	0x3e8374dd	0.25675097
82	0xbf072591	-0.52791697
83	0x3ecf2956	0.40461224
84	0xbf011752	-0.5042621
85	0xbc67d5f8	-0.014150135
86	0x3ddd89f6	0.108173296
87	0xbe8dc5df	-0.27690026
88	0x3f06fbcc	0.5272796
89	0xbda3cf56	-0.079985306
90	0xbe973a0b	-0.2953647
91	0x3e71d1d7	0.23615204
92	0x3ea19252	0.31556946
93	0xbebe11ce	-0.3712296
94	0x3de026ae	0.109448776
95	0x3f2a30dd	0.6648081
96	0x3d154332	0.036441036
97	0xbf2450f7	-0.6418604
98	0xbedf8b6d	-0.4366106
99	0x3da31bca	0.07964285
100	0xbc9ee92e	-0.019398298
101	0xbea2a700	-0.31768036
102	0x3efe5fe7	0.49682543
103	0xbe4a7abd	-0.19773383
104	0xbf045b6d	-0.51702005
105	0xbf3777c5	-0.7166713
106	0x3e8b5d0b	0.27219424
107	0xbea85de0	-0.3288412
108	0x3e299e4e	0.16564295
109	0xbf1b943a	-0.6077305
110	0x3f17ce00	0.59298706
111	0x3f1fa3ac	0.6235912
112	0xbd87dc96	-0.0663387
113	0xbf4af5b7	-0.7928118
114	0xbeed8526	-0.46390647
115	0x3ddfc3c6	0.10926013
116	0xbe52297e	-0.2052364
117	0xbe8ee204	-0.2790681
118	0xbdc53382	-0.09628965
119	0x3d60bc90	0.054867327
120	0xbe6c6230	-0.2308433
121	0xbfafaa07	-1.3723763
122	0x3f149e2d	0.5805386
123	0xbf0e974c	-0.5569961
124	0x3ea45d4a	0.32102424
125	0x3e424a93	0.1897376
126	0x3efb1c67	0.49045107
127	0xbb36e1fe	-0.0027905698
128	0xbe891b28	-0.2677853
129	0xbd585e8f	-0.052824553
130	0xbecf002b	-0.40429816
131	0x3e868fe0	0.26281643
132	0x3e26137b	0.16218369
133	0xbd5d7070	-0.054062307
134	0xbf90704a	-1.1284268
135	0xbea8006f	-0.3281283
136	0xbfe9378a	-1.8220074
137	0x3e54f8b8	0.20798004
138	0xbd6f5044	-0.058426157
139	0x3d0ba8fb	0.0340967
140	0xbf5940c5	-0.84864455
141	0x3d7fea1a	0.062479116
142	0xbd0d23e1	-0.034458045
143	0x3f1887c0	0.5958214
144	0xbee3c7a7	-0.4448826
145	0xbe814900	-0.25251007
146	0xbf900087	-1.1250161
147	0xbe754642	-0.23952582
148	0x3e9f7c0a	0.31149322
149	0x3e732e4a	0.23748127
150	0xbf37acdb	-0.7174813
151	0xbf30ebfb	-0.6911008
152	0xbf156871	-0.5836249
153	0xbf792f70	-0.9733801
154	0xbf007d9d	-0.5019167
155	0xbf195fdd	-0.599119
156	0x3e921be9	0.2853692
157	0xbd6c1641	-0.05763841
158	0x3db252b0	0.08707178
159	0xbd865ceb	-0.065606914
160	0xbf4aedb2	-0.79268944
161	0xbe31d65c	-0.17366928
162	0xbed19b10	-0.40938616
163	0xbe9adddd	-0.30247393
164	0x3c550c35	0.013003399
165	0x3c9c63ca	0.019090552
166	0x3ee7de8d	0.4528698
167	0xbfc0435a	-1.5020554
168	0xba6c6cc9	-0.0009018896
169	0xbc9f861c	-0.019473128
170	0xbec2aaad	-0.3802084
171	0x3e716e22	0.23577169
172	0xbed2e3b8	-0.4118936
173	0xbef774fc	-0.4833144
174	0x3ed3dce1	0.41379455
175	0x3da10caa	0.078637436
176	0xbf11d280	-0.5696182
177	0xbf09cad0	-0.5382509
178	0xbdafd6e7	-0.08585911
179	0xbd3616c5	-0.04445531
180	0x3e397063	0.18109278
181	0x3e40f019	0.1884159
182	0xbd041e44	-0.032255426
183	0x3e198fdf	0.14996289
184	0x3e800d49	0.25010136
185	0xbeb2927b	-0.3487738
186	0xbed4f066	-0.4158966
187	0xbe669650	-0.22518277
188	0x3ecbffab	0.39843497
189	0x3e99c37c	0.30031955
190	0xbf6d3006	-0.926514
191	0xbd649573	-0.05580659
192	0xbf6fdd8a	-0.93697417
193	0xbe499e44	-0.1968928
194	0xbefabd8a	-0.48972732
195	0xbe6e3942	-0.2326403
196	0xbf038837	-0.5137972
197	0xbdd84745	-0.105604686
198	0xbe9293ff	-0.28628537
199	0x3c13bff9	0.009017938
200	0xbdcb5583	-0.099284194
201	0xbf306360	-0.68901634
202	0xbed70a1d	-0.41999903
203	0xbedf07fe	-0.43560785
204	0xbeee5fa7	-0.46557352
205	0x3ec191ee	0.37806648
206	0x3f353d90	0.7079706
207	0x3eb68874	0.3565098
208	0x3d9a3241	0.075291164
209	0x3dc717cb	0.09721335
210	0xbed3c841	-0.4136372
211	0xbf8c8d00	-1.098053
212	0x3eda23ce	0.42605442
213	0xbf0661d0	-0.52493
214	0xbea3c8de	-0.31989187
215	0x3eff4b44	0.4986211
216	0xbfbd8ca8	-1.480855
217	0xbe0b5729	-0.13607468
218	0xbebef08c	-0.37292898
219	0xbca907ee	-0.020633664
220	0x3e88506d	0.2662386
221	0xbe8a5a7c	-0.2702216
222	0x3e097615	0.13423951
223	0x3dcfb0cc	0.10141143
224	0xbe843e72	-0.25828892
225	0xbf5e48dd	-0.8682993
226	0x3dd3ca72	0.10341348
227	0x3e90a263	0.2824889
228	0x3d03210f	0.03201395
229	0x3d153c0a	0.03643421
230	0x3d00c1e3	0.031434905
231	0xbe77fac4	-0.24216753
232	0xbe60324d	-0.21894188
233	0xbda92237	-0.08258479
234	0xbc9ed0a7	-0.019386603
235	0x3e8c5db0	0.27415228
236	0x3ca5dbdf	0.020246444
237	0x3c625cdc	0.013816085
238	0xbd5a21b7	-0.05325481
239	0x3c591ded	0.013251764
240	0x3da4f75d	0.08054993
241	0xbdab3e53	-0.08361497
242	0x3ef98903	0.48737344
243	0x3e2ba34e	0.16761515
244	0xbe84761c	-0.2587136
245	0x3f12b4f1	0.57307345
246	0x3f3870ba	0.7204701
247	0xbe16b6f2	-0.14718226
248	0xbd490837	-0.0490801
249	0xbd8cd3c0	-0.068763256
250	0xbf0c0e7e	-0.54709613
251	0x3d074f88	0.03303483
252	0xbe683713	-0.22677259
253	0xbe5d722e	-0.21625587
254	0xbbb27424	-0.005445974
255	0x3e9bd8e0	0.304389

fc1.bias f4 [256]
0	0xbe4695d5	-0.19393094
1	0xbeea87bf	-0.4580669
2	0x3ee014ae	0.43765777
3	0xbdf3df3c	-0.11907813
4	0x3d46540e	0.048420005
5	0x3d6eef80	0.058333874
6	0x3d0e48a3	0.03473724
7	0x3da7779a	0.08177109
8	0x3f05e638	0.5230441
9	0x3e5c7082	0.21527293
10	0x3e7999ba	0.24375048
11	0xbdc90d6b	-0.098170124
12	0x3eb3b698	0.35100245
13	0xbdb31a1d	-0.08745215
14	0x3d8ddb93	0.06926646
15	0x3c455882	0.012045028
16	0xbf38a201	-0.721222
17	0x3ebf5fda	0.37377816
18	0x3e8f5b67	0.27999422
19	0xbe303c58	-0.1721052
20	0x3c6cafa4	0.014446173
21	0xbf018fd7	-0.5061011
22	0xbed14071	-0.40869477
23	0x3f3a65ad	0.72811395
24	0xbf1f7056	-0.62280786
25	0x3f672fa0	0.90307045
26	0x3f210d4c	0.62910914
27	0x3e6dff1e	0.2324185
28	0x3eae0148	0.33985353
29	0xbbba5dad	-0.0056874366
30	0x3d9bf635	0.0761532
31	0xbdaea498	-0.085274875
32	0x3e7d5436	0.24739155
33	0xbf01eb67	-0.5074982
34	0x3f08d99b	0.5345704
35	0xbd46a625	-0.04849829
36	0xbdd6fc2b	-0.10497316
37	0xbe967bcb	-0.29391322
38	0xbea26a5e	-0.31721777
39	0xbf5750f9	-0.8410793
40	0x3d8ff3d8	0.070289314
41	0x3e18d3d3	0.14924555
42	0x3e7d38a0	0.24728632
43	0x3ea48024	0.32129014
44	0xbb4032cd	-0.0029327155
45	0x3e74305e	0.23846576
46	0x3e5971a5	0.21234758
47	0x3dc42474	0.095772654
48	0x3e54f099	0.20794906
49	0xbe451d39	-0.19249429
50	0x3f0bda57	0.54630035
51	0xbe68eb8f	-0.22746108
52	0x3ed9d996	0.42548817
53	0xbe8be853	-0.27325687
54	0x3e96d982	0.2946282
55	0xbda6cf9e	-0.081450686
56	0x3dbcc52e	0.092172965
57	0xbebe1509	-0.37125424
58	0x3e589ea8	0.21154273
59	0x3e125001	0.14288332
60	0xbf094b5c	-0.53630614
61	0xbf0e1f6a	-0.55516684
62	0x3eb22c9b	0.34799656
63	0xbeb29809	-0.3488162
64	0x3e08d16d	0.1336114
65	0x3e9e7412	0.3094793
66	0x3f551af8	0.83244276
67	0x3f123084	0.5710528
68	0xbe9f7285	-0.3114206
69	0xbdc40e60	-0.09573054
70	0xbf230a19	-0.6368728
71	0x3f19ca35	0.6007417
72	0xbe805911	-0.25067952
73	0x3f4db30c	0.8035133
74	0xbed5e3ee	-0.4177546
75	0xbdeb43a2	-0.11487509
76	0x3f594ee1	0.84885985
77	0xbe8e711d	-0.27820674
78	0x3e1c6791	0.15273882
79	0xbe2a472c	-0.16628712
80	0x3f1e9239	0.6194187
81	0x3f0a6aeb	0.54069394
82	0xbf0a379e	-0.53991115
83	0x3f003ada	0.500898
84	0xbed2db58	-0.4118297
85	0xbe4bdd60	-0.19908667
86	0xbdddf9b3	-0.10838642
87	0x3f3c3d87	0.73531383
88	0xbf35d623	-0.7102987
89	0x3e2f1c64	0.17100674
90	0x3edd5f75	0.4323689
91	0xbe1aafb2	-0.15106085
92	0x3f15cccd	0.58515626
93	0xbf1244b2	-0.5713607
94	0xbea7c851	-0.32770017
95	0xbe4cd902	-0.20004657
96	0xbe0b46b9	-0.13601197
97	0xbf6a90a6	-0.91626966
98	0x3d1379d7	0.036004867
99	0xbd32c7dd	-0.043647636
100	0xbd1c169c	-0.0381075
101	0x3f41f3fa	0.75762904
102	0x3dc238c9	0.09483487
103	0x3d1c78d6	0.038201176
104	0x3f09fc1b	0.5390031
105	0x3ec07704	0.37590802
106	0xbf3cac3f	-0.73700327
107	0xbf35c604	-0.7100527
108	0x3ee44b51	0.44588712
109	0xbf0fa187	-0.56105846
110	0x3ebcc018	0.36865306
111	0xbf0413c2	-0.5159265
112	0x3efcbaa0	0.49361134
113	0x3b853539	0.0040651825
114	0x3e8d22d6	0.2756564
115	0xbf4a910f	-0.7912759
116	0xbd8d34cc	-0.06894836
117	0x3f6fcfb2	0.9367629
118	0x3eac0a81	0.33601764
119	0x3eaa3556	0.33243817
120	0xbef88bba	-0.48544103
121	0xbd51182c	-0.051048443
122	0x3eee364e	0.46525806
123	0x3e1fa2ec	0.15589494
124	0xbeb205c7	-0.34770033
125	0x3e1bcab6	0.15214047
126	0xbb140b9c	-0.0022589928
127	0xbd0012e3	-0.03126801
128	0xbe996942	-0.29963118
129	0x3e5523a2	0.20814374
130	0xbeea0854	-0.4570948
131	0xbf185642	-0.5950662
132	0x3f19c380	0.60063934
133	0x3f06af56	0.5261129
134	0x3effb49a	0.49942476
135	0xbf1ad41b	-0.604799
136	0xbe03d0ae	-0.12872574
137	0xbe59028b	-0.21192376
138	0x3f8c1f1a	1.0946991
139	0x3f0f6d05	0.56025726
140	0xbf28dab2	-0.659587
141	0x3ee74faa	0.45177966
142	0x3f1b65f5	0.6070245
143	0x3f0c3285	0.54764587
144	0x3f46f330	0.77714825
145	0x3f1b05ca	0.6055571
146	0x3eab39d2	0.3344255
147	0x3f0dcda1	0.5539189
148	0xbe28a04c	-0.16467398
149	0x3e498d55	0.1968282
150	0x3f324e13	0.6965038
151	0xbf619556	-0.88118494
152	0x3f50522a	0.8137537
153	0x3f17041f	0.58990663
154	0x3ef2341b	0.47305378
155	0x3f8766f8	1.0578299
156	0xbe9894c7	-0.29801008
157	0x3f16b9a0	0.5887699
158	0xbd440aef	-0.04786199
159	0x3ea4ec0c	0.3221134
160	0x3e8c610a	0.27417785
161	0x3e32dbbd	0.17466636
162	0x3f43f4e6	0.7654556
163	0x3f457838	0.77136564
164	0x3e169a61	0.14707328
165	0x3f2def80	0.67943573
166	0x3efd8e2f	0.4952254
167	0x3ea73add	0.32662097
168	0x3f0a87e7	0.5411362
169	0x3e12ae6e	0.14324352
170	0x3f20ed69	0.6286226
171	0x3e18bae9	0.1491505
172	0xbeb64972	-0.3560291
173	0x3dc804da	0.0976655
174	0xbebf8882	-0.37408835
175	0x3f74fe26	0.957003
176	0xbdb56de6	-0.08858852
177	0x3f000765	0.50011283
178	0xbdc6ba4b	-0.09703501
179	0xbc4f19db	-0.012640442
180	0x3e155b31	0.14585568
181	0x3f0595be	0.52181613
182	0xbdd5e3a0	-0.10443807
183	0xbcbf9bc5	-0.023389706
184	0x3f76a105	0.96339446
185	0xbd925c16	-0.0714647
186	0x3e7d3c90	0.24730134
187	0xbf45a0f3	-0.77198714
188	0xbed3e87d	-0.41388312
189	0xbed26f28	-0.4110043
190	0xbe083b42	-0.13303855
191	0x3eb6c1ce	0.35694736
192	0x3f7814f8	0.96906996
193	0xbe864342	-0.2622319
194	0x3dc8e739	0.09809727
195	0x3d1a01c3	0.037599336
196	0xbe94400b	-0.2895511
197	0x3d125b89	0.035731826
198	0x3eae6541	0.34061626
199	0xbeaa3825	-0.3324596
200	0x3e8026b6	0.25029534
201	0x3f62d286	0.88602483
202	0xbefdb284	-0.4955026
203	0x3f5a6152	0.8530475
204	0x3f403c22	0.75091755
205	0x3f2493c6	0.64287984
206	0x3f792981	0.97328955
207	0xbe935496	-0.2877547
208	0xbf03c847	-0.51477474
209	0x3b831608	0.004000429
210	0x3d6c5ee0	0.057707667
211	0x3ebcc658	0.36870074
212	0xbf40b648	-0.7527814
213	0xbf2dcf1e	-0.6789416
214	0x3eabe56d	0.33573475
215	0xbf1e371c	-0.6180284
216	0xbe96981f	-0.29412934
217	0xbe9b04d6	-0.30277127
218	0x3f2d5b11	0.6771708
219	0xbf588af2	-0.84587014
220	0x3e6ded8a	0.23235145
221	0xbf24df73	-0.64403456
222	0x3f6defa7	0.92943805
223	0xbf08bc88	-0.53412676
224	0xbd7aceed	-0.061232496
225	0xbd90f616	-0.07078187
226	0x3e998fda	0.29992563
227	0x3f00b7c1	0.50280386
228	0xbe98bfee	-0.2983393
229	0x3e311f1f	0.17297028
230	0x3dafc0aa	0.0858167
231	0x3f08e6d9	0.53477246
232	0xbdad0e97	-0.084500484
233	0x3bc99603	0.006151916
234	0x3d9bbc74	0.07604304
235	0xbdec9251	-0.11551345
236	0x3f632ff4	0.88745046
237	0x3ee9a665	0.4563476
238	0x3f301c13	0.6879284
239	0xbe501d28	-0.20323622
240	0x3e87eff4	0.26550257
241	0x3ce503d2	0.027955923
242	0xbef2a7f7	-0.47393772
243	0x3eb1e5bc	0.34745586
244	0xbf43184b	-0.76208943
245	0x3cb841e4	0.022492357
246	0x3f00f5ee	0.5037526
247	0xbf33587a	-0.7005688
248	0xbf36b30e	-0.71366966
249	0x3d618130	0.055054843
250	0xbf32338d	-0.6960991
251	0xbe05d6c5	-0.1307021
252	0xbf20d9f5	-0.62832576
253	0x3f850ad1	1.0393926
254	0x3f451881	0.76990515
255	0x3ef7a377	0.483669

fc2.weight f4 [256, 256]
0	0x3ee122bf	0.43971822
1	0x3d821c39	0.06353039
2	0x3e96a48b	0.2942241
3	0x3ea4c9a2	0.32185084
4	0x3e8557c7	0.2604353
5	0xbe9681bf	-0.29395863
6	0x3d21f098	0.03953609
7	0x3f0de650	0.55429554
8	0x3f04d9ea	0.5189501
9	0x3cf74743	0.030185347
10	0x3e8dc546	0.2768957
11	0x3e8b7b12	0.27242333
12	0x3ec6faaf	0.3886313
13	0x3cd0f65c	0.025508098
14	0x3f0bdd56	0.54634607
15	0x3e07f067	0.132753
16	0x3f8b2d57	1.0873212
17	0x3e885823	0.26629743
18	0x3e078ca1	0.1323724
19	0x3efb0184	0.49024594
20	0x3db7c035	0.089722075
21	0xbf708232	-0.9394866
22	0x3ea8593e	0.32880586
23	0x3db3f00c	0.0878602
24	0x3ed95ecd	0.4245514
25	0x3e6fc174	0.2341364
26	0xbd427e30	-0.047483623
27	0xbdcf2040	-0.10113573
28	0x3e90f5bd	0.28312483
29	0x3f26fd9d	0.65230733
30	0x3db6b483	0.08921149
31	0x3ec5a8e1	0.38605407
32	0x3e9fb3fa	0.31192
33	0x3f0e028c	0.55472636
34	0x3eefb9dd	0.4682149
35	0x3f0449a9	0.51674896
36	0x3e16931d	0.14704557
37	0xbd0157e4	-0.03157796
38	0x3f2bb235	0.670688
39	0x3f5a9d4b	0.8539626
40	0x3ccc9d12	0.02497724
41	0x3ea9faa9	0.3319905
42	0x3ecd7e1e	0.40135282
43	0x3e6276d1	0.22115637
44	0x3ebee0b2	0.37280804
45	0xbd813542	-0.06308986
46	0x3d5e80b3	0.054321956
47	0x3efad6c3	0.48991975
48	0xbe4fb5ef	-0.20284246
49	0x3ed94025	0.4243175
50	0x3e76f0fc	0.24115366
51	0x3e8ff6b9	0.28117922
52	0x3e40603a	0.18786708
53	0x3f1e09f7	0.61733955
54	0x3db52053	0.08844056
55	0x3c5c45fd	0.013444421
56	0xbe6277dd	-0.22116037
57	0x3e852589	0.260052
58	0x3e356683	0.17714886
59	0x3e98afc9	0.29821613
60	0x3edf081b	0.4356087
61	0x3eded0e2	0.4351874
62	0x3e4724df	0.19447659
63	0xbef515ed	-0.4786829
64	0x3eb76622	0.3582011
65	0x3eb4c1df	0.35304162
66	0x3ddd391f	0.108019106
67	0xbdde672f	-0.108595245
68	0x3f0c3bc3	0.5477869
69	0x3e5120f2	0.20422724
70	0x3ee84ef1	0.45372728
71	0x3e567b7c	0.20945543
72	0xbe00136b	-0.12507407
73	0x3c83335b	0.0160157
74	0x3f37e126	0.71827924
75	0x3e81220a	0.25221282
76	0x3e5a1109	0.21295561
77	0x3e87c3f1	0.2651668
78	0x3f240dd9	0.6408363
79	0x3eb75bd5	0.3581225
80	0x3e60b941	0.21945669
81	0x3f05d4d7	0.5227789
82	0x3ebd1c20	0.3693552
83	0x3ebbaa64	0.36653435
84	0x3e810e8f	0.2520642
85	0x3e9265f5	0.28593412
86	0x3dec3960	0.11534381
87	0x3f2b63f0	0.6694937
88	0x3ed68de3	0.41905126
89	0x3f0818bd	0.5316275
90	0xbe6a3923	-0.22873358
91	0x3e22dadd	0.15903802
92	0x3d9dd958	0.07707471
93	0x3eb0dcfa	0.34543592
94	0xbf77816a	-0.96681845
95	0x3f2987e1	0.6622296
96	0xbe705067	-0.23468171
97	0x3f24c4f3	0.6436302
98	0x3ead27d7	0.33819458
99	0x3e92822a	0.28614932
100	0x3d38db3b	0.04513095
101	0x3e2c4f35	0.1682709
102	0x3f120ed9	0.57053906
103	0x3e9cf0c4	0.3065244
104	0x3ed6aed3	0.41930255
105	0x3e4ac51b	0.19801752
106	0x3ef6b573	0.4818531
107	0x3f9a309f	1.2046088
108	0x3e0fa2ef	0.14026998
109	0x3fb5c54f	1.4200839
110	0x3e0d25c3	0.13783936
111	0x3f17f431	0.5935698
112	0x3ef2800f	0.47363326
113	0x3f09f7cf	0.5389375
114	0xbcdb5e6f	-0.026778428
115	0x3fcee35d	1.6163136
116	0xbeadaee6	-0.339225
117	0x3e189143	0.14899163
118	0x3de50fbe	0.11184643
119	0xbd7c7805	-0.061637897
120	0x3e98997d	0.29804602
121	0xbeca8cff	-0.39560696
122	0x3e5a2b4d	0.2130558
123	0x3f0741bf	0.52834696
124	0x3ec79ad4	0.38985312
125	0x3e5d494f	0.21609996
126	0x3e1edaf2	0.15513209
127	0xbe1e8e5d	-0.15483995
128	0x3f0bc1c9	0.5459257
129	0xbda19ad8	-0.07890862
130	0x3eb6cda1	0.35703757
131	0x3f2077aa	0.6268259
132	0x3ee89ab9	0.45430544
133	0x3e05ba6c	0.13059396
134	0x3efabaef	0.48970744
135	0x3eff9eac	0.49925745
136	0x3eceb7a6	0.40374488
137	0x3eefd7ac	0.46844232
138	0x3ea621db	0.32447705
139	0x3e640d4d	0.22270699
140	0x3f4afbf4	0.792907
141	0x3ed5473e	0.41655916
142	0x3e90686d	0.2820467
143	0x3dd5a2c9	0.104314394
144	0x3e6ee08a	0.23327842
145	0x3e392e09	0.18083967
146	0x3e090613	0.13381223
147	0x3f1cec7f	0.61298364
148	0x3f44b9fe	0.768463
149	0x3eb66ccd	0.35629883
150	0x3e231578	0.15926158
151	0x3fa39e3c	1.2782664
152	0x3e79ff58	0.24413812
153	0x3eb00ecf	0.34386298
154	0x3eaccf5f	0.33751962
155	0x3df8a982	0.12141706
156	0x3efc926e	0.49330467
157	0xbd91502e	-0.07095371
158	0xbd7de367	-0.061984446
159	0x3ec78d83	0.38975152
160	0x3e94fe53	0.29100284
161	0x3e9ad266	0.30238646
162	0x3e046c21	0.12931873
163	0x3e43d7f7	0.19125353
164	0xbdb0e818	-0.08638018
165	0x3ecd9bd0	0.40157938
166	0xbdb5eec2	-0.0888343
167	0xbdf1f0da	-0.11813517
168	0x3f14e932	0.5816833
169	0x3e6bacc5	0.23015125
170	0x3ee6af8e	0.45055813
171	0x3ecc424e	0.39894336
172	0x3f1756c6	0.5911678
173	0x3e167c4f	0.14695857
174	0x3ed1224f	0.40846488
175	0x3e9a5dc0	0.3014965
176	0xbeff4b34	-0.49862063
177	0x3eb1b5df	0.3470907
178	0x3f1e9d81	0.6195908
179	0x3ebf3b6d	0.37350026
180	0x3ed0849d	0.40726176
181	0xbb67cedb	-0.0035371098
182	0x3faea882	1.3645175
183	0x3e95de28	0.29271054
184	0x3e8d1987	0.27558538
185	0xbdc452fa	-0.09586139
186	0x3e63fcc9	0.22264399
187	0xbf504974	-0.8136208
188	0x3f122381	0.57085425
189	0x3e9a781a	0.30169755
190	0x3e4be3cd	0.19911118
191	0x3e35d434	0.1775673
192	0x3e680932	0.22659758
193	0x3f43541c	0.76300216
194	0x3eff7b02	0.49898535
195	0xbd3f01ab	-0.04663245
196	0x3f011e5c	0.5043695
197	0xbeb5efd8	-0.3553455
198	0x3f17d747	0.5931286
199	0x3f9ca18c	1.22368
200	0x3cbf61d0	0.02336207
201	0x3e551aa9	0.20810951
202	0x3f183423	0.59454554
203	0x3e8cd989	0.27509716
204	0xbe66d5d9	-0.22542514
205	0x3eec4d76	0.46152848
206	0x3e7bcdbd	0.24590202
207	0x3eb0acfc	0.34506977
208	0x3f7815f7	0.96908516
209	0x3e3a119d	0.18170781
210	0x3f1c214e	0.6098832
211	0xbe8be3ae	-0.27322143
212	0x3f6c4246	0.92288625
213	0x3ec0eaf1	0.37679246
214	0x3eb92936	0.36164254
215	0x3f4a68e4	0.790663
216	0x3eb266cd	0.34844056
217	0xbe765563	-0.2405601
218	0x3c1562bd	0.009117779
219	0x3f5687b9	0.83800846
220	0x3eb7e724	0.35918534
221	0x3ee7abbc	0.4524821
222	0x3e259d6a	0.1617333
223	0x3e8f8e51	0.28038266
224	0x3e81dfbc	0.25366008
225	0xbdf4f9c9	-0.11961705
226	0x3eb7d511	0.35904744
227	0x3d8dc7e8	0.06922895
228	0x3e362523	0.17787604
229	0x3ed59bf1	0.41720536
230	0x3de72ed6	0.1128823
231	0x3e2dfdc4	0.16991335
232	0x3e34959d	0.17635198
233	0x3ec34c5a	0.3814419
234	0x3e9156d2	0.2838655
235	0x3e4786d0	0.1948502
236	0x3e8a2681	0.269825
237	0x3dbfa866	0.09358291
238	0xbdce4cf0	-0.100732684
239	0x3f0b0eae	0.54319274
240	0x3e4ad5b7	0.19808088
241	0xbd30b0f5	-0.04313751
242	0x3ef3a5e0	0.4758749
243	0x3e496bb1	0.19669987
244	0x3f3d6585	0.7398303
245	0xbe8b0275	-0.27150312
246	0x3d2848d3	0.041085076
247	0x3f31f2ce	0.69511116
248	0x3f0ad67e	0.5423354
249	0x3e6b091e	0.22952697
250	0x3c861df2	0.0163717
251	0x3e35a4ac	0.17738599
252	0x3f310260	0.6914425
253	0x3e81eb26	0.25374717
254	0x3e8a589a	0.27020723
255	0x3d5dc52b	0.054143112

fc2.bias f4 [256]
0	0x3e6c05db	0.23049109
1	0x3e8872af	0.26649997
2	0x3e0cd598	0.13753355
3	0xbd7241a4	-0.05914463
4	0xbe1f3b1c	-0.15549892
5	0x3ed29a92	0.41133553
6	0x3eb98df9	0.3624113
7	0x3e2881c0	0.16455746
8	0x3f09bd29	0.5380426
9	0x3e82d0d2	0.25549942
10	0x3e44cf0f	0.19219612
11	0x3e26affe	0.16278073
12	0x3e891fb9	0.26782015
13	0x3da51f22	0.08062579
14	0x3ec148f0	0.3775096
15	0x3c10f055	0.008846362
16	0xbe9e0fb8	-0.30871367
17	0x3ecbd1eb	0.39808592
18	0xbe5e4234	-0.21704942
19	0x3e8ed54c	0.27897108
20	0x3c866b5c	0.016408615
21	0xbcbc92a8	-0.02301915
22	0xbc44fd59	-0.012023293
23	0x3f0e1990	0.55507755
24	0x3e2b406c	0.16723794
25	0xbe9e5cff	-0.30930325
26	0x3e16dd2a	0.14732805
27	0x3e57df4f	0.21081279
28	0x3e99564a	0.29948646
29	0x3e63d323	0.22248511
30	0xbdf5d14e	-0.12002812
31	0x3e641611	0.22274043
32	0x3e9229ab	0.28547415
33	0x3e4ca5ff	0.19985197
34	0x3e208577	0.15675913
35	0xbd58968a	-0.05287794
36	0xbe040877	-0.12893854
37	0x3ec8b999	0.392041
38	0xbc7e0ebc	-0.015506443
39	0x3e2d765a	0.16939679
40	0xbee67017	-0.45007393
41	0x3e9772cb	0.29579768
42	0x3e29cee2	0.16582826
43	0xbdbab48c	-0.09116468
44	0x3e4999ed	0.19687624
45	0xbed23034	-0.410524
46	0x3e3ce853	0.18448
47	0x3e87955e	0.26481146
48	0xbd80b1bd	-0.06283901
49	0x3e5f8622	0.21828511
50	0xbca6cd37	-0.020361526
51	0x3e8280e4	0.2548896
52	0xbe3dd868	-0.18539584
53	0xbbc84c34	-0.0061125997
54	0x3e43c4a3	0.1911798
55	0x3e980654	0.29692328
56	0x3d7fb864	0.062431708
57	0x3e6b6ecf	0.22991489
58	0xbeb78995	-0.35847154
59	0xbd7a94e4	-0.06117715
60	0x3e062a80	0.1310215
61	0xbf2f7a9b	-0.68546456
62	0x3e757832	0.23971632
63	0x3dd0b655	0.10191027
64	0x3e7405e8	0.23830378
65	0x3ed421f0	0.41432142
66	0x3e99a8ce	0.300116
67	0x3e6101e3	0.21973376
68	0x3e815480	0.2525978
69	0x3e8023d9	0.2502735
70	0x3e73b16a	0.23798147
71	0xbd3f9cc8	-0.046780378
72	0x3e91b6b8	0.28459716
73	0x3edb8a1f	0.42878816
74	0x3d49c018	0.04925546
75	0xbca06c67	-0.01958294
76	0xbee55591	-0.44791844
77	0x3e8b9eb2	0.27269512
78	0x3eb4ab5e	0.35286993
79	0x3ec6ddf3	0.3884121
80	0x3e1091b3	0.1411808
81	0xbedc09ca	-0.42976218
82	0x3e68f8f4	0.22751218
83	0xbd7a74dc	-0.061146602
84	0x3ee88e09	0.45420864
85	0x3e7268ce	0.23672792
86	0x3eb41774	0.35174143
87	0x3e574671	0.21022965
88	0xbf0cfb64	-0.5507109
89	0x3e8c39f4	0.27387965
90	0x3e976b35	0.2957398
91	0x3e4a4bca	0.19755474
92	0x3e4a5ac1	0.19761182
93	0x3e7c9359	0.24665584
94	0x3d8ccc56	0.068749115
95	0x3e6b21cc	0.22962111
96	0x3e889263	0.26674184
97	0xbe505fef	-0.20349096
98	0x3ed32189	0.41236523
99	0x3e8b061e	0.27153105
100	0x3e7aa1fa	0.24475852
101	0x3e66900f	0.22515891
102	0x3ed9b660	0.42521954
103	0x3ee956d2	0.4557405
104	0x3ead321a	0.33827287
105	0x3e7b2149	0.24524416
106	0x3e0e252c	0.13881367
107	0x3c9b32e5	0.018945167
108	0x3eef9c52	0.4679895
109	0x3e944f7f	0.289669
110	0x3e9c7042	0.30554396
111	0x3e913c6b	0.28366408
112	0x3e7c0aee	0.24613544
113	0x3e70becc	0.23510283
114	0x3e8fa4ac	0.28055322
115	0x3e296904	0.16543967
116	0xbecf3b2f	-0.4047484
117	0x3e4b03b5	0.19825633
118	0xbea3cb1b	-0.31990895
119	0x3ed6b598	0.4193542
120	0x3e4064f0	0.18788505
121	0x3e66295d	0.22476716
122	0xbda31fcf	-0.079650514
123	0x3e8aaa5b	0.27083096
124	0x3e8ca7ad	0.27471676
125	0x3e9551f0	0.29164076
126	0x3e7240e8	0.23657572
127	0x3e7f888b	0.24954431
128	0xbd7cbc74	-0.06170316
129	0x3e18e382	0.14930537
130	0x3e791410	0.2432406
131	0x3ef82926	0.48468894
132	0xbe9a3505	-0.30118576
133	0x3ed63706	0.41838855
134	0xbd68c19b	-0.05682526
135	0xbf220a5b	-0.6329705
136	0x3e1b96b5	0.15194209
137	0xbe956031	-0.2917495
138	0x3e246e6c	0.16057748
139	0x3e598439	0.21241845
140	0x3e7c05ac	0.24611539
141	0x3e9ac246	0.30226344
142	0x3e9d7724	0.3075496
143	0x3e790287	0.2431737
144	0x3e5eb141	0.21747304
145	0x3e9907e5	0.29888836
146	0x3e2138b4	0.15744287
147	0x3e43e5b4	0.19130594
148	0x3ea65f14	0.32494414
149	0x3e124336	0.14283451
150	0x3e98c7b3	0.29839858
151	0x3eab9bb7	0.33517238
152	0xbe99ea98	-0.30061793
153	0x3e7a2be5	0.24430807
154	0xbecfd233	-0.40590057
155	0x3e0e7ee9	0.139156
156	0x3e2688a7	0.16263066
157	0x3e235c12	0.15953091
158	0xbed6bd0b	-0.41941103
159	0xbc0d8d25	-0.0086396085
160	0x3e8667ef	0.2625117
161	0x3e3fe637	0.18740164
162	0x3ec654fc	0.38736713
163	0xbd98509e	-0.074372515
164	0x3e757934	0.23972017
165	0x3e731688	0.23739064
166	0x3e6adbdf	0.22935437
167	0x3ef8982c	0.48553598
168	0x3f1a1904	0.6019442
169	0x3e96606e	0.29370445
170	0xbd8e2fa5	-0.06942681
171	0xbbd40965	-0.0064708465
172	0x3ee5431b	0.4477776
173	0x3d2c78b2	0.04210729
174	0x3e936ce8	0.28794026
175	0x3d537c33	0.051632117
176	0xbd49066e	-0.049078397
177	0x3e4e5a9e	0.20151755
178	0x3e92b965	0.2865707
179	0xbebfbd2c	-0.37449014
180	0x3e94b302	0.29042822
181	0xbe006cad	-0.12541457
182	0xbcfe55d4	-0.031046785
183	0x3cf5a343	0.029985076
184	0x3e258d69	0.16167225
185	0x3e94b56e	0.2904467
186	0x3e7f6684	0.2494145
187	0x3e62cd66	0.22148666
188	0xbd3eb3f8	-0.04655835
189	0xbe7ab329	-0.24482407
190	0x3e17cc60	0.14824057
191	0xbee1524b	-0.44008097
192	0xbb2675b7	-0.0025399753
193	0x3d3a0d57	0.045422878
194	0x3ea296e3	0.31755742
195	0x3e3d84ee	0.1850774
196	0x3df031d6	0.117282555
197	0x3eaa9f87	0.33324835
198	0xbb8e86e0	-0.0043495744
199	0x3e981410	0.29702806
200	0x3ee93ef9	0.45555857
201	0x3dbd6116	0.09247033
202	0x3e97fe65	0.29686275
203	0xbd3ef660	-0.04662168
204	0xbe5043c0	-0.20338345
205	0x3e07d550	0.13264966
206	0x3ee04cf7	0.4380872
207	0x3e1d78bc	0.15378088
208	0x3e8194f6	0.2530896
209	0x3e234e06	0.15947732
210	0x3c559821	0.013036759
211	0x3d08a3ed	0.033359457
212	0x3e956d46	0.29184932
213	0x3e7433b5	0.2384785
214	0x3e6eda5e	0.23325488
215	0x3e8155d1	0.25260785
216	0x3e709b12	0.23496655
217	0xbf30cf90	-0.69066715
218	0x3ea83c75	0.32858625
219	0x3e568f82	0.20953181
220	0x3e8347f1	0.25640824
221	0x3edc9129	0.43079498
222	0x3e455137	0.19269262
223	0x3e55a47f	0.20863532
224	0x3e93f02e	0.2889418
225	0x3e982e21	0.29722694
226	0x3e99c803	0.3003541
227	0x3ed24e8a	0.41075546
228	0xbecbc449	-0.3979819
229	0xbddad863	-0.10685804
230	0x3c490240	0.012268603
231	0x3c95f3ed	0.01830479
232	0x3e75ff5c	0.24023193
233	0xbd1d8f96	-0.038467012
234	0x3e9b50af	0.30334994
235	0x3e6183f3	0.22022991
236	0xbe9eb13d	-0.30994597
237	0x3f0d9ea0	0.5532017
238	0x3e925321	0.28579047
239	0x3e1d924e	0.15387842
240	0xbeb4e174	-0.35328257
241	0x3bae98be	0.005328267
242	0xbe51a42a	-0.2047278
243	0x3e68abf5	0.22721846
244	0x3e5b7322	0.21430638
245	0x3e893ae6	0.26802748
246	0x3d3364d7	0.04379734
247	0x3e8f9497	0.28043053
248	0xbd242c8f	-0.040081557
249	0xbd8a1285	-0.067418136
250	0x3e93e78b	0.2888759
251	0x3efca4de	0.49344534
252	0x3e32852f	0.17433618
253	0xbc728a98	-0.014803551
254	0xbe456863	-0.19278102
255	0x3ece0a93	0.40242442

q.weight f4 [1, 256]
0	0xbf074a51	-0.5284777
1	0xbf01f85e	-0.50769603
2	0xbf11530e	-0.56767356
3	0x3d4514c8	0.04811552
4	0x407a5849	3.9116385
5	0x3faff953	1.3747963
6	0x3fc59be0	1.5438194
7	0xbf0e340d	-0.55548173
8	0x3fb58261	1.4180413
9	0xbef6c39b	-0.4819611
10	0xbf06631a	-0.52494967
11	0xbf12b64a	-0.573094
12	0x3fa47e00	1.2850952
13	0x3fc4d7ad	1.5378319
14	0x3fb1f3f2	1.3902571
15	0x3cef1e82	0.029189352
16	0xbfa32842	-1.2746661
17	0x3fd11f8b	1.6337751
18	0x4026e9d4	2.6080217
19	0xbf0383a7	-0.5137276
20	0x3bee5fe3	0.007274614
21	0x3d14dc3d	0.036342848
22	0x3b999d6d	0.004687956
23	0x3fc3e3e2	1.5303919
24	0x3fe52ff7	1.7905263
25	0xbfefa1ad	-1.8721215
26	0xbf1bdb90	-0.608819
27	0xbf00e2ec	-0.50346255
28	0xbefd2806	-0.49444598
29	0xbf06f87d	-0.52722913
30	0x401a492c	2.410716
31	0xbeef0b0c	-0.46688116
32	0xbf0731cd	-0.52810365
33	0xbf82148f	-1.0162524
34	0xbf139e1c	-0.5766313
35	0x3cc27a60	0.023739994
36	0xbfa7f9fa	-1.3123162
37	0x3f83b2ab	1.02889
38	0xbd4e3a30	-0.05034846
39	0xbf0c9fb6	-0.549312
40	0xbfb73f83	-1.4316257
41	0x3f6ef481	0.93341833
42	0xbf13afaf	-0.57689947
43	0x3fe64a81	1.7991487
44	0xbeee859c	-0.4658631
45	0xbfb73c98	-1.4315367
46	0xbf019699	-0.5062042
47	0x3f788dd6	0.97091424
48	0x3d29b74e	0.04143458
49	0xbef6d09a	-0.48206025
50	0xbcbe4e68	-0.023230746
51	0xbf05ee66	-0.5231689
52	0xbfcb1206	-1.5864875
53	0x3fa253a8	1.268178
54	0xbf11ae68	-0.5690675
55	0xbee5df59	-0.44896963
56	0x3f884eab	1.0649008
57	0xbf004387	-0.5010304
58	0xbfba037d	-1.4532315
59	0x3b6a6f4a	0.00357719
60	0xbf10fbf4	-0.5663445
61	0xbffc2169	-1.9697696
62	0xbef9ca60	-0.48787212
63	0x40097a46	2.148088
64	0xbf04fd33	-0.5194885
65	0x3fc4ab15	1.536471
66	0xbf00ea20	-0.50357246
67	0xbef86c89	-0.48520306
68	0xbf06d330	-0.52665997
69	0x3f58bf11	0.84666544
70	0x3fc2825a	1.519603
71	0x3c1c9405	0.009556775
72	0x3f872c7e	1.0560453
73	0x3fbc55ae	1.4713647
74	0x3cdf84c1	0.027284982
75	0xba83d02d	-0.0010056548
76	0xbfb1ba0c	-1.3884902
77	0xbef75300	-0.4830551
78	0x3fa95cba	1.3231423
79	0x3f829c96	1.0204036
80	0xbf1588c2	-0.584118
81	0x3fd99852	1.699961
82	0xbef1680c	-0.47149694
83	0xbd2ef326	-0.042712353
84	0x3fc0d2ae	1.5064294
85	0xbeeaaa35	-0.45832983
86	0x3f6d0584	0.9258654
87	0xbf0311ac	-0.5119884
88	0xbfc9d1a9	-1.5767108
89	0xbef9a35e	-0.48757452
90	0xbeecde81	-0.46263507
91	0xbf07e4ea	-0.5308367
92	0xbef88027	-0.48535272
93	0x3f83439d	1.0255009
94	0x3fdd6b56	1.7298381
95	0xbeec3f44	-0.46142018
96	0xbeeacad1	-0.45857862
97	0xbf4ed35b	-0.8079125
98	0x3faa5038	1.3305731
99	0xbefc617d	-0.49293128
100	0xbf01fefd	-0.50779706
101	0xbf0fae7d	-0.56125623
102	0x3fa79373	1.3091873
103	0x3f766854	0.9625294
104	0x3fa879bf	1.3162154
105	0xbf011130	-0.5041685
106	0xbf14e811	-0.58166605
107	0xbb82ab35	-0.0039876946
108	0x3fb24fca	1.39306
109	0x3fd45bd3	1.6590523
110	0xbeef1145	-0.46692863
111	0xbf06eb9a	-0.5270325
112	0x3f61d0b9	0.8820911
113	0xbf01e047	-0.50732845
114	0xbf00dca2	-0.5033666
115	0xbf117e43	-0.56833285
116	0xbfad9f41	-1.3564225
117	0xbefd22ff	-0.49440762
118	0xbfb543be	-1.4161298
119	0x3facdc75	1.3504778
120	0xbf0493c6	-0.51787984
121	0xbefdeca2	-0.495946
122	0x3cc43878	0.023952708
123	0xbf04a7a6	-0.5181831
124	0x3f88da82	1.0691683
125	0x3fa79541	1.3092424
126	0xbf0efc97	-0.5585417
127	0xbf005918	-0.50135946
128	0xbb38a918	-0.002817696
129	0xbeedda22	-0.46455485
130	0xbf05c074	-0.52246785
131	0x3fac1d77	1.3446492
132	0xbfb446e9	-1.408414
133	0x3fb039b5	1.3767611
134	0x3ccca648	0.024981633
135	0xbfdc2f0c	-1.7201858
136	0xbef20103	-0.47266397
137	0xbfca8f9a	-1.5825074
138	0x3f748aa5	0.95524055
139	0x3f937888	1.1521158
140	0x3faccf29	1.350072
141	0x3f696111	0.91163737
142	0x3faa4d1e	1.3304784
143	0xbefa773c	-0.48919094
144	0xbefedb5d	-0.49776736
145	0x3f872c9d	1.056049
146	0xbf1bc622	-0.608492
147	0xbeea71e8	-0.4579003
148	0x3fcd0ed8	1.6020155
149	0xbf192ca0	-0.5983372
150	0x3faa762f	1.3317317
151	0x3fb291dd	1.3950764
152	0xbfc12b81	-1.5091401
153	0xbeee6486	-0.46561068
154	0xbfbb0143	-1.460976
155	0xbf0fbad2	-0.5614444
156	0xbee8f5f4	-0.45500147
157	0x3f72a8db	0.94788903
158	0xbfae8153	-1.3633217
159	0xbccfe718	-0.025378749
160	0x3f658f81	0.89672095
161	0xbeebddc0	-0.4606762
162	0x3fc8e928	1.5696154
163	0xbc5c5f49	-0.013450452
164	0xbf00ff70	-0.50389767
165	0xbef376c1	-0.4755154
166	0xbee9516c	-0.45569932
167	0x3fbec519	1.49039
168	0x3fb197e3	1.3874477
169	0xbf035207	-0.5129704
170	0x3ccdeda0	0.025137722
171	0x40998ea1	4.7986608
172	0x40226d97	2.5379388
173	0x40174526	2.3635955
174	0x3fcab514	1.5836511
175	0x3f9af9f7	1.2107533
176	0xbf3b16e3	-0.730818
177	0xbef39cdb	-0.4758061
178	0xbf039c08	-0.5140996
179	0xbfb1f704	-1.3903508
180	0x3fb75c15	1.4324976
181	0xbf5f8614	-0.8731396
182	0x3d22d01e	0.039749257
183	0xbcd77fa1	-0.026305975
184	0x3ffe4e3a	1.9867623
185	0xbeec5393	-0.46157512
186	0x3f60759b	0.8767945
187	0xbef4d375	-0.4781758
188	0xbb68ca33	-0.003552091
189	0x402c6620	2.6937332
190	0xbeef31d4	-0.46717703
191	0xbfc1cede	-1.5141256
192	0x3d15d3e5	0.03657903
193	0x3c997a45	0.01873506
194	0x3f65c8fa	0.8975979
195	0xbf1ed79f	-0.6204776
196	0x3f7f0233	0.9961273
197	0x3fab3810	1.3376484
198	0x3d5557c2	0.052085645
199	0xbeee3db6	-0.46531457
200	0x3f805296	1.0025203
201	0x3f906751	1.128153
202	0xbeffabee	-0.4993586
203	0x3d05d624	0.032674924
204	0xbfcf2445	-1.6182944
205	0x40291cc0	2.6423798
206	0x3fb0c6b2	1.3810637
207	0xbf02dd18	-0.5111861
208	0x3f80aa98	1.0052061
209	0xbf0bf1a2	-0.5466558
210	0x3a7f987c	0.00097502
211	0xbf3b4a37	-0.7316012
212	0x3f82903c	1.0200267
213	0xbef97e20	-0.48729038
214	0xbf01978a	-0.50621855
215	0xbf067859	-0.52527386
216	0xbf056258	-0.52103186
217	0xbfd03c10	-1.626833
218	0x3f9838ea	1.1892369
219	0xbef69dec	-0.4816736
220	0xbefbfe67	-0.4921753
221	0x3f634825	0.8878196
222	0xbee3d02b	-0.44494757
223	0x3f87b6c1	1.0602647
224	0xbee8f11d	-0.45496455
225	0xbefdc1a4	-0.495618
226	0x3f75b702	0.9598237
227	0x3f6a7f9b	0.9160096
228	0xbf91f6c1	-1.1403428
229	0x40137607	2.3040788
230	0xbc509de9	-0.012732961
231	0x3cfb5e72	0.030684683
232	0xbf089457	-0.5335135
233	0x3cb334ff	0.021875856
234	0xbeffc851	-0.49957517
235	0xbf066d8b	-0.525109
236	0xbfbd762e	-1.480169
237	0x3fd08466	1.6290405
238	0xbf010645	-0.5040019
239	0x40264cce	2.5984378
240	0xbfc37c23	-1.5272259
241	0x401c1ac0	2.4391327
242	0x407f3b47	3.987993
243	0xbef4f1a5	-0.4784061
244	0xbf044310	-0.5166483
245	0xbefa9dbd	-0.4894847
246	0x3f96f43d	1.1793286
247	0x3fafc722	1.3732646
248	0x3bec0bca	0.007203554
249	0xbce49e3a	-0.02790748
250	0xbf099579	-0.537437
251	0x3fbb3558	1.4625654
252	0x3f6dd146	0.9289745
253	0x3fa0ceac	1.2563071
254	0x4022985f	2.54055
255	0x3f84a7f4	1.0363755
