TD3/models/lunarlander/00001000/target_actor.pth (torch, 276247 bytes, 6 tensors)

fc1.weight f4 [256, 8]
0	0x3ea5a5e7	0.32353136
1	0xbe38ee7b	-0.18059723
2	0xbec3fbef	-0.38278148
3	0xbec16b41	-0.3777714
4	0x3f8ddf73	1.1083816
5	0x3ef732bd	0.48280898
6	0xbea12816	-0.31475896
7	0xbf8305f0	-1.0236187
8	0x3d69b6e6	0.05705919
9	0xbe712986	-0.23550996
10	0xbea451b9	-0.320936
11	0x3ed51893	0.4162031
12	0xbf4a4af0	-0.79020596
13	0xbe50f3b9	-0.20405473
14	0x3eb19949	0.3468726
15	0x3e26a7c3	0.16274934
16	0xbc15eca0	-0.009150654
17	0x3d2f1e79	0.04275367
18	0x3eb62b2b	0.3557981
19	0x3de202a7	0.11035662
20	0xbf1a40c0	-0.6025505
21	0x3edd9d97	0.43284294
22	0xbd46ade6	-0.048505686
23	0x3cb10b93	0.021611964
24	0x3ef7c63e	0.48393434
25	0xbde4b19f	-0.11166691
26	0x3ed74e93	0.42052135
27	0x3dd9a2d7	0.10626762
28	0xbcf2fb32	-0.029660795
29	0xbe9f0511	-0.31058553
30	0xbd7ea69d	-0.062170614
31	0xbebf33e4	-0.37344277
32	0xbf0c915a	-0.5490929
33	0xbfb07b35	-1.37876
34	0xbd8861a3	-0.06659248
35	0xbee2089c	-0.44147193
36	0xbeaf43ac	-0.34231317
37	0xbe8d00dd	-0.2753972
38	0x3d9db456	0.07700412
39	0xbe70870b	-0.23489015
40	0xbf677b7c	-0.904228
41	0xbda1ef24	-0.079069406
42	0xbf205999	-0.62636715
43	0xbe80d767	-0.2516434
44	0x3e5bbc17	0.2145847
45	0x3dd04d2d	0.1017097
46	0x3e8b263e	0.27177614
47	0xbc665f4b	-0.014060806
48	0xbc507ee4	-0.012725566
49	0x3eae43d8	0.34036136
50	0xbeef8985	-0.46784607
51	0x3efd69ce	0.49494785
52	0x3f53623c	0.8257177
53	0x3f106ab9	0.56412846
54	0xbd10bf06	-0.035338424
55	0xbed74159	-0.42042044
56	0xbf4889f7	-0.7833552
57	0x3d48bc1e	0.049007528
58	0xba1773ce	-0.0005777449
59	0xbdedd754	-0.11613336
60	0x3dd38e5d	0.10329888
61	0x3f3065ea	0.6890551
62	0xbea5f100	-0.3241043
63	0x3ed73625	0.42033496
64	0x3f153c47	0.582951
65	0x3e290664	0.16506344
66	0x3f076e90	0.5290308
67	0x3e713b98	0.2355789
68	0xbc99844a	-0.018739838
69	0x3e367b59	0.17820491
70	0x3e40ab52	0.18815354
71	0xbe665d5b	-0.2249655
72	0x3f34a178	0.7055888
73	0x3e1ed3f8	0.15510547
74	0xbf1d3da9	-0.6142221
75	0xbe888226	-0.26661795
76	0x3cd0c742	0.025485639
77	0x3e0c0ab6	0.13675961
78	0x3ef087ab	0.46978506
79	0xbeae376e	-0.34026664
80	0x3e445aa5	0.19175203
81	0x3e4ed698	0.20199049
82	0xbeb128b4	-0.34601367
83	0x3ead1a46	0.33809108
84	0x3f2c6583	0.67342395
85	0x3f5e3c08	0.8681035
86	0x3ecd8e61	0.4014769
87	0xbe59fcf8	-0.21287906
88	0xbec6a794	-0.38799727
89	0xbf810033	-1.0078186
90	0xbf1334ab	-0.5750224
91	0xbe2e5074	-0.17022878
92	0xbe9e71ba	-0.3094614
93	0xbee8711f	-0.45398805
94	0x3db357b0	0.087569594
95	0xbf7a1178	-0.97682905
96	0xbe59b331	-0.21259762
97	0xbd394893	-0.045235228
98	0xbecdbd4e	-0.4018349
99	0x3f4935c3	0.7859766
100	0xbdd92160	-0.10602069
101	0x3ec63893	0.38715038
102	0xbf2c2066	-0.67236936
103	0x3e88c584	0.26713192
104	0x3e855ff1	0.2604976
105	0xbf98f47c	-1.1949611
106	0x3b4d5ff6	0.0031337715
107	0xbf0ab9c6	-0.5418972
108	0xbf1674c1	-0.587719
109	0x3f0519c9	0.5199247
110	0x3eabc92f	0.33551928
111	0xbe3493c4	-0.17634493
112	0x3e3dc1f1	0.18531014
113	0x3f03a191	0.51418406
114	0xbf00a8f7	-0.5025782
115	0xbd7d1520	-0.061787724
116	0x3f08ea0a	0.53482115
117	0xbd41347b	-0.04716919
118	0x3ed4f3a7	0.41592142
119	0xbe19192d	-0.1495101
120	0x3ee23e08	0.4418795
121	0xbcad6c38	-0.021169767
122	0x3e5a37a2	0.21310285
123	0x3faf179b	1.3679079
124	0xbd5eba5a	-0.054376937
125	0xbeced182	-0.40394217
126	0x3e4c0683	0.19924359
127	0xbf5ab852	-0.854375
128	0xbf36eea9	-0.71457916
129	0xbe806903	-0.25080118
130	0x3ed7fcd8	0.42185092
131	0xbf009ff5	-0.50244075
132	0x3e809eaa	0.2512105
133	0x3e277fba	0.16357318
134	0xbe64abe8	-0.22331202
135	0xbf08d4b7	-0.5344958
136	0xbeea4566	-0.45756072
137	0xbe3522f1	-0.1768911
138	0x3e32823b	0.17432491
139	0xbf5fc659	-0.8741203
140	0xbe72db42	-0.23716453
141	0xbd0e27d2	-0.034705944
142	0xbe0f5bd1	-0.13999869
143	0xbf64913e	-0.8928412
144	0xbea44e72	-0.320911
145	0x3dfaf98b	0.12254628
146	0xbf2571a6	-0.6462654
147	0xbe201012	-0.1563113
148	0xbed7784b	-0.42083964
149	0xbe8ebae6	-0.27876967
150	0xbec3c051	-0.38232663
151	0x3db8ffaa	0.09033139
152	0x3eb27962	0.34858233
153	0xbfb76fc7	-1.4330987
154	0x3eb15c4e	0.34640735
155	0x3f6862d9	0.9077583
156	0xbe16c4cb	-0.14723508
157	0x3e3d9593	0.1851409
158	0x3d39edd8	0.04539284
159	0x3e9f0615	0.31059328
160	0x3d835ebd	0.06414554
161	0xba24b70f	-0.00062833814
162	0x3d14d4aa	0.036335625
163	0x3e893d46	0.2680456
164	0x3f06efcd	0.52709657
165	0xbef71d9f	-0.48264787
166	0xbd8d37ec	-0.06895432
167	0x3d3c9cc9	0.04604796
168	0x3e8fa947	0.28058836
169	0x3e75e61d	0.24013563
170	0xbf1c7e3e	-0.6113013
171	0xbec639d3	-0.3871599
172	0x3e1eada8	0.15495932
173	0xbe0021ca	-0.1251289
174	0x3ec08d66	0.37607878
175	0xbf0e64f8	-0.55622816
176	0x3f43a69a	0.7642609
177	0x3e80daaf	0.25166842
178	0xbe4e83c3	-0.2016745
179	0xbf2b4fa8	-0.6691842
180	0xbe83caad	-0.25740567
181	0x3daa884f	0.0832678
182	0x3e5f2ac2	0.21793655
183	0xbe1b1c22	-0.1514745
184	0xbdd4bd61	-0.10387684
185	0xbf30ea06	-0.6910709
186	0x3e8f7c25	0.28024402
187	0xbd7d3f32	-0.061827846
188	0x3db53c66	0.08849411
189	0x3d9066e0	0.07050872
190	0xbeede6e1	-0.4646521
191	0xbea41663	-0.3204833
192	0x3ce30718	0.027713344
193	0x3edc83a8	0.43069196
194	0xbe675479	-0.22590818
195	0x3f9fca92	1.2483695
196	0x3f471138	0.7776065
197	0x3e98938e	0.29800075
198	0x3f1f6240	0.6225929
199	0x3d830fb1	0.06399477
200	0x3f4400e4	0.7656386
201	0x3db41ae2	0.0879419
202	0x3e7a4d75	0.2444361
203	0x3f0afb92	0.54290116
204	0x3f12a22f	0.5727872
205	0x3dde5ff5	0.10858146
206	0xbf78a7eb	-0.9713122
207	0xbeefe7cb	-0.46856532
208	0xbf125d62	-0.5717374
209	0x3e9788da	0.29596597
210	0xbf004a33	-0.5011322
211	0xbe961435	-0.29312292
212	0x3f666295	0.89994174
213	0xbecb2626	-0.39677542
214	0xbecf30d9	-0.40466955
215	0xbf16fc4b	-0.5897872
216	0x3f3b181a	0.7308365
217	0x3e3a6e15	0.18206055
218	0x3e3d4feb	0.18487518
219	0x3ebe45f4	0.37162745
220	0x3e7d3910	0.24728799
221	0x3ed14707	0.40874502
222	0x3e1cd6c8	0.15316308
223	0xbd533fb9	-0.051574443
224	0x3db0b137	0.08627551
225	0x3e1cb094	0.15301734
226	0x3eac72aa	0.33681232
227	0xbf5956be	-0.84897983
228	0xbe57e050	-0.21081662
229	0x3e9e37cd	0.30901948
230	0xbdf4899e	-0.11940311
231	0xbe056f02	-0.13030627
232	0xbf7d6478	-0.9898143
233	0xbd6472ff	-0.05577373
234	0x3dfc148d	0.12308607
235	0xbecfe499	-0.40604094
236	0x3e6708ff	0.22562025
237	0xbecfbfce	-0.40576023
238	0xbdfda741	-0.12385417
239	0xbe531955	-0.20615132
240	0xbc157ea7	-0.009124435
241	0xbf5f34bc	-0.8718984
242	0x3dc81d41	0.09771205
243	0xbec979e0	-0.39350796
244	0xbde35cb1	-0.11101664
245	0xbf0281fb	-0.50979584
246	0xbeaa39a7	-0.3324711
247	0x3f31ef4a	0.6950575
248	0x3f906ea0	1.128376
249	0x3dee4a82	0.11635305
250	0x3e82451f	0.2544336
251	0x3e6a5962	0.2288566
252	0x3e639ffa	0.22228995
253	0x3e1c5bbb	0.15269367
254	0xbf08c41d	-0.53424245
255	0x3e379986	0.17929658

fc1.bias f4 [256]
0	0x3e469939	0.19394387
1	0x3daefc78	0.08544248
2	0xbd8b180e	-0.067916974
3	0x3e2adc97	0.16685711
4	0xbe5fccaa	-0.21855417
5	0xbe1c8adf	-0.1528735
6	0xbe4d4cc4	-0.20048815
7	0x3d7372dc	0.05943571
8	0xbdc83b05	-0.09776882
9	0xbedd2146	-0.43189448
10	0x3df2fa02	0.118640915
11	0x3c4fedb0	0.012690946
12	0x3e9d547d	0.30728522
13	0xbdc04172	-0.09387483
14	0xbe5ce14a	-0.21570316
15	0x3c46c434	0.012131739
16	0x3c990178	0.018677458
17	0x3e094f40	0.13409138
18	0xbeabdd07	-0.33567068
19	0xbe7317ae	-0.23739502
20	0x3d934430	0.0719074
21	0xbea5da3a	-0.32393056
22	0xbe492ed8	-0.19646776
23	0x3eafcf10	0.34337664
24	0xbeef4bef	-0.4673762
25	0xbe0817df	-0.13290356
26	0xbe698346	-0.22803983
27	0xbdb8efd8	-0.090301216
28	0xbd95809d	-0.07299922
29	0xbd4e13a9	-0.050311718
30	0xbed95280	-0.42445755
31	0xbed53e39	-0.41649035
32	0x3eb718ea	0.35761195
33	0x3c983004	0.018577583
34	0xbe0f011c	-0.13965267
35	0x3eb2542a	0.34829837
36	0xbf4a2078	-0.78955793
37	0x3da002fc	0.07813069
38	0xbb8dac46	-0.004323515
39	0x3c199ece	0.009376241
40	0xbee0784a	-0.43841773
41	0xbe2048b2	-0.15652731
42	0x3d796d8b	0.060895484
43	0xbe9a1a45	-0.30098167
44	0xbe4990d4	-0.19684154
45	0xbe8fd995	-0.2809569
46	0x3e0fb96a	0.14035574
47	0xbe077e38	-0.13231742
48	0xbe6aa5e9	-0.22914852
49	0x3dd29c1c	0.10283682
50	0x3ea979ff	0.33100888
51	0x3dba48c8	0.09095913
52	0xbc1ae23e	-0.009453354
53	0xbe4964b4	-0.19667321
54	0x3e8a5e0c	0.27024877
55	0xbf2d058d	-0.67586595
56	0x3e217924	0.15768868
57	0x3e7c3adf	0.24631833
58	0xbe38b0a3	-0.18036132
59	0x3e3c9c50	0.18419003
60	0xbee02280	-0.4377632
61	0xbe0790f2	-0.13238886
62	0x3e9c1674	0.3048588
63	0x3e0cd3b8	0.1375264
64	0x3c9683ae	0.018373337
65	0x3e807901	0.2509232
66	0xbeaeaf4f	-0.34118125
67	0xbe090a1f	-0.13382767
68	0x3e75b1fc	0.23993677
69	0xbe8f5787	-0.27996466
70	0xbef48ec2	-0.47765166
71	0xbec3fe58	-0.38279986
72	0x3e9e9f99	0.30981138
73	0xbc88abc7	-0.016683472
74	0xbdda8060	-0.10669017
75	0x3cc5693a	0.024098027
76	0xbee3d0f4	-0.44495356
77	0xbe55fd72	-0.20897463
78	0xbe2db514	-0.16963607
79	0x3e90af8e	0.28258938
80	0x3c7cb027	0.015422857
81	0x3d7a20b3	0.06106634
82	0x3dc00d6c	0.0937756
83	0xbe99739e	-0.2997102
84	0xbd60b874	-0.05486341
85	0x3ed4f33a	0.41591817
86	0x3e1c4b6b	0.15263145
87	0xbd529547	-0.051411893
88	0xbe8ae44f	-0.2712731
89	0x3e2896e9	0.16463818
90	0x3ea5c021	0.32373145
91	0xbe18f0b8	-0.14935577
92	0xbdea138a	-0.11429508
93	0xbe8618fc	-0.26190937
94	0xbef6ba3e	-0.48188967
95	0xbf05b67e	-0.52231586
96	0x3e306ffc	0.17230219
97	0xbebb0370	-0.3652606
98	0xbf042b3d	-0.51628476
99	0xbf119973	-0.5687477
100	0xbe98fdd9	-0.2988117
101	0xbf051748	-0.5198865
102	0xbd6db43d	-0.058033217
103	0xbed4abf1	-0.4153743
104	0xbe65cd13	-0.22441511
105	0x3e0a8ad4	0.13529521
106	0xbbbaf5fb	-0.0057055927
107	0x3e7f59f4	0.24936658
108	0xbdb86c0f	-0.090049855
109	0xbe2df922	-0.16989568
110	0x3d35407d	0.044250954
111	0xbded7116	-0.11593835
112	0x3eb08108	0.34473443
113	0xbe4380b3	-0.19092064
114	0xbdc24b74	-0.09487048
115	0xbe144346	-0.14478788
116	0xbe3d3eb4	-0.1848095
117	0x3e68d235	0.22736438
118	0xbe98eb3b	-0.29866967
119	0xbee5499b	-0.4478272
120	0x3d7f1fe1	0.06228626
121	0xbdea4bf2	-0.11440267
122	0x3cf1a5e1	0.029498043
123	0x3e5a14fe	0.2129707
124	0xbf057758	-0.5213523
125	0x3ac3c664	0.0014936444
126	0xbd44a127	-0.04800525
127	0xbe909afb	-0.2824324
128	0xbe910026	-0.28320426
129	0xbf0bc55a	-0.5459801
130	0x3d5e94dc	0.054341182
131	0xbead7264	-0.33876336
132	0x3e3c4ee0	0.18389463
133	0x3e14f712	0.14547375
134	0xbe20d9ec	-0.1570813
135	0xbf081cdd	-0.5316904
136	0xbe3a9aca	-0.1822311
137	0xbe8755d6	-0.26432675
138	0x3eaa5bc9	0.33273152
139	0xbed7550a	-0.42057067
140	0xbe2184fc	-0.15773386
141	0x3cee16d2	0.029063616
142	0x3dfca2db	0.1233575
143	0xbeb45b3d	-0.3522586
144	0x3e190835	0.14944537
145	0xbf071b5b	-0.52776116
146	0xbe2cd400	-0.16877747
147	0xbe7beb2d	-0.24601431
148	0x3ed3c0bb	0.4135798
149	0xbf0d00ab	-0.55079144
150	0xbebbf9d2	-0.36714035
151	0xbe59d85e	-0.21273944
152	0xbe6fff5b	-0.23437254
153	0xbe53e8f8	-0.2069434
154	0x38d11486	9.9697194e-05
155	0xbdf43a08	-0.11925131
156	0xbed6bef9	-0.41942576
157	0x3e855c42	0.2604695
158	0xbddfe2f6	-0.10931961
159	0xbe96f58c	-0.29484212
160	0xbea5c1ce	-0.32374424
161	0x3db6de96	0.08929174
162	0xbe51adeb	-0.204765
163	0x3ea476c4	0.3212186
164	0xbda861cd	-0.08221779
165	0xbebd4205	-0.3696443
166	0xbec17630	-0.37785482
167	0x3e385802	0.18002322
168	0x3e83a8db	0.25714764
169	0xbec9113e	-0.39270967
170	0xbe8dd23e	-0.27699465
171	0xbe4be66d	-0.19912119
172	0x3e5d79e8	0.21628535
173	0xbda745fa	-0.08167644
174	0x3d48a302	0.04898358
175	0xbc6f3f71	-0.014602528
176	0xbe385014	-0.17999297
177	0xbdad595e	-0.08464311
178	0xbc570310	-0.013123289
179	0xbee55269	-0.44789436
180	0x3e203eac	0.15648907
181	0xbe983aa6	-0.29732245
182	0xbc1c3589	-0.009534248
183	0x3e9e29f4	0.30891383
184	0xbed52b2c	-0.416345
185	0xbc9a3a99	-0.01882677
186	0xbef75f7d	-0.4831504
187	0x3e3e806c	0.18603677
188	0x3df547df	0.11976599
189	0xbe0155bb	-0.1263036
190	0x3e8beeb7	0.27330562
191	0x3d9d301a	0.0767519
192	0xbea85486	-0.32876986
193	0xbf0a404e	-0.5400437
194	0xbde69cf3	-0.112604044
195	0xbed55f5e	-0.41674322
196	0xbf0914c7	-0.5354733
197	0xbe4e6c34	-0.20158464
198	0x3d804278	0.06262678
199	0x3d957824	0.07298306
200	0xbd8f6e89	-0.07003505
201	0xbe181060	-0.14849997
202	0xbe4b6584	-0.19862944
203	0x3d8d8470	0.06910026
204	0x3d21a42f	0.03946322
205	0xbe9a2cee	-0.30112404
206	0x3e32d063	0.17462306
207	0xbee300fb	-0.44336686
208	0xbef18b1d	-0.47176448
209	0x3d9c3591	0.076274045
210	0x3d336dff	0.043806072
211	0x3dca65aa	0.09882672
212	0xbe8d4661	-0.27592757
213	0xbf07840d	-0.5293587
214	0x3ea45776	0.32097977
215	0xbed23c3c	-0.4106158
216	0xbee997be	-0.45623583
217	0x3e267bab	0.16258113
218	0xbd943329	-0.072363205
219	0xbefec752	-0.49761444
220	0x3c94569a	0.018107701
221	0x3e83e9da	0.25764352
222	0x3e7edb58	0.2488836
223	0xbed922c8	-0.42409348
224	0x3caad720	0.020854533
225	0x3d90b746	0.07066207
226	0xbe401cf4	-0.18761045
227	0xbdd415f2	-0.10355748
228	0xbe268ce5	-0.16264684
229	0xbe973a73	-0.2953678
230	0xbe407506	-0.18794641
231	0xbe7cf803	-0.24703984
232	0x3e820ff2	0.2540279
233	0xbf185dd0	-0.59518147
234	0xbdef4f7b	-0.116850816
235	0xbd9f27fd	-0.07771299
236	0xbc8cf239	-0.017205345
237	0x3ef144e3	0.4712287
238	0x3d98d25a	0.074619964
239	0xbc7a6392	-0.0152825285
240	0x3c243a72	0.0100237
241	0xbe9d85af	-0.30766055
242	0x3e926654	0.28593695
243	0xbf216742	-0.63048184
244	0xbe0d86c4	-0.1382094
245	0x3dc29005	0.09500126
246	0x3e816ec0	0.25279808
247	0xbea88a18	-0.32917857
248	0xbecc7b0e	-0.39937633
249	0x3d93bf97	0.07214277
250	0xbc91a68f	-0.017779617
251	0xbdea5d90	-0.11443627
252	0xbec9db59	-0.3942516
253	0xbea8b569	-0.32950905
254	0xbcdb2782	-0.026752237
255	0xbe9b88aa	-0.30377704

fc2.weight f4 [256, 256]
0	0x3cfdd104	0.030983455
1	0xbc5027e0	-0.012704819
2	0xbd458611	-0.04822356
3	0x3d42a878	0.047523946
4	0xbd7a2762	-0.061072715
5	0x3cf10f7c	0.029426329
6	0xbd4c9388	-0.049945384
7	0xbd55015a	-0.052003242
8	0xbd838aa5	-0.06422929
9	0x3c722583	0.014779451
10	0xbd2f8476	-0.042850934
11	0xbc12aa86	-0.008951789
12	0xbcd0a5ba	-0.02546965
13	0x3ca08c94	0.019598283
14	0x3cf99d3b	0.030470481
15	0x3d483658	0.04887995
16	0xbb2c4c00	-0.0026290417
17	0x3d2a0ae6	0.0415143
18	0x3b84ac7c	0.004048882
19	0xbd600452	-0.05469162
20	0x3d4b0f40	0.04957509
21	0xbd7dec5c	-0.061992988
22	0xbd6b6dfb	-0.057477932
23	0xbce95223	-0.028481549
24	0x3c1ce095	0.009575029
25	0xbd7001dc	-0.058595523
26	0xbc1f2da5	-0.009715472
27	0xbd466d50	-0.048444092
28	0xbc63e383	-0.0139092235
29	0xbd37f3d8	-0.044910282
30	0xbca4b048	-0.020103589
31	0x3cb0e8b7	0.021595342
32	0xbd7e631c	-0.062106237
33	0x3c5b91d1	0.013401465
34	0x3b8945d4	0.0041892324
35	0x3caf164e	0.02137294
36	0xbd66d294	-0.056353167
37	0xbc2e2d7f	-0.010630964
38	0xbd1acaa8	-0.037790924
39	0x3d1614e0	0.036641
40	0x3c89dd7c	0.016829245
41	0x3b934140	0.0044938624
42	0x3bf08f43	0.007341297
43	0xbcc01e79	-0.02345203
44	0x3ce10c00	0.027471542
45	0x3c9ca84c	0.019123219
46	0x3ceb5a72	0.028729651
47	0x3d4b6aa8	0.049662262
48	0x3caf54ce	0.021402743
49	0xbb82f7c5	-0.0039968216
50	0xbd6c4023	-0.057678353
51	0xbc593459	-0.01325711
52	0xbcaf8c47	-0.021429194
53	0x3d1f0a84	0.038828388
54	0xbd6a5263	-0.057207476
55	0x3cd9b250	0.026574284
56	0x3ce8b6e8	0.028407529
57	0xbd4d6bf1	-0.05015177
58	0xbd194b1e	-0.037425153
59	0x3cc23280	0.02370572
60	0xbd50df8a	-0.050994433
61	0x3cf3b00b	0.02974703
62	0xbd32b5a8	-0.043630272
63	0xbd1f0e30	-0.03883189
64	0xbd75d544	-0.06001784
65	0x3ccf2ad0	0.02528897
66	0x3d27671e	0.040869825
67	0x3d0b3844	0.033989206
68	0xbd56e9e2	-0.05246914
69	0x3d4ac760	0.049506545
70	0x3d19a7e0	0.037513614
71	0xbd0eb9ed	-0.03484528
72	0x3ceee70a	0.029162902
73	0xbce5311b	-0.027977517
74	0xbd887e9d	-0.066647746
75	0x3d5d70b9	0.05406258
76	0x3caec8f6	0.02133606
77	0xbd2f3ff4	-0.0427856
78	0xbd60f96b	-0.054925364
79	0xbd4890f9	-0.04896638
80	0x3d07c704	0.03314878
81	0xbcf9b254	-0.030480541
82	0xb9fa6d0c	-0.00047764962
83	0xbb3b21e8	-0.0028554145
84	0x3d63949b	0.055561643
85	0x3cad0566	0.021120738
86	0xbd8ae18d	-0.06781302
87	0x3ce2f9ea	0.027707059
88	0xbd8fd4bd	-0.070229985
89	0x3bdd8e69	0.0067613614
90	0xbd276337	-0.040866103
91	0xbcdbf8f2	-0.026852105
92	0xbd65f46b	-0.0561413
93	0xbcfe6704	-0.031054981
94	0xbd7062bc	-0.05868791
95	0x3c5e8161	0.013580651
96	0xbd845755	-0.0646197
97	0xbcc6558c	-0.024210714
98	0x3c15ee75	0.009151091
99	0xbd7c61f6	-0.06161686
100	0xbd1f05ce	-0.038823895
101	0xbc530a3a	-0.012880856
102	0x3d5eca09	0.054391894
103	0xbd322f48	-0.043502122
104	0x3d7689bc	0.060189947
105	0x3b4862e1	0.0030576515
106	0xbbcf1b31	-0.00632038
107	0xbd5d161a	-0.053976156
108	0x3d15ff16	0.036620222
109	0x3cb3b38f	0.021936206
110	0x3bcd24d8	0.0062604956
111	0x3d2cd74e	0.042197518
112	0xbcc9cac4	-0.024632819
113	0xbd578db2	-0.052625366
114	0x3c0bab1c	0.008524682
115	0xbbe9673b	-0.0071229017
116	0xbcdd53e8	-0.027017549
117	0x3b0491ec	0.0020228578
118	0x3c4edcb0	0.012625858
119	0x3c8573b4	0.016290523
120	0x3ce9f88a	0.028560895
121	0xbd253dff	-0.040342327
122	0xbd52888a	-0.051399745
123	0x3d58a81e	0.052894704
124	0x3bd13899	0.006384921
125	0xbd98b566	-0.07456474
126	0x3c9ab06d	0.018882954
127	0xbc3f9b78	-0.0116947815
128	0xbd3f33bc	-0.046680197
129	0xbd4bdaa0	-0.049769044
130	0xbb432d48	-0.0029781628
131	0xbd1763e6	-0.036960505
132	0xbd5bb432	-0.053638645
133	0xbd4a7d29	-0.04943577
134	0xbd8a5105	-0.067537345
135	0x3b475490	0.0030415393
136	0xbc8b1db5	-0.016981939
137	0xbd272d4f	-0.040814694
138	0xbd296d17	-0.0413638
139	0xbc9a5826	-0.01884086
140	0xbd98059e	-0.074229464
141	0xbc7d7024	-0.015468631
142	0xbbf4d11c	-0.007471217
143	0xbd1a84ae	-0.03772419
144	0x3d3f69ff	0.046731945
145	0xbd04423d	-0.032289732
146	0x3d5eb952	0.054375954
147	0x3cd9e039	0.026596176
148	0x3d1cbb15	0.038264353
149	0xbd02b175	-0.031907517
150	0xbce96993	-0.028492725
151	0xbd30e0e8	-0.043183237
152	0xbd1a061e	-0.03760349
153	0x3d09a77c	0.03360699
154	0xbd4c5121	-0.049882058
155	0xbc625dab	-0.0138162775
156	0x3cadb99c	0.02120667
157	0xbac9f380	-0.0015407652
158	0xbaf99314	-0.0019041025
159	0x3c8c0a6c	0.017094813
160	0x3cd63209	0.026146905
161	0x3cbb0820	0.022831023
162	0xbd3190c0	-0.043350935
163	0xbc306190	-0.010765448
164	0x3c28003e	0.010253964
165	0xbd84ebc5	-0.06490282
166	0x3d565cd2	0.052334614
167	0xbd2e5b97	-0.042567816
168	0xbd810b95	-0.06301037
169	0xbd8a0b7d	-0.067404725
170	0x3d4c6f98	0.04991111
171	0xbd6b3b33	-0.057429504
172	0x3bd7e531	0.006588601
173	0xbc46b851	-0.012128905
174	0x3b9852f5	0.004648561
175	0xbd7aa6dc	-0.061194286
176	0x3c14d4b0	0.009083912
177	0xbd8ee675	-0.0697755
178	0x3cfef46b	0.031122407
179	0x3d470800	0.048591614
180	0xbc0076d8	-0.007840835
181	0xbc6caa64	-0.014444921
182	0xbd1a737e	-0.0377078
183	0xbb38b860	-0.0028186068
184	0x3bfe9b90	0.0077700093
185	0x3d592fa9	0.053023968
186	0x3d1dabb5	0.03849383
187	0xbd611c93	-0.05495889
188	0xbce19033	-0.02753458
189	0x3c7ce5db	0.015435661
190	0xbcd8c182	-0.02645946
191	0x3ceef83a	0.029171098
192	0xbd87fdb5	-0.06640188
193	0x3d0cb8a4	0.034355775
194	0x3cd0b458	0.02547662
195	0xbd66a9ab	-0.05631415
196	0xbc56c6a0	-0.013108879
197	0x3d03eea4	0.032210007
198	0x3d4f0de8	0.05055037
199	0xbd89c145	-0.06726316
200	0xbd3f17ec	-0.046653673
201	0x3d21892a	0.03943745
202	0x3cd416f9	0.02588986
203	0x3d329fc7	0.043609407
204	0xbd9663a6	-0.07343225
205	0xbc147a96	-0.00906243
206	0xbd77101c	-0.060318097
207	0xbc711218	-0.014713787
208	0x3d195b05	0.03744032
209	0xbd6e2de3	-0.05814923
210	0x3c2a5c26	0.010397946
211	0xbaa660c0	-0.0012693629
212	0xbd4bcfa4	-0.04975857
213	0x3d7cb286	0.06169369
214	0xbca6b36f	-0.020349232
215	0xba4d8e51	-0.0007841336
216	0xbd8db4fd	-0.069192864
217	0xbd13798e	-0.036004595
218	0x3c40efd9	0.011775934
219	0xbb8a936d	-0.0042290003
220	0x3d089f6c	0.03335516
221	0xbcf62bfc	-0.03005027
222	0x3cb578af	0.022152273
223	0xbce20dfa	-0.027594555
224	0x3d2a18f6	0.04152771
225	0xbc80c15d	-0.015717203
226	0xbd324de6	-0.04353132
227	0x3cc1b580	0.023646116
228	0xbd6e98eb	-0.058251303
229	0xbd8b1db5	-0.067927755
230	0x3c2c6156	0.010521254
231	0xbab3a648	-0.0013706172
232	0x3c65e272	0.01403104
233	0x3d11fa88	0.035639316
234	0x3ce65ac2	0.028119449
235	0x3d3652a7	0.044512417
236	0xbd884fbd	-0.06655834
237	0x3d093e04	0.03350641
238	0x3c9155e5	0.017741153
239	0x3d32dd7f	0.043668266
240	0xbb6191c3	-0.0034419156
241	0x3cfcc1eb	0.030854186
242	0x3d140d35	0.036145408
243	0xbcb50e70	-0.02210161
244	0xbcb9b1f0	-0.022667855
245	0xbc9eee5e	-0.019400772
246	0xbd0a904d	-0.033829022
247	0xbd8eea5d	-0.06978295
248	0xbd178992	-0.03699643
249	0xbd14c97e	-0.03632497
250	0x3d25475e	0.040351264
251	0xbd622d3b	-0.055218916
252	0x3d25a2c6	0.040438436
253	0xbd82abfd	-0.063804604
254	0xbc6ec3e3	-0.01457307
255	0xbca1c03f	-0.01974499

fc2.bias f4 [256]
0	0xbd23db4f	-0.04000407
1	0x3cca1b80	0.024671316
2	0xbdc66703	-0.09687617
3	0xbdb07d1d	-0.086176135
4	0xb9ce98b9	-0.0003940517
5	0x3cf0770b	0.02935364
6	0x3e41645d	0.18885942
7	0xbd9bfa1e	-0.076160654
8	0x3c754b8e	0.014971627
9	0xbdb8e212	-0.090274945
10	0x3cb0456f	0.021517484
11	0x3de9806e	0.11401449
12	0xbcea2a3e	-0.028584596
13	0xbc0f8388	-0.008759387
14	0xbda93347	-0.082617335
15	0xbcd77896	-0.026302617
16	0xbd1e73b9	-0.03868458
17	0xbc8fa1f5	-0.017533282
18	0x3c6f672a	0.014611999
19	0x3de65ab1	0.11247767
20	0x3e1e6caf	0.15471147
21	0xbd72392d	-0.05913656
22	0x3c8c4f2c	0.017127596
23	0xbe0f88d0	-0.14017034
24	0x3e3937fc	0.18087763
25	0xbdd71020	-0.105011225
26	0x3e814428	0.25247312
27	0xbcc4b709	-0.02401306
28	0x3cee335a	0.02907722
29	0x3e0cff36	0.1376923
30	0xbe35ad2d	-0.17741843
31	0x3c6cd0aa	0.014454046
32	0xbde59b43	-0.112112544
33	0x3e413f9e	0.18871924
34	0x3e08b87e	0.13351628
35	0x3cea68dd	0.028614456
36	0xbed318af	-0.4122977
37	0xbd6c5ee7	-0.057707693
38	0x3ceffd2a	0.029295523
39	0xbd37dba9	-0.04488722
40	0x3e633071	0.22186448
41	0xbe707149	-0.23480715
42	0xbda975af	-0.082743995
43	0xbc9c6846	-0.01909269
44	0xbd3eccf8	-0.046582192
45	0xbcd4c6e8	-0.025973752
46	0xbe1dcdd0	-0.15410542
47	0xbd5ac522	-0.053410657
48	0x3c611001	0.013736726
49	0x3cb46e47	0.02202524
50	0x3db64756	0.08900325
51	0xbe5d72ef	-0.21625875
52	0xbd7767ed	-0.060401846
53	0xbd872acc	-0.0659996
54	0xbd21992f	-0.039452728
55	0xbe574bf0	-0.21025062
56	0xbd90e080	-0.0707407
57	0x3b87b82c	0.004141828
58	0xbeaaf1a7	-0.3338749
59	0x3d9bc288	0.07605463
60	0xbd599c42	-0.053127535
61	0x3d878dc6	0.06618838
62	0x3e11c2f5	0.14234526
63	0xbdbff2b8	-0.09372467
64	0xbd06c3a5	-0.032901425
65	0xbd66d953	-0.0563596
66	0xbe3455e7	-0.17610894
67	0xbe1e13d7	-0.15437256
68	0xbe822044	-0.25415242
69	0xbd9e1f26	-0.07720785
70	0xbd9337ee	-0.07188402
71	0xbcd03125	-0.025414059
72	0x3e13b909	0.14426054
73	0x3e08b27a	0.13349333
74	0x3e3a43c1	0.18189909
75	0x3e308aa1	0.17240383
76	0xbb790674	-0.003799823
77	0xbd5996d3	-0.053122353
78	0x3c8540c5	0.016266236
79	0xbe2139bb	-0.15744679
80	0x3d0be907	0.03415778
81	0xbcf09a1f	-0.029370366
82	0xbdeb3d03	-0.114862464
83	0x3e7a4e60	0.2444396
84	0xbd53c243	-0.051698934
85	0xbd982259	-0.07428426
86	0xbca3dae4	-0.020001836
87	0xbc883915	-0.016628781
88	0xbcd40887	-0.025882972
89	0x3c979b63	0.018506711
90	0xbe9fc685	-0.31206146
91	0x3ddacb52	0.106833115
92	0x3bd295d1	0.006426551
93	0xbacbeac9	-0.0015557642
94	0xbde12c5f	-0.10994791
95	0xbe32473c	-0.17409986
96	0x3ccb535a	0.024820019
97	0xbd4603d9	-0.048343513
98	0x3cc179ea	0.023617703
99	0xbcdec06d	-0.027191365
100	0xbc9512eb	-0.018197497
101	0xbd3440ab	-0.044006985
102	0x3c9495ed	0.018137896
103	0xbe3a9bd4	-0.18223506
104	0x3dbf4b87	0.093405776
105	0xbd9354d6	-0.071939155
106	0x3c626322	0.01381758
107	0xbcc00259	-0.02343862
108	0xbde05213	-0.109531544
109	0x3d9549dc	0.07289478
110	0xbd8677dd	-0.06565831
111	0x3dece59b	0.11567231
112	0xbcf321dc	-0.029679231
113	0xbd932786	-0.07185273
114	0xbd92af36	-0.07162325
115	0xbe64ce55	-0.22344334
116	0xbd5ef502	-0.054432876
117	0x3d6bbed9	0.057555053
118	0xbe575499	-0.21028365
119	0xbd05e739	-0.032691214
120	0x3cd87550	0.026423126
121	0x3e15b946	0.14621457
122	0x3ca5bafe	0.020230766
123	0xbd6eddab	-0.058316868
124	0xbcdf99da	-0.027295042
125	0x3e465457	0.1936811
126	0x3d262a0b	0.04056744
127	0xbe8c2cae	-0.27377838
128	0xbd3b7202	-0.045763023
129	0x3dc38c94	0.095482975
130	0x3d40bb05	0.047053356
131	0xbe54dce8	-0.20787394
132	0xbd88c35d	-0.066778876
133	0xbc51370a	-0.01276947
134	0x3d4d88db	0.050179344
135	0xbd67076b	-0.05640356
136	0x3de6ef06	0.11276059
137	0x3cd5e64a	0.026110787
138	0x3e2f3966	0.1711174
139	0xbd71d37c	-0.059039578
140	0x3dade8c4	0.08491662
141	0x3d1bd714	0.03804691
142	0x3c122385	0.008919601
143	0xbd1a5b64	-0.037684813
144	0xbd2338cf	-0.0398491
145	0x3c78d603	0.015187743
146	0xbdb4ed28	-0.088342965
147	0xbe817315	-0.25283113
148	0xbd456799	-0.0481945
149	0x3e2107ff	0.15725707
150	0x3e0b5ee5	0.13610418
151	0xbb9b12de	-0.0047324738
152	0xbc45ad21	-0.012065203
153	0xbd270523	-0.040776383
154	0x3baee9c6	0.0053379266
155	0xbe6bf89f	-0.2304406
156	0x3d10b815	0.035331804
157	0xbe99b5d6	-0.30021542
158	0xbd51f1c2	-0.05125595
159	0x3e5a62f8	0.21326816
160	0x3e4c0bec	0.19926423
161	0xbdb5eb88	-0.08882815
162	0xbdfa5b52	-0.12224449
163	0xbd146db3	-0.03623743
164	0xbcd794ba	-0.026316036
165	0xbc487ca9	-0.012236753
166	0xbcea645b	-0.028612306
167	0xbe2121bf	-0.1573553
168	0xbce1a613	-0.02754501
169	0xbd771c9c	-0.06033002
170	0x3dcb237e	0.09918879
171	0xbc8e15f1	-0.017344447
172	0xbcb824e0	-0.02247852
173	0x3d0a4b8c	0.033763453
174	0x3db01dda	0.08599444
175	0xbd85093a	-0.064959005
176	0xbe65ddee	-0.2244794
177	0xbdc12d5d	-0.094324805
178	0x3db09402	0.0862198
179	0x3d0950c4	0.03352429
180	0xbe0344c5	-0.12819202
181	0x3d03de91	0.032194678
182	0xbd59cf51	-0.053176228
183	0x3db6b777	0.08921712
184	0x3b3a352f	0.0028413048
185	0x3e4c5ca0	0.19957209
186	0xbd922746	-0.07136397
187	0xbe3ef1c2	-0.18646911
188	0xbe3f0a8d	-0.18656369
189	0xbd89b4c8	-0.067239344
190	0xbcb84838	-0.022495374
191	0xbd078885	-0.03308918
192	0xbddb335e	-0.10703157
193	0x3da74afa	0.081685975
194	0x3ccdb308	0.025109783
195	0x3d8bd535	0.068277754
196	0xbdf09014	-0.11746231
197	0x3c21d77c	0.009878036
198	0xbd0f0741	-0.034919027
199	0xbbc24159	-0.0059282
200	0xbda2194f	-0.079149835
201	0x3d4f8022	0.050659306
202	0xbd5ea6e2	-0.05435837
203	0x3dd8c5b4	0.10584584
204	0x3d1e49b7	0.03864452
205	0x3d5f0e8b	0.05445723
206	0x3db87460	0.09006572
207	0x3e80db5b	0.25167355
208	0x3c7090d3	0.014682966
209	0xbd68152c	-0.056660816
210	0x3e29c894	0.1658042
211	0xbd9ed9ac	-0.07756361
212	0x3d9e37cb	0.077254854
213	0xbc32a4e9	-0.010903575
214	0xbc1c7a3e	-0.009550629
215	0xbe99eb5a	-0.30062371
216	0x3da558be	0.08073567
217	0x3e090987	0.1338254
218	0x3cb687e7	0.0222816
219	0x3d10f2b8	0.035387725
220	0x3e8a8cba	0.2706049
221	0x3ceed832	0.029155824
222	0xbe26007f	-0.16211127
223	0xbe698404	-0.22804266
224	0x3e694756	0.22781119
225	0x3d06d5f1	0.032918874
226	0xbd4b7982	-0.049676426
227	0x3db12ae3	0.08650758
228	0x3c353806	0.01106072
229	0x3c308fa7	0.010776437
230	0x3e831010	0.25598192
231	0x3d858b12	0.06520666
232	0xbcff1c7b	-0.03114151
233	0xbd0d80c2	-0.03454662
234	0xbcebb76b	-0.028773984
235	0xbe315eb6	-0.17321286
236	0x3e53f85d	0.20700212
237	0xbe19009c	-0.14941639
238	0x3e3b8076	0.18310723
239	0x3d2219d7	0.039575424
240	0xbd554aca	-0.052073278
241	0x3ab16c32	0.0013536273
242	0x3ccbc3b8	0.0248736
243	0xbd273db7	-0.04083034
244	0xbd86b405	-0.06577305
245	0xbca288e5	-0.019840667
246	0xbc84103d	-0.016121024
247	0xbd409dd1	-0.047025505
248	0xbd77bfe4	-0.060485736
249	0x3ccf50ec	0.025307141
250	0xbe831039	-0.25598314
251	0xbda6d555	-0.081461586
252	0xbddb3243	-0.10702946
253	0x3d888898	0.06666678
254	0xbe8409e8	-0.25788808
255	0xbc69a1ed	-0.0142597975

mu.weight f4 [2, 256]
0	0x3ccce338	0.02501069
1	0xbd1a8255	-0.03772195
2	0xbf3eb9ca	-0.7450224
3	0xbea7a1c0	-0.32740593
4	0xbc32f107	-0.010921723
5	0x3bcc00a8	0.006225664
6	0x3e6ef8fa	0.23337165
7	0xbcbee917	-0.023304505
8	0xbe89462b	-0.26811346
9	0xbebed7d7	-0.37274048
10	0xbd24f16f	-0.04026931
11	0xbedbdd1a	-0.42942125
12	0xbd1128dc	-0.035439357
13	0xbe40e45c	-0.18837112
14	0x3cd7d1aa	0.026345093
15	0xbe339e10	-0.17540765
16	0x3d833509	0.064066
17	0xbca6221e	-0.02027994
18	0x38db9b32	0.00010471641
19	0xbfa7797d	-1.308395
20	0x3d8de572	0.06928529
21	0xc0f07e3d	-7.51541
22	0xbc071cb5	-0.00824659
23	0x3e8bb97f	0.2728996
24	0xbe1574ec	-0.14595383
25	0xbed9d86e	-0.42547935
26	0xbe5a8f50	-0.21343732
27	0xbbebe64b	-0.007199084
28	0xbcd80602	-0.026370052
29	0xbe43de64	-0.19127804
30	0xbe6cb08f	-0.23114227
31	0x3bc7fc88	0.006103102
32	0x3ee599c0	0.44843864
33	0x3eafec75	0.3436009
34	0x3e671056	0.22564825
35	0x3f44efef	0.7692861
36	0xc01f4520	-2.488594
37	0x3f41e819	0.7574478
38	0x3c63e8fb	0.013910527
39	0x3d0e8dc8	0.034803182
40	0xc0b8a51c	-5.770155
41	0x3d0f6e77	0.035017457
42	0xbca86cd7	-0.020559711
43	0xbbd83d7a	-0.0065991255
44	0x3daa18f7	0.08305543
45	0xbd50a8ee	-0.050942354
46	0xbeafd90f	-0.3434529
47	0xbd29c23e	-0.04144501
48	0xc07eda1c	-3.9820623
49	0x3c2fb356	0.010723909
50	0xbeafa6b6	-0.34306878
51	0x3fa4c123	1.2871441
52	0xbf95e880	-1.1711578
53	0xbf1faf40	-0.62376785
54	0xbb8ca774	-0.004292423
55	0x405ccba6	3.4499297
56	0xbe60f34a	-0.21967807
57	0xbcdc8fb9	-0.026924001
58	0xbec9d4ff	-0.39420316
59	0x3f1fd450	0.6243334
60	0x3c2f565f	0.010701745
61	0xbf10411c	-0.5634935
62	0xbf1204ba	-0.5703846
63	0x3c86e6cd	0.016467476
64	0xbcdbb4f9	-0.026819693
65	0x3cde5f01	0.02714491
66	0xbe3eec7a	-0.18644896
67	0x3edb5c1e	0.42843717
68	0x3e9fce0b	0.31211886
69	0xbe94441c	-0.28958213
70	0x3d31df97	0.043426123
71	0x3eb82fbb	0.35973915
72	0xbfde4de4	-1.736752
73	0x3fb2f825	1.3981978
74	0xbf8767d6	-1.0578563
75	0xbd445797	-0.047935095
76	0xb9c37461	-0.00037280007
77	0x403b5bb7	2.9274728
78	0x3f55e5c2	0.8355371
79	0x3ea8dffc	0.32983387
80	0x3e32ebdc	0.17472786
81	0x40b7c80c	5.74317
82	0xbf713ceb	-0.9423358
83	0x3d816a16	0.063190624
84	0xbb7ece5c	-0.0038880324
85	0x3d1afb7a	0.037837483
86	0x3ff62a38	1.9231634
87	0x3ca76fb6	0.02043901
88	0xbf2ccb8e	-0.674981
89	0xc01e857a	-2.4768968
90	0xbf0e2b0d	-0.5553444
91	0xbeef3ebd	-0.46727553
92	0xbcb78678	-0.022402987
93	0xbc0187cd	-0.007905913
94	0xbe9f07d1	-0.3106065
95	0xbe87cd72	-0.2652393
96	0xbf276980	-0.65395355
97	0xbc6ff3cb	-0.014645527
98	0x3f1c0e6b	0.609595
99	0x3e8a4b53	0.27010593
100	0xbe6b79df	-0.22995709
101	0x3efc825e	0.49318212
102	0xbc0fb4b4	-0.00877111
103	0x3f0579c1	0.52138907
104	0x3e0323cc	0.12806624
105	0xbd688ed3	-0.056776833
106	0xbc9d9cdd	-0.019239837
107	0x3bbdb227	0.0057890597
108	0x3eec274c	0.4612373
109	0x3ebd3c22	0.3695994
110	0x3d1a2ad5	0.037638504
111	0xbe51c1a0	-0.20484018
112	0x3c38e927	0.011286057
113	0x3c8e4bc5	0.017370114
114	0x40886e34	4.2634525
115	0x3fb22054	1.3916116
116	0x3d1fba45	0.038996
117	0xc00fa6b1	-2.244549
118	0xbca6c21b	-0.020356229
119	0x3e78c4cf	0.24293827
120	0xbe1405fd	-0.1445541
121	0x3e2ec5c4	0.17067629
122	0x3cf572d4	0.02996198
123	0x3d259af6	0.040430985
124	0x3c0d18bd	0.008611855
125	0xbd175c78	-0.03695342
126	0x3c245ac1	0.010031403
127	0x3fa393a2	1.2779429
128	0x3e42875e	0.18996951
129	0x3ea653d8	0.32485843
130	0xbe04c4f0	-0.1296575
131	0x3cbee034	0.023300268
132	0xbd514f41	-0.051100973
133	0x3c897bbc	0.016782634
134	0xbf770e73	-0.9650642
135	0xbd0e2e15	-0.034711916
136	0x3e541c0d	0.20713826
137	0x3f8ffdd9	1.1249343
138	0xbd9ed366	-0.07755165
139	0xbd5c0ed1	-0.053725068
140	0xbe838ef8	-0.25695014
141	0xbf5a058b	-0.8516471
142	0x3cac94c0	0.021067023
143	0xbe47dd0d	-0.19517918
144	0xbd0650cd	-0.0327919
145	0xbb162395	-0.0022909392
146	0xbdbe1c28	-0.09282714
147	0x3f6ddb17	0.9291243
148	0x3c8861b5	0.016648153
149	0x3e24343c	0.16035551
150	0x3e5a1707	0.21297847
151	0x3b90b9a5	0.004416662
152	0xbcd379f1	-0.025814982
153	0xbd0ce483	-0.034397613
154	0xbcbd0007	-0.023071302
155	0x3e91c4cd	0.2847046
156	0x3b384068	0.002811456
157	0xbe19feda	-0.15038624
158	0xb911dd0d	-0.00013910625
159	0xc1296f4c	-10.589672
160	0x3edf55a0	0.43620014
161	0xbcc9dc38	-0.024641141
162	0x3deea759	0.11653013
163	0x3f9ce6ac	1.2257895
164	0xbd308e17	-0.043104257
165	0x3d2e97be	0.04262518
166	0x3ce8688a	0.02837016
167	0xbe303385	-0.17207153
168	0xbc643973	-0.013929713
169	0xbb790354	-0.0037996368
170	0x3dc056c0	0.09391546
171	0x3ebd68cf	0.36994025
172	0xbe95e9d1	-0.2927995
173	0xbc12cc1d	-0.008959797
174	0xbebaf07d	-0.36511603
175	0x3eed0227	0.46290705
176	0xbfe2d273	-1.7720474
177	0x3cb87ba7	0.0225199
178	0x3d189b52	0.0372575
179	0xbcdcbd09	-0.026945608
180	0x3f48a9bf	0.7838401
181	0x3e08bbb2	0.1335285
182	0xbdf3066c	-0.11866459
183	0x3da14d09	0.078760214
184	0xbc9b3ab6	-0.018948894
185	0xbf3cdc01	-0.737732
186	0xbc946ede	-0.018119272
187	0x3e3fa5cf	0.18715595
188	0xbe6f7925	-0.23386057
189	0xbf401c3c	-0.7504308
190	0xbd578519	-0.052617166
191	0xbcd21421	-0.025644364
192	0x3f03dfbe	0.5151328
193	0xbf99b5e3	-1.2008632
194	0xbc381ae7	-0.011236883
195	0x3df1868b	0.1179324
196	0x3ead753f	0.33878514
197	0xbea7c0d4	-0.32764304
198	0x3fcdccfb	1.607818
199	0xbcf26593	-0.02958945
200	0x3c66040a	0.014039049
201	0x3e67d5f8	0.22640216
202	0xbd1508c5	-0.036385316
203	0x3ebb7fa3	0.36620817
204	0x3d9ee569	0.077586
205	0x3dd2b27d	0.1028795
206	0x3e7ae889	0.24502768
207	0xbd8e42fb	-0.06946369
208	0x3cfd484b	0.030918261
209	0x3efc61e1	0.49293426
210	0x3d8472a4	0.064671785
211	0x3e9c1e95	0.30492082
212	0x409931e9	4.7873425
213	0xbbf82668	-0.0075729378
214	0x3bfb0244	0.007660182
215	0xbd61fdd4	-0.05517371
216	0xbdb7252f	-0.08942639
217	0x3f06a09e	0.5258883
218	0xbc552528	-0.013009347
219	0x3e53782a	0.20651308
220	0x3f26993c	0.6507757
221	0xbd0c0bfc	-0.034191117
222	0xbe3329ac	-0.17496365
223	0xbec7f1c6	-0.39051646
224	0x3ef1406f	0.4711947
225	0xbe3e5785	-0.18588074
226	0xbc2f3336	-0.010693362
227	0xc11be668	-9.743752
228	0xbf5f5e41	-0.87253195
229	0xbc6e5e53	-0.014548856
230	0xc145cb13	-12.362079
231	0x40048fac	2.071269
232	0xbe983045	-0.29724327
233	0xbe3078cd	-0.17233582
234	0x3ceae2ea	0.028672654
235	0xbef4ae88	-0.47789407
236	0xbcd9d4ca	-0.026590724
237	0xbf87d014	-1.0610375
238	0x3f833ae4	1.0252347
239	0x3faec258	1.3653059
240	0xbcb5c607	-0.022189153
241	0xbe58e54e	-0.21181223
242	0xba8f1acc	-0.001091802
243	0xbcd2ea32	-0.025746439
244	0xbce1b1ca	-0.027550597
245	0x3e74d775	0.23910315
246	0xbbfa4083	-0.007637085
247	0xbb047b44	-0.0020215074
248	0xbcaf4e8e	-0.021399762
249	0x3f6fd7aa	0.9368845
250	0xbd6ad775	-0.057334382
251	0xc027d9af	-2.6226614
252	0x3eea4b53	0.45760593
253	0x3c2a3aa0	0.010389954
254	0x3ece536c	0.4029802
255	0x3e966dc6	0.29380625

mu.bias f4 [2]
0	0xbc7be93b	-0.015375431
1	0x3d120a43	0.035654318
