TD3/models/lunarlander/00001000/target_critic_1.pth (torch, 277271 bytes, 5 tensors)

fc1.weight f4 [256, 10]
000000 cd de 2c bf 1d f3 65 bf ee 67 95 3e 7f d6 e9 bd
       -0.67527467 -0.89824086 0.29180855 -0.11417865
000010 67 d7 77 bf 03 71 c0 be b7 6e 7b 3e ca e6 11 3c
       -0.9681305 -0.3758622 0.24553953 0.008905122
000020 13 eb 25 be a5 fc 17 be 06 7e 32 3e 4f 7b f0 bd
       -0.16202955 -0.1484247 0.17430887 -0.11742269
000030 4f 71 0e 3e 47 5c 46 bf 7e 4f 28 be 07 e1 12 bf
       0.13910411 -0.77484554 -0.16436574 -0.57374614
000040 c2 0a e1 3e 6a fa 6d 3d 49 8d 39 bd de ce 22 3c
       0.4395352 0.05810014 -0.045300756 0.009937016
000050 1c 87 c0 3e fd 14 da be b4 16 89 3c 23 c8 b8 3e
       0.3760308 -0.42594138 0.016734459 0.36090192
000060 c7 36 1f bf 9d b0 1c bf ea 95 65 3e 3f 87 db bc
       -0.6219296 -0.6120699 0.22420469 -0.026797889
000070 f0 03 fa bd 3a f0 c7 3d c7 b3 33 bf a5 d7 0d 3e
       -0.12207782 0.097626165 -0.70196193 0.13851793
000080 b2 85 e2 be 6e 93 ec be fb 8b 3e bf 70 71 6e bf
       -0.44242626 -0.4620623 -0.74432343 -0.9314184
000090 7b 16 88 3f 8a 3c b8 3e cf 9e 99 3e 8b c7 92 3c
       1.063186 0.35983688 0.30003974 0.017917415
0000a0 1a 32 85 bf c8 4a 70 bf 16 44 11 bf 9c 38 d4 be
       -1.0405915 -0.9386411 -0.56744516 -0.4144944
0000b0 42 42 ce be 80 9b 08 bf da 82 b6 be 63 8e 8e be
       -0.40284926 -0.53362274 -0.35646707 -0.27843007
0000c0 97 4e 95 be 2b 27 38 bd b1 58 a5 be 8b 76 bc be
       -0.29161522 -0.04495923 -0.3229423 -0.3680919
0000d0 c1 41 8a be 9c 5d 39 bf cc c8 87 3e d7 3a 1d be
       -0.2700329 -0.7240846 0.26520383 -0.15354477
0000e0 52 76 ef 3e da 95 28 3f ce a5 b3 bd 15 ac d3 bd
       0.4676996 0.65853655 -0.08771859 -0.103355564
0000f0 f5 14 35 3e 73 4b 36 3e d6 c3 94 be 4f d9 88 3e
       0.17683776 0.17802219 -0.2905566 0.26728293
000100 4a c4 bc 3e 35 aa 44 be d9 04 49 3f e9 98 ef 3d
       0.36868507 -0.19205554 0.7852302 0.11699087
000110 b1 31 2c bd 40 15 cd 3d 95 d8 70 bf ee d6 00 3d
       -0.042039577 0.10013819 -0.9408048 0.031454973
000120 94 58 a1 be 9e 27 d0 be 8f 04 ce be a6 86 07 3e
       -0.31512892 -0.40655226 -0.40237853 0.13234958
000130 63 e5 d3 3e d1 2b 5a bf 7f 19 ec bb 4e ea 8f 3a
       0.41385946 -0.8522311 -0.007205188 0.0010979862
000140 ea 7b 3d bf 6c ca 9e 3c 91 93 0d bf 1e 8b 04 3c
       -0.740172 0.019383632 -0.55303293 0.008089809
000150 f0 2a 63 bf 0f 37 f5 bd 66 3d 61 3d 3c dd b3 3e
       -0.8873739 -0.11973392 0.054990195 0.35129726
000160 47 a5 9b bb 74 b4 9e bd 61 7a 54 be 58 96 8c bf
       -0.004749927 -0.077492625 -0.20749809 -1.0983381
000170 8a 01 72 3e 65 16 1e 3f 72 57 42 be 96 50 57 3f
       0.236334 0.6175292 -0.1897867 0.8410734
000180 ec c8 b9 3d 42 50 36 bf 2b f3 b3 bc d7 2a 83 be
       0.09071526 -0.71216214 -0.021966537 -0.25618622
000190 4d 15 76 bd 58 c1 af be 9b 1f 92 3e 1a b9 45 bd
       -0.060078908 -0.34327197 0.28539738 -0.04827223
0001a0 26 df 10 bf b2 6b 94 be 1c 2f 72 3b 7d 15 02 c0
       -0.565905 -0.28988415 0.003695435 -2.0325615
0001b0 f9 33 f6 bc 7a 2f 80 bb a1 45 69 be a0 9d 00 bf
       -0.03005408 -0.0039119096 -0.22780468 -0.50240517
0001c0 0d 13 bb 3e ec 32 10 b9 4c 15 b2 be 17 e1 82 be
       0.36537972 -0.0001375188 -0.34781873 -0.25562355
0001d0 fd a4 fe 3e 4a 17 26 bf 43 c2 14 3f 6d d3 ac bd
       0.4973525 -0.64879286 0.5810892 -0.08438764
0001e0 a6 fe 8b 3f c8 96 ed bb 45 ba df 3e 2d 4a b0 3d
       1.0937088 -0.0072506405 0.436968 0.08607898
0001f0 42 82 7f 3e 6d 39 89 3d fb af 33 bf 7c 3d 47 be
       0.24952033 0.06700406 -0.701904 -0.19457048
000200 a9 3a 03 bd 78 74 b7 3d 08 0d dd 3e 99 5a 80 3e
       -0.032038365 0.089577615 0.43174005 0.2506912
000210 c5 a9 d5 3e c2 d9 90 bd 4e bf 9d be 77 0b dc 3d
       0.41731086 -0.07072784 -0.30810016 0.10744374
000220 05 e9 81 bf a0 48 cd be b8 d4 a0 bd fc 93 9c 3d
       -1.0149237 -0.4009447 -0.07853073 0.07645413
000230 f3 c4 6a bf c4 6b b7 be 53 e3 43 be 1f 04 e1 be
       -0.9170677 -0.35824406 -0.19129686 -0.43948457
000240 1f f1 01 bf fa 88 b5 bd 9b fe b2 be d9 24 2d 3f
       -0.50758547 -0.08864017 -0.34959874 0.6763435
000250 72 fe 0c 3f 9c 75 8f be ee 04 87 bd dd 9d 83 bf
       0.5507575 -0.28019416 -0.06592737 -1.0282551
000260 58 ff 36 3e 72 3d 4c bf ca 2c 80 3d 48 15 d5 3e
       0.17870843 -0.7978126 0.06258543 0.416178
000270 d8 be 18 bf 4d 62 60 be ee 6b a8 3e 08 9a 01 be
       -0.59666204 -0.21912499 0.32894844 -0.12656415
000280 84 d9 31 bf b9 41 70 3d 42 b3 2a 3e 07 09 75 3e
       -0.6947253 0.058656428 0.16669944 0.23929225
000290 dc 21 d5 3e af 63 f7 3e 9c 37 6a 3d 0a fc dc bd
       0.41627395 0.4831824 0.05718194 -0.1079026
0002a0 46 c3 36 3e c5 a8 38 bd d0 ea aa 3e 35 af 05 be
       0.17847928 -0.045082826 0.33382273 -0.13055117
0002b0 af 22 ac 3e cd c1 0e 3f ec d8 0c bf 35 18 a3 3e
       0.3362021 0.55764467 -0.55018497 0.31854406
0002c0 07 3f f3 3e 23 ac ed be 10 da 8d bd bb b5 00 3e
       0.47509024 -0.46420392 -0.06926358 0.12569325
0002d0 14 4b 3e bd 32 7b 02 3c 57 94 de 3c 3d f1 2a bf
       -0.04645832 0.007963942 0.027170343 -0.6677435
0002e0 12 b9 86 be f9 3d 22 bf 75 70 06 3f 42 98 ca 3e
       -0.26313072 -0.6337581 0.52515346 0.39569288
0002f0 e5 13 b4 bd ab 5f e0 3d 9f e8 4d be cf 36 13 bf
       -0.08792857 0.10955747 -0.20108269 -0.57505506
000300 f9 0c 95 bd f8 95 a4 bd db 15 33 bf 33 b5 94 be
       -0.07277865 -0.08036417 -0.69955224 -0.29044494
000310 28 2d c1 3e 8d bf 12 bf 24 ce 57 be df 4b 93 3e
       0.37729764 -0.57323533 -0.2107473 0.28768823
000320 56 cf 61 be ad 74 b7 bf 7a ad 2e be d8 3b da bc
       -0.22051749 -1.4332482 -0.17058364 -0.026639864
000330 61 bd cf 3e 2e 5c 22 bf 60 b6 52 3f 25 44 2d 3e
       0.40574172 -0.63421905 0.8230953 0.16920526
000340 20 89 a6 3e 5a ff cd be f5 1b 56 3c e1 a4 80 3e
       0.32526493 -0.4023388 0.013068189 0.25125793
000350 40 61 2e bf 0a 5e ee 3e 82 96 ae 3e 44 df 8a 3f
       -0.6811714 0.4655612 0.34099203 1.0849385
000360 6f e9 57 3d a5 a7 97 bd 96 f7 91 bc 79 5e d3 bd
       0.052712854 -0.074050225 -0.017818253 -0.103207536
000370 fb 4c db be f1 0b dd 3e 30 6a 8d 3e 7f dc 3b 3e
       -0.4283217 0.43173173 0.27620077 0.18345831
000380 17 33 47 3d bd 2a 53 3f b4 d1 9f bd 6f 74 ae bd
       0.048632707 0.8248709 -0.078036696 -0.08518302
000390 77 2d 2d bc bc 30 92 3d 6b 84 a6 3d a8 3d c9 3e
       -0.010569922 0.071382016 0.081307255 0.39304852
0003a0 ab 1f c6 bd 2c 4c 52 3e f2 55 1a 3f 42 43 86 3e
       -0.09674009 0.2053687 0.6028739 0.2622319
0003b0 93 ac 27 3e b5 33 a7 bd 17 16 92 3d 2f 64 b6 bc
       0.16374426 -0.08164159 0.071331196 -0.022264568
0003c0 e3 f5 33 be 4c 40 43 bf 48 f9 f7 be 27 a8 07 3f
       -0.17574267 -0.76269984 -0.48432374 0.52990955
0003d0 66 2e 07 bf a5 42 06 bf c4 47 10 3e e7 12 16 3e
       -0.52805173 -0.5244544 0.14089876 0.14655648
0003e0 c5 0a 4a be 3b 92 2b bd bf 3a 18 bf f3 33 9e be
       -0.19730671 -0.041887503 -0.5946464 -0.3089901
0003f0 ff 01 be bd 5a 56 30 bf 85 c7 8f be a6 8a 9c be
       -0.092777245 -0.6888176 -0.2808191 -0.3057453

fc1.bias f4 [256]
000000 65 c0 af 3e cb 35 89 be 1c 48 11 3c d8 bc c0 3e
       0.34326473 -0.26798853 0.00886729 0.37644076
000010 19 da 05 3f dd 31 b7 be e0 03 aa 3e 1c 2b 52 bf
       0.52285916 -0.3578023 0.3320608 -0.8209703
000020 67 ce 4a 3e 36 b5 e5 bd 65 b6 05 bf ec 0f 4e be
       0.19805299 -0.11216204 -0.52231437 -0.20123261
000030 a2 63 dc 3c 76 66 73 3e 8e cb 1b bd a3 7f e3 bd
       0.026902977 0.23769554 -0.03803592 -0.11108329
000040 9f 90 08 bf 78 02 e5 be bb 04 0d bf ab 1b 7b be
       -0.53345674 -0.44728446 -0.55085343 -0.24522273
000050 9f 77 12 be 13 40 b7 3d 96 fa 32 3f 1b cf 53 3f
       -0.14303444 0.08947768 0.69913614 0.8273789
000060 3b 9d cb be 9a 5f 07 bf d2 bb c0 bd ea 3b 38 3f
       -0.39768395 -0.5288025 -0.09410824 0.7196642
000070 f5 a6 00 3e 38 3d ba 3e 1d a2 36 be 55 85 1e bf
       0.12563689 0.3637483 -0.17835279 -0.619222
000080 03 3a 97 3e 13 cd be 3f f4 f7 38 be ac 27 06 bf
       0.29536447 1.4906334 -0.18063337 -0.52404284
000090 83 b8 20 bf 56 c1 fd be 03 69 f0 bb 05 0f 92 3e
       -0.6278154 -0.49561566 -0.007336737 0.28527084
0000a0 7e f4 f7 be 5c f0 5c be 92 1b bd be 80 83 29 bf
       -0.4842872 -0.21576065 -0.36935097 -0.6621628
0000b0 69 49 36 3e 48 cd 0f 3f 72 f0 dc be f1 21 15 bf
       0.17801441 0.5617261 -0.43152195 -0.58254915
0000c0 c1 08 ee 3e 65 79 41 bf 7f 40 34 bf a8 03 28 3f
       0.46491054 -0.7557586 -0.70410913 0.6563058
0000d0 fe 7e 2f bf ff 56 97 be 47 8b 29 bf 63 96 24 be
       -0.6855315 -0.2955856 -0.66228145 -0.16072993
0000e0 3b 98 8a be a5 43 cd 3d c7 d0 42 3e a3 0a 94 be
       -0.27069268 0.10022668 0.19024955 -0.28914365
0000f0 c1 ec 1b bf 1c 67 a9 be c5 55 10 bf dc 09 b1 be
       -0.6090813 -0.3308648 -0.56380874 -0.34577835
000100 0a 0c 87 bd a2 a5 5a 3f 59 79 31 3f 51 df 57 3d
       -0.06594093 0.85408986 0.69325787 0.052703205
000110 f5 f3 21 3f 31 b8 15 bf 03 46 61 be 86 66 31 be
       0.63262874 -0.5848418 -0.21999364 -0.17324266
000120 fc 41 47 bf db a1 9f 3e 73 7d 46 3f 05 5c 0e 3f
       -0.7783506 0.31178173 0.7753517 0.5560916
000130 d7 e7 2d be 53 6d 13 bf ab d0 3c 3f d7 3f 09 bf
       -0.16982971 -0.5758869 0.737559 -0.53613037
000140 ea 90 05 bf 0e 20 e9 3e 1b 9b 81 3c f4 9f 25 bf
       -0.52174246 0.45532268 0.01582103 -0.64697194
000150 5a bf 1f be 12 d8 0d 3e 5e 87 7a 3e 48 58 58 3e
       -0.15600339 0.13851956 0.24465701 0.21127427
000160 a3 91 ef 3e 78 cc 76 bf 2a f7 fb 3e 55 0d 42 3e
       0.467908 -0.96405745 0.4921201 0.18950398
000170 92 bf c1 3e 52 4c cb be a4 0c 85 bc 57 e3 39 bf
       0.3784147 -0.39706665 -0.01624138 -0.7261252
000180 7e e9 82 bd f7 aa bf be 73 7b 08 3f cc bc eb be
       -0.06392191 -0.37435123 0.5331337 -0.46042478
000190 df 2f 7b 3e aa 1d 0a 3f 2c 94 8e 3b ad c8 5b 3f
       0.2452998 0.53951514 0.0043511596 0.8585308
0001a0 d6 15 0c be 21 71 2e bf 7b 8f bf 3e cc 6b 79 3f
       -0.13680205 -0.6814137 0.37414154 0.9743011
0001b0 ba 51 05 bf 1e 5c fa 3e 0e bf a0 3e 0f 98 9f 3e
       -0.5207783 0.48898405 0.31395763 0.311707
0001c0 c4 d3 32 3f 26 33 58 be a8 45 bf 3d 1e cf 97 bd
       0.6985438 -0.21113262 0.09339458 -0.07412551
0001d0 22 3f 57 be 05 53 ae 3d 47 01 ca be 0a 57 09 3f
       -0.21020177 0.085119285 -0.394541 0.53648436
0001e0 8e 55 5d 3f 35 08 1a 3f fe 57 1a be d2 fc 80 be
       0.8645867 0.6016877 -0.15072629 -0.25192887
0001f0 d9 a2 0f bf 10 32 d5 be 80 18 23 3f d2 8a fc 3e
       -0.5610786 -0.41639757 0.6370926 0.49324661
000200 fd 8e 2a 3d 46 16 57 3f ba 3a 29 be 8b 8a 20 bf
       0.04164027 0.8401836 -0.16526309 -0.627114
000210 1b 82 10 bf 22 d3 b0 be e0 52 a6 3e 36 1a 8f be
       -0.56448525 -0.34536082 0.32485104 -0.27949685
000220 ba 5e e8 3e e3 3a a9 bd 13 7c 1d 3f d7 a4 f1 3e
       0.4538477 -0.08263185 0.6151745 0.47196075
000230 f5 87 f5 be c3 e2 20 3f de ea 42 be ee 94 a3 be
       -0.4795529 0.6284601 -0.19034907 -0.31949562
000240 93 da 9a bd 0e 55 23 3f c3 26 6f bf 7f 39 a5 3e
       -0.07561221 0.6380166 -0.9341852 0.3227043
000250 41 76 9e 3e 7a 40 28 3f 33 c5 3c 3f e2 31 17 3f
       0.30949596 0.65723383 0.737384 0.5906049
000260 84 fe 84 3d c0 48 b7 be 4f 87 f3 3e e2 e7 a1 3c
       0.064938575 -0.3579769 0.4756417 0.01976389
000270 ed c6 77 be c8 96 fe bd 46 a7 5f 3e 31 9e 82 3e
       -0.24196978 -0.12431103 0.21841154 0.25511315
000280 82 ab f7 be 1a 65 41 3f 02 ac 02 3f 9f 99 a1 3e
       -0.48373038 0.75544894 0.51043713 0.31562516
000290 e9 96 4a 3f 82 9b 96 3d 73 e1 95 bc 61 f8 a0 3e
       0.7913652 0.073538795 -0.01829598 0.31439498
0002a0 8d f6 ce be 9c 2f 59 3f 7c 5a cb be a6 5b 99 bd
       -0.40422478 0.8483827 -0.39717472 -0.07488184
0002b0 ca c5 1e 3f 0d b8 61 be cb c3 2f 3c c8 fb 76 3e
       0.6202055 -0.22042866 0.010727833 0.24119484
0002c0 ed 80 02 bd 31 df 0a 3f 8f 64 fb 3e d4 2e 6c 3e
       -0.031861234 0.54246813 0.49100158 0.23064739
0002d0 ef 36 3b be f1 fa 0d 3d a9 06 0e 3f b0 44 17 3f
       -0.18282674 0.034663144 0.5547891 0.59089184
0002e0 cb 42 97 bd 7b 4a 1d 3e 27 d5 21 3f 85 30 16 be
       -0.073857866 0.15360443 0.6321587 -0.14666946
0002f0 db b8 42 3f f3 cf ce 3e c0 23 46 3d 63 93 e6 3c
       0.7606332 0.40393028 0.048373938 0.028146451
000300 b2 78 e0 3e 26 5f b4 3d 32 c3 10 bf 92 53 b9 3d
       0.43842083 0.088072106 -0.56547844 0.09049143
000310 fc 7c 1b be 35 44 e9 3e 65 62 28 3f 69 8c f3 be
       -0.15184397 0.4555985 0.6577514 -0.47568062
000320 05 5b 5d bd a0 9f e7 bd 8d 57 80 3e 31 02 37 3e
       -0.05404188 -0.11309743 0.25066796 0.1787193
000330 e7 bb 38 3e e7 64 74 3d ce 18 1e 3f f6 9a 11 bf
       0.18040429 0.05966654 0.617566 -0.56877077
000340 aa 8a f6 3e d7 26 ca bd dd d8 da 3d 89 71 9c be
       0.48152667 -0.09870689 0.10685895 -0.3055537
000350 57 fd 98 be de c0 e9 3c a8 15 eb 3e 83 d0 a1 be
       -0.29880783 0.028534349 0.4591496 -0.31604394
000360 03 62 00 bf 85 26 06 bd 3f bc 6b be 68 9c f7 be
       -0.50149554 -0.03275158 -0.23021029 -0.48361516
000370 b8 93 08 3f e3 27 bc bd e3 e4 84 be c8 69 e5 3e
       0.533504 -0.09187295 -0.25955877 0.44807267
000380 40 ef 98 3e 53 ea 25 3f fd 4d 35 3f 9b 4b e8 b9
       0.29870033 0.64810675 0.70822126 -0.0004430682
000390 2e 10 13 3f 75 88 4c be 29 b0 1d 3f 7f 70 56 3e
       0.57446563 -0.19973929 0.61596924 0.20941351
0003a0 12 06 ad 3e b9 27 06 bf fc 85 eb bc 60 d6 51 bf
       0.33793694 -0.5240436 -0.028750412 -0.81967735
0003b0 88 30 f1 be 01 2e cd 3e 74 8e a6 3e b5 c6 36 3e
       -0.4710734 0.4007416 0.32530558 0.17849238
0003c0 02 e0 71 3f 7c 27 09 be 11 37 1c 3f 89 03 d6 3d
       0.94482434 -0.13393968 0.61021525 0.10449893
0003d0 2b 05 11 bf dc a0 28 3e 3e 73 df 3d 21 5a 9e 3e
       -0.5664851 0.16467613 0.109106526 0.30928138
0003e0 1b b2 1c bf 4f d1 4f 3e 1e 84 b9 3e 08 b4 38 3f
       -0.6120927 0.20294689 0.3623361 0.72149706
0003f0 d8 a9 2c 3e 59 c1 3b be a3 06 8d 3e 5f 66 09 be
       0.16861665 -0.18335475 0.27544126 -0.13417958

fc2.weight f4 [256, 256]
000000 90 d6 a0 3e 95 6a c3 3e fd 4e b8 3e b0 87 55 3e
       0.31413698 0.38167253 0.35997763 0.20852542
000010 7e 51 2a 3e 44 55 a9 3e e8 17 d6 bd 71 13 cb 3f
       0.1663265 0.33072865 -0.104537785 1.5865308
000020 e9 71 ad 3e fa e2 c9 bc fc 70 1e 3f 33 6d bf 3e
       0.3387597 -0.024644364 0.6189115 0.37388
000030 d5 86 2b 3f a3 d6 22 3f cd 0a b4 3e fe 7b f6 be
       0.6700261 0.6360876 0.3516449 -0.48141474
000040 3b a2 3f be 55 b7 a3 3f 70 90 3d 3e 5e b8 98 3e
       -0.1871423 1.2790323 0.1851213 0.2982816
000050 f9 ff 66 be 49 1c 33 3e ee d3 33 be ab 3e 08 be
       -0.22558583 0.17491259 -0.17561314 -0.13305156
000060 b9 cb 86 3e 59 04 84 3e ba 0b 66 bd 8f 26 92 3c
       0.26327303 0.25784567 -0.056163527 0.017840652
000070 a0 5c d1 3e d2 04 7a 3e c1 bb 7b 3e 91 62 94 bf
       0.4089098 0.24415901 0.24583341 -1.159258
000080 79 75 2e 3e 2b 7f 26 3e f3 de 8b 3e c6 26 8f 3e
       0.17037 0.16259448 0.27318534 0.2795927
000090 57 79 9a bc 1a f0 16 3f 8b 46 15 3f f0 57 ce bd
       -0.018856687 0.58960116 0.58310765 -0.100753665
0000a0 8b 98 52 3f 5f 5f 10 3f a9 aa 63 3e b0 5a 18 3f
       0.8226401 0.56395525 0.2223307 0.5951338
0000b0 e9 d1 dd bd ef 77 f3 3e 23 1e 94 3f 28 7a e9 3e
       -0.10831053 0.4755244 1.1571697 0.4560101
0000c0 b4 70 49 3e d9 78 e7 3e 58 ab 72 3f b7 56 b3 3e
       0.19671899 0.45209387 0.947927 0.35027096
0000d0 45 e2 94 3f d1 b4 ab 3e 18 d3 6c bd 1b 54 ed 3e
       1.1631552 0.3353639 -0.057818502 0.4635323
0000e0 7e 97 98 3e a2 f1 01 3e 44 e9 38 bb 16 d2 b4 3e
       0.2980308 0.12689832 -0.002821521 0.35316533
0000f0 8e f3 fe 3e af 86 35 bd a0 6e f5 3e 5a 44 1c 3f
       0.49795192 -0.044317897 0.47935963 0.61041796
000100 3d b6 aa 3e 1c e7 70 3e d4 4f e9 3e 1e 1f 34 be
       0.33342162 0.23525661 0.45568717 -0.17589995
000110 4b 8c b1 3d bd 9f f5 3e c8 bb 1a 3e cc 95 06 3e
       0.08669337 0.47973433 0.15110695 0.1314308
000120 52 ee 94 3f 4a 1d d2 3e 1e ba 4f be cf fa ab 3e
       1.163523 0.4103797 -0.20285842 0.3358979
000130 c6 9b 4b 3f 63 b5 35 3f 14 fd 0c bd 15 6e 4a 3f
       0.79534566 0.709799 -0.03442104 0.7907422
000140 a1 21 30 3f c2 71 aa 3e a0 10 a5 bd 9b b7 17 3f
       0.68801314 0.33289915 -0.080598116 0.59264535
000150 7b 29 80 3e c4 79 3c 3e 9e 8d 61 3e a2 02 b5 be
       0.25031647 0.18405825 0.22026679 -0.3535357
000160 19 ab 61 bd d7 d8 e0 3f f7 d3 ab 3e a7 c2 7d 3e
       -0.055094812 1.7566174 0.33560154 0.24781285
000170 41 a8 04 3f 70 a7 b0 3e 50 35 bd 3e 94 d0 41 3e
       0.51819235 0.34502745 0.36954737 0.18927222
000180 5f ad 0a 3f 75 89 6a 3e d9 3f 89 3e b8 dd 4b 3f
       0.54170793 0.22903998 0.26806524 0.7963519
000190 06 11 8d 3e 20 5a f0 3e a0 a6 90 3e aa 60 57 3c
       0.2755205 0.4694376 0.28252125 0.013145605
0001a0 97 de 90 3e 54 04 dd 3e 7e 78 37 3e 03 9b 3a 3e
       0.28294823 0.43167365 0.17917058 0.18223195
0001b0 af 83 52 3e 2b c4 12 bf a2 fd af 3e e2 e3 81 3e
       0.20558046 -0.5733058 0.34373194 0.25369173
0001c0 e4 03 e2 bd a4 b8 6a 3e 23 5b 68 3e 1e 7e 96 be
       -0.11035898 0.22921997 0.22691016 -0.29393095
0001d0 90 df 05 3f 78 39 83 3e 53 99 96 3f 59 5b fc bc
       0.52294254 0.25629783 1.1765541 -0.030805277
0001e0 d5 52 70 be 2a 6e 38 3e c5 a0 87 3d ed 9b ca 3e
       -0.23469098 0.18010774 0.06622461 0.39572087
0001f0 1b ae 05 3f 45 53 68 bf cd e6 fa 3d 9e 7b 6e 3e
       0.5221879 -0.9075206 0.12251053 0.23289344
000200 95 61 7b be e5 6a 31 3e 3d 6e cb 3d 89 28 92 3f
       -0.24548943 0.17325933 0.09933136 1.141862
000210 d9 b9 04 3f f6 3a 00 3f 22 16 eb 3e 96 78 a9 3e
       0.5184608 0.5008997 0.45915323 0.33099812
000220 2c d6 65 3e d1 c6 e8 3e 37 06 12 3f 53 27 93 3e
       0.22444981 0.45464185 0.57040733 0.2874094
000230 77 ed 1a 3f 75 e3 90 3e 18 35 9f be d5 3e 1c bf
       0.6051859 0.28298536 -0.31095195 -0.61033374
000240 d7 1d 9e be aa 49 b4 3d 14 24 7f bf 2b 90 03 3e
       -0.3088214 0.08803113 -0.99664426 0.12847964
000250 5e a1 af 3d 3f e4 9c 3e cb 8d dd 3c 57 5b a4 3e
       0.085757 0.30642888 0.027045151 0.32100937
000260 f2 c2 fc bd ae 75 06 bf 85 5c 96 3e 3d 40 20 3e
       -0.1234187 -0.52523315 0.29367462 0.15649505
000270 f2 2c 20 3e ae 4e 02 3f be bb 64 3b c4 5b e3 3d
       0.15642145 0.50901306 0.0034901942 0.11101487
000280 33 39 dd bc 7a 5a 92 3e 1b f5 85 3e cb 65 99 3e
       -0.027004814 0.28584653 0.26163563 0.29960474
000290 ba b1 8f be 1a 62 29 3f ef db ed bd a2 8a 46 3f
       -0.28065282 0.66165316 -0.11614215 0.77555287
0002a0 f0 c1 48 3f 6a 5e bb be 57 eb 88 3e 18 7e 05 3f
       0.78420925 -0.3659547 0.2674205 0.5214553
0002b0 1c 09 6f 3e a2 33 a4 3e 35 6d ae 3e 5f a2 bd 3e
       0.23343319 0.32070643 0.34067693 0.37037942
0002c0 3a 15 8e 3e 54 a1 b0 3e 7f ca 0c 3f a1 c3 16 3e
       0.2775057 0.34498084 0.54996485 0.14723064
0002d0 86 6c 7a be a1 e8 37 be 46 d6 40 3e e2 33 92 3e
       -0.24455461 -0.17959835 0.18831739 0.28555208
0002e0 17 81 db 3e 04 85 05 3e 4c c6 06 3d 9a b3 68 3f
       0.42871925 0.13039023 0.032903954 0.9089905
0002f0 22 8d c0 3e b8 cd a4 3e a8 c6 9a 3d 5c 0d 54 3e
       0.37607676 0.321882 0.07557422 0.20708221
000300 97 11 74 3e e3 bb 79 be 2c f1 5d 3f 27 84 76 3e
       0.23834835 -0.2438808 0.86696124 0.2407385
000310 83 9f 00 3f bd 75 51 3e ef e0 46 3e b2 2e f4 be
       0.50243396 0.2045507 0.19421743 -0.47691876
000320 6b f5 d2 3e 7f 66 8d 3e ae cf 88 3e e7 d2 b1 3d
       0.41202864 0.2761726 0.26720947 0.086828046
000330 45 4c a3 3e 7a ff 68 3e fb 7e ec bd 5a 6b 73 3f
       0.31894127 0.22753707 -0.11547657 0.9508568
000340 16 f0 09 be 78 c6 d2 3e 53 3c c7 3e 2e f6 4d 3f
       -0.13470492 0.41167045 0.3891321 0.80453765
000350 08 c6 99 3e 94 af 60 bd 6f cb cd 3e 6d 25 f5 3e
       0.30033898 -0.054854944 0.4019427 0.47880116
000360 3b 42 d2 3f b7 d5 af 3e 7d f6 90 3f a2 09 81 be
       1.6426462 0.3434274 1.1325222 -0.25202662
000370 a8 a3 0d 3f 12 e0 fd 3e e7 d3 be 3e 3a 78 62 3e
       0.55327845 0.49585015 0.37271044 0.22116175
000380 10 1b c1 3e 74 5d c6 3e 1d fb 32 3e fa 41 23 be
       0.3771596 0.38743174 0.17478605 -0.15943137
000390 c1 e7 f8 3e b4 01 9e 3e af ef a4 3e 89 a3 d6 bc
       0.48614314 0.30860674 0.32214114 -0.026201027
0003a0 f4 06 ab 3e bb 1b c1 3e 89 10 02 3f 72 57 b0 3e
       0.33403742 0.3771647 0.5080648 0.34441715
0003b0 dd bb 86 3f c0 37 9c 3e 8f 23 3f 3e 32 da a1 bd
       1.0526081 0.30511284 0.18665908 -0.079029456
0003c0 fa 83 50 3e 2a e8 f7 3e 6c cc 0d bd c3 4e 89 3e
       0.20362845 0.48419315 -0.03461878 0.26817903
0003d0 3e f0 31 3f c6 8d 1d 3f db 31 9b 3e 95 dc ed 3e
       0.69507205 0.61544454 0.30311474 0.46457353
0003e0 5a 2b b5 3e 41 9b 42 be 53 0d b4 3e 6a 2a 70 3e
       0.35384637 -0.19004537 0.35166416 0.2345368
0003f0 22 f1 e1 3e 99 01 51 3e 14 3c 22 3e fa ce 83 3e
       0.44129282 0.20410766 0.1584323 0.25743848

fc2.bias f4 [256]
000000 05 48 80 3e 8d 81 1a 3d f9 d5 24 be 41 7e 45 bd
       0.25054947 0.037721206 -0.16097249 -0.04821611
000010 5e e7 85 be 8a ce dc 3e ce bf d1 bd 91 f8 7d 3e
       -0.26153082 0.43126327 -0.10241662 0.24801852
000020 33 66 e4 3e 0b b8 e1 bc bb 06 d6 3e e6 41 cc 3e
       0.44609222 -0.027553579 0.4180201 0.39894027
000030 42 bd fd 3e c3 ae 7f 3e 64 c5 8f 3e 2d 10 83 3e
       0.49558455 0.2496901 0.28080285 0.2559828
000040 7c 5e 03 3e 52 1f d3 bb f2 1a 51 3e 15 e7 75 3e
       0.12829012 -0.0064429427 0.20420435 0.24013932
000050 8d b3 02 bf 8f fd 89 3e f1 f7 96 be 44 28 fd bc
       -0.5105522 0.26951262 -0.2948604 -0.03090299
000060 ff 2d 5a 3e b6 af 93 3e 69 fb c0 3e be b3 90 3e
       0.21306609 0.28844994 0.3769181 0.28262132
000070 0d 0d 62 3d d4 09 19 3e 28 2c 38 3e 80 2e 32 bd
       0.055188227 0.14945155 0.17985594 -0.043501377
000080 35 20 a1 3e ad 81 61 3e 1b 6e a9 3e 42 5e d1 3e
       0.31469885 0.22022124 0.33091816 0.40892226
000090 bd ec 42 3e db 5f 8c 3e 4d b8 60 3e 2f f6 57 3d
       0.19035621 0.27416882 0.21945305 0.052725013
0000a0 c8 45 fd 3e 33 13 8e 3e 66 27 7d 3d 52 d0 8a 3e
       0.494673 0.27749023 0.06180515 0.2711206
0000b0 c0 4b 7e 3e f8 a2 ce 3d 66 e7 aa bd f8 78 cc 3c
       0.24833584 0.100896776 -0.08344917 0.024960026
0000c0 46 ef 09 3f 1c fa ef bd 4b 48 e6 3c f3 0d 2c be
       0.5388073 -0.117176265 0.028110644 -0.16802196
0000d0 10 ae ac be e9 19 46 bc f1 44 47 bd de f3 9b bc
       -0.3372655 -0.012091138 -0.048649732 -0.019037183
0000e0 87 f3 a3 bc 0b 37 55 3e 97 b8 97 3e f0 d6 a5 3e
       -0.020013584 0.20821778 0.29633018 0.32390547
0000f0 6f 8b 44 3e 45 fd 97 3e d9 a0 8b 3e d2 20 97 3e
       0.19193815 0.29685417 0.27271155 0.29517227
000100 a0 6d d0 3d d6 2a 91 3e 4c b6 97 3e 0a 86 6f be
       0.10177159 0.28352994 0.2963127 -0.23390976
000110 cb 93 66 bb 07 d4 a2 bd fc 94 91 3e f7 3f 68 3e
       -0.0035183306 -0.07950597 0.2843398 0.2268065
000120 ba 1a d3 3e a9 1e ab 3d a0 7d 36 bd eb ca 9d be
       0.41231328 0.08355457 -0.0445534 -0.30818877
000130 cd 52 a8 be 8e 1e 82 3e b7 65 a1 bd c2 08 86 3e
       -0.32875672 0.25413936 -0.07880729 0.26178557
000140 40 9c c0 3c 78 77 8a 3e 94 f2 00 3c 79 50 f0 3e
       0.023512006 0.27044272 0.007870335 0.46936396
000150 a2 fe 9b 3e ec fd e4 3d 45 64 81 be 88 d4 3d bd
       0.30467707 0.11181244 -0.25271812 -0.046345264
000160 93 77 6f bc 1a e8 53 3e 2e f3 60 3e 11 26 2c 3e
       -0.014615911 0.20694008 0.21967766 0.16811396
000170 f8 e2 7f 3e a5 b9 d2 3e dc 72 9f 3e 23 45 c5 be
       0.24988925 0.4115726 0.31142318 -0.3852931
000180 8c 45 89 3e e5 22 c7 3d d8 83 95 3e 88 18 81 3e
       0.26810873 0.097234525 0.2920215 0.25214028
000190 69 75 12 3e 5a ba c8 3d 14 86 77 bd 57 a6 82 3e
       0.14302601 0.09801169 -0.0604306 0.25517532
0001a0 c6 67 f5 3e fe d3 8f 3e f6 f0 6b 3e c5 f2 66 3e
       0.47930735 0.28091425 0.23041138 0.22553547
0001b0 c8 80 85 3e 08 90 9c 3e 96 d7 a8 be 5d 1f 82 bd
       0.26074815 0.30578637 -0.3297698 -0.06353638
0001c0 ed cc 8f bd fd 57 a1 3e ec 56 79 bc 43 83 6d 3e
       -0.07021508 0.31512442 -0.015218478 0.23194604
0001d0 32 06 82 be db fc 04 3f c5 33 ac 3e 63 6e a8 3e
       -0.25395352 0.51948327 0.33633247 0.32896718
0001e0 b9 98 b7 3e fd f0 ac 3d 6e b6 7c 3e 62 5c 8b bd
       0.35858706 0.08444402 0.24678966 -0.0680473
0001f0 e1 d7 b0 3e f3 ce 62 bd 91 7a 57 3e f2 6f 5d bd
       0.34539703 -0.055373143 0.21042849 -0.054061837
000200 b7 3e 2b bd 65 c7 c6 3e 6d 91 1f be 64 37 98 be
       -0.041807856 0.38824 -0.1558282 -0.2972976
000210 23 c4 6f bd 08 0b a5 3e 98 c3 cf 3e 35 b0 da be
       -0.05853666 0.3223498 0.40578914 -0.4271256
000220 f1 17 47 3e 93 2a ae be 2e 42 a0 3e e3 e3 35 3d
       0.19442727 -0.34016857 0.3130049 0.044406783
000230 07 0d 26 bd b7 7c 2f be b9 04 68 3e e5 9e 89 bd
       -0.040539768 -0.17137419 0.22658052 -0.0671976
000240 58 e5 89 3e c3 79 6f 3e 00 b5 a7 3e 06 f8 a9 be
       0.26932788 0.23386292 0.3275528 -0.3319704
000250 ab 77 ff 3b 42 46 ca 3e 8b 8d 85 3e e5 01 43 3d
       0.007796248 0.39506727 0.2608455 0.04760923
000260 31 ff 14 3e b7 fe 22 3e 22 6b ae bd ab 79 ee bc
       0.14550473 0.15917479 -0.08516528 -0.02911075
000270 55 ed e2 be 54 8d 9f 3e d0 79 30 3e c5 9f 1a 3e
       -0.44321695 0.31162512 0.17233968 0.1510001
000280 ad 62 0f bd ec 64 85 3e 68 88 b4 3d 3e 03 79 3e
       -0.035006214 0.2605356 0.0881508 0.24317643
000290 24 15 35 3e 45 b6 8f bd 98 b3 48 be c9 89 91 3e
       0.17683846 -0.07017187 -0.1959976 0.28425434
0002a0 25 04 74 3e 79 52 2e 3d 7b d6 ea 3d f1 16 dc be
       0.23829706 0.04255912 0.1146669 -0.42986253
0002b0 41 4b cf 3e fa e6 a4 3e 13 98 2f 3d 0b ab f8 3c
       0.40487102 0.3220747 0.04286964 0.030354997
0002c0 c7 f0 9d 3e 62 fa cc be 8f 04 33 3c ce 21 96 3e
       0.3084776 -0.40034777 0.01092638 0.29322666
0002d0 09 3e 9f 3e e6 42 75 3e 55 70 84 bd 8c 83 95 be
       0.31102017 0.23951301 -0.06466738 -0.29201925
0002e0 bc 44 f5 bb eb e0 a6 3e 71 6a 61 3e 8d ad a5 3e
       -0.0074850004 0.32593474 0.2201326 0.3235897
0002f0 6b 7c 5b 3e 25 c3 04 bc 1d 8e 39 3e 2f 88 95 3e
       0.2143418 -0.008103167 0.18120618 0.29205462
000300 3c cd 82 3e 64 39 85 3e ba 06 8d 3e 64 3c 76 bd
       0.25547206 0.26020348 0.27544194 -0.060116187
000310 33 bb 74 3e 99 f6 19 3e 32 7b 58 bd 7d 9f 02 bd
       0.23899536 0.15035476 -0.052851863 -0.03189038
000320 46 68 a7 3e 5b f1 4f 3e 3b f7 de 3e 23 09 88 3e
       0.32696742 0.20306914 0.43547997 0.2656947
000330 97 b4 60 3e 7d 35 03 bd 7c 03 9d 3e f0 72 40 3e
       0.2194389 -0.032033432 0.3066672 0.18793845
000340 f6 86 44 3e 15 88 92 3e ab 63 a2 3e fe 11 e1 3e
       0.19192109 0.28619447 0.31716666 0.4395904
000350 88 35 92 3e cf b8 7d 3e 4c 47 90 3e 19 1f ba 3e
       0.28556466 0.2477753 0.28179395 0.3635185
000360 d7 3c d6 3e 3d fc 60 3e 3d fb d0 3d 97 64 50 3e
       0.41843292 0.21971221 0.1020417 0.20350872
000370 4b f0 2c bd ee d6 db be a3 02 a7 be b0 c7 80 3e
       -0.04222135 -0.42937416 -0.326192 0.2515235
000380 83 5c 57 3e 3f 4f b8 3c 03 1f a6 3e 11 67 b4 bd
       0.21031384 0.022498725 0.32445535 -0.08808721
000390 77 20 81 3e 31 52 ca bc 91 ef a7 3e 71 dc 9d 3e
       0.2522008 -0.024697395 0.32799962 0.30832246
0003a0 46 af a3 3e 8c c4 a3 3e 9e 71 9f bd 62 1c 5e 3e
       0.3196966 0.3198589 -0.07785343 0.21690515
0003b0 d9 49 4b bc aa bd 7b 3e e2 b4 6b 3e 22 55 5c bd
       -0.012407743 0.2458407 0.2301822 -0.053792126
0003c0 6e 77 97 bd fc ba 3c 3c 1c cd 3e 3e 17 c2 e5 be
       -0.07395826 0.01151919 0.1863293 -0.4487464
0003d0 a1 26 7a 3e 3e 98 11 3e b1 90 68 3e 7d 75 ec 3e
       0.24428798 0.14218232 0.22711445 0.46183386
0003e0 22 67 84 3e c5 51 8d bd fe 2c 98 3e 13 3c 94 3e
       0.25859934 -0.06900362 0.29721826 0.28952083
0003f0 3a 29 6f 3e e1 cb ea be 8e 94 8c 3e f7 12 34 3d
       0.2335557 -0.45858672 0.27457088 0.0439634

q.weight f4 [1, 256]
000000 a2 50 09 bf 3a 7e e1 3b a7 02 4c 40 f0 00 b1 3b
       -0.5363866 0.0068815025 3.187662 0.005401723
000010 9f f0 c4 bf a1 15 a2 3f 28 79 d5 bf e8 fd 88 3f
       -1.5385932 1.2662851 -1.6677599 1.0702486
000020 07 04 0f 40 41 01 c5 3b 92 e8 e8 3f 47 25 ff 3f
       2.2346208 0.0060121124 1.8195975 1.9933251
000030 63 81 26 40 8d 07 10 bf fc 5a 08 bf df 3f 10 bf
       2.6016471 -0.5626152 -0.5326383 -0.5634746
000040 8c 47 8f 3f 48 75 b7 bb 47 b5 7e 3f 3e 1d 0a bf
       1.1193709 -0.005598698 0.9949536 -0.5395087
000050 c5 62 c3 bf d7 85 88 3f 4a da 28 40 2b b0 e7 3b
       -1.5264517 1.0665845 2.6383233 0.0070705614
000060 a4 8a 03 bf bd d6 0d bf 8d dd 80 3f c0 35 81 3f
       -0.51383424 -0.5540579 1.0067612 1.0094528
000070 dd 55 7d 3f 72 7b 49 40 67 ed 0b bf 5e 2e 25 3d
       0.9895914 3.1481595 -0.5465912 0.040327422
000080 ea 97 06 bf 87 87 0a bf 5f f2 05 bf 8c c4 a3 3f
       -0.5257555 -0.5411305 -0.52322954 1.2794356
000090 fe c0 7d 3f 1e fb 10 bf 98 d8 11 bf c3 1f f4 3f
       0.9912261 -0.56633174 -0.5697112 1.9072193
0000a0 47 56 b6 3f 52 44 87 3f e3 6e a5 3f 16 78 12 bf
       1.424508 1.0567725 1.2924465 -0.57214487
0000b0 a2 d3 35 40 ce 32 93 3f 4d 5f 08 40 3f 48 b5 3c
       2.841042 1.1499879 2.1308167 0.022129176
0000c0 88 ca fa 3f d0 f7 8a be 0b ff 3a bf 22 57 d0 3f
       1.9593058 -0.2714219 -0.73045415 1.6276591
0000d0 78 bf b6 bf f4 c9 3d 40 e9 dd d6 bc 2f b0 32 3d
       -1.4277182 2.9654512 -0.026228862 0.043625053
0000e0 f8 37 c2 3b a9 95 05 bf be e1 15 bf 07 5f fe be
       0.005927082 -0.5218149 -0.5854758 -0.49681875
0000f0 d7 8a 05 bf 2a e5 14 bf 7b e0 0b bf 13 84 0b bf
       -0.5216498 -0.58162177 -0.54639405 -0.54498404
000100 83 16 68 3f cf 71 07 bf f5 02 0f bf 3f 9e 78 bf
       0.9065935 -0.52908033 -0.5586389 -0.97116464
000110 d8 ab c3 bc ec fb 83 bd 49 fa 01 bf cf 30 8e 40
       -0.023885652 -0.06444535 -0.5077253 4.443458
000120 23 21 a2 3f 63 1c 44 40 34 7a 06 3c 68 fc ac bf
       1.2666363 3.0642326 0.008207846 -1.3514528
000130 ab 45 c2 bf 46 43 08 bf c1 0a 01 40 db 02 0a bf
       -1.5177511 -0.5322765 2.0162814 -0.5391061
000140 6a c8 64 3c 44 4c 26 40 24 55 8e 3c 52 69 ab 3f
       0.013963798 2.598405 0.017374583 1.3391516
000150 00 a6 0c bf 9b 12 5a bf cc c5 f3 3f c8 a6 ce 3c
       -0.54940796 -0.8518464 1.9044738 0.025226012
000160 3d aa 14 3c 59 dd 0e bf 0a 24 07 bf 25 70 0d bf
       0.009073791 -0.558065 -0.52789366 -0.55249244
000170 a9 ab 08 bf b9 b0 c0 3f 73 fc 0f bf e1 8e c4 bf
       -0.5338693 1.5053931 -0.5624458 -1.5356103
000180 96 0f 80 3f be 34 84 3f 91 3c 03 bf f4 82 07 bf
       1.0004756 1.0328596 -0.5126429 -0.52934194
000190 d9 19 10 bf c7 c2 b7 3f ee 0b ab 3c 13 82 16 bf
       -0.5628944 1.4356316 0.020879712 -0.5879223
0001a0 b2 d6 a1 3f e3 02 17 bf 58 95 0f 40 8f d9 08 bf
       1.2643645 -0.5898878 2.2434902 -0.5345697
0001b0 91 ce 05 bf 99 31 09 bf 49 24 ae bf 62 69 62 3c
       -0.5226832 -0.53591305 -1.3604823 0.0138190705
0001c0 85 dd 16 3d 13 ae 83 3f 8e 91 28 bd 35 ca 03 bf
       0.03683235 1.0287498 -0.041154437 -0.5148042
0001d0 f6 0b c5 bf 9e 0b 1c 40 83 b5 96 bf 68 99 01 bf
       -1.5394275 2.438209 -1.1774143 -0.50624704
0001e0 3d 18 a1 bf ad ea 4f 40 6e 1b 07 bf 28 fa a6 3f
       -1.2585522 3.2486985 -0.5277623 1.3045092
0001f0 6a b0 79 3f 6b 83 fc bc c1 b1 fb be f9 8e 59 3d
       0.9753481 -0.030824384 -0.49159053 0.053114865
000200 4c a7 82 3b a1 15 2e 40 52 94 4f bf 5c 1c a7 bf
       0.0039872285 2.7200701 -0.81085694 -1.305553
000210 f1 29 d8 3c 87 34 88 3f 4c 49 8d 3f 97 af 01 c0
       0.026387187 1.064103 1.1037993 -2.0263422
000220 4e d4 84 3f 6f 6f b6 bf fb e0 09 bf 56 74 25 40
       1.037729 -1.4252757 -0.5385892 2.5852256
000230 d3 49 67 bb 3c 89 19 40 a2 98 06 bf a2 85 ef 3c
       -0.0035291805 2.3990011 -0.5257665 0.029238526
000240 77 7d 07 bf 84 a0 06 bf 85 89 0b bf 33 58 c2 bf
       -0.5292582 -0.5258868 -0.54506713 -1.5183166
000250 ff 9b 3f 3c be 97 86 3f 27 b2 0e bf 62 b9 9b 3f
       0.011694907 1.0515058 -0.5574059 1.2165949
000260 36 88 c5 3f 0e f2 88 3f 08 cd f4 3f 9f 57 34 3c
       1.5432193 1.0698869 1.912507 0.011007219
000270 57 37 e1 bf 1a ff 0a bf 33 fe 15 bf c5 ec 7c 3f
       -1.7595013 -0.54295504 -0.58591 0.9879878
000280 95 e6 9b bb a1 fd 94 40 11 1d 63 3f 66 b5 0b bf
       -0.004757712 4.6559606 0.88716227 -0.5457367
000290 4e bc bd 3f ae 7c 93 bb cf 15 1f 40 c1 00 8d 3f
       1.4823091 -0.004500947 2.485706 1.1015855
0002a0 e1 9d 04 bf 79 94 8d 3f 4b ca 9d 3f d7 84 c2 bf
       -0.51803404 1.1060935 1.232736 -1.519679
0002b0 67 e6 ac 3f 51 a8 03 bf aa af ae 3f 7f 12 3f 3d
       1.3507813 -0.51428705 1.3647358 0.0466485
0002c0 46 b4 10 bf a1 e4 c0 bf 95 2b 1d bd 6a 33 5e 40
       -0.56525075 -1.5069772 -0.03837164 3.471888
0002d0 c0 49 10 bf e8 7e 07 bf 5f 2e 3e 3d 04 a5 86 bf
       -0.56362534 -0.5292802 0.04643094 -1.0519109
0002e0 83 d6 61 3b b2 2e 10 bf d0 75 08 bf 21 e9 9c bf
       0.0034460134 -0.5632125 -0.5330477 -1.2258645
0002f0 89 31 09 bf 9e 90 9e bb 66 dc 74 3f 01 ea 0d bf
       -0.5359121 -0.004839017 0.956488 -0.55435187
000300 49 4b 0a bf e6 e7 0e bf 9a aa 08 bf 57 e1 38 3d
       -0.54021126 -0.558226 -0.5338532 0.045136776
000310 98 83 09 bf 08 1c 81 3f 9e 65 a1 3c 9e fe ad 3c
       -0.5371642 1.008668 0.019701775 0.021239575
000320 b8 18 9e bf c4 34 04 bf 2a b2 f8 3f 30 5d 09 bf
       -1.2351294 -0.51643014 1.9429371 -0.5365782
000330 85 a3 16 bf 0c 0e 0e 3d de b0 34 bf 57 9a 11 bf
       -0.5884326 0.034681365 -0.7058238 -0.5687613
000340 11 42 49 40 26 f0 07 bf fd b5 0f bf a4 81 8f 3f
       3.1446574 -0.5310081 -0.5613707 1.1211438
000350 1b 80 07 bf 8a 8b 08 bf 48 1b 0d bf d4 17 81 3f
       -0.5292985 -0.5333792 -0.5511975 1.0085397
000360 3c b9 99 3f 0f 44 11 bf 0c 9c 99 3f 8e 94 0b bf
       1.2009654 -0.56744474 1.2000747 -0.5452355
000370 d8 66 d4 3f 46 a4 c7 bf e4 f2 da bf 1d 81 82 3f
       1.6593885 -1.5597007 -1.7105374 1.0195652
000380 9c 1e 2a bf 24 eb 0e 3c 52 f3 76 3f b5 7b b1 bf
       -0.66452956 0.008723054 0.9646503 -1.3865877
000390 13 d5 0f bf b0 c0 42 3b 26 dd 06 bf 01 26 04 bf
       -0.561845 0.0029716901 -0.52681196 -0.5162049
0003a0 d7 91 07 bf ca 31 dd 3f 78 66 b4 3c 92 d0 07 bf
       -0.5295691 1.728082 0.022021517 -0.5305263
0003b0 ff f0 35 bc 02 f0 0c bf 93 f6 80 3f 25 b6 1b 3d
       -0.011104821 -0.5505372 1.0075248 0.038015503
0003c0 9e b9 2c 3d fa 45 81 3f d0 e8 21 40 e2 51 aa bf
       0.042169206 1.009948 2.5298347 -1.3306239
0003d0 16 6d 09 bf b5 06 61 bf 83 85 0d bf 08 a9 91 3f
       -0.53682077 -0.8790086 -0.5528185 1.1379709
0003e0 65 0e 0e bf e6 e5 2b bd fd bb 01 bf 99 e1 07 bf
       -0.55490714 -0.041967295 -0.5067747 -0.5307861
0003f0 a1 be 0c bf c1 94 ce bf fd 01 02 bf 10 f5 9d 3f
       -0.54978377 -1.6139146 -0.50784284 1.2340412
