TD3/models/lunarlander/00001000/target_critic.pth (torch, 554305 bytes, 10 tensors)

fc1_q1.weight f4 [256, 10]
000000 5d d4 81 3d ef a6 3f bd a0 18 32 3e 17 78 3c 3e
       0.06339333 -0.04679006 0.17392206 0.18405186
000010 7d 7f 18 3e cb 6e 68 be 82 96 5f be d9 10 95 3e
       0.14892383 -0.22698514 -0.21834758 0.29114416
000020 a5 86 0c 3d ac e9 05 3e 32 5a 6a 3e c1 55 52 3e
       0.034308095 0.1307742 0.2288597 0.20540525
000030 7f df 3a be 3d 54 81 be 07 5d 21 3e e9 43 46 be
       -0.1824932 -0.2525958 0.15758143 -0.19361843
000040 58 0b ae bd aa d5 25 3e cb b1 fa 3d f3 6e f2 bd
       -0.084982574 0.16194788 0.122409426 -0.11837568
000050 ef 27 b7 bd 44 7e 77 3e 96 bf 95 3c 46 47 95 be
       -0.089431636 0.2416926 0.018279832 -0.2915594
000060 ae 5c 90 be 6e 55 25 3e da fd 48 3e 10 ae b1 bd
       -0.2819571 0.1614587 0.19628087 -0.08675778
000070 21 16 5a be 45 40 92 3e 40 36 38 3e c1 c7 58 bd
       -0.21297504 0.2856466 0.17989445 -0.052924875
000080 b6 08 9b 3d 7c b1 ff bc 32 8c d1 bc d9 f6 dc 3d
       0.07570021 -0.03121256 -0.025579546 0.1078927
000090 12 eb 61 3e 94 79 a3 3d ff a8 a8 3c 9c b6 07 3e
       0.22062328 0.079821736 0.020588396 0.13253254
0000a0 f7 e9 35 3d 57 4c 23 3d 02 17 51 be eb db e7 3c
       0.04441258 0.039867725 -0.20418933 0.028303107
0000b0 a0 f4 37 3d 7d 85 97 be 78 ad 93 be f0 3d d6 3d
       0.044911027 -0.2959403 -0.28843284 0.104610324
0000c0 a5 82 95 bd ed a1 92 3e 6d 13 97 bd dc 49 7d 3e
       -0.07300309 0.28639165 -0.07376752 0.24735206
0000d0 ac 0a 74 3e c4 33 f9 bd 67 71 34 3e f8 29 3c be
       0.23832196 -0.12168077 0.17621385 -0.18375385
0000e0 65 f4 3c be 48 ed 62 be 4d 79 92 be ac 29 8c 3c
       -0.18452604 -0.22160828 -0.2860817 0.017109714
0000f0 27 ea 23 be f0 23 40 3e 69 14 50 3e ee b6 1b 3e
       -0.16007291 0.18763709 0.20320286 0.15206501
000100 5f 4c 00 3e 71 43 5a be 5e a1 36 be e8 3e 25 3d
       0.12529133 -0.2131479 -0.17834994 0.040343195
000110 dd ce 84 be 3d fc 97 be f6 09 80 3e e9 f5 52 3e
       -0.25939074 -0.2968463 0.250076 0.2060162
000120 ea 8b d3 bd 94 80 7a 3e e7 1f 33 be 86 c5 9a 3c
       -0.10329421 0.24463111 -0.17492639 0.018893015
000130 9a d4 d0 3d 12 1d 2f be 65 09 8b be 46 68 9c 3e
       0.101968005 -0.17100933 -0.27155605 0.30548304
000140 1c 24 fc 3d 70 44 45 3a 76 2a 25 bc 7c 12 8d 3e
       0.12311575 0.00075251516 -0.010080924 0.27553165
000150 58 7c 4d 3e 45 5a 96 3d d0 74 2d bd 25 01 03 3e
       0.20066965 0.07341436 -0.04234773 0.12793405
000160 eb 3d 80 be 9d b3 14 be 7e d9 c6 bd 56 ea f6 bd
       -0.2504724 -0.14521642 -0.09709452 -0.12056415
000170 00 84 b8 b9 4b 1e 91 3e 9c 4e 9b 3d 65 4f a1 3e
       -0.00035193563 0.28343424 0.07583353 0.31505886
000180 bc 22 53 be 25 b7 8e 3e f8 ad 40 3d 30 04 be 3c
       -0.20618719 0.27874103 0.04704091 0.023195356
000190 f7 bc 30 bd 25 70 96 3e 05 3c 1a be c7 ff 22 be
       -0.04314896 0.29382434 -0.15061958 -0.15917884
0001a0 95 e4 93 3e c4 3d 88 3e 20 d1 91 bd 82 b0 5f 3e
       0.28885332 0.26609623 -0.071199656 0.21844676
0001b0 92 56 e8 3d 39 22 4f 3e 65 a4 5f be 30 ea 51 be
       0.11344637 0.20227899 -0.21840055 -0.20499492
0001c0 c0 10 bf 3d a6 ad 12 3c 6c f4 ef 3d ed d1 92 3e
       0.09329367 0.008952534 0.11716542 0.28675786
0001d0 2d f6 99 3e 7f d7 27 be 60 4d bd bd 57 f1 04 be
       0.3007063 -0.16390799 -0.09243274 -0.12982689
0001e0 b0 4d d3 bd 64 9a 4b be 24 e3 99 3d 10 ae 93 bc
       -0.10317552 -0.19883114 0.07514027 -0.018027335
0001f0 5c 3b 8f bd 1b 6f 63 be fa d3 65 3e 20 f8 84 bd
       -0.06993744 -0.22210352 0.22444144 -0.064926386
000200 19 37 74 be 42 95 b7 bd 8a 5e 59 3c 1b 9e f0 bd
       -0.23849143 -0.089640155 0.013267169 -0.11748906
000210 5f a7 2e 3e 12 b1 5b be 9b 64 eb bc 48 d5 40 3e
       0.17056035 -0.21454266 -0.028734496 0.1883136
000220 ad 70 99 be 06 0d e8 bd 3d 4f 86 3e ed 88 92 3d
       -0.29968777 -0.11330609 0.2623233 0.07155023
000230 07 5a 2e 3e c0 d3 3d 3e 59 15 41 3e d7 06 80 be
       0.1702653 0.18537807 0.188558 -0.25005218
000240 b8 e4 39 be cc c9 0f 3e 00 98 1a 39 00 18 b8 3b
       -0.18153656 0.14041823 0.00014743209 0.0056180954
000250 af fb b4 bc a4 09 8c 3e 30 49 3f be fb 1e f4 bd
       -0.022092668 0.27351105 -0.18680263 -0.119199716
000260 5a ce d0 bd 1e b6 1e 3e 9b 4c ef 3d 41 78 46 3e
       -0.101956084 0.1549916 0.11684533 0.1938181
000270 5c bf db bd b0 09 90 bc bd 17 89 3e ab 68 f5 3d
       -0.10729858 -0.017582744 0.26775923 0.119828545
000280 09 7f 45 be 47 41 2f 3e 73 d7 6b 3e 36 83 91 be
       -0.19286741 0.17114745 0.23031406 -0.28420419
000290 f5 4b 95 3e db e5 63 be 66 aa 1e bd 2d 7f 98 be
       0.29159513 -0.22255652 -0.038736723 -0.29784527
0002a0 78 df 3d 3e 7f fe a0 be 7a 27 cc bd 68 8e 7a be
       0.18542278 -0.31444165 -0.09968467 -0.24468386
0002b0 79 5e 4e be 9e f5 8f bd 2d 69 8b 3e 00 0e 2f 3c
       -0.20153226 -0.0702927 0.2722868 0.01068449
0002c0 0b 02 7e be f0 65 a1 bc 2e dc 41 3e b0 3b 91 3c
       -0.24805467 -0.019701928 0.18931648 0.017728657
0002d0 65 c8 80 3e 00 db c5 ba 50 37 bd bd 94 c9 c4 3d
       0.2515289 -0.0015095174 -0.09239066 0.096087605
0002e0 7e 70 62 3e 77 b7 0b be d2 dd 03 3e af d3 61 be
       0.22113225 -0.13644205 0.12877586 -0.22053407
0002f0 03 d2 94 3e 49 c1 97 3e dd 4a 1a 3e 0a 1c e2 3d
       0.29066476 0.29639652 0.1506762 0.11040504
000300 5d f1 11 3e 75 d2 89 3d 10 fa ba 3c 66 56 93 3d
       0.14252229 0.067295946 0.022824317 0.071942136
000310 d1 62 ce bd 90 9e be 3d 9e 91 22 3e b1 7a 56 bd
       -0.100774415 0.09307587 0.15875861 -0.0523631
000320 c7 ae a3 be 1d f3 18 be e0 9e be bd 6c c7 79 3e
       -0.31969282 -0.1493649 -0.09307647 0.2439248
000330 1d 22 8d 3e 1f e8 b7 bd 08 8c 75 bd 6a d3 3d 3e
       0.2756509 -0.089798205 -0.059947997 0.1853768
000340 ab cb 71 be 21 e9 54 3e 10 b5 77 bd a2 8e 32 be
       -0.2361285 0.20792057 -0.06047541 -0.17437223
000350 e7 8d 1d be ee b6 8a be f8 ac 46 3d b7 13 99 3e
       -0.15386163 -0.2709269 0.0485048 0.29897854
000360 a6 a9 99 bd e4 75 7f be 88 0a 13 3e c0 a9 a2 bb
       -0.07503061 -0.24947315 0.14359486 -0.0049640834
000370 a6 82 2e 3e 1e a6 10 3e 75 ff 8e be 6b 62 f5 ba
       0.17042026 0.14125869 -0.27929273 -0.0018721347
000380 05 56 9e bd 0d da 05 3e 5f 6e 9f 3e 01 22 89 3e
       -0.07731251 0.13071461 0.31138894 0.26783755
000390 8f d8 b1 bd 4d 5b 97 3e 80 87 38 be 68 64 b2 bc
       -0.086838834 0.29561844 -0.18020439 -0.021776393
0003a0 e4 85 89 3e f2 3d 5d 3d 20 28 3e 3e ce 0f 15 3e
       0.26859963 0.054014154 0.18569994 0.1455681
0003b0 f4 7d 8e be f0 af 12 be 0f c0 33 3e ad 59 04 3e
       -0.2783047 -0.14324927 0.17553733 0.12924834
0003c0 2c 23 4d be da 6f 94 be fc 1d c4 3d c0 68 e8 3c
       -0.20032948 -0.28991586 0.095760316 0.028370261
0003d0 34 5d 25 be d0 23 91 be 9d 04 99 3e b6 21 9b 3e
       -0.16148835 -0.28347635 0.29886332 0.30299157
0003e0 36 26 02 be 9d 49 6d be fe 90 ac bc 64 59 06 3e
       -0.12709889 -0.23172612 -0.021065231 0.13120037
0003f0 64 35 f3 3d 08 06 bc bb 15 3e 9c 3e 00 a8 3d bc
       0.11875418 -0.0057380237 0.30516115 -0.011575699

fc1_q1.bias f4 [256]
000000 ad 2e 87 3e a9 25 4a be 79 39 c8 3d 37 2f 38 be
       0.26402798 -0.19740929 0.09776587 -0.17986761
000010 dc 9e 0c be ea c8 e6 bd 86 f8 85 be 15 fa 1e 3e
       -0.13732475 -0.1126879 -0.2616617 0.15525086
000020 d7 0a 30 3d 0a b1 80 be 12 1a 57 be 7c c3 fb 3d
       0.042979088 -0.2513507 -0.21006039 0.12293145
000030 98 29 80 be fc cc 09 be 5f e2 39 bd d7 f4 22 3b
       -0.25031734 -0.13457102 -0.0453819 0.0024865174
000040 6a d6 6a be 60 1f be bc 18 75 16 be a4 4d 89 3e
       -0.22933355 -0.02320832 -0.14693105 0.26817048
000050 27 e5 a8 3d 14 33 d3 bd 5c 2d 08 be 83 90 f5 3d
       0.08246832 -0.10312477 -0.13298553 0.11990454
000060 b1 c7 25 be 1e 43 14 bd b8 ed 30 be bf 1d a1 3e
       -0.16189457 -0.03619682 -0.17278183 0.31468007
000070 de a3 a0 3d 2e 0d 97 3e 84 fa 0d be 07 c1 3a 3d
       0.07843755 0.29502243 -0.13865095 0.04559424
000080 5e 77 9d 3e 46 e3 ad 3d 9c 2e f4 3a a7 38 32 3e
       0.30755132 0.084906146 0.0018629613 0.17404424
000090 14 81 7c 3d bf 6c 31 3e 92 7e 61 be 75 f4 2b be
       0.061646536 0.1732664 -0.22020939 -0.16792472
0000a0 33 c8 f9 bd 0b fd 7b 3e 18 13 b8 bc a8 d8 b5 3d
       -0.12196388 0.24608247 -0.022470042 0.088792145
0000b0 ce d6 2a bc 0d 12 1e be d6 13 22 be 37 c1 28 3e
       -0.01042719 -0.15436573 -0.1582788 0.16479956
0000c0 93 6a ed 3d 08 10 73 3d 94 a4 8d be 95 99 13 3e
       0.11592593 0.05934146 -0.27664626 0.14414056
0000d0 90 1e 37 3e 62 2d ec bd 34 ec 8c 3d 90 ad b4 bc
       0.17882752 -0.115320936 0.0688099 -0.022055417
0000e0 4f 8c 2c 3e 80 ed a2 3c ee bc 9a 3e 4e 27 a8 3d
       0.16850398 0.01988864 0.30222267 0.08210622
0000f0 b5 ca 9c 3e a8 85 3a 3e 56 2e a8 bc b9 1f 45 bd
       0.30623403 0.18215048 -0.020529907 -0.048125956
000100 3b 67 69 3e 54 60 f6 3d 3f 1d b8 3b 4a 69 d2 bb
       0.22793286 0.12030092 0.005618721 -0.006421243
000110 05 81 1b 3b ed 8a 9a be ed 27 05 be 16 cb 91 be
       0.0023728025 -0.30184117 -0.13003512 -0.28475255
000120 de b1 63 be 9d d6 8a be 85 7a 81 3e 77 c4 35 3e
       -0.2223582 -0.27116862 0.25288787 0.17750727
000130 7c b6 7a 3e 05 97 0f be 9d d0 0b be 44 4d 7b 3d
       0.24483675 -0.14022453 -0.13653798 0.061352983
000140 b8 93 3a 3d 5d db 1d 3e 9d 23 13 be 40 9c 8e be
       0.04555103 0.15415712 -0.14369054 -0.27853584
000150 fe 38 11 be a5 13 82 3e 2c 46 f6 bd 44 b7 0b be
       -0.14181897 0.25405613 -0.12025103 -0.13644129
000160 f6 cb 21 3e 04 89 89 3e 36 0c 90 3d d8 ec 34 be
       0.15800461 0.26862347 0.07033579 -0.17668474
000170 15 bd 8b be 4a c2 d8 3c fc d9 8b 3e c5 f8 86 be
       -0.27292696 0.026459832 0.27314746 -0.2636167
000180 4d b6 8c 3e e6 28 90 be 74 c9 7e be ec 6b 82 3d
       0.27482834 -0.28156203 -0.24881536 0.06368241
000190 97 2d a5 bc c9 73 4a 3e de 80 aa 3c 76 48 a0 3d
       -0.02016334 0.19770731 0.020813402 0.07826321
0001a0 75 c1 10 be 2c d8 8a 3e 44 c2 8d 3e fd e4 85 3d
       -0.14136298 0.2711805 0.27687275 0.06537817
0001b0 b4 85 02 3e 6a b9 da 3b 5b 7a 67 be 8a 98 60 3e
       0.12746316 0.006674935 -0.22605269 0.21933189
0001c0 b3 0c f9 3d 36 cf 2e be 2f e9 b5 3c 50 30 33 be
       0.12160625 -0.17071232 0.022205917 -0.17498899
0001d0 29 3c d9 3d 98 6c 0a 3d 67 61 bf bc 6d bd 9c 3e
       0.10607178 0.03379497 -0.023361875 0.3061327
0001e0 d9 d1 de bd 3e 53 2f be e4 dd 8b 3e c4 b3 85 3e
       -0.10879869 -0.17121598 0.27317727 0.26113713
0001f0 55 e7 85 3e 96 c2 79 be 9d f7 11 3d 0d 2a 1a be
       0.26153055 -0.24390635 0.035636533 -0.15055104
000200 b0 b0 b4 3b 05 15 14 3d 42 37 55 3e 24 27 05 3e
       0.005514227 0.03615286 0.2082186 0.13003212
000210 fc 16 06 3e c4 21 85 be 9a 27 58 bd 6c 80 70 be
       0.13094705 -0.26002324 -0.052772142 -0.23486489
000220 fb 17 2a be 4e c7 9e 3e f5 e4 88 bd 1c ce 01 3e
       -0.1661071 0.31011432 -0.06684295 0.1267628
000230 b9 7d df bd 7d 99 03 bd 0a a6 64 be de 1e 99 3e
       -0.109126516 -0.0321288 -0.22328964 0.29906362
000240 6e ff 91 be d5 bf 96 3e 52 24 e7 bd 30 3d de 3d
       -0.2851519 0.2944323 -0.112862244 0.10851514
000250 e6 62 ac 3d e5 bf 08 be d5 1e 1c be aa 21 6c be
       0.08417301 -0.13354452 -0.15246136 -0.23059717
000260 a7 70 b1 bd 09 65 5a be 16 aa 23 be 83 ec 6e 3d
       -0.08664065 -0.21327604 -0.15982851 0.058331024
000270 5d 82 97 3e 85 a7 06 3e 3c a1 70 be 85 19 8d bd
       0.29591647 0.13149841 -0.23499006 -0.06889633
000280 e2 4d d8 3d a8 8c 5b bd d8 9d bd bd 80 16 4f 3e
       0.1056173 -0.053600937 -0.09258622 0.20223427
000290 b9 15 cf bd 2d 3d 8f 3e 1d b0 9f bd 5d 09 8e 3e
       -0.10111565 0.2797636 -0.07797263 0.2774152
0002a0 43 4a ef bb 26 29 26 be c1 7e 47 bd 23 35 72 3d
       -0.007302554 -0.16226634 -0.048704866 0.059132706
0002b0 37 3e 29 be 03 90 39 be 0b bf 7d 3e 55 3c 15 3d
       -0.1652764 -0.18121342 0.24779908 0.03643449
0002c0 27 66 20 be 0c 24 82 3d 7b 85 e5 bd 8d df 82 be
       -0.15663968 0.06354532 -0.112071 -0.2556118
0002d0 16 da 9b bd 68 f4 33 bd 2d b6 18 3e 7d 4b 90 be
       -0.07609956 -0.043934256 0.14913245 -0.28182593
0002e0 77 97 30 be 57 a2 b6 bc bd 92 81 3e 66 3f 82 be
       -0.17245279 -0.022294207 0.25307265 -0.25438994
0002f0 86 cb 7b be b0 38 82 be 7c eb 06 3e 72 48 6e 3d
       -0.24589357 -0.25433874 0.13175768 0.058174558
000300 2e 36 52 be 83 08 fb bd 99 6c 40 be 9b 46 f0 3d
       -0.2052848 -0.12257483 -0.18791427 0.11732217
000310 3c a6 84 bd 17 65 3b 3e 8b f7 7e 3e 5b 0c 68 be
       -0.06477019 0.18300281 0.24899118 -0.22660963
000320 2f c5 bb 3d 42 f5 df bd 4d 25 07 be 45 f2 85 3e
       0.09168469 -0.10935451 -0.13197823 0.261614
000330 87 db 27 3e 78 c3 04 be 5b 8a 2f be 6c 4b 7d 3e
       0.16392337 -0.1296519 -0.17142622 0.24735802
000340 c0 79 b3 3d 76 c8 e7 bd 55 90 87 be a8 2b b0 3d
       0.08763456 -0.11317532 -0.26477304 0.08602077
000350 ba 93 9b be 0d 8d 16 3d 06 40 91 3d 8e 2b a0 bd
       -0.30386144 0.03675561 0.070922896 -0.078208074
000360 bc 7a 85 3e f9 89 45 3e 2e 75 a7 bd 2e 6a ad 3c
       0.260702 0.19290914 -0.08176647 0.021168794
000370 9b 43 7d 3d fe 74 a0 bd a7 bd a0 be c0 a4 de bd
       0.06183205 -0.078348145 -0.31394693 -0.10871267
000380 dd 13 9f 3d a6 c8 9a 3d bd 05 8c bd 76 97 97 3e
       0.077674605 0.07557802 -0.06837032 0.29607743
000390 2f 49 3f be 78 df 83 bd dc 3f 07 3e 6a d5 66 3e
       -0.18680261 -0.06439108 0.13207954 0.22542349
0003a0 63 45 e8 3b 55 2a 98 be 4e 52 25 be ca 89 3c 3e
       0.0070883497 -0.29719797 -0.16144678 0.18411937
0003b0 51 d1 c6 bd 60 b3 7b 3c 1c fe 83 be 3f c4 1d be
       -0.09707893 0.015362591 -0.25779808 -0.15406893
0003c0 6a d4 05 be 45 75 49 be 24 20 4a be 60 a2 55 be
       -0.13069311 -0.19673641 -0.19738823 -0.20862722
0003d0 f3 09 34 be 7d 35 1c be a7 b7 a1 3e 47 64 3e be
       -0.1758192 -0.15254779 0.31585428 -0.1859294
0003e0 6d 1c 89 3e 93 12 22 be 62 44 1f 3e df 3f 00 3e
       0.267795 -0.15827398 0.1555343 0.12524365
0003f0 78 28 4f be 11 d5 d5 bd 9b f8 7c 3e 1d f4 03 be
       -0.20230281 -0.1044103 0.2470421 -0.1288609

fc2_q1.weight f4 [256, 256]
000000 91 75 4e bc c0 75 3c bd bc db 79 bc 04 27 70 bd
       -0.012601272 -0.046010733 -0.015250143 -0.05863096
000010 ed 39 9b 3c 27 8c bb 3c be 76 27 3d bf 6d b5 3c
       0.01894852 0.022893978 0.040884726 0.022147058
000020 36 9d 15 bd 40 05 49 bd 60 2c 4f 3d ae 8e 14 3d
       -0.03652688 -0.049077272 0.05057943 0.036268882
000030 08 a6 d1 3c 0e 3d 2b bd a0 5b c4 3c 85 de 01 bd
       0.025591865 -0.041806273 0.023969471 -0.03170635
000040 e5 d5 1d 3d 82 fc 4b bd d2 cc 46 bd 83 44 f1 3c
       0.038534064 -0.049801357 -0.048535176 0.029451614
000050 db 3d 66 bd 74 e7 5c bd fc 88 f3 bb 15 d9 17 3b
       -0.056211334 -0.05393167 -0.0074321013 0.0023170162
000060 a0 0d eb 3c 8a 5e d9 bb 1c ef 78 3d 1a 94 61 3d
       0.02869302 -0.0066335844 0.060774907 0.05507288
000070 e5 6b 85 bc 9c eb 0f bd ed 9f 8a bd 1a 62 61 3d
       -0.0162868 -0.035136804 -0.06768785 0.055025198
000080 58 d0 bf bc 4f 19 22 bc 57 b0 3c 3d 4c 53 77 bc
       -0.023414776 -0.009893729 0.04606661 -0.015095543
000090 fd b1 81 bd be eb a0 3c 4e 27 78 3d b4 fe f0 bc
       -0.06332777 0.01964366 0.06058436 -0.029418327
0000a0 b3 47 6b bd d2 ed 54 bc 9c 53 0b 3d 00 8d bb 3a
       -0.057441425 -0.012996154 0.034015283 0.0014308989
0000b0 4b 83 6f bd aa 66 ed 3c 60 58 37 bd 52 2b d1 ba
       -0.05847482 0.028979618 -0.044762015 -0.0015958345
0000c0 fc d3 0c 3d 48 83 70 3d 40 ef 47 3d 5e c9 20 3d
       0.03438185 0.05871895 0.04881215 0.03925454
0000d0 84 b1 7c bd 99 a8 4f bd 80 d5 c4 3c 6d b8 08 bd
       -0.06169273 -0.050697897 0.024027586 -0.033379007
0000e0 47 ad 36 3d 66 b3 47 3d 3a f7 ea 3b 4b 3b fb 3b
       0.044598844 0.048755072 0.007170585 0.0076669804
0000f0 56 b2 92 ba 9a 14 57 bd 8b 73 62 bd 1a 94 61 3d
       -0.0011192064 -0.05250988 -0.05528597 0.05507288
000100 75 8b 19 3d e8 12 b1 bc c7 3d 3a 3c 54 10 5d bd
       0.037486512 -0.02161546 0.011367268 -0.05397065
000110 ec 0b 79 bd 1c f1 3a bd 50 00 36 3c a1 ea 5a 3d
       -0.060802385 -0.045640096 0.011108473 0.053446416
000120 18 7b 6d bc 90 de 33 bd 4f 33 26 bd f0 04 c1 3b
       -0.01449468 -0.043913424 -0.040576275 0.005890481
000130 a6 bc 1c bd 7f 7b ba 3c 1c 28 a8 3c 3f c7 3d 3b
       -0.038265847 0.022763966 0.020526938 0.0028957871
000140 a2 6c 6f 3c 43 8b f9 3c dd 01 89 bb 7a 0d 68 3d
       0.014613302 0.030461913 -0.0041811303 0.056653477
000150 e8 29 6f 3c e8 20 37 bd 56 c9 1f 3d fa 0e 20 bd
       0.014597394 -0.044709116 0.03901037 -0.039076783
000160 48 4a 3a bd ad 52 01 bb b5 e4 07 bc af 89 ae bc
       -0.045480996 -0.0019733116 -0.008294274 -0.021305887
000170 49 36 4e bc e0 97 3b bd fe 63 a7 3c 84 0d 0f 3d
       -0.012586185 -0.045799136 0.020433422 0.034925
000180 87 4b bf 3c e0 35 ff bc 64 ba e5 bc 10 17 b2 bc
       0.023351444 -0.03115362 -0.02804298 -0.021739513
000190 28 ed 48 3c 42 ed 58 bd d5 c8 88 bd 78 2d 4e 3c
       0.012263574 -0.05296064 -0.06678931 0.012584083
0001a0 cf 90 25 bc 05 7a 18 3d 24 da 7c bd 07 f9 b9 3c
       -0.010105326 0.037225742 -0.061731473 0.022701753
0001b0 49 85 5e 3d 1c 41 0c 3d e4 52 d2 3c 23 90 e7 bc
       0.05432633 0.03424178 0.025674291 -0.028266972
0001c0 03 d2 68 bd 7c 04 07 3d 40 d3 3b bd c6 77 28 3c
       -0.056840908 0.03296326 -0.04585576 0.010282462
0001d0 7a bf 53 bd 00 b8 0b bd 09 88 d0 3c 25 bc 81 bd
       -0.05169628 -0.034111023 0.025455492 -0.06334714
0001e0 24 fa 7f bd 58 fd 44 3d 18 08 be bc 23 3d e0 bc
       -0.062494412 0.04809317 -0.023197219 -0.027372902
0001f0 88 29 4d 3d 39 14 49 bd 6c 13 fe bc 53 f0 77 3c
       0.050088435 -0.04909155 -0.03101512 0.015132981
000200 94 64 87 3c 42 82 d5 bc 3f e0 a4 bc fc cb 85 3c
       0.016527452 -0.026063088 -0.02012646 0.016332619
000210 da dc 58 bb 65 f1 0e bd 05 89 89 bd 42 f8 6b 3c
       -0.0033090622 -0.03489818 -0.067155875 0.014402451
000220 dc 1d ab 3c 50 f5 27 bd ba e7 de bb 34 db fa bc
       0.020888261 -0.041005433 -0.0068025263 -0.030622102
000230 b6 99 00 3b b6 82 7f bd f0 a9 b5 bb 49 5f c3 bc
       0.001962287 -0.062380515 -0.00554394 -0.023849146
000240 d9 f0 44 bd 05 b9 1a 3c 00 c5 cd 3c d0 4b 1f 3c
       -0.048081253 0.009443526 0.025118351 0.009722665
000250 50 89 39 bd c0 f2 4e bc 65 e4 0c bd 6d 85 1d 3c
       -0.045296967 -0.012631118 -0.0343975 0.009614331
000260 7c b7 3b 3d 53 7c 69 bd 38 9b 3f bd ed 8a 81 bd
       0.04582928 -0.05700333 -0.046778888 -0.06325326
000270 06 34 ac 3c a8 d4 4a 3d 45 75 1e 3d 33 a8 f6 3c
       0.0210209 0.04951921 0.038686056 0.0301095
000280 cc 38 0a 3d dc 47 bf bc f9 75 59 3d 24 6e 75 bd
       0.033745572 -0.023349695 0.053091023 -0.05991949
000290 b3 96 fb 3c 7f 1d 80 bd 49 8d 4c bb 4d 7e 8d bb
       0.030711507 -0.06255626 -0.0031212142 -0.0043180347
0002a0 b5 21 82 bd be 32 91 bb bf a0 20 ba ec fc 07 3d
       -0.06354085 -0.004431098 -0.00061274687 0.03320019
0002b0 3c 46 7b bc ea 2b 7f bd 98 bd 29 3d 3a 6b 60 3d
       -0.015336569 -0.06229774 0.041440576 0.05478976
0002c0 81 ed c0 bc c7 e1 27 bd 97 9c b8 3b d0 50 38 bd
       -0.02355075 -0.040986802 0.0056339013 -0.044998944
0002d0 88 92 5d 3d 71 d0 4f bd 2d 13 16 3c 58 77 6d bd
       0.05409482 -0.050735895 0.009159845 -0.057975143
0002e0 c2 c4 65 3d 56 d1 2a 3d d2 c2 d7 bc ae 2a 29 3d
       0.056095846 0.041703545 -0.026338015 0.04130047
0002f0 8a 0f 35 3d 08 c2 10 bd 70 94 4e bd ad 3d 11 3d
       0.044204272 -0.035341293 -0.05043453 0.03545921
000300 44 60 a2 3c d5 ae 84 bd 78 05 f7 bc fc 2a 8b 3c
       0.019821294 -0.06478659 -0.030153975 0.01698827
000310 ba ce 5c 3d 2c 78 01 3d 6c 80 70 bd 2c df 4b 3d
       0.053908087 0.031608745 -0.058716223 0.04977338
000320 53 03 80 bd 66 16 26 3d 4a 0e 5d bd dc 31 58 3d
       -0.06250634 0.040548705 -0.053968705 0.052781925
000330 57 2a 31 3c a8 5f 1f 3d 68 c9 4e 3d 2a 29 d8 bb
       0.010813317 0.038909584 0.050485045 -0.006596704
000340 39 89 5b 3d b8 6d 66 3c 35 d1 84 bc c8 24 ba bc
       0.053597663 0.014064245 -0.016213039 -0.022722617
000350 68 ae 46 3c 3e a1 22 3c 30 91 cc 3c 04 05 df 3c
       0.012126543 0.009926138 0.024971575 0.027224071
000360 ea 8b ec 3c 72 67 6d 3a 21 a9 4e bd e2 ab 59 bd
       0.02887531 0.0009056247 -0.050454263 -0.053142436
000370 24 bf 74 bd c0 61 37 bd f9 2b 5d 3c f4 ba 44 bd
       -0.0597526 -0.044770956 0.013499253 -0.048029855
000380 f3 80 6f bd 95 81 17 3d e1 06 cf bc 6b 1c f0 3c
       -0.058472585 0.036988813 -0.025271835 0.029310426
000390 3d e6 8a bd fe d6 04 bd 4e a0 18 bd 8a 0c d6 bc
       -0.06782196 -0.032431595 -0.037262253 -0.026129026
0003a0 fc 44 76 bd e7 6a b3 3c f8 83 46 3d dc 34 52 3d
       -0.060124382 0.021901561 0.0484657 0.051319942
0003b0 3d 9f 81 bd 98 a4 90 3c 30 66 77 bd 80 93 04 3d
       -0.063292004 0.01765661 -0.060400188 0.03236723
0003c0 10 11 e8 3b a0 f4 c5 3c ec 03 7e bd e0 77 72 bd
       0.007082112 0.024164498 -0.06201546 -0.059196353
0003d0 5c 40 d7 3c 4e ef a8 3c ae e1 17 bd 36 29 20 3d
       0.026275806 0.020621922 -0.03708046 0.0391018
0003e0 a6 48 27 3d 44 07 a2 3c 60 7a 4f 3b d5 b6 0b bc
       0.040840767 0.019778855 0.0031658635 -0.008527477
0003f0 38 8f 6b bc 49 48 cb bc 0c eb 7e bd 05 c6 03 bb
       -0.014377408 -0.024814742 -0.062235877 -0.0020107043

fc2_q1.bias f4 [256]
000000 43 64 f3 3c e5 d5 84 3d 0c 5a 4b 3d e0 4b 4e 3b
       0.029710894 0.0648611 0.049646422 0.003147833
000010 ea 37 61 bd e0 77 b8 3c 19 2e 40 3c 05 f8 83 3d
       -0.054984964 0.022518098 0.011729741 0.0644379
000020 f6 2b 92 3c 7c 73 01 3d cf e9 2b bc 20 83 b3 3c
       0.017843228 0.031604275 -0.010492756 0.021913111
000030 f5 d2 8b 3d 57 35 ab 3b e1 33 54 3d ba f0 50 3d
       0.06827346 0.0052248645 0.051807288 0.051010825
000040 1a 99 0c bd c0 8b bd bb 37 a9 2c 3d a0 a6 7b bb
       -0.034325697 -0.0057844818 0.042153563 -0.0038398877
000050 c0 79 33 bd 0c 6d ca 3c c0 f3 40 3c a8 f0 46 bd
       -0.04381728 0.0247102 0.0117768645 -0.04856935
000060 d7 b5 39 3d 14 10 df 3c ff 82 26 bd 8b 9e f8 bb
       0.04533943 0.027229346 -0.04065227 -0.007587259
000070 b8 f9 42 3d e9 cc dd bc 74 4d 56 bd 45 80 18 bd
       0.04760143 -0.027075248 -0.05231996 -0.037231702
000080 06 5e 25 bd 28 bd 37 3b 90 b0 2a 3d 04 5d ad 3c
       -0.04037287 0.002803633 0.04167229 0.021162517
000090 e9 de 41 3c a7 5c 2c bd bc fd 84 bc 55 de 13 bc
       0.011832931 -0.042080548 -0.016234271 -0.009025176
0000a0 5c 4d 0b 3d ac c2 7f bd 3a b1 41 3d 52 26 56 3d
       0.034009323 -0.062441513 0.047288157 0.05228264
0000b0 60 ca 3d 3d aa 8b d2 bb 1c b2 0e 3d 5c 45 84 bc
       0.046335578 -0.0064253407 0.034837827 -0.016146354
0000c0 9a 45 d3 3c 34 ae cf bc a0 91 bb bc 80 1b 31 3d
       0.025790025 -0.025351621 -0.022896588 0.043239117
0000d0 d3 55 65 bd 95 62 18 bc 92 19 ee bc dc e3 74 bd
       -0.05599005 -0.009300848 -0.029064927 -0.059787616
0000e0 00 d3 a4 39 8f 1f bb 3b 19 73 41 bd 1b d0 70 3c
       0.00031437725 0.005710549 -0.047228906 0.014698054
0000f0 30 4d cf 3a 01 4d 48 bc a0 7e 9d 3b 57 e2 3c bd
       0.001581585 -0.01222539 0.0048063546 -0.046114292
000100 11 f5 d8 3c c1 26 45 bc 9e 9b 45 bd 40 4c 96 ba
       0.026484044 -0.012033165 -0.04824411 -0.0011466816
000110 46 6a a4 3c d0 98 23 3d b1 7a 56 bd 7c 89 8e bc
       0.020070206 0.039940655 -0.0523631 -0.017399542
000120 45 fd 18 bd e7 c4 a4 bc 0b 0f 80 bd 3e 9d 37 bd
       -0.03735091 -0.020113422 -0.06252869 -0.044827692
000130 6e 0e 1c bd 72 2c 62 bc f0 41 bb 3c 69 79 54 3d
       -0.0380997 -0.013804542 0.02285859 0.0518736
000140 2e 83 14 bd b5 7a 08 bc a5 af 1a bd f4 7e 88 bc
       -0.036257915 -0.008330037 -0.037765164 -0.016662098
000150 a5 fe 91 bb 60 b4 c9 bc bc 9d 62 3d b6 a3 16 3d
       -0.004455405 -0.024622142 0.05532621 0.03677722
000160 1d f4 83 3d 52 97 7a bd 6f 0a a5 3c 98 74 47 3c
       0.06443045 -0.061179467 0.020146577 0.012173794
000170 b0 46 ee 3b 9e 45 9e bb cc a5 70 bd f0 d1 ec 3c
       0.00727161 -0.0048300764 -0.058751866 0.0289087
000180 00 c9 c4 3c 9a 20 55 3d 9e b7 0e bd 8b 66 80 3b
       0.024021626 0.052033044 -0.03484308 0.003918474
000190 01 1b c8 bb 2a eb 74 3d e7 d1 3f bd ea b9 5c bd
       -0.0061067347 0.059794582 -0.046831038 -0.05388824
0001a0 3c 66 82 bc c0 d8 4d bb 01 77 41 bd bd be 02 3c
       -0.01591789 -0.003140971 -0.04723263 0.007980046
0001b0 e2 ba 63 3d 3d fe 86 bc 48 e2 42 3d 78 3e 43 bd
       0.055598147 -0.016478652 0.04757908 -0.047666997
0001c0 ce 45 2a bd be 20 2d bc 23 24 79 3c 5b a2 68 3b
       -0.041570477 -0.010566888 0.01520637 0.0035497162
0001d0 67 53 b9 3c fb 6e 6f 3d 00 cf 22 bc a5 a6 0f 3d
       0.022622777 0.05845545 -0.009937048 0.035071034
0001e0 fb a4 ff bc 86 dd 16 3b de 67 2a bd 3c 07 79 3d
       -0.031206599 0.0023020222 -0.04160296 0.060797915
0001f0 52 9c ec 3c b7 1c 20 bc 30 52 31 bd 98 7c b5 b8
       0.028883133 -0.009772471 -0.04329127 -8.65396e-05
000200 92 f5 5a bc f4 56 03 bd 8b 9d f4 3b 3a f4 5e bc
       -0.013364213 -0.032065347 0.0074650696 -0.013608033
000210 de 3c 0b 3d d5 18 84 3d c1 b5 5b 3c 1d 0b 95 3b
       0.033993594 0.06450049 0.013410033 0.004548444
000220 c4 0b d2 bc 09 38 55 bd 39 68 54 bd 1b 1f 68 3c
       -0.025640376 -0.052055392 -0.051857207 0.014167572
000230 2e 6d 6c 3d fc 83 5a 3d ab 27 6b bd 4a f4 d8 3c
       0.05772131 0.053348526 -0.057410877 0.026483674
000240 d3 cc 7f 3c 0d 9c 87 3c 7d 39 13 3d ea 45 6f 3d
       0.015612799 0.016553903 0.035943497 0.058416285
000250 39 38 43 bd e7 18 30 3d 0f ef 27 bd cd 81 1b bd
       -0.04766104 0.0429925 -0.04099947 -0.037965585
000260 6c 7b 12 bd 3e 5a 19 3d d1 e5 4d bd 58 69 33 bd
       -0.035762236 0.037439577 -0.050267998 -0.043801636
000270 14 bf 91 3c 89 4c 5c bd 71 5c 41 3d 4e cf 64 3d
       0.017791308 -0.053783927 0.0472073 0.055861764
000280 16 90 1f 3d 88 b8 2d bc 5a fc 59 bd 03 4d 7a 3a
       0.03895577 -0.010603078 -0.053219177 0.0009548219
000290 8d b1 12 bd 96 dd 72 bd 40 1c 90 3a 19 0d 52 3d
       -0.035813857 -0.059293352 0.0010994747 0.051282022
0002a0 1a 73 75 bd 65 de 8d bc b8 fb 4a bd 64 41 81 bc
       -0.059924223 -0.01731796 -0.049556464 -0.015778251
0002b0 97 08 a7 bc 80 a2 45 bb f9 75 d9 bb 60 b6 42 3d
       -0.020389838 -0.0030156672 -0.006636378 0.047537208
0002c0 fa 95 dc bc d9 02 db bc 63 d3 61 bc 82 4e e7 3c
       -0.026926983 -0.026734756 -0.013783309 0.028235678
0002d0 08 a7 36 bd d4 b9 a4 bc 6b 67 f0 bc 5f e8 38 3d
       -0.044592887 -0.020108141 -0.029346189 0.04514348
0002e0 d2 7f 6d 3d 00 66 14 bc 79 51 44 3c 74 0c 78 bd
       0.057983227 -0.009057522 0.011982315 -0.06055875
0002f0 ae 39 1a 3d 74 4a 36 3d 42 21 1a 3d 58 f8 16 bd
       0.037652664 0.044504598 0.037629373 -0.036857933
000300 a0 d1 ed bc 88 e4 4b 3d 07 6d 2f bd bd d2 07 bd
       -0.029030621 0.04977849 -0.042828586 -0.03315996
000310 a0 c5 43 3d 49 75 50 3d 75 41 1d 3d eb 6a fe 3c
       0.04779589 0.0508931 0.038392503 0.031056842
000320 19 03 c3 3c fa 54 13 bd 4c 40 8f 3c 9c b9 7a 3d
       0.023805188 -0.03596971 0.017486714 0.061212167
000330 2c 49 f4 3c 72 82 5c 3d c5 cb 81 bd b0 f4 31 bc
       0.029820047 0.05383534 -0.06337694 -0.010861561
000340 cc f1 00 3d e4 2c 03 bd 0e 6b a4 3c 16 27 24 3c
       0.031480595 -0.032025233 0.020070579 0.010019084
000350 00 63 45 bb 1d 6d 8d bc b6 28 1e bd ec 35 f2 3c
       -0.0030118823 -0.017263943 -0.038613044 0.029566728
000360 2d 0a 0b bd a8 ce 5b bd f5 1b 84 3d e7 ed 32 bd
       -0.03394525 -0.05366388 0.06450645 -0.043683913
000370 28 9c af bc 06 7b 1c bd bd 17 09 3d d8 17 18 bc
       -0.021436766 -0.03820326 0.033469904 -0.009283029
000380 96 fb 24 3d 5d 5e 9d bb 4b c4 60 3d 3e b0 ac 3c
       0.040278994 -0.0048025087 0.0548747 0.021080133
000390 28 ca 39 3d 80 21 36 bc 43 d3 6d bd cd 1e 86 3b
       0.045358807 -0.011116385 -0.058062803 0.004093027
0003a0 df 3a 3e bc 36 a8 28 bd e9 19 4d bb cd e3 13 3b
       -0.011610716 -0.041176043 -0.0031295961 0.00225662
0003b0 8f ce bb bc 8c e7 f0 3c 54 fa 06 bd 08 9b 38 bd
       -0.022925643 0.029407285 -0.032953575 -0.045069724
0003c0 2a 35 56 3d 9e 17 15 3d c1 3f 5e 3d ec a8 7c bc
       0.052296795 0.036399476 0.05426002 -0.0154211335
0003d0 8e 02 92 bc 42 1a de 3c c4 bf 9f 3c 96 06 9f bc
       -0.017823484 0.02711213 0.01950062 -0.01941232
0003e0 5d 96 03 bd cc 2d 77 3b 1f 94 ac 3c d9 a4 c0 bc
       -0.03212582 0.0037716506 0.021066723 -0.023516105
0003f0 c5 ea 80 3d 36 e0 27 bd 89 01 c3 ba e0 12 b4 3c
       0.06294779 -0.04098531 -0.0014877777 0.021981657

fc3_q1.weight f4 [1, 256]
000000 eb b9 f5 3c c9 b0 44 bc 70 35 01 3d 36 de 5d bd
       0.02999588 -0.0120050395 0.031545103 -0.054166995
000010 ba 9f 51 bc 7b 33 e2 bc 91 b3 cc bb 9b c2 6c bd
       -0.012794429 -0.027612438 -0.006246992 -0.057802778
000020 a6 01 9e bc b8 d6 cc 3b 29 37 5e 3d b1 72 cf bb
       -0.019287895 0.0062511824 0.054251824 -0.006330811
000030 35 6d 04 bd 60 a8 c3 3c 9a f2 64 3c 96 6d 12 bd
       -0.03233071 0.023883998 0.013973856 -0.03574904
000040 40 e9 ce bc b0 67 2b bc 7e f0 9a bc c8 b4 47 3d
       -0.025257707 -0.010461733 -0.018913504 0.04875639
000050 9e 41 27 3d 5c e8 4d bd 56 73 a9 3b 7e e7 17 3d
       0.04083406 -0.050270423 0.00517122 0.037086003
000060 a8 32 4c 3d a6 c2 22 3d 3a 46 69 3d 55 82 01 bd
       0.049852997 0.039736412 0.05695174 -0.031618435
000070 89 6b 5b 3d bb 2f ec bc 4e 54 3b 3d 49 10 4c bd
       0.05356935 -0.028831353 0.045734696 -0.04982022
000080 c8 6a bf bc 55 5f 8b bd 88 2c 99 bc 58 4a c9 bc
       -0.023366347 -0.068052925 -0.018697992 -0.024571583
000090 8d d2 80 bd 19 b9 df 3c 5d 97 07 bd c8 20 2a bd
       -0.062901594 0.027309941 -0.033103336 -0.04153517
0000a0 d5 da 05 ba dc 3f 07 3a 96 dc 3a 3d 38 9f 36 bd
       -0.0005106156 0.0005159357 0.045620523 -0.044585437
0000b0 b1 df c1 bc 9a cf 6e 3c b6 24 27 3c fe 78 17 bd
       -0.023666235 0.014575863 0.010201624 -0.03698062
0000c0 84 36 37 3d d8 6e 47 bd ef 08 38 3d ed 40 05 bd
       0.044729725 -0.048689693 0.044930395 -0.03253262
0000d0 ab 50 f9 3c 7e 6b 13 bd b7 ed 2b bd ce 25 47 bd
       0.030433973 -0.035991184 -0.04197475 -0.048620038
0000e0 2a 58 25 3d 06 4a 20 3d 14 3f 07 3d 01 6a d8 3b
       0.040367283 0.039133094 0.03301914 0.0066044335
0000f0 ef ce b0 3c 82 bd 61 3d 50 0a d4 bc 3e 28 19 bd
       0.021583049 0.05511237 -0.025883824 -0.037391894
000100 5c c2 04 3d 6f 9b 2a bd c0 fd c7 3b 5e 70 40 3d
       0.032411918 -0.04165214 0.0061032474 0.04698216
000110 26 1d 28 3c 9c e7 c5 bc b0 0d b2 bc c8 62 38 bc
       0.010260856 -0.024158292 -0.021735042 -0.01125402
000120 44 ed 71 bd 7e 6b ac 3c cd 82 1f 3c f0 7a 75 bc
       -0.059064165 0.02104735 0.009735775 -0.014982924
000130 ce db 25 3d 25 42 0d bc d6 d4 1f bc ae a8 2d 3c
       0.040492825 -0.008621727 -0.009755334 0.010599298
000140 6e 32 2f 3d ba 5e 80 3b 67 a7 ab bc e4 82 0b 3d
       0.042772703 0.0039175423 -0.020953847 0.034060374
000150 21 51 cc bc 80 a6 37 bd 25 8a 01 bd 91 99 c8 bc
       -0.024941029 -0.04483652 -0.031625886 -0.024487289
000160 fe 41 1c bd 1c 2f cc 3c 24 d8 74 bd c4 b5 8d 3c
       -0.038148873 0.024924807 -0.05977644 0.017298587
000170 7e d8 5b 3d be ca 99 b9 86 a1 03 3d 79 14 4a 3d
       0.05367326 -0.0002933349 0.032136463 0.04933593
000180 f7 16 3b 3d 05 1a 0f bc ac f2 e9 3c cd 2c 0c bd
       0.045676198 -0.008734231 0.028558098 -0.034222413
000190 9f 28 a7 b8 56 ee 74 bd 88 22 31 bc b8 4b 16 3d
       -7.970747e-05 -0.059797607 -0.010811456 0.036693305
0001a0 7a 2f 35 3d 10 4f fd bb b8 27 4c 3a 65 33 84 bc
       0.04423473 -0.0077303723 0.0007787901 -0.016137788
0001b0 0d 7c 1d 3d d1 3f d8 3c 80 bc c4 3b 08 e6 b8 bc
       0.038448382 0.026397618 0.0060039163 -0.022570625
0001c0 96 2c 1c 3d f1 12 47 bd dd ed 9c 3c 06 d1 16 bd
       0.038128458 -0.04860205 0.01915639 -0.036820434
0001d0 80 e3 ca 3c 5c 03 76 bd d0 10 60 bc d2 e1 d6 bc
       0.024766684 -0.060061797 -0.013675883 -0.026230726
0001e0 f6 34 1d bd 81 60 cb bc 79 d6 4b bc be ef 17 bd
       -0.038380586 -0.02482629 -0.012441271 -0.03709387
0001f0 b6 92 9d ba 28 00 4a 3d 59 7e d5 3b fd c2 93 3c
       -0.0012021873 0.049316555 0.006515306 0.018037314
000200 54 e4 79 bb f4 89 6b 3d 38 28 4e 3b 53 94 7e 3c
       -0.003813048 0.05750461 0.0031457078 0.015538293
000210 a0 91 53 3c 8a 83 d7 bc ec 25 16 3d 6e b0 9a bb
       0.012913138 -0.02630784 0.03665726 -0.004720739
000220 1c 52 38 3d 27 b9 27 bc 21 62 45 bd b3 6d 6d bd
       0.04500018 -0.010237015 -0.048189286 -0.057965945
000230 b4 e9 27 3d b8 8b 07 3d 8e 84 26 3d 03 99 65 bd
       0.04099436 0.03309223 0.040653758 -0.056054126
000240 07 e5 b4 3c c0 92 b3 bc 3d 29 84 bb e0 70 cd bb
       0.022081865 -0.021920562 -0.0040332363 -0.0062695593
000250 db 14 71 3c 63 5a f1 3c 2c c4 85 3b dd 58 87 bc
       0.014714445 0.029462045 0.0040822234 -0.016521866
000260 60 43 ed bb 20 76 5c bc 4e 34 2a 3d d1 7d 56 3d
       -0.0072406977 -0.013455898 0.041553788 0.05236608
000270 78 ed 23 bd bc 6f 72 bd 6b 85 eb bc 40 44 bf 3a
       -0.04002139 -0.05918859 -0.028750142 0.0014592484
000280 0e 60 11 bd 12 39 43 3d e6 d1 26 3d 1d 8e 94 3b
       -0.035491996 0.04766185 0.04072752 0.004533543
000290 e4 dd f2 bc d2 55 39 3d 32 45 35 3d 30 3d 41 3d
       -0.029646821 0.04524786 0.044255443 0.047177494
0002a0 b8 14 33 3c 76 96 2c 3b 71 7b 40 bd 2c 18 60 3d
       0.010930233 0.00263348 -0.046992723 0.054710552
0002b0 2e fe 25 3c 10 22 ac bb fd c6 0a bd a0 30 74 3d
       0.010131402 -0.005253084 -0.033881176 0.059616685
0002c0 d7 d5 3c 3d 57 2c 20 bd 4d 99 15 3c c4 13 0f 3d
       0.04610237 -0.039104786 0.009130788 0.03493096
0002d0 bc 2f 05 3d 10 c2 c4 3b a4 54 73 bd 21 41 57 3d
       0.032516226 0.0060045794 -0.05940689 0.052552346
0002e0 c4 58 32 bd 38 1b c2 bc 3a 9b 58 bd e0 5a 35 3c
       -0.043541685 -0.02369462 -0.05288241 0.01106903
0002f0 4e 0b 1c bd 98 33 e1 3c 38 23 87 3c 70 88 21 bc
       -0.03809672 0.027490422 0.016496286 -0.009859189
000300 60 d5 da 3c 76 d8 a1 3b c2 f7 e9 3b fe 81 22 3c
       0.026713073 0.004939134 0.0071401307 0.009918688
000310 7f 55 38 3c c0 91 48 3d d7 88 34 3d 28 01 b5 bb
       0.011250853 0.048967123 0.044075813 -0.0055238195
000320 0d 01 8c bd 4c 23 0f bd 70 91 cd 3c e0 11 30 bd
       -0.06836138 -0.03494577 0.025093764 -0.042985797
000330 bb 73 69 bd 76 15 1c bd 47 cb 31 3d b7 4f 3d 3c
       -0.056995135 -0.038106404 0.04340675 0.01155465
000340 46 1a 29 3d c2 cd d7 bc 1e c1 98 ba 2d cf 18 3d
       0.041284822 -0.02634323 -0.0011654233 0.037306953
000350 60 52 a7 3c b2 ce 61 3c ec 0d 81 3c 67 0b 2c bd
       0.020425022 0.01378219 0.015753709 -0.04200306
000360 c7 51 bf 3c 70 29 6d 3d 1f 3b 26 bd 52 7e d8 bb
       0.023354424 0.057900846 -0.040583726 -0.0066068554
000370 c0 8b 68 3d 07 e7 bc 3c ab 31 61 bd fc 12 d2 3c
       0.0567739 0.023059381 -0.054979008 0.025643818
000380 b9 8c 50 3c 2c 23 72 bd 71 a9 49 bc b4 37 0f 3d
       0.012728863 -0.059115574 -0.012308464 0.034965232
000390 f2 42 58 bd 84 a9 a8 3c 60 af bd 3c a5 cf 04 bd
       -0.05279822 0.020588644 0.023154914 -0.032424588
0003a0 bc d4 f6 bc 82 3c d1 bc f1 93 d7 3c 70 12 de 3b
       -0.030130737 -0.025541548 0.026315661 0.0067771003
0003b0 08 5b b2 bc 4b 61 64 bd 91 61 49 bd 97 9b 34 3d
       -0.021771923 -0.05575685 -0.049165312 0.044093695
0003c0 95 ce 86 bd e3 dc 6e bd b7 6c b4 3c 89 c3 5d 3d
       -0.06582371 -0.058316123 0.022024496 0.054141555
0003d0 49 5c 50 3d bf ba a4 bc 71 e8 cb bc 55 d7 10 3d
       0.05086926 -0.020108579 -0.02489111 0.035361607
0003e0 a7 e3 bb 3b 27 ca 20 bd 01 47 49 bd 2c f3 79 ba
       0.0057339254 -0.039255287 -0.04913998 -0.00095348316
0003f0 85 e5 84 bd 85 f8 05 bd 92 57 6c 3c d2 65 5a bc
       -0.0648909 -0.03270771 0.014425175 -0.01332994

fc1_q2.weight f4 [256, 10]
000000 e4 c8 2c be 12 be d4 bd 3e 6f 24 be 53 1c 91 be
       -0.16873509 -0.103878155 -0.1605806 -0.28341922
000010 36 53 b8 bd 90 28 3e bd a2 75 18 be 42 83 1d 3e
       -0.09000246 -0.046425402 -0.14888623 0.15382102
000020 95 2b 04 be 20 4b 9c 3c f8 2a 9a 3d 80 9d cb bc
       -0.1290725 0.019078791 0.07527727 -0.024855375
000030 50 db e8 bc 50 55 06 3e e8 5a 41 3d 17 f2 89 be
       -0.028424889 0.13118482 0.047205836 -0.26942512
000040 ee e5 5e 3e 05 c9 80 3e 9a 10 1c be 62 51 55 3e
       0.21767399 0.25153366 -0.15240708 0.20831826
000050 d4 e0 84 3e 46 95 21 3e 3e 8f 25 3e 64 d4 7e 3e
       0.2595278 0.157796 0.16167924 0.24885708
000060 3d 94 87 3e 9f e2 3a be a3 b6 6b be 08 f2 ab 3d
       0.26480284 -0.18250512 -0.23018889 0.08395773
000070 3f 6f a2 be e9 27 53 bd 33 7c 96 be f9 a9 81 3e
       -0.317255 -0.051551733 -0.2939163 0.2532499
000080 7e 6a 4d be 90 aa 51 bd 94 25 c9 3d 20 a8 2b 3c
       -0.20060155 -0.05118805 0.098216206 0.010477096
000090 18 8f 14 3e e0 76 aa bd 86 3d 5c be 22 a6 97 be
       0.14507711 -0.08323455 -0.21507844 -0.29618937
0000a0 e8 ee b8 3d b5 d9 81 3e 00 9e da bc fe 9f 13 3e
       0.09029943 0.2536141 -0.026686668 0.14416501
0000b0 a0 50 b6 3c 6e a7 78 3e 86 d8 56 3e 60 91 52 bd
       0.022255242 0.2428262 0.20981035 -0.05140817
0000c0 9e 51 85 be e8 09 18 3d 70 7f 31 3d 8b 9d 2e be
       -0.2603883 0.037118822 0.043334424 -0.17052285
0000d0 98 d7 96 3d aa c2 b5 bd 56 81 55 3e 68 b9 76 3d
       0.0736534 -0.0887502 0.20850119 0.06023541
0000e0 10 46 c2 bc 60 c4 21 3e f0 0c 8e bc 1c 1c 99 be
       -0.023715049 0.15797567 -0.017340153 -0.29904258
0000f0 28 4c 06 3e aa 8e 58 3e 02 0a 24 be c0 82 93 3b
       0.13114989 0.21148172 -0.16019443 0.0045016706
000100 8a 50 0e 3e 98 e7 3b bd 88 45 c2 3d b7 1c 9f 3e
       0.1389791 -0.045875162 0.09485918 0.31076595
000110 c0 d4 7b bd 64 2a 1f 3e 6f 7a a3 3e aa b0 69 be
       -0.06148219 0.15543514 0.31929347 -0.22821298
000120 6c a7 f6 3d e6 3d 15 be a2 56 62 3c 07 96 a4 be
       0.12043652 -0.14574394 0.0138146 -0.32145712
000130 e0 4c fd 3c 65 13 01 3e 44 52 f6 3d 8a b6 5b bd
       0.030920446 0.12605055 0.1202741 -0.05364088
000140 68 4a 9c 3d bc fc e9 bd 47 05 87 be fd 6a a1 3e
       0.07631379 -0.114251584 -0.26371214 0.31526938
000150 42 d8 76 3e 3d 7e 1b be 49 bd 20 be 42 51 7f 3e
       0.24105933 -0.15184875 -0.15697207 0.24933341
000160 97 bc 19 be 62 e7 6f 3e ac 57 85 be 00 f8 97 bc
       -0.15013348 0.2342811 -0.2604345 -0.018550873
000170 e0 a6 84 bd 35 f2 8f 3e 00 54 30 3a 23 72 7e be
       -0.064771414 0.28114477 0.0006726384 -0.24848227
000180 38 66 45 bd 08 e7 3c bc f8 c4 65 bd 48 45 18 3d
       -0.048193187 -0.0115296915 -0.056096047 0.037175447
000190 05 1a 90 3e c0 91 e7 3b 60 42 98 3c fa 34 45 3e
       0.2814485 0.0070669353 0.018586338 0.1925849
0001a0 d8 93 df 3d 1f e4 a1 3e 08 ad 8f be 40 a9 10 bd
       0.10916871 0.31619355 -0.280617 -0.03531766
0001b0 39 f5 1c be c8 0d 5a 3d 6f 14 2c be 50 56 30 be
       -0.1532792 0.0532358 -0.1680467 -0.17220426
0001c0 3a f4 30 3e c0 49 07 3e a4 af 0c 3e 70 25 82 bd
       0.17280665 0.13211727 0.13738877 -0.06354797
0001d0 03 73 63 3c 70 7a 29 3e 4e 56 5a be d9 1c 30 be
       0.013882401 0.16550612 -0.21321985 -0.17198505
0001e0 4b a0 66 3e 46 52 28 be 8f a2 a1 3e 9d bd 0a be
       0.22522084 -0.16437635 0.31569335 -0.13548894
0001f0 2a b9 59 be e8 b8 3f bd c4 9d d6 3d 65 41 8a be
       -0.2126204 -0.0468072 0.1047931 -0.27003017
000200 da 8a d5 3d 21 b0 d1 3d 16 9f 10 3e 46 62 9d 3e
       0.104268745 0.10238672 0.14123186 0.3073904
000210 1e 7f 23 be b0 fb 4d 3e 15 10 93 3e ce 9c a3 3d
       -0.1596646 0.20115542 0.28723207 0.079888925
000220 43 2f 67 3d f5 c6 a1 be 9c d3 7e 3e 64 4f 77 bd
       0.056441557 -0.31597105 0.2488541 -0.060378447
000230 b0 74 c1 bc e7 3b 2c be 82 4b 5b be 10 12 1c 3d
       -0.023615211 -0.16819726 -0.21415523 0.038103163
000240 bc b4 29 be f8 3b 37 bd f0 26 dd 3c c2 56 90 be
       -0.16572851 -0.044734925 0.026996106 -0.2819119
000250 e8 c0 3f be 00 90 98 38 6e 32 19 be 80 c6 15 3c
       -0.18725932 7.274747e-05 -0.14960644 0.009141564
000260 54 74 8d bd 42 4e 59 3e 48 9b 0d 3d f2 0e 46 3e
       -0.069069535 0.21221259 0.034571916 0.19341639
000270 bf 91 3f be 10 63 85 3c ff ad 7d be 71 c2 9f be
       -0.18707941 0.016282588 -0.24773405 -0.31203035
000280 d5 53 0f be 50 55 ca 3d d6 4e 2d 3e 4e 0a 18 3e
       -0.13996823 0.09879553 0.16924605 0.14847681
000290 ae b5 96 3d 80 60 cb bd 49 fb a0 be 1f 2c 96 3e
       0.073588714 -0.09930515 -0.31441715 0.29330537
0002a0 3b ca 65 bd 8a db 59 3e b0 4c 4d be 5a fc 59 3e
       -0.056101065 0.21275154 -0.20048785 0.2128767
0002b0 65 67 8c 3e 44 1d 03 3e 48 4a 3a be 48 98 c6 3d
       0.27422634 0.12804133 -0.18192399 0.09697014
0002c0 95 20 4e be 82 77 2d be ab 83 7d bd 58 84 a2 be
       -0.20129617 -0.1694012 -0.061893146 -0.31741595
0002d0 39 40 a0 be d4 1e 88 be f3 2e 0a be 51 40 77 be
       -0.31298998 -0.2658602 -0.13494472 -0.24145629
0002e0 88 1c ca 3d b3 34 31 be 19 9f 8e 3e a6 80 eb bd
       0.09868723 -0.1730526 0.27855757 -0.11499147
0002f0 1c 89 13 3e d5 4d 3e be 94 15 44 be c4 8f 46 be
       0.14407772 -0.18584378 -0.19148856 -0.1939078
000300 a8 c8 55 bd fd 3c 84 be 4e 24 54 3e 30 8b 5f bd
       -0.052193314 -0.2582778 0.20716974 -0.0545761
000310 3c e0 97 be 10 28 98 be 9d bb 16 be 9b da 08 be
       -0.29663265 -0.29718065 -0.14720006 -0.13364641
000320 cb 80 e5 bd 27 0f 3b 3d bd 17 89 be ec d9 f8 3d
       -0.11206206 0.045668747 -0.26775923 0.1215094
000330 1c 54 8d be 9e 42 2b be 00 c8 b1 3d 4e 80 95 be
       -0.27603233 -0.16724631 0.08680725 -0.2919945
000340 b5 06 93 3e 84 29 02 be da 5d 21 3e cf ff 88 be
       0.28716055 -0.1271115 0.15758458 -0.26757666
000350 d1 26 88 be c1 44 c0 3d a6 95 96 be 80 35 e6 bc
       -0.26592115 0.09388114 -0.29411048 -0.028101683
000360 78 a8 13 3d c4 6f 23 3e f4 73 c0 bd c1 73 4d 3d
       0.036049336 0.15960604 -0.09397116 0.05015922
000370 81 a7 54 3c dd 6e 94 3e f6 6b 18 be fb a2 77 bd
       0.012979389 0.28990832 -0.14884934 -0.060458165
000380 1e 79 24 bd a8 fa 4c be dc 3a 83 bd 50 e2 7f 3d
       -0.04015457 -0.20017493 -0.06407711 0.062471688
000390 c6 55 9d be 81 82 d6 bd 7e 69 24 3e fb 04 70 3e
       -0.30729502 -0.104741104 0.16055867 0.234394
0003a0 35 78 97 3e de 72 24 bd e0 2e 40 be d1 1a 41 3e
       0.29583898 -0.04014861 -0.18767881 0.18857886
0003b0 d8 3b b5 3d 7f 7d 84 3e c5 c4 97 3c f7 9e b5 bc
       0.08849305 0.25876996 0.018526444 -0.022170527
0003c0 f9 2b 5d 3c 70 8a 31 be 81 bf 50 3d 94 20 f1 3d
       0.013499253 -0.17337966 0.050963882 0.11773792
0003d0 47 95 3a be 34 f4 fa 3d 6a d8 e1 bd 35 6a 9b be
       -0.18221007 0.12253609 -0.11027606 -0.30354467
0003e0 a4 d6 87 3e 3e d5 2a be 30 37 67 bd 54 9c bc 3d
       0.26530945 -0.16682908 -0.056449115 0.09209505
0003f0 38 ad 18 be 46 af cf bd 00 d0 23 39 64 ef 82 bd
       -0.14909828 -0.10140853 0.00015622377 -0.063933164

fc1_q2.bias f4 [256]
000000 72 bb ae bd 68 69 30 3d a2 1d 5f be 68 43 81 be
       -0.08531846 0.043069273 -0.21788648 -0.2524674
000010 c6 87 58 be d6 a2 91 bd 34 9f 7b be a5 66 89 3e
       -0.21145543 -0.071111366 -0.2457245 0.26836124
000020 18 a8 b4 3d 00 d9 c2 ba 12 b1 5b bd a0 b4 fb bc
       0.08821124 -0.0014865696 -0.053635664 -0.030725777
000030 06 59 2a be 3c 1d 06 be 51 58 9c be 12 49 be bd
       -0.16635522 -0.1309709 -0.3053613 -0.09291281
000040 b0 f9 c5 3d c3 d7 7f be c3 95 2f be 78 d4 9b bd
       0.09666765 -0.2498465 -0.17146973 -0.076088846
000050 7c b8 82 3d 1c 43 99 bd ac 5f 83 3d 61 86 d9 3d
       0.06382844 -0.07483503 0.06414732 0.10621334
000060 31 60 d0 3d aa 3a 2b be ca 8f 6f 3e f9 d6 cd bc
       0.10174597 -0.16721597 0.23394695 -0.025126921
000070 23 57 7d be 7c 31 73 bc 70 d8 3d 3e 5f db b6 bd
       -0.24740271 -0.014843341 0.18539596 -0.089285605
000080 c4 91 d8 bd d4 6f cb 3d 82 b3 52 bc e2 e4 96 be
       -0.105746776 0.09933439 -0.012860181 -0.294715
000090 22 35 59 3e d4 f2 81 3c cc 70 e2 bd 60 39 9b be
       0.21211675 0.01586286 -0.110566705 -0.3031721
0000a0 1c 91 fa 3d df 58 39 3d 8c 1e 05 3d 42 3b 65 3d
       0.12234709 0.04525077 0.032499835 0.055964716
0000b0 9c 25 02 be e6 52 67 be 8c 37 93 bd b4 a7 3d be
       -0.1270966 -0.22590217 -0.07188329 -0.18521005
0000c0 e9 df 5e 3e 35 29 31 be 44 19 0c 3e 9e 34 a5 3d
       0.21765102 -0.17300875 0.13681513 0.080666766
0000d0 00 ad 2d bd 2c 0f 94 be a8 7c 50 bd a4 79 8a be
       -0.042401314 -0.28917825 -0.05090013 -0.2704593
0000e0 a9 96 cc bc 8d d7 94 3e b3 51 fa bd 13 8f 26 be
       -0.024974184 0.29070702 -0.12222614 -0.16265516
0000f0 8a 91 33 3e 07 ea af bd ae 0e 9d be 92 34 9a be
       0.17535987 -0.08589559 -0.30675262 -0.30118233
000100 9f dd 8f 3e 32 80 8b be 2d 12 92 bd c4 e6 89 bd
       0.2809877 -0.27246243 -0.07132373 -0.06733468
000110 61 3c 5d 3e 4a 3d 85 be 38 44 13 3e b8 0a 15 be
       0.21605064 -0.26023322 0.14381492 -0.1455487
000120 eb 9c 65 3e 9a ad f4 bd 6d 8b 9c 3e be 26 93 3e
       0.2242314 -0.11947174 0.30575123 0.28740495
000130 10 46 8c bc 22 0a dc 3d d5 f9 84 3e 64 ff 07 3e
       -0.017123252 0.1074412 0.25971857 0.13281018
000140 2e 41 9f be 25 8a 81 bd e5 ca 5a be 3b 28 67 3d
       -0.31104416 -0.06325177 -0.2136646 0.05643485
000150 68 0c 1d be 5d b2 8f bd c4 c6 86 3c b0 f9 84 3c
       -0.15336764 -0.07016442 0.0164522 0.016232342
000160 a5 a9 9b bc ef 3b 23 3e 3c 4f 86 3e 0e a3 23 3e
       -0.019001791 0.15940832 0.26232326 0.15980169
000170 a2 c2 50 bd c4 35 81 3d 40 c5 f6 3b 4f 0c a0 3d
       -0.050966866 0.06309083 0.0075308383 0.07814848
000180 2d b1 04 3e db 6b ef 3d 5f 94 ad bd 0b f9 3d be
       0.12958212 0.11690494 -0.08475565 -0.18552034
000190 ba 4b 53 be 7b 81 6e 3e c2 c4 e5 3d 1e 9d 9e 3e
       -0.20634356 0.2329158 0.11219169 0.30979246
0001a0 3a b6 8e be 28 d4 d8 3d b5 b6 17 3d 31 94 58 3e
       -0.27873403 0.105873406 0.037039477 0.2115028
0001b0 65 ca 08 3e e1 7b 48 be 1e 3f 9d 3e 03 f3 6f 3e
       0.13358457 -0.19578506 0.30712217 0.23432545
0001c0 86 b1 95 be 91 1d 3c be 5d 45 84 be 79 c3 4a 3e
       -0.29237002 -0.18370654 -0.2583417 0.1980113
0001d0 26 31 94 3e 5d 96 83 bd 5d 3f 05 be f4 76 79 3e
       0.28943747 -0.06425164 -0.13012452 0.24361783
0001e0 91 f0 c6 3d d2 a5 e0 3d 28 c5 9b be 71 26 ca 3d
       0.09713853 0.10969128 -0.30423856 0.09870613
0001f0 6b 54 6f 3d 64 35 a0 be 0c 9f 7a 3e b3 ce 61 3e
       0.058430117 -0.31290734 0.24474734 0.22051506
000200 87 56 a0 3e d5 42 96 3e 46 da a2 bc e6 15 a4 bc
       0.31316015 0.29347864 -0.019879472 -0.020029973
000210 58 92 56 3d e4 d6 82 be 36 af ab bc ee a6 06 be
       0.052385658 -0.25554574 -0.02095757 -0.13149616
000220 2a 80 66 3e 78 de 80 be fe f4 7c be 24 2e 08 bd
       0.22509828 -0.2516973 -0.24702832 -0.033247128
000230 fc a0 08 3d 44 6f 06 3e 0d 28 92 3e 7a 1c 9e be
       0.03335665 0.13128382 0.2854618 -0.308811
000240 1c 3f 84 be dc c9 8e be e7 60 24 3e 29 42 d8 bd
       -0.258294 -0.2788838 0.1605259 -0.10559494
000250 b1 0e 74 be 5e 71 1e 3e 10 fc 44 3d 7b 59 7d 3e
       -0.2383373 0.15472934 0.048091948 0.24741165
000260 28 3f 4c 3e b0 31 cc 3d f5 38 94 3e 47 59 2b be
       0.19945967 0.09970415 0.28949705 -0.16733275
000270 bc 53 45 be e9 55 dc 3c 9c 7f 85 be f0 42 3f 3c
       -0.19270223 0.026896434 -0.2607392 0.011673674
000280 ac 22 89 3e b3 a8 78 be cb a4 93 be 01 71 5b 3e
       0.26784265 -0.24283104 -0.28836665 0.21429826
000290 ce 15 94 3e 80 ba 00 bb 24 79 88 3e f8 a1 58 bd
       0.28922886 -0.0019642413 0.26654923 -0.05288884
0002a0 a4 25 9e be f7 7b 3f be b2 d2 d8 3d 7c cd 8b 3e
       -0.30888093 -0.18699633 0.10587062 0.2730521
0002b0 ac 09 89 bd 2d 75 8e 3e 35 51 11 3e 1e af f9 bd
       -0.06691298 0.27823773 0.14191134 -0.12191604
0002c0 94 86 a0 be d5 94 99 3e 0a a2 2e be 90 99 48 be
       -0.31352675 0.29996362 -0.17054 -0.1958983
0002d0 e0 61 9a be 95 40 8d be 7f fd 35 bc d5 66 90 3e
       -0.30152798 -0.27588335 -0.011107801 0.28203455
0002e0 3e 43 ef bd 77 5f 3d be 03 77 f3 3c 9c 36 fb 3b
       -0.11682747 -0.18493448 0.029719835 0.007666422
0002f0 13 cd e7 bd 8b 64 f1 bd 86 7f 2e be 8e 61 97 3e
       -0.11318412 -0.11786755 -0.17040834 0.29566616
000300 15 ca 8d 3c f9 2d 16 be ef 9b 2c be 58 92 e2 3d
       0.017308274 -0.14665975 -0.16856359 0.11063069
000310 51 b0 d8 bd 16 a0 9c be 4c 79 e9 bd 62 6b 51 3e
       -0.10580505 -0.30590886 -0.11400089 0.2045112
000320 fe 2d 83 be b6 3b 9f bd f5 71 97 3e a7 a4 a0 3e
       -0.25621027 -0.07775061 0.2957913 0.3137562
000330 54 cf 16 be 92 f9 6a 3e 2c 29 8a bd 86 07 89 bd
       -0.14727527 0.22946766 -0.06746134 -0.06690888
000340 22 0b e0 3d 96 cf a3 bd a8 80 b3 bd 96 22 2b 3e
       0.109396234 -0.07998578 -0.087647736 0.16712412
000350 d3 fa 6f bd 24 03 2c be b4 ad 0c be 62 ee 69 be
       -0.058588814 -0.16798073 -0.13738137 -0.22844842
000360 bf 7c 3f be c5 ac 9b 3d 95 41 91 3e 80 75 8b be
       -0.1869993 0.076013125 0.28370348 -0.27238083
000370 22 35 9e be 28 09 2f 3d 4a c0 e9 3d 46 d3 9f 3e
       -0.30899912 0.04273334 0.11413629 0.31215876
000380 00 5b ee 3b 7d 6c 17 3d 49 2e 47 3e df c3 23 bc
       0.0072740316 0.036968697 0.1945125 -0.00999543
000390 70 d4 c4 3c 8d 22 95 bd 4f aa a7 bd af 1c 9c be
       0.02402708 -0.07281981 -0.08186781 -0.30490634
0003a0 3f 5c ba bd ca f4 09 be 67 85 00 bc 00 7b 38 3e
       -0.09099626 -0.13472286 -0.007844306 0.18015671
0003b0 0c 9a 9f bd 89 8a 69 be b7 83 2c be 82 2a 54 3b
       -0.07793054 -0.22806753 -0.1684712 0.003237397
0003c0 9a e1 6f be 72 41 6b bd 2c d2 72 be 12 c7 77 3e
       -0.23425904 -0.05743546 -0.23712987 0.24197033
0003d0 53 8c 77 3e 04 02 b5 3d 8a b0 dc bd 05 87 9a be
       0.24174623 0.08838275 -0.1077586 -0.30181137
0003e0 25 e8 1b 3e e3 80 75 3e 4e a2 00 3e 52 bd 14 be
       0.15225275 0.23974948 0.12561914 -0.14525345
0003f0 9c f5 f0 3b 85 c7 09 3d f5 9b 90 3e 87 7a 83 3e
       0.0073534977 0.033637542 0.28243986 0.25679418
