DQN/saved_models/online.pth (torch, 105267 bytes, 11 tensors)

layers.0.weight f4 [100, 18]
-0.40986001 0.17585906 -0.46309683 -0.12338155 -0.026635507 0.08960261 0.20016018 -0.42033148
-0.114078075 -0.17688467 -0.10835248 -0.42892802 -0.037107177 -0.11633368 0.013998742 0.032018688
0.14514902 0.09131717 0.038629826 0.17214064 -0.16989051 -0.010287529 -0.018744653 -0.11348101
0.0479949 0.13913827 -0.34681243 1.1234787 -0.07281556 -0.87289965 0.09189852 -0.41017383
0.005888304 -0.06643675 -0.022158096 0.06936447 0.059085943 -0.103109114 0.54162425 -0.014585893
0.12993433 -0.03355698 -0.10518325 0.26790282 -0.3873223 0.23610558 0.40985298 -0.2508294
-0.147628 -0.02595423 -0.062506735 0.09641886 -0.046500504 -0.10930421 0.046743903 -0.09850284
-0.12272246 -0.006687168 0.0059297965 0.012884473 -0.31619528 0.0094629675 -0.18607526 -0.08404646
0.020331776 -0.02900905 -0.41894493 -0.082043424 -0.5109204 -0.031738725 -0.85518193 0.049473137
-0.3208788 0.00933554 -0.30580413 -0.08788411 -0.034270357 -0.02779577 -0.0651189 -0.19988546
0.0041637304 0.06347311 -0.113464825 0.026240671 0.6257105 0.036611993 0.10786136 0.080768324
-0.4139311 0.016290726 -0.022920514 0.48237213 0.44064242 -0.013842582 0.041150577 0.004607456
0.101743534 0.1616572 -0.48574972 -0.02277429 -0.106474794 -0.95046866 0.4161876 0.46248835
0.01991965 0.07281053 -0.057630654 0.042969007 -0.14672138 -0.28043866 -0.024951926 0.026447712
-0.05598082 -0.02292926 -0.12709783 0.03261957 -0.032497834 -0.0046804887 0.0066101397 0.035512544
-0.364718 0.6707654 -0.058720995 0.3087376 -0.5173955 -0.07142169 -0.018243553 -0.26894394
-0.0056815683 -0.022400375 -0.03211676 0.0030246484 0.18278165 -0.17553656 -0.018877735 0.06209108
-0.04172604 0.0016290572 -0.14818414 -0.48479566 -0.020809568 -0.062154822 -0.020250628 2.1559954
-0.42082006 0.014774032 -0.047207575 -0.0023706583 -0.0113006765 0.0086458 -0.4234778 0.19538315
-0.14056991 -0.17767216 0.7778826 0.045653906 0.014243699 0.12306967 0.009955622 0.019752018
-0.01473798 -0.15857035 0.054444794 0.635352 0.1355839 -0.00807515 0.14957628 -0.0022545618
-0.1818199 -0.09094584 -0.14941831 0.04207282 0.00043660233 -0.048606638 -0.14576939 0.3430261
0.11805109 -0.309489 0.14771323 0.014686078 0.1014835 -0.02108593 -0.065127514 -0.042703807
-0.19769906 0.028449997 0.25979897 0.029611886 0.20662518 0.042338878 0.576616 0.3269995
0.18431829 0.49665162 0.034965187 -0.093587205 0.013644906 0.033503674 0.006652962 0.76048076
0.23783058 -0.26957807 -0.050638948 0.09854306 0.10331228 -0.16587743 -0.62024873 0.13473907
-0.112266466 -0.04940801 0.15703079 0.063188754 0.016012626 0.017821644 -0.4969949 -0.0947991
-0.39253905 0.67997247 0.13832568 -0.003936476 0.11292168 0.08396615 0.009283582 -0.11035431
0.12535797 -0.04088648 0.31408027 -0.25218397 0.047319505 0.3121515 0.017853081 0.21472816
-0.011758488 -0.17932229 0.06004809 -0.034896925 0.09311966 -0.01348319 -0.002851321 0.001936784
-0.073008604 0.123281345 -0.0661063 0.1066227 -0.019676225 0.015540561 0.2216811 0.16865663
0.31947476 0.25700358 0.02022083 0.060534533 0.018221574 0.60152334 -0.22704978 0.040328663
00000000: 2cd9 d1be 6614 343e 071b edbe 77af fcbd
00000010: b532 dabc 9381 b73d caf6 4c3e b035 d7be
00000020: c4a1 e9bd 4121 35be e8e7 ddbd 749c dbbe
00000030: b2fd 17bd 5a40 eebd fb5a 653c 0726 033d
00000040: f2a1 143e 7f04 bb3d 4f3a 1e3d a345 303e
00000050: c7f7 2dbe 068d 28bc 638e 99bc bb68 e8bd
00000060: 4d96 443d 437a 0e3e 6691 b1be 26ce 8f3f
00000070: 5320 95bd 5a76 5fbf 4b35 bc3d 4e02 d2be
00000080: adf2 c03b fe0f 88bd e584 b5bc f60e 8e3d
00000090: 1a04 723d df2a d3bd e3a7 0a3f abf9 6ebc
000000a0: 810d 053e 0b73 09bd 516a d7bd 8f2a 893e
000000b0: 1c4f c6be a9c5 713e 40d8 d13e b66c 80be
000000c0: cb2b 17be f79d d4bc 8803 80bd 4077 c53d
000000d0: 5077 3ebd e3da dfbd 8976 3f3d dbbb c9bd
000000e0: ea55 fbbd 0820 dbbb bd4e c23b 6619 533c
000000f0: 59e4 a1be 900a 1b3c 838a 3ebe 8d20 acbd
00000100: d38e a63c 63a4 edbc f37f d6be 6206 a8bd
00000110: aecb 02bf 7700 02bd 34ed 5abf 58a4 4a3d
00000120: 3a4a a4be 18f4 183c 5c92 9cbe 96fc b3bd
00000130: 135f 0cbd f4b3 e3bc 0f5d 85bd c6ae 4cbe
00000140: e76f 883b 31fe 813d 3f60 e8bd adf6 d63c
00000150: 902e 203f 75f6 153d 6be6 dc3d dd69 a53d
00000160: c7ee d3be 2174 853c cdc3 bbbc 7bf9 f63e
00000170: e29b e13e ffcb 62bc 828d 283d 24fa 963b
00000180: ea5e d03d 7789 253e 30b4 f8be 2691 babc
00000190: 750f dabd ea51 73bf 8b16 d53e 46cb ec3e
000001a0: 892e a33c b01d 953d 1f0e 6cbd 4500 303d
000001b0: 213e 16be a895 8fbe fb67 ccbc dfa8 d83c
000001c0: 254c 65bd 25d6 bbbc ef25 02be 199c 053d
000001d0: 731c 05bd c95e 99bb df99 d83b 9a75 113d
000001e0: 51bc babe 48b7 2b3f 6d85 70bd db12 9e3e
000001f0: 0874 04bf 8945 92bd 8173 95bc 05b3 89be
00000200: 732c babb fe80 b7bc dd8c 03bd 2e39 463b
00000210: 1d2b 3b3e dbbf 33be 7ba5 9abc 3753 7e3d
00000220: ede8 2abd 1786 d53a 95bd 17be 2337 f8be
00000230: d478 aabc 0e96 7ebd a5e4 a5bc d4fb 0940
00000240: ba75 d7be c80e 723c bb5c 41bd 0c5d 1bbb
00000250: 7926 39bc 1da7 0d3c 15d2 d8be 8512 483e
00000260: 8ff1 0fbe b1ef 35be 5023 473f 97ff 3a3d
00000270: 675e 693c f30b fc3d e81c 233c fcce a13c
00000280: 9277 71bc 4460 22be 8101 5f3d 6ea6 223f
00000290: 82d6 0a3e a24d 04bc 862a 193e 45c1 13bb
000002a0: ff2e 3abe d041 babd 1d01 19be 8d54 2c3d
000002b0: c6e7 e439 c117 47bd 9244 15be 1ea1 af3e
000002c0: c5c4 f13d 5875 9ebe 2342 173e e09d 703c
000002d0: 95d6 cf3d 66bc acbc 9361 85bd 30ea 2ebd
000002e0: 9f71 4abe f80f e93c 5f04 853e a094 f23c
000002f0: 8d95 533e 886b 2d3d 1b9d 133f 7a6c a73e
00000300: efbd 3c3e 1f49 fe3e a837 0f3d a6aa bfbd
00000310: e28e 5f3c 263b 093d 1701 da3b deae 423f
00000320: dc89 733e 2306 8abe c96a 4fbd f2d0 c93d
00000330: 6395 d33d c6db 29be 9fc8 1ebf 0af9 093e
00000340: f6eb e5bd 0e60 4abd aecc 203e 1b69 813d
00000350: e92c 833c b2fe 913c 1e76 febe 0826 c2bd
00000360: e1fa c8be ad12 2e3f 3fa5 0d3e 8efd 80bb
00000370: 7b43 e73d 72f6 ab3d 2a1a 183c 7101 e2bd
00000380: d75d 003e 9578 27bd 21cf a03e 421e 81be
00000390: 19d2 413d 52d2 9f3e a040 923c b3e1 5b3e
000003a0: aca6 40bc 43a0 37be fcf4 753d 14f0 0ebd
000003b0: 85b5 be3d 99e8 5cbc 3add 3abb b0db fd3a
000003c0: 8985 95bd ee7a fc3d bd62 87bd 015d da3d
000003d0: 0930 a1bc d69d 7e3c 5f00 633e 53b4 2c3e
000003e0: 3292 a33e f995 833e 27a6 a53c 0ff3 773d
000003f0: 6945 953c 6ffd 193f bd7f 68be ab2f 253d

layers.0.bias f4 [100]
0.2751335 0.031512283 -0.12289518 -0.21696328 0.02212094 0.17032471 -0.006829487 -0.019210825
-0.08427538 0.17833531 0.01549474 0.10939297 0.22143859 0.103395775 0.1266935 -0.09412824
0.2702894 0.005685614 -0.2509517 0.36374524 -0.31208748 0.038645633 -0.05273651 -0.28395274
0.13019523 0.29186466 0.15646061 0.22654934 0.26288202 -0.1560881 0.165628 -0.2194389
-0.013752281 0.14714481 0.046705026 -0.0112138055 0.04993658 0.2784143 0.34850585 -0.10906083
0.0033398045 -0.013552514 -0.12648465 0.31735423 0.28690958 0.12504138 0.26912788 -0.10894715
-0.037740536 0.0037040345 0.4280974 -0.1875609 0.1469608 0.53310215 -0.12904303 0.24459027
-0.20527002 0.089584105 -0.06841989 0.25782508 0.13539249 -0.00032088129 -0.47012517 -0.073782384
0.12139047 0.03496927 0.09664281 -0.01606491 0.28360897 0.24946356 0.16832095 0.06708999
0.09850098 0.09534282 0.025946472 0.14121598 -0.14825906 -0.1759735 0.16511643 -0.1492561
-0.40785724 -0.61325496 -0.29110652 -0.33155608 0.09068176 -0.18580157 0.056682304 -0.060861934
-0.34746468 -0.14303912 0.20427938 -0.22012557 -0.10299967 -0.27834454 0.39465308 -0.02387403
0.00072058477 -0.019632302 0.23952952 0.048459377
00000000: 4cde 8c3e 0613 013d 78b0 fbbd 9f2b 5ebe
00000010: f936 b53c 9a69 2e3e e4c9 dfbb 0560 9dbc
00000020: 9298 acbd 889d 363e a6dd 7d3c 6c09 e03d
00000030: ccc0 623e 2ac1 d33d f1bb 013e 4fc6 c0bd
00000040: 5f63 8a3e 634e ba3b be7c 80be d13c ba3e
00000050: eec9 9fbe e24a 1e3d 3d02 58bd 4162 91be
00000060: e651 053e 496f 953e 3637 203e 8dfc 673e
00000070: 7998 863e 8fd5 1fbe 639a 293e 97b4 60be
00000080: 3f51 61bc 21ad 163e c54d 3f3d 1cba 37bc
00000090: 4d8a 4c3d 528c 8e3e 5c6f b23e 495b dfbd
000000a0: 9fe0 5a3b 5d0b 5ebc 3185 01be 417c a23e
000000b0: d0e5 923e d90a 003e 21cb 893e af1f dfbd
000000c0: d295 1abd 63bf 723b 952f db3e f70f 40be
000000d0: e47c 163e 6279 083f db23 04be df75 7a3e
000000e0: 4e32 52be df77 b73d ba1f 8cbd a601 843e
000000f0: 54a4 0a3e f53b a8b9 3fb4 f0be 381b 97bd
00000100: 919b f83d f03b 0f3d aaec c53d 8f9a 83bc
00000110: 3235 913e 6073 7f3e 545c 2c3e 7a66 893d
00000120: e2ba c93d 1943 c33d b28d d43c ec9a 103e
00000130: 39d1 17be 6632 34be 4814 293e 97d6 18be
00000140: aad2 d0be 47fe 1cbf ea0b 95be b8c1 a9be
00000150: 5cb7 b93d c442 3ebe b42b 683d 5d4a 79bd
00000160: e4e6 b1be d978 12be 9d2e 513e 9968 61be
00000170: 7ef1 d2bd 2d83 8ebe f80f ca3e 7893 c3bc
00000180: a0e5 3c3a ecd3 a0bc 3a47 753e 577d 463d

layers.1.weight f4 [100, 100]
0.075211 0.007284952 -0.06685012 0.023167843 0.13136972 -0.0028270131 0.2922303 0.12885717
-0.025959397 -0.06204338 0.101869896 -0.21134032 -0.18057147 -0.0013013079 -0.049633063 -0.07562659
0.09899309 0.041434426 -0.09555754 0.05265666 -0.07225672 0.1920741 0.1571418 -0.11964938
-0.018105494 0.21529667 0.0250924 0.113288514 -0.08271736 0.22825608 -0.095490664 -0.08630879
0.09193639 0.0904145 0.07651129 0.11742963 0.0861608 -0.05751295 0.15833586 0.08549937
-0.23976551 -0.11482454 0.3584467 0.18068789 0.08558344 -0.105974294 0.085818514 -0.10356321
-0.010100231 -2.065318e-05 0.079246596 -0.02994653 -0.03404407 -0.10735422 0.06239638 0.021248052
-0.0063532856 0.27075702 -0.051587846 0.24360976 0.11267938 -0.15303908 0.1279311 -0.10558075
-0.14325587 0.09307961 -0.052104957 -0.20267119 -0.28810474 0.061760228 0.20604472 0.013740418
-0.041471716 0.27030295 -0.06377686 -0.34900853 -0.065299846 0.3376638 -0.0059168166 -0.14690107
0.08991638 0.19291815 0.0067522493 -0.09196405 -0.10822521 0.26921606 -0.112288706 0.04531674
-0.0133530535 -0.15452781 -0.100885354 -0.10424673 0.04361953 -0.13256484 -0.054756008 -0.16292483
-0.22968607 -0.33427712 -0.06532845 0.18362515 -0.33094066 0.014919217 -0.08094137 -0.10918207
-0.07251779 0.062456697 -0.10192932 -0.07146085 -0.08057829 0.30126432 -0.055537526 0.11424319
-0.09069149 -0.12900457 -0.005727655 -0.027683424 -0.13517222 -0.12180572 0.13324454 0.14838883
-0.06682135 -0.14545658 -0.026513446 -0.0057054507 -0.09365189 -0.09238175 -0.0709031 0.000524049
-0.108786225 -0.019931447 -0.024609694 0.048096955 -0.14676629 -0.10829238 0.07649133 -0.15168144
0.041339092 -0.06773028 -0.09445119 -0.17128234 -0.061526902 0.0021502634 0.30370563 -0.143735
-0.024617136 -0.014320304 0.108014844 -0.22232404 0.05435239 0.013750002 -0.084250435 -0.15524785
0.019800905 -0.1831744 -0.05135787 -0.019672632 0.05185707 -0.17647867 0.023736374 -0.028260764
-0.0049461005 -0.09380454 -0.15052238 -0.07962817 0.057577327 0.109728314 0.145542 0.20201105
-0.0955932 -0.24566257 -0.19227077 -0.1567153 0.09892433 -0.040816426 -0.046995115 -0.10976382
-0.015928898 0.09750752 0.017609648 0.11890203 -0.09136136 0.2202946 0.1073127 0.120600216
-0.11496959 0.26078132 -0.22419702 0.015133666 -0.089328624 -0.04403119 0.06614551 -0.009158306
-0.0138189085 0.030282559 0.04865131 0.06420118 -0.22797582 0.025211545 -0.05881721 -0.23112234
-0.07284803 0.04397976 -0.10120414 0.17673813 -0.25651443 0.33960065 -0.027255636 0.02066848
-0.10676315 0.06016816 -0.11293607 -0.1390161 0.07053643 0.06898836 0.06112315 -0.094481625
-0.024658995 0.012322028 -0.021616006 0.035042908 0.25958022 -0.11393811 0.11656445 -0.029732497
-0.008056951 -0.10316497 -0.0008214174 -0.023721829 -0.061832298 0.16345243 -0.031203121 0.16673902
0.14015652 -0.13472427 0.09325837 0.10614338 0.09973767 -0.060965907 -0.27567562 0.034065343
-0.034526188 -0.06727832 0.056715053 -0.099101536 0.057203885 -0.13637769 -0.080876306 0.06390545
0.056035068 -0.12270029 -0.00027349876 -0.06117599 -0.108554974 -0.26546878 -0.055047758 -0.13371773
00000000: 3a08 9a3d 9bb6 ee3b b7e8 88bd 7dca bd3c
00000010: c985 063e 6945 39bb 369f 953e 22f3 033e
00000020: cda8 d4bc 3321 7ebd 2aa1 d03d 9969 58be
00000030: bae7 38be a690 aaba 0a4c 4bbd 1de2 9abd
00000040: e4bc ca3d 25b7 293d acb3 c3bd 83ae 573d
00000050: 55fb 93bd 13af 443e c8e9 203e bc0a f5bd
00000060: f951 94bc bb76 5c3e 948e cd3c cf03 e83d
00000070: b867 a9bd f6bb 693e 9c90 c3bd aac2 b0bd
00000080: 2549 bc3d 3d2b b93d f4b1 9c3d f27e f03d
00000090: 1375 b03d b392 6bbd cc22 223e 4b1a af3d
000000a0: 1785 75be 2129 ebbd 5386 b73e 3f06 393e
000000b0: 5f46 af3d 0d09 d9bd 9ec1 af3d f318 d4bd
000000c0: 707b 25bc 5e40 adb7 0a4c a23d 6d52 f5bc
000000d0: cb71 0bbd 87dc dbbd 5993 7f3d 6510 ae3c
000000e0: 392f d0bb aaa0 8a3e c74d 53bd d674 793e
000000f0: 72c4 e63d 47b6 1cbe 5f00 033e b83a d8bd
00000100: abb1 12be 86a0 be3d 026c 55bd 0989 4fbe
00000110: 7782 93be 4bf8 7c3d 63fd 523e 7d1f 613c
00000120: 3fde 29bd 2665 8a3e 719d 82bd 3fb1 b2be
00000130: edbb 85bd 45e2 ac3e dbe1 c1bb 3c6d 16be
00000140: 1426 b83d 568c 453e f941 dd3b a657 bcbd
00000150: 2ea5 ddbd b0d6 893e 9ff7 e5bd 0c9e 393d
00000160: c4c6 5abc 8a3c 1ebe fb9c cebd 4f7f d5bd
00000170: 64aa 323d 14bf 07be d647 60bd c4d5 26be
00000180: d332 6bbe 5f26 abbe ecca 85bd 3b08 3c3e
00000190: 0e71 a9be bb6f 743c 97c4 a5bd d99a dfbd
000001a0: 3584 94bd 98d2 7f3d 52c0 d0bd 115a 92bd
000001b0: 3b06 a5bd 513f 9a3e 517b 63bd 55f8 e93d
000001c0: 76bc b9bd c619 04be 0daf bbbb 59c8 e2bc
000001d0: 966a 0abe 4775 f9bd 4271 083e 3ef3 173e
000001e0: a2d9 88bd 92f2 14be ba32 d9bc caf4 babb
000001f0: 90cc bfbd a532 bdbd a535 91bd 5560 093a
00000200: 50cb debd 4647 a3bc 459a c9bc 5001 453d
00000210: e749 16be 65c8 ddbd 7da7 9c3d 6152 1bbe
00000220: 2e53 293d 2cb6 8abd a06f c1bd a364 2fbe
00000230: a203 7cbd 6feb 0c3b 4e7f 9b3e 452f 13be
00000240: e0a9 c9bc b59f 6abc e336 dd3d eaa8 63be
00000250: 9da0 5e3d b047 613c 7e8b acbd 4bf9 1ebe
00000260: 8235 a23c 1292 3bbe a15c 52bd 8028 a1bc
00000270: 1468 543d d3b6 34be c972 c23c 1e83 e7bc
00000280: e612 a2bb 981c c0bd 8a22 1abe 1814 a3bd
00000290: 34d6 6b3d 3db9 e03d f608 153e fcdb 4e3e
000002a0: 5ec6 c3bd f88e 7bbe a1e2 44be fa79 20be
000002b0: d798 ca3d 202f 27bd f37d 40bd dbcb e0bd
000002c0: 527d 82bc 06b2 c73d 1c42 903c e882 f33d
000002d0: aa1b bbbd e894 613e c3c6 db3d 3ffd f63d
000002e0: 2d75 ebbd 2185 853e e793 65be 32f3 773c
000002f0: edf1 b6bd 0d5a 34bd 4c77 873d b80c 16bc
00000300: b468 62bc 2113 f83c 9946 473d e97b 833d
00000310: 7e72 69be 7188 ce3c 51ea 70bd 56ab 6cbe
00000320: 5931 95bd 1f24 343d 1e44 cfbd d7fa 343e
00000330: dc55 83be 23e0 ad3e 3647 dfbc f250 a93c
00000340: a3a6 dabd e372 763d 074b e7bd 3d5a 0ebe
00000350: 6775 903d c549 8d3d 455c 7a3d 957f c1bd
00000360: a901 cabc 55e2 493c 0d14 b1bc 2789 0f3d
00000370: b3e7 843e 6258 e9bd 58b9 ee3d 9191 f3bc
00000380: 4d01 04bc 2848 d3bd 6354 57ba 4854 c2bc
00000390: dd43 7dbd 1360 273e b09d ffbc a2bd 2a3e
000003a0: 3185 0f3e 29f5 09be 3ffe be3d b361 d93d
000003b0: 4343 cc3d 63b7 79bd 5b25 8dbe 1a88 0b3d
000003c0: 556b 0dbd 37c9 89bd 0b4e 683d bff5 cabd
000003d0: 9f4e 6a3d 98a6 0bbe 7aa2 a5bd dce0 823d
000003e0: 0785 653d 4a4a fbbd 6264 8fb9 ad93 7abd
000003f0: 1252 debd 86eb 87be c279 61bd 4ded 08be

layers.1.bias f4 [100]
-0.08621018 -0.20228943 -0.20173176 -0.24695222 -0.19882654 0.0026884477 0.19704884 0.05150162
0.30044228 -0.19369331 0.18282446 -0.0603248 0.02864664 -0.31714362 -0.010640031 0.20836051
0.21725847 0.156806 -0.13505523 -0.09548094 0.1802348 0.27583343 0.18183069 0.091352046
-0.23138873 -0.17508341 0.1561252 -0.16183111 0.06812876 0.13396093 -0.09488899 0.123594016
0.09228885 -0.17104724 -0.008742123 0.14071274 -0.22685932 -0.20924355 0.13418837 -0.04712679
0.015935143 0.0947307 -0.058279116 0.023073146 -0.24995483 -0.026569245 0.14882892 -0.05364136
0.19575565 0.021964977 -0.13216782 -0.12732168 0.24519336 -0.18614686 0.16208792 0.24997136
0.0806617 -0.04058835 -0.13065507 -0.13710663 -0.06642075 -0.06924879 0.17970134 -0.09639232
0.058186017 0.21623884 -0.082111366 -0.14490476 0.058255162 0.067234695 -0.25466996 -0.038853385
-0.13639142 -0.037436243 0.04619563 0.04166851 -0.09867417 0.066535585 -0.0032032237 0.043294284
0.068767205 -0.01387531 -0.07248226 0.084232174 0.119930744 0.32480478 -0.07005224 -0.091586895
-0.054316718 0.093516946 -0.49824572 0.1689145 0.017446613 0.034694504 0.114435986 0.15380827
-0.16837248 0.16829388 -0.1495687 0.04453783
00000000: f68e b0bd f624 4fbe c592 4ebe 0be1 7cbe
00000010: 2f99 4bbe ab30 303b 2cc7 493e 5df3 523d
00000020: 92d3 993e 8a57 46be 5636 3b3e 2317 77bd
00000030: 5cac ea3c a660 a2be 8653 2ebc 755c 553e
00000040: 0179 5e3e c191 203e eb4b 0abe 838b c3bd
00000050: 798f 383e 0a3a 8d3e d331 3a3e c816 bb3d
00000060: 2bf1 6cbe 1149 33be 49df 1f3e 0eb7 25be
00000070: 1787 8b3d 0e2d 093e 2955 c2bd dc1e fd3d
00000080: f001 bd3d 0227 2fbe 1f3b 0fbc 0017 103e
00000090: cf4d 68be f143 56be ad68 093e 0508 41bd
000000a0: 6b8a 823c 2b02 c23d 15b6 6ebd e503 bd3c
000000b0: 29f4 7fbe bfa7 d9bc 9c66 183e 0bb7 5bbd
000000c0: 2b74 483e e5ef b33c 0057 07be 9d60 02be
000000d0: f813 7b3e 489d 3ebe 60fa 253e 7ef8 7f3e
000000e0: f631 a53d f83f 26bd 71ca 05be ae65 0cbe
000000f0: 9a07 88bd 4fd2 8dbd a103 383e 5669 c5bd
00000100: 7654 6e3d b76d 5d3e 012a a8bd ea61 14be
00000110: f79c 6e3d 58b2 893d 1a64 82be ba24 1fbd
00000120: 31aa 0bbe bf56 19bd a137 3d3d 99ac 2a3d
00000130: af15 cabd cf43 883d 2ded 51bb 5955 313d
00000140: d2d5 8c3d 4555 63bc 9471 94bd eb81 ac3d
00000150: 409e f53d d04c a63e 8c77 8fbd e991 bbbd
00000160: 357b 5ebd d085 bf3d 101a ffbe ecf7 2c3e
00000170: 33ec 8e3c d31b 0e3d 6a5d ea3d ea7f 1d3e
00000180: d669 2cbe 3b55 2c3e 8a28 19be 4d6d 363d

advantage_head.0.weight f4 [64, 100]
0.07185311 0.33815902 -0.1711304 0.30879164 0.07661457 0.045855556 -0.11295425 -0.1267926
0.019689463 0.15489474 0.1011955 0.09073854 -0.045542017 0.092831075 -0.007356069 0.12154096
-0.059409168 -0.15857968 -0.08876803 -0.05822462 0.048138414 -0.07550406 0.16926223 -0.12688719
-0.08783719 -0.1175732 0.2540513 0.38350153 -0.16219531 -0.003591025 -0.20285912 -0.042632993
0.057653833 0.037770044 -0.14679416 -0.09393342 -0.098302566 -0.035735466 0.0025857664 -0.012504914
0.16871727 -0.02623597 -0.31406155 -0.05123071 -0.19039422 0.21263847 0.29216594 -0.02691684
-0.204385 0.020584175 -0.08105448 0.11095036 -0.032599386 -0.11033129 0.1681567 -0.14064206
0.11867264 0.22672825 -0.07352677 0.028697606 0.08110726 0.13321081 -0.0056566605 0.016378319
0.17601718 0.13587175 -0.13887809 0.02633792 0.18650039 -0.19453502 -0.25817356 0.13272214
0.01829099 0.19810055 -0.12049571 0.13619328 0.018929712 -0.18295823 0.0118004335 0.010144611
0.06472097 -0.12185528 0.13815445 -0.09129303 -0.0022913076 -0.37197462 0.12401654 -0.15599722
-0.0315968 -0.10091011 0.31626022 0.10800205 -0.2036949 0.13916586 0.06266501 0.0017882206
0.08367364 -0.066078395 -0.04615297 0.05105525 -0.04940386 0.09329882 -0.10546078 0.3885953
0.059984084 0.19111797 0.06747737 0.09598104 0.17020486 -0.08500979 0.033356063 0.14876951
0.02352113 0.23542297 -0.14092746 -0.27211493 -0.06345145 0.089772895 -0.08913915 -0.21968481
0.2200317 -0.048961595 -0.004278422 -0.086926274 0.029548196 0.15476416 -0.08548737 0.035668466
0.1068116 0.13086246 -0.12170442 -0.11803493 -0.09362934 -0.08552434 0.11299117 0.0060497364
-0.014154712 -0.025657415 -0.029191172 0.018382102 -0.12736425 0.15676303 -0.046249457 0.1692213
-0.028372113 0.07936451 0.25162917 -0.0181773 -0.06696826 0.09038383 0.22982521 -0.10113033
-0.0122638475 0.05344489 -0.1096231 -0.06466033 -0.17823158 -0.030260611 -0.0475052 0.071496956
-0.40628237 -0.01126657 0.031656228 0.047418922 -0.030622307 0.14619318 0.023196647 0.029902268
-0.040036257 -0.13135009 0.12196877 -0.03946857 0.039110746 -0.13677326 0.014291354 0.1507736
0.092691876 0.05067665 -0.03309244 0.039858487 0.12001187 0.22734806 -0.15618883 0.20589167
0.019950744 -0.027946688 -0.15424664 0.058814153 0.1404646 -0.12396831 0.2519535 -0.02350919
-0.1875651 0.008169702 0.26268888 -0.100211784 0.06497091 0.2605798 0.029209431 0.09220766
-0.042469293 -0.06926256 0.11018184 -0.03298789 0.08816963 -0.0037328135 -0.29331598 0.09207626
-0.04375287 -0.21840018 -0.12728105 -0.0849156 -0.07126742 0.023802433 -0.2329974 -0.10892865
-0.15832356 0.1718492 0.019390892 -0.08964967 0.10693005 -0.07876341 -0.022795415 0.06300865
0.063076 0.093443304 0.05776825 -0.005340326 0.0062166844 0.0035586925 0.06573887 0.031924088
0.108613454 -0.04737081 0.12864465 0.04653031 -0.2852734 0.16261278 -0.073899366 -0.0035422063
-0.009924332 -0.05431084 0.048614055 0.060127307 0.12248895 0.072717816 0.21030027 -0.17367426
-0.11589422 0.02433727 -0.17890738 -0.05622731 -0.11387644 0.012532285 -0.026306497 -0.19254348
00000000: b927 933d 2e23 ad3e cf3c 2fbe f019 9e3e
00000010: 1ae8 9c3d 09d3 3b3d 8f54 e7bd ebd5 01be
00000020: cc4b a13c ba9c 1e3e 963f cf3d 21d5 b93d
00000030: 448a 3abd 381e be3d 2e0b f1bb 78ea f83d
00000040: 0757 73bd b662 22be 03cc b5bd f07c 6ebd
00000050: c92c 453d dfa1 9abd 1453 2d3e b7ee 01be
00000060: fce3 b3bd 38ca f0bd 0313 823e 505a c43e
00000070: 8716 26be 6757 6bbb 4dba 4fbe ef9f 2ebd
00000080: 6d26 6c3d c3b4 1a3d 3551 16be 2a60 c0bd
00000090: db52 c9bd 5a5f 12bd f675 293b 69e1 4cbc
000000a0: 38c4 2c3e d1ec d6bc adcc a0be 4bd7 51bd
000000b0: b4f6 42be e6bd 593e c696 953e b480 dcbc
000000c0: 4d4a 51be 25a0 a83c e4ff a5bd f139 e33d
000000d0: ef86 05bd 5ff5 e1bd 4531 2c3e 7904 10be
000000e0: a40a f33d 732b 683e 3495 96bd 3e17 eb3c
000000f0: 901b a63d 6a68 083e 825b b9bb d32b 863c
00000100: d93d 343e f721 0b3e 0f36 0ebe 9fc2 d73c
00000110: f5f9 3e3e 3034 47be 532f 84be 50e8 073e
00000120: fcd6 953c dfda 4a3e 74c6 f6bd 4076 0b3e
00000130: 7c12 9b3c 6759 3bbe 9b56 413c 9535 263c
00000140: 6e8c 843d 438f f9bd 5c78 0d3e d7f7 babd
00000150: c329 16bb 7573 bebe 62fc fd3d bcbd 1fbe
00000160: a56b 01bd f6a9 cebd dcec a13e 2e30 dd3d
00000170: 6595 50be 7f81 0e3e 8356 803d ba62 ea3a
00000180: 165d ab3d 1c54 87bd e60a 3dbd 4f1f 513d
00000190: b45b 4abd 7413 bf3d d2fb d7bd f7f5 c63e
000001a0: dfb1 753d 6eb4 433e 9331 8a3d b591 c43d
000001b0: 2f4a 2e3e 9d19 aebd 5ea0 083d 0957 183e
000001c0: 63af c03c b812 713e 4a4f 10be a652 8bbe
000001d0: d5f2 81bd dada b73d 968e b6bd 0ef5 60be
000001e0: fd4f 613e f48b 48bd 0132 8cbb 6706 b2bd
000001f0: 0f0f f23c 7f7a 1e3e 0114 afbd 1919 123d
00000200: 0ac0 da3d cf00 063e 2b40 f9bd 4cbc f1bd
00000210: bdc0 bfbd 6327 afbd ea67 e73d de3c c63b
00000220: 2ae9 67bc 802f d2bc 5322 efbc 1096 963c
00000230: c66b 02be 7d86 203e 1270 3dbd 5948 2d3e
00000240: a26c e8bc dc89 a23d 8ad5 803e 90e8 94bc
00000250: a826 89bd 281b b93d 4d57 6b3e 6b1d cfbd
00000260: 4eee 48bc 07e9 5a3d 1382 e0bd a36c 84bd
00000270: 5782 36be 1ae5 f7bc d094 42bd ff6c 923d
00000280: 3e04 d0be 6b97 38bc f6a9 013d 583a 423d
00000290: a2db fabc aab3 153e e506 be3c 9af5 f43c
000002a0: 0ffd 23bd a380 06be c3ca f93d cca9 21bd
000002b0: 9732 203d 4a0e 0cbe 4926 6a3c 6564 1a3e
000002c0: 3dd5 bd3d 5292 4f3d f08b 07bd a742 233d
000002d0: c9c8 f53d eecd 683e f7ef 1fbe 44d5 523e
000002e0: be6f a33c 74f0 e4bc d5f2 1dbe 1ce7 703d
000002f0: f4d5 0f3e 19e3 fdbd 0d00 813e 5896 c0bc
00000300: 1111 40be 37da 053c 287f 863e d63b cdbd
00000310: 780f 853d b76a 853e 9e48 ef3c 5fd7 bc3d
00000320: 48f4 2dbd 87d9 8dbd 04a7 e13d 4f1e 07bd
00000330: 4792 b43d 38a2 74bb 832d 96be 7a92 bc3d
00000340: 3636 33bd 4ca4 5fbe f755 02be 3be8 adbd
00000350: a7f4 91bd 52fd c23c df96 6ebe fc15 dfbd
00000360: 921f 22be 3df9 2f3e a6d9 9e3c 3f9a b7bd
00000370: 24fe da3d b64e a1bd 73bd babc ae0a 813d
00000380: fd2d 813d 345f bf3d 679e 6c3d e7fd aebb
00000390: 54b5 cb3b f438 693b 1aa2 863d d5c2 023d
000003a0: bb70 de3d e507 42bd 6cbb 033e 9196 3e3d
000003b0: 5b0f 92be f783 263e 8d58 97bd 5c24 68bb
000003c0: aa99 22bc 0b75 5ebd 881f 473d 0d48 763d
000003d0: 7ddb fa3d 14ed 943d f458 573e aad7 31be
000003e0: f359 edbd f45e c73c 7f33 37be 9c4e 66bd
000003f0: 0d38 e9bd 3754 4d3c b980 d7bc 1e2a 45be

advantage_head.0.bias f4 [64]
-0.18558758 -0.25263208 0.019744284 -0.1694318 -0.08583085 -0.25452346 -0.058968198 -0.025120674
-0.008240861 -0.3872012 -0.08017244 -0.20897828 -0.10681404 -0.15729 -0.115823545 -0.13697322
0.09221548 -0.07159015 -0.0821523 -0.09204726 -0.29086557 -0.28107336 -0.25880778 -0.2866637
0.04415335 0.073574714 -0.0033079975 -0.07167676 -0.27822357 -0.3166906 -0.29128504 -0.23458873
-0.13473177 -0.29286313 -0.18833177 -0.29641274 -0.18056707 0.15461181 -0.11467069 -0.18892236
-0.048623323 -0.1585936 -0.3799505 0.16586472 0.014839372 -0.22283624 -0.18589462 -0.013414442
-0.005411739 -0.1143516 -0.129171 -0.120267875 -0.37404692 -0.2405031 -0.26361206 -0.22190328
-0.25917694 -0.1643593 -0.13902634 -0.0147495 -0.113172054 -0.054368652 -0.069305584 0.080753624
00000000: ac0a 3ebe fe58 81be c4be a13c 887f 2dbe
00000010: 16c8 afbd e650 82be a388 71bd dfc9 cdbc
00000020: ad04 07bc 3c3f c6be 7331 a4bd 67fe 55be
00000030: 52c1 dabd a110 21be e534 edbd b542 0cbe
00000040: 78db bc3d db9d 92bd 773f a8bd 4683 bcbd
00000050: 55ec 94be d9e8 8fbe 7482 84be 96c5 92be
00000060: 25da 343d 57ae 963d fdca 58bb 44cb 92bd
00000070: 5273 8ebe 4525 a2be 5023 95be 0738 70be
00000080: 20f7 09be 28f2 95be 0bda 40be 69c3 97be
00000090: 93e6 38be 8f52 1e3e 77d8 eabd dd74 41be
000000a0: 4029 47bd 5c66 22be df88 c2be 71d8 293e
000000b0: d620 733c 2f2f 64be 295b 3ebe 3fc8 5bbc
000000c0: f554 b1bb 2c31 eabd 6745 04be 014f f6bd
000000d0: 1483 bfbe 7246 76be 29f8 86be 9d3a 63be
000000e0: d7b2 84be ce4d 28be ec5c 0ebe e3a7 71bc
000000f0: c0c6 e7bd aab1 5ebd 16f0 8dbd 2862 a53d

advantage_head.2.weight f4 [7, 64]
-0.2829421 0.26378757 -0.20962943 -0.22166711 -0.11083509 0.3591013 0.0879615 -0.25495496
-0.29830748 0.18227729 -0.291928 0.034815364 -0.2144258 0.113571145 0.21683557 -0.2979461
0.16761853 -0.08245054 -0.24212104 0.035098 0.10866294 0.093268774 0.5219094 -0.097551696
-0.14846751 0.39113632 -0.13627271 -0.23887472 -0.25214788 -0.20028877 0.41540566 -0.0034168882
-0.2461602 0.27332953 0.18924874 -0.4359504 -0.045642376 -0.073523305 -0.22840427 0.1774857
-0.27481982 -0.23275992 -0.051812515 -0.14067115 -0.25715247 -0.28743833 0.07302273 -0.177652
0.28341192 0.26145023 -0.048429787 0.0070910016 0.01969391 -0.12530477 0.052140217 -0.23030631
0.21562932 -0.21717197 0.11815132 0.12864105 0.40522683 -0.14993693 -0.08392256 -0.064554624
-0.20980248 0.28182316 -0.24020597 0.1068046 -0.08167949 0.3470224 0.49977404 -0.2239719
-0.3451764 0.26779503 -0.16559863 -0.12362243 -0.14991337 -0.153789 0.2681325 -0.24529833
0.21815772 -0.23520274 -0.2011747 -0.0064797183 0.39342764 0.062125143 0.5289424 0.114977874
-0.21599902 0.20797233 -0.14533311 -0.19748998 -0.1750621 -0.406487 0.4407465 0.031793293
-0.1969364 0.3179819 0.21735041 -0.35002387 -0.03365583 -0.15085861 -0.21211907 0.16951786
-0.34843954 -0.124212585 -0.22214273 -0.11784072 -0.32395023 -0.3459858 0.0733442 -0.14529136
0.0637486 0.24988694 -0.09529934 -0.13977483 0.34021744 -0.04468038 -0.09845842 -0.3261438
0.1988563 -0.10161804 0.12558949 -0.08534514 0.39012852 -0.14011244 -0.25566006 -0.048482906
-0.28872633 0.17925769 -0.22584271 -0.32535794 0.028701032 0.21499647 -0.082793094 -0.41540667
-0.3554505 0.350123 -0.32918274 0.1251958 -0.1989669 0.21108381 0.26898646 -0.311522
0.13071662 -0.1332649 -0.3321534 0.121394284 0.30670142 0.053337377 0.49304813 0.24802783
-0.18326159 0.23581049 -0.1398339 -0.26125395 -0.21258406 0.052920662 0.41206738 0.08422714
-0.25014624 -0.004215489 0.18152058 -0.34134 -0.017189328 0.07627674 -0.22872889 0.1974391
-0.3256876 -0.371745 0.27503687 -0.2042258 -0.26040888 -0.45371243 -0.17143327 -0.1663037
0.3222605 0.24413542 -0.026807392 0.12579058 0.0235346 -0.13721329 0.2242386 -0.17823623
0.2605703 -0.27638295 0.15100506 0.26842052 0.42806685 -0.17532863 -0.12568095 -0.04976388
-0.30291745 0.51145065 -0.30549714 -0.3293768 -0.27799353 0.15452972 0.54566306 -0.10254298
-0.35667488 0.033378832 -0.08247563 -0.17113292 -0.36505178 0.064708695 0.35965672 -0.34125936
0.057317562 -0.19543251 -0.23628967 0.28100845 0.17166014 0.062096864 0.37764382 0.10243259
-0.18453667 0.1826747 -0.15199976 -0.2675049 -0.0027348883 -0.25589716 0.31901544 -0.26849532
-0.13045742 0.5192467 0.2891139 -0.32027406 -0.32100204 0.049688686 -0.16724761 0.13338493
-0.35773528 0.120898075 -0.29366747 -0.20431879 -0.17415604 -0.3524367 -0.024351116 -0.13566081
0.267239 0.27638376 -0.24282657 0.24576695 0.18958488 -0.15715428 -0.16184376 -0.29691625
0.048302166 -0.12677298 0.20707594 -0.13354585 0.40489733 -0.07952591 0.09006795 0.07008318
00000000: c9dd 90be 2a0f 873e 19a9 56be b4fc 62be
00000010: 82fd e2bd 20dc b73e 2925 b43d 7589 82be
00000020: c2bb 98be e6a6 3a3e 9677 95be 8e9a 0e3d
00000030: 7092 5bbe fd97 e83d 250a 5e3e 648c 98be
00000040: 31a4 2b3e d4db a8bd 94ee 77be ecc2 0f3d
00000050: ad8a de3d b303 bf3d db9b 053f 2fc9 c7bd
00000060: de07 18be 0543 c83e 138b 0bbe 939b 74be
00000070: 8719 81be 8018 4dbe 0db0 d43e dfed 5fbb
00000080: 6b11 7cbe d9f1 8b3e 6cca 413e e434 dfbe
00000090: 80f3 3abd 6393 96bd cfe2 69be d0be 353e
000000a0: 2fb5 8cbe 9e58 6ebe 5c39 54bd 190c 10be
000000b0: 7da9 83be 1e2b 93be f18c 953d 68ea 35be
000000c0: 5e1b 913e cedc 853e 505e 46bd a25b e83b
000000d0: 1f55 a13c e54f 00be fb90 553d 6bd5 6bbe
000000e0: efcd 5c3e 5462 5ebe 52f9 f13d 7bba 033e
000000f0: e479 cf3e 1189 19be 97df abbd 3735 84bd
00000100: 76d6 56be 204b 903e 8ef8 75be 5fbc da3d
00000110: 9447 a7bd ecac b13e 62e2 ff3e e458 65be
00000120: f6ba b0be 6e1c 893e b092 29be c22d fdbd
00000130: e482 19be dd7a 1dbe aa48 893e 7c2f 7bbe
00000140: bd64 5f3e fdd8 70be be00 4ebe d153 d4bb
00000150: 596f c93e ef76 7e3d c568 073f 8579 eb3d
00000160: d92e 5dbe b3f6 543e 34d2 14be d03a 4abe
00000170: 7b43 33be 101f d0be 86a9 e13e af39 023d
00000180: b2a9 49be 86ce a23e 1b91 5e3e 5436 b3be
00000190: b2da 09bd ae7a 1abe be35 59be 1796 2d3e
000001a0: ab66 b2be 2b63 febd 6279 63be 7a56 f1bd
000001b0: cedc a5be 0d25 b1be 7c35 963d 42c7 14be
000001c0: a08e 823d 5de2 7f3e 4d2c c3bd 2221 0fbe
000001d0: fb30 ae3e c602 37bd 91a4 c9bd 52fc a6be
000001e0: fca0 4b3e 1e1d d0bd 889a 003e 6fc9 aebd
000001f0: edbe c73e a379 0fbe e0e5 82be 0396 46bd
00000200: f0d3 93be 548f 373e 5043 67be 5195 a6be
00000210: 6d1e eb3c 0928 5c3e 6d8f a9bd 2fb0 d4be
00000220: 9cfd b5be 5243 b33e a48a a8be 5433 003e
00000230: fbbd 4bbe 5b26 583e 98b8 893e d07f 9fbe
00000240: 94da 053e 9876 08be 0310 aabe 919d f83d
00000250: f807 9d3e 4b78 5a3d ce70 fc3e 02fb 7d3e
00000260: eda8 3bbe 4e78 713e 9e30 0fbe 14c3 85be
00000270: a3af 59be 56c3 583d 7ffa d23e 477f ac3d
00000280: 2b13 80be 1622 8abb 88e0 393e 1ec4 aebe
00000290: a2d0 8cbc fb36 9c3d e837 6abe 7a2d 4a3e
000002a0: 86c0 a6be 5c55 bebe a2d1 8c3e 9120 51be
000002b0: 5054 85be ff4c e8be 348c 2fbe 844b 2abe
000002c0: 54ff a43e a3fe 793e 2d9b dbbc 3fcf 003e
000002d0: a2cb c03c a481 0cbe ce9e 653e 8f83 36be
000002e0: 7869 853e 1182 8dbe 12a1 1a3e 6a6e 893e
000002f0: 942b db3e 5989 33be 82b2 00be 36d5 4bbd
00000300: ff17 9bbe 6eee 023f 1f6a 9cbe 13a4 a8be
00000310: 2b55 8ebe 0a3d 1e3e 93b0 0b3f 0e02 d2bd
00000320: 179e b6be 3eb8 083d fce8 a8bd 783d 2fbe
00000330: 11e8 babe fe85 843d ed24 b83e 8cb9 aebe
00000340: d2c5 6a3d 761f 48be ebf5 71be 57e0 8f3e
00000350: adc7 2f3e 4859 7e3d 885a c13e 2ec8 d13d
00000360: 2ef7 3cbe 140f 3b3e d3a5 1bbe 67f6 88be
00000370: d03b 33bb f404 83be fe55 a33e 3878 89be
00000380: a196 05be 5aed 043f bd06 943e f6fa a3be
00000390: 615a a4be 5d86 4b3d f542 2bbe 0f96 083e
000003a0: 1429 b7be 6999 f73d 955b 96be f238 51be
000003b0: f655 32be 9572 b4be fe7b c7bc abea 0abe
000003c0: 8dd3 883e 2c82 8d3e 87a7 78be 55aa 7b3e
000003d0: 8a22 423e 0ded 20be 5fba 25be 6805 98be
000003e0: 7ed8 453d c7d0 01be b70b 543e 3ec0 08be
000003f0: b44e cf3e 7bde a2bd 8c75 b83d c587 8f3d

advantage_head.2.bias f4 [7]
-0.035497796 -0.043219656 -0.048317112 -0.036447085 -0.04044504 -0.056707717 -0.014949412
00000000: 2366 11bd 1807 31bd 2ae8 45bd 8a49 15bd
00000010: b3a9 25bd 5a46 68bd 61ee 74bc

value_head.0.weight f4 [64, 100]
-0.029731441 -0.044388805 0.13918355 0.16286214 0.15818448 0.3977203 -0.16951348 -0.087424986
-0.08352637 -0.030984432 -0.0508146 -0.24304625 0.16544746 0.09137134 0.02639678 0.006404694
0.031882707 0.064273044 -0.1457657 0.019449033 -0.04209069 0.023570111 -0.031564068 -0.092992455
0.008016836 -0.37901038 -0.25929502 0.07211174 -0.2847594 -0.09876514 -0.035031546 -0.3284383
0.1623486 0.025041081 -0.07850293 -0.0874927 -0.27868336 0.023069581 -0.26037133 0.10750088
0.15397523 0.14964849 0.07098719 0.011073864 -0.16048001 0.023509357 0.10995577 0.01801181
-0.10846653 0.08055974 -0.06967869 0.11911409 -0.025907315 -0.11713962 -0.07848756 -0.02606985
-0.08708655 -0.04958406 0.043689977 0.023035346 -0.32735565 0.324405 0.1009602 0.10340336
0.191314 -0.117430665 0.070146404 -0.0666379 0.08977291 -0.061671626 -0.19541472 -0.009946452
0.08510946 0.08359684 0.23964703 -0.19433263 -0.07708414 -0.01099506 -0.061821576 0.054152075
-0.21282703 0.15007158 -0.18636854 -0.025899159 0.16517428 -0.11455672 -0.0625626 -0.13772707
0.21615316 -0.14457144 0.14540556 -0.20627324 0.04675033 0.06376087 -0.27883542 -0.0029234714
-0.15470627 0.025012758 0.19119889 -0.043407213 -0.040473156 0.013393219 0.20386955 -0.02714905
0.18033366 0.054352764 0.15429956 0.10400353 0.35461426 -0.17143366 0.028129775 0.32190153
0.1442625 0.20078544 0.22589995 -0.20054491 -0.03132239 -0.023543056 0.1024495 -0.10654276
-0.048527915 0.03306467 0.09134389 -0.029968906 -0.047631465 -0.04793988 0.1690659 0.16662517
-0.12642348 -0.071956776 -0.1038291 0.036852513 -0.107796796 0.05374193 0.179374 -0.16655092
0.20015885 0.11787169 -0.021643218 0.005267186 -0.4098083 0.04067734 0.16724665 -0.06698361
0.15367007 -0.01218377 0.28432325 0.13997842 -0.009335212 -0.20891246 0.101613656 -0.15129367
0.16091637 0.0060946057 -0.08400448 -0.02461196 -0.2210563 -0.22675847 -0.09674932 -0.05735593
0.10015776 -0.030599419 -0.0122336615 0.033023726 -0.007635818 -0.008698667 -0.036194358 0.10711148
0.079341866 -0.06891586 -0.050634816 -0.10106842 0.16202737 0.05396003 -0.09298937 0.19634932
0.03499851 0.30326435 -0.16993465 -0.08151459 -0.12839505 0.0013623359 0.16789688 0.084297515
0.03957472 -0.13975652 0.011661253 0.4926427 0.15694095 0.16743813 0.08942593 0.09046689
0.025161939 -0.08247696 -0.12920286 -0.17994294 0.07872025 -0.0408873 0.07068735 -0.19869675
-0.06925376 0.12655428 -0.18566263 -0.11495481 -0.04356712 -0.008454074 -0.09885537 -0.12770891
-0.086888164 0.1601255 -0.0048663924 0.276223 -0.13165653 0.097791836 0.014900577 -0.085383825
-0.031863157 -0.13416444 0.0030236938 0.035428576 0.039737444 -0.09256268 -0.15198828 -0.021441275
-0.013283275 -0.05752186 0.059159357 0.12959667 -0.14632384 -0.12471632 -0.060128026 -0.08908153
0.09239332 0.023853956 -0.08604591 -0.14706342 0.14367568 0.0052909255 -0.027146949 -0.13831443
-0.09724242 0.053540375 -0.15920788 -0.1260509 0.08754479 -0.11026638 0.019235209 0.09416368
-0.043521084 0.19681144 0.03878241 0.038177047 0.0070561105 -0.026320731 0.015021561 -0.04522197
00000000: 5a8f f3bc 09d1 35bd 2286 0e3e 55c5 263e
00000010: 1dfb 213e ffa1 cb3e f194 2dbe df0b b3bd
00000020: e00f abbd 10d3 fdbc f822 50bd 1ee1 78be
00000030: 0f6b 293e e620 bb3d 0f3e d83c 78de d13b
00000040: 7197 023d 96a1 833d 9b43 15be 9453 9f3c
00000050: 4a67 2cbd 1b16 c13c 5349 01bd d472 bebd
00000060: 0c59 033c a60d c2be 51c2 84be 52af 933d
00000070: fccb 91be 6145 cabd 3d7d 0fbd 1129 a8be
00000080: b63e 263e f422 cd3c 25c6 a0bd 5f2f b3bd
00000090: 96af 8ebe 6bfc bc3c 644f 85be 6c29 dc3d
000000a0: afab 1d3e 743d 193e bb61 913d 276f 353c
000000b0: df54 24be b296 c03c 7e30 e13d 818d 933c
000000c0: b323 debd 81fc a43d b3b3 8ebd 17f2 f33d
000000d0: 943b d4bc e6e6 efbd 16be a0bd 7090 d5bc
000000e0: 6f5a b2bd a818 4bbd 43f4 323d 9fb4 bc3c
000000f0: 299b a7be 6a18 a63e 39c4 ce3d 24c5 d33d
00000100: d1e7 433e 7d7f f0bd eba8 8f3d 7479 88bd
00000110: dcda b73d 639b 7cbd cc1a 48be 72f6 22bc
00000120: de4d ae3d d234 ab3d 0866 753e 22ff 46be
00000130: 4ade 9dbd a024 34bc 9f38 7dbd 91ce 5d3d
00000140: 54ef 59be 5dac 193e 65d7 3ebe 792a d4bc
00000150: 7223 293e b79c eabd d220 80bd 5308 0dbe
00000160: 4157 5d3e 890a 14be 32e5 143e 4b39 53be
00000170: 467d 3f3d 0f95 823d 84c3 8ebe b697 3fbb
00000180: 526b 1ebe 8ee7 cc3c a4c9 433e c3cb 31bd
00000190: 2ec7 25bd 3b6f 5b3c 2ec3 503e af67 debc
000001a0: 63a9 383e 01a1 5e3d b400 1e3e ceff d43d
000001b0: 0090 b53e 4e8c 2fbe 6a70 e63c 47d0 a43e
000001c0: 8cb9 133e b39a 4d3e 5152 673e a55b 4dbe
000001d0: e84b 00bd 5edd c0bc 0bd1 d13d 1733 dabd
000001e0: 35c5 46bd d26e 073d 8112 bb3d 5a81 f5bc
000001f0: 3619 43bd 9c5c 44bd 9c1f 2d3e ca9f 2a3e
00000200: 2875 01be 135e 93bd 5aa4 d4bd a9f2 163d
00000210: 91c4 dcbd 7f20 5c3d d1ad 373e 538c 2abe
00000220: 71f6 4c3e b666 f13d 1e4d b1bc 5c98 ac3b
00000230: 65d2 d1be 489d 263d b542 2b3e b42e 89bd
00000240: b05b 1d3e 6f9e 47bc d192 913e 8156 0f3e
00000250: b8f2 18bc 26ed 55be d21a d03d baec 1abe
00000260: 43c7 243e 42b5 c73b 8a0a acbd 059f c9bc
00000270: 955c 62be 5f33 68be 8224 c6bd 0dee 6abd
00000280: 831f cd3d a2ab fabc b26f 48bc e343 073d
00000290: e235 fabb db84 0ebc 8940 14bd 435d db3d
000002a0: fd7d a23d c223 8dbd 7466 4fbd f6fc cebd
000002b0: 81ea 253e 3105 5d3d 3671 bebd cc0f 493e
000002c0: 995a 0f3d 7745 9b3e 5903 2ebe 1ff1 a6bd
000002d0: fe79 03be 6890 b23a 29ed 2b3e 2da4 ac3d
000002e0: 1a19 223d 551c 0fbe d70e 3f3c aa3b fc3e
000002f0: 21b5 203e e774 2b3e f124 b73d b446 b93d
00000300: 6920 ce3c aee9 a8bd c14d 04be f642 38be
00000310: 1538 a13d 7179 27bd 88c4 903d 2977 4bbe
00000320: ead4 8dbd 7297 013e 581e 3ebe 6d6d ebbd
00000330: 7073 32bd f582 0abc af74 cabd 20c6 02be
00000340: 6cf2 b1bd f0f7 233e 4276 9fbb 1a6d 8d3e
00000350: f8d0 06be 1647 c83d 8d21 743c b7dd aebd
00000360: f182 02bd 6762 09be 2a29 463b 8e1d 113d
00000370: bbc3 223d 8191 bdbd d1a2 1bbe 9da5 afbc
00000380: 18a2 59bc 0b9c 6bbd 1551 723d fdb4 043e
00000390: ebd5 15be 456b ffbd ce48 76bd 6170 b6bd
000003a0: b538 bd3d 5f69 c33c d738 b0bd cb97 16be
000003b0: b81f 133e 805f ad3b 4763 debc 4ca2 0dbe
000003c0: 0927 c7bd 274d 5b3d 6407 23be 7d13 01be
000003d0: af4a b33d 57d3 e1bd 2893 9d3c e3d8 c03d
000003e0: 2a43 32bd f088 493e 4eda 1e3d 895f 1c3d
000003f0: f236 e73b 939e d7bc fe1c 763c ac3a 39bd

value_head.0.bias f4 [64]
0.04072414 -0.10474766 -0.09157592 0.12403554 -0.04797246 -0.0042287568 -0.25015432 0.003745472
-0.1913648 0.070256576 -0.0067097326 -0.12235677 -0.2562422 0.01136885 -0.056211237 -0.088351764
-0.0038459909 0.005160296 -0.08996218 -0.078951985 -0.21023992 -0.19085376 -0.14126465 -0.15565576
0.038333263 -0.2598686 -0.07178809 -0.1798411 -0.051143236 -0.03968731 -0.16920696 0.06344748
0.030640291 0.058803625 -0.05566625 -0.10197725 0.036844883 0.021980014 -0.26973894 0.09330938
0.057934072 -0.042432737 -0.04708172 0.14623338 -0.19625264 -0.12574513 0.16070904 -0.11417593
0.09033218 0.08406447 -0.05781138 -0.16677403 -0.108236745 -0.022257438 0.19025213 0.014807059
0.06016792 -0.14789732 -0.01005737 0.04364628 0.020528235 0.093173906 0.060326423 -0.03748818
00000000: 5bce 263d f185 d6bd 288c bbbd 5806 fe3d
00000010: c57e 44bd 6291 8abb 3a14 80be 9876 753b
00000020: 22f5 43be aee2 8f3d 51dd dbbb 3096 fabd
00000030: 2d32 83be 6a44 3a3c c13d 66bd c5f1 b4bd
00000040: 050d 7cbb b317 a93b 173e b8bd 94b1 a1bd
00000050: 2249 57be 2b6f 43be aea7 10be 3964 1fbe
00000060: 5703 1d3d 7f0d 85be a205 93bd 4428 38be
00000070: 927b 51bd 298f 22bd 9744 2dbe c1f0 813d
00000080: 5901 fb3c 12dc 703d 4b02 64bd 73d9 d0bd
00000090: a9ea 163d 6e0f b43c 391b 8abe fd18 bf3d
000000a0: 474c 6d3d f3cd 2dbd c3d8 40bd 34be 153e
000000b0: 74f6 48be 55c3 00be e990 243e 12d5 e9bd
000000c0: 1400 b93d fe29 ac3d a0cb 6cbd d0c6 2abe
000000d0: 3aab ddbd 3b55 b6bc 74d1 423e 4f99 723c
000000e0: a372 763d 6572 17be abc7 24bc 71c6 323d
000000f0: d42a a83c f6d1 be3d d718 773d 358d 19bd

value_head.2.weight f4 [1, 64]
0.7401574 -0.4904149 0.18469545 -0.29228005 0.2838474 -0.70523095 0.6460338 -0.25952545
0.35116583 0.38884267 0.33610514 -0.69082135 -0.65519273 0.26453474 0.46319816 -0.42193234
0.26093942 0.52210605 -0.42111418 -0.5187665 0.47004816 -0.64933497 0.62792516 -0.58277696
0.37833878 -0.56374705 -0.37599304 0.3382261 -0.6447447 0.3378597 0.5663168 -0.6734404
0.19983023 -0.3086407 0.24087878 0.44654575 -0.5042349 -0.36000732 -0.4283625 0.3660692
0.3007869 0.29350987 -0.38832608 -0.30889142 -0.4732856 -0.53230476 0.52321345 -0.4245494
0.62398833 -0.35472333 0.6990396 0.5559084 0.26971248 -0.6116961 -0.37381607 0.346789
0.3257707 0.67085195 -0.47368327 0.294508 0.2861931 -0.23899603 -0.3338788 0.30816132
00000000: f57a 3d3f a917 fbbe ce20 3d3e bba5 95be
00000010: 7254 913e 048a 34bf 7962 253f 85e0 84be
00000020: 02cc b33e 6316 c73e f915 ac3e abd9 30bf
00000030: b6ba 27bf 1971 873e 4f28 ed3e 8407 d8be
00000040: da99 853e bea8 053f 479c d7be e2cd 04bf
00000050: 27aa f03e d13a 26bf b4bf 203f df30 15bf
00000060: 9fb5 c13e ba51 10bf 2982 c0be f92b ad3e
00000070: fd0d 25bf f2fb ac3e 23fa 103f 9766 2cbf
00000080: 4ca0 4c3e 2706 9ebe eda8 763e a5a1 e43e
00000090: 8a15 01bf e152 b8be 5452 dbbe 6c6d bb3e
000000a0: be00 9a3e ed46 963e add2 c6be 0427 9ebe
000000b0: 7d52 f2be 2045 08bf 51f1 053f 8a5e d9be
000000c0: b3bd 1f3f 4c9e b5be 42f4 323f 0350 0e3f
000000d0: c117 8a3e 1e98 1cbf d264 bfbe 548e b13e
000000e0: 6bcb a63e f4bc 2b3f 9d86 f2be c1c9 963e
000000f0: e787 923e 60bb 74be 29f2 aabe 52c7 9d3e
