DQN/saved_models/target.pth (torch, 105267 bytes, 11 tensors)

layers.0.weight f4 [100, 18]
0	0xbed1e15e	-0.40992254
1	0x3e334aec	0.17509049
2	0xbeec0aa9	-0.46101883
3	0xbdfb42e6	-0.12268619
4	0xbcdac2b1	-0.026704164
5	0x3dba7785	0.09104828
6	0x3e4cee9f	0.20012902
7	0xbed7feef	-0.42186686
8	0xbded6cb1	-0.11592997
9	0xbe355548	-0.17708313
10	0xbddd003b	-0.107910596
11	0xbedb8fa6	-0.42883033
12	0xbd18cff2	-0.037307687
13	0xbdedd809	-0.11613471
14	0x3c6717d3	0.014104801
15	0x3d011b34	0.031520084
16	0x3e14e694	0.14541084
17	0x3dbb45b5	0.09144155
18	0x3d1df96c	0.038567945
19	0x3e305ea8	0.17223608
20	0xbe2e5797	-0.170256
21	0xbc2f35fb	-0.010694022
22	0xbc9b2933	-0.018940544
23	0xbde75db3	-0.112971686
24	0x3d450496	0.048100077
25	0x3e0fcf0a	0.14043823
26	0xbeb15298	-0.34633327
27	0x3f8fc332	1.1231444
28	0xbd957dc5	-0.07299379
29	0xbf5f6cde	-0.87275493
30	0x3dbb4704	0.091444045
31	0xbed27c79	-0.4111059
32	0x3bc56f52	0.0060252333
33	0xbd861445	-0.06546835
34	0xbcb4de3d	-0.022078628
35	0x3d8dc74b	0.06922778
36	0x3d746a06	0.059671424
37	0xbdd4e92a	-0.10396035
38	0x3f0a5e58	0.5405021
39	0xbc6d83e0	-0.0144967735
40	0x3e03f694	0.12887031
41	0xbd053cf1	-0.03252882
42	0xbdd73c0b	-0.10509499
43	0x3e895af0	0.26827192
44	0xbec5ee4a	-0.38658363
45	0x3e71d87b	0.23617737
46	0x3ed1821a	0.40919572
47	0xbe80c4cc	-0.25150144
48	0xbe17a127	-0.14807568
49	0xbcd79033	-0.026313877
50	0xbd80663d	-0.062695004
51	0x3dc6075c	0.096693724
52	0xbd3d20c6	-0.046173833
53	0xbde15db0	-0.110041976
54	0x3d3ebfc6	0.04656961
55	0xbdc9c35e	-0.098517165
56	0xbdf91fec	-0.12164292
57	0xbbbccf67	-0.005762029
58	0x3bb494f1	0.0055109193
59	0x3c5eaf00	0.013591528
60	0xbea1de0a	-0.31614715
61	0x3c225da9	0.009910026
62	0xbe3e1718	-0.18563497
63	0xbdacd1e1	-0.08438469
64	0x3ca3778b	0.019954463
65	0xbcea6a4a	-0.028615136
66	0xbed6b818	-0.41937327
67	0xbda73fda	-0.081664756
68	0xbf02c87f	-0.5108718
69	0xbd0444ba	-0.032292105
70	0xbf5afce2	-0.8554212
71	0x3d4c4a16	0.04987534
72	0xbea499d8	-0.32148623
73	0x3c1350dc	0.008991446
74	0xbe9d2d32	-0.30698544
75	0xbdb5d341	-0.08878184
76	0xbd0a6d35	-0.033795554
77	0xbce24063	-0.027618593
78	0xbd84ad1b	-0.0647833
79	0xbe4b2c4c	-0.19841117
80	0x3b3922d8	0.0028249528
81	0x3d833293	0.06406131
82	0xbdea03a8	-0.114264786
83	0x3cd5cfa2	0.026099984
84	0x3f1fd077	0.6242747
85	0x3d16b6df	0.036795493
86	0x3ddc41a3	0.10754707
87	0x3da75c67	0.08171921
88	0xbed41bbb	-0.41427407
89	0x3c8d0214	0.017212905
90	0xbcb6bc29	-0.022306519
91	0x3ef71d95	0.48264757
92	0x3ee1ce51	0.4410272
93	0xbc632423	-0.013863596
94	0x3d243595	0.040090162
95	0x3b962cdf	0.004582986
96	0x3dcf6038	0.10125774
97	0x3e26fc58	0.16307199
98	0xbef82af5	-0.48470274
99	0xbcb458cb	-0.022014996
100	0xbddb8ad9	-0.107198425
101	0xbf7364ed	-0.95075876
102	0x3ed52311	0.41628316
103	0x3eecfcff	0.4628677
104	0x3ca734ae	0.020410862
105	0x3d91f5ad	0.07126937
106	0xbd6ca38b	-0.057773154
107	0x3d287c24	0.041134015
108	0xbe161224	-0.14655358
109	0xbe8f6168	-0.28004003
110	0xbcc62cd7	-0.024191303
111	0x3ce4a884	0.027912386
112	0xbd6a347b	-0.057178956
113	0xbcbbccb8	-0.022924766
114	0xbe0249b3	-0.12723427
115	0x3d0c3f63	0.034240138
116	0xbcf9092a	-0.030399878
117	0xbbb6f90d	-0.0055838884
118	0x3be15577	0.0068766433
119	0x3d11496c	0.03547041
120	0xbeba3aac	-0.36372888
121	0x3f2ba77f	0.67052454
122	0xbd6ce755	-0.057837803
123	0x3e9e75ed	0.30949345
124	0xbf044809	-0.51672417
125	0xbd931c8d	-0.0718318
126	0xbc99b803	-0.018764501
127	0xbe899ede	-0.2687902
128	0xbbb7c391	-0.00560803
129	0xbcb7def7	-0.022445185
130	0xbd05da6c	-0.032679006
131	0x3b4ccb0f	0.0031248962
132	0x3e3aba68	0.18235171
133	0xbe352498	-0.1768974
134	0xbc9fd0d7	-0.019508762
135	0x3d7bf8a2	0.06151641
136	0xbd29911d	-0.041398156
137	0x3adf6ddd	0.0017046292
138	0xbe184092	-0.14868382
139	0xbef835fa	-0.4847868
140	0xbcaaf6db	-0.020869663
141	0xbd7a9022	-0.061172612
142	0xbca3b8c2	-0.01998556
143	0x400a04af	2.1565359
144	0xbed7c0eb	-0.42139372
145	0x3c6e9582	0.014562013
146	0xbd403da5	-0.04693379
147	0xba428e3c	-0.0007421707
148	0xbc2fad57	-0.01072248
149	0x3bf3bbdc	0.007438166
150	0xbed88c7e	-0.42294687
151	0x3e475abd	0.19468208
152	0xbe0f1b23	-0.13975196
153	0xbe351b72	-0.17686251
154	0x3f4799a6	0.77968824
155	0x3d3c45fc	0.04596518
156	0x3c67f026	0.014156377
157	0x3dfbd419	0.12296314
158	0x3c0d09de	0.00860831
159	0x3c9fc9e8	0.019505456
160	0xbc6a6cd0	-0.0143081695
161	0xbe230464	-0.15919644
162	0x3d5bd386	0.05366852
163	0x3f22ba89	0.6356588
164	0x3e0b94e8	0.13631022
165	0xbc0452cb	-0.00807638
166	0x3e19a264	0.15003353
167	0xbb235b85	-0.0024926376
168	0xbe39d142	-0.18146232
169	0xbdb7eaff	-0.08980369
170	0xbe17b91b	-0.14816706
171	0x3d2bb85a	0.04192386
172	0x3a589133	0.00082613825
173	0xbd478c89	-0.04871801
174	0xbe157b23	-0.14597754
175	0x3eaffc22	0.3437205
176	0x3df1292b	0.1177543
177	0xbe9e39f1	-0.3090358
178	0x3e16af3f	0.14715289
179	0x3c8571c1	0.016289594
180	0x3dcfb828	0.10142547
181	0xbcb03f9c	-0.021514706
182	0xbd85cb9b	-0.06532975
183	0xbd2c7aea	-0.042109407
184	0xbe49fda9	-0.1972567
185	0x3ce28bf3	0.027654624
186	0x3e8544dd	0.260291
187	0x3cf3f277	0.029778702
188	0x3e53e9c9	0.2069465
189	0x3d2faf74	0.042891935
190	0x3f13bc7c	0.5770948
191	0x3ea78345	0.32717338
192	0x3e3d310d	0.18475743
193	0x3efe0118	0.4961021
194	0x3d11c4b4	0.03558798
195	0xbdbe73e5	-0.09299449
196	0x3c480777	0.012208811
197	0x3d06fe4b	0.032957356
198	0x3bd299ff	0.006427049
199	0x3f4288fe	0.75990283
200	0x3e759150	0.23981214
201	0xbe8a1d80	-0.26975632
202	0xbd4d530f	-0.05012804
203	0x3dcb4aa3	0.09926345
204	0x3dd52f4b	0.10409411
205	0xbe2b16d3	-0.16707925
206	0xbf1ea14c	-0.6196487
207	0x3e084d27	0.13310681
208	0xbde479c2	-0.11156036
209	0xbd468ad1	-0.04847223
210	0x3e208203	0.15674596
211	0x3d81e48e	0.063424215
212	0x3c83b2f8	0.01607655
213	0x3c8d14d3	0.017221844
214	0xbefe97e2	-0.49725252
215	0xbdc17d8f	-0.094477765
216	0xbec81f0a	-0.3908618
217	0x3f2e861e	0.68173397
218	0x3e0e4a16	0.13895449
219	0xbb03683e	-0.0020051147
220	0x3debdbd4	0.11516538
221	0x3dae90c2	0.08523704
222	0x3c09b24b	0.008404325
223	0xbde2a073	-0.110657595
224	0x3dfedffd	0.12445066
225	0xbd2d1965	-0.042260546
226	0x3ea1fb40	0.31637
227	0xbe816830	-0.252748
228	0x3d4950ba	0.049149252
229	0x3ea058e4	0.31317818
230	0x3c9d4ed5	0.01920263
231	0x3e590014	0.21191436
232	0xbc25e6a4	-0.01012579
233	0xbe36908d	-0.17828579
234	0x3d7631af	0.060105976
235	0xbd0f42f1	-0.03497595
236	0x3dc2917c	0.09500405
237	0xbc47454c	-0.012162518
238	0xbb295ff6	-0.002584455
239	0x3b43a148	0.002985077
240	0xbd951228	-0.07278854
241	0x3dfc7cc9	0.123284884
242	0xbd868009	-0.065673895
243	0x3dda67eb	0.10664352
244	0xbc9f79e5	-0.019467304
245	0x3c73effb	0.014888759
246	0x3e6294d1	0.22127081
247	0x3e2c24e6	0.1681095
248	0x3ea3d8c4	0.32001317
249	0x3e836332	0.25661618
250	0x3ca24d2e	0.019812193
251	0x3d7c2e15	0.061567385
252	0x3c94f836	0.018184762
253	0x3f1a5e0a	0.6029974
254	0xbe66b236	-0.2252892
255	0x3d29d1c1	0.041459803

layers.0.bias f4 [100]
0	0x3e8ce2ff	0.27516934
1	0x3d01f5f6	0.031728707
2	0xbdfc62d2	-0.12323536
3	0xbe5e2912	-0.21695355
4	0x3cbd6cc1	0.023123147
5	0x3e2e0b71	0.16996552
6	0xbbdbf8aa	-0.0067129927
7	0xbc9dbbcc	-0.019254588
8	0xbdac29ef	-0.08406436
9	0x3e3723a2	0.17884687
10	0x3c7e40a9	0.015518346
11	0x3de13cfd	0.10997961
12	0x3e61154f	0.21980785
13	0x3dd38b76	0.103293344
14	0x3e01d1f4	0.12677747
15	0xbdc1ffb7	-0.09472602
16	0x3e8a0f09	0.26964596
17	0x3bb16e52	0.0054147625
18	0xbe7fe3dc	-0.24989265
19	0x3eb9ea0e	0.36311382
20	0xbe9fd4b1	-0.31216958
21	0x3d1a4c49	0.037670407
22	0xbd5ae116	-0.053437315
23	0xbe91f64e	-0.28508228
24	0x3e061ae3	0.13096194
25	0x3e954dfc	0.2916106
26	0x3e21b32f	0.1579101
27	0x3e67aa5b	0.22623579
28	0x3e8717b3	0.2638527
29	0xbe1f90bf	-0.1558256
30	0x3e28bf70	0.16479278
31	0xbe605c1d	-0.21910138
32	0xbc5b0e54	-0.013370115
33	0x3e16858a	0.14699379
34	0x3d43cb38	0.047801226
35	0xbc2ce468	-0.010552503
36	0x3d4bce03	0.049757015
37	0x3e8e9c6e	0.2785372
38	0x3eb25642	0.34831434
39	0xbde0694d	-0.109575845
40	0x3b214450	0.0024607368
41	0xbc609ee8	-0.013709761
42	0xbe01a5e3	-0.12660937
43	0x3ea281af	0.31739566
44	0x3e92947e	0.28628916
45	0x3dfe9f47	0.124327235
46	0x3e89b74b	0.26897654
47	0xbddf4693	-0.10902133
48	0xbd1bfe89	-0.03808454
49	0x3b6c3a5a	0.0036045522
50	0x3edb5e38	0.4284532
51	0xbe4097ee	-0.18807957
52	0x3e15b475	0.1461962
53	0x3f088b7a	0.53337824
54	0xbe052798	-0.13003385
55	0x3e79b06c	0.24383706
56	0xbe51796b	-0.20456474
57	0x3db86df3	0.09005346
58	0xbd8cb873	-0.068711184
59	0x3e839701	0.25701144
60	0x3e0af7b9	0.13571061
61	0xbaf3430a	-0.0018559408
62	0xbef12227	-0.4709637
63	0xbd963c72	-0.07335748
64	0x3df9e582	0.12201978
65	0x3d1034d7	0.035206642
66	0x3dc3b628	0.09556228
67	0xbc8a0ae9	-0.016850905
68	0x3e90e409	0.28298977
69	0x3e7f8a44	0.24955088
70	0x3e2ca668	0.16860354
71	0x3d885f98	0.06658858
72	0x3dc8e222	0.098087564
73	0x3dc38d05	0.09548382
74	0x3cd94e6b	0.02652665
75	0x3e1063c9	0.14100565
76	0xbe188895	-0.14895852
77	0xbe335b17	-0.17515217
78	0x3e28d880	0.16488838
79	0xbe18e06e	-0.14929363
80	0xbed123ed	-0.40847722
81	0xbf1cd6a0	-0.6126499
82	0xbe95ab57	-0.29232284
83	0xbea9c97e	-0.3316154
84	0x3db7f1fb	0.08981701
85	0xbe3d49a6	-0.18485126
86	0x3d66ee71	0.05637974
87	0xbd79e994	-0.061013773
88	0xbeb28a4b	-0.34871134
89	0xbe126f1d	-0.14300199
90	0x3e50d0cd	0.20392151
91	0xbe6030da	-0.21893635
92	0xbdd5a661	-0.10432125
93	0xbe8e0bcb	-0.27743372
94	0x3eca7166	0.3953964
95	0xbcb5d0d4	-0.022194304
96	0x3ae2c57e	0.0017301289
97	0xbca43adb	-0.020047596
98	0x3e74de74	0.23912984
99	0x3d4903be	0.049075834

layers.1.weight f4 [100, 100]
0	0x3d99097d	0.07472513
1	0x3c006062	0.007835479
2	0xbd888cd8	-0.06667489
3	0x3cbe93d2	0.023263846
4	0x3e06ca21	0.13163044
5	0xbb42a52f	-0.0029700508
6	0x3e960549	0.29300907
7	0x3e03b97c	0.12863725
8	0xbcd023a4	-0.02540762
9	0xbd7d0e41	-0.06178117
10	0x3dd1a124	0.10235813
11	0xbe587817	-0.2113956
12	0xbe393c8b	-0.18089502
13	0xbaa7dc43	-0.0012806732
14	0xbd4b1b53	-0.049586605
15	0xbd9b6e98	-0.075894535
16	0x3dca8365	0.09888343
17	0x3d2913fe	0.04127883
18	0xbdc45b8c	-0.09587774
19	0x3d56523a	0.05232451
20	0xbd943fd5	-0.072387375
21	0x3e4467db	0.19180243
22	0x3e20b4de	0.15693995
23	0xbdf3c227	-0.11902266
24	0xbc940678	-0.01806949
25	0x3e5bab7b	0.21452133
26	0x3cd4756a	0.025934894
27	0x3de88d8f	0.11355125
28	0xbda97542	-0.08274318
29	0x3e6a3c09	0.22874464
30	0xbdc37b76	-0.09545033
31	0xbdaf929e	-0.08572887
32	0x3dba2ae2	0.090902105
33	0x3db896a1	0.09013105
34	0x3d9c8430	0.076424
35	0x3df0079d	0.11720202
36	0x3dafdcfc	0.08587071
37	0xbd6f2986	-0.05838921
38	0x3e21de49	0.15807451
39	0x3db241c6	0.087039515
40	0xbe760166	-0.24023971
41	0xbdeb8ef7	-0.11501878
42	0x3eb81ab9	0.35957888
43	0x3e391412	0.18074062
44	0x3daf37bd	0.08555553
45	0xbdd9b1ac	-0.10629591
46	0x3daf78f7	0.08567994
47	0xbdd3784f	-0.103256814
48	0xbc23a434	-0.00998788
49	0xb90e1d04	-0.00013552984
50	0x3da1b079	0.078949876
51	0xbcf4a19d	-0.02986222
52	0xbd0c4d64	-0.034253493
53	0xbdddddaa	-0.10833295
54	0x3d7eb7dc	0.06218706
55	0x3cb490e4	0.022041745
56	0xbbd77b97	-0.0065760124
57	0x3e8a8960	0.27057934
58	0xbd5217b9	-0.051292155
59	0x3e79618e	0.2435362
60	0x3de80dac	0.11330733
61	0xbe1d3e90	-0.15355897
62	0x3e02f3fe	0.12788388
63	0xbdd9d124	-0.106355935
64	0xbe12f0a4	-0.1434961
65	0x3dbe6464	0.09296492
66	0xbd548855	-0.05188783
67	0xbe4ee60b	-0.20204942
68	0xbe93a759	-0.28838614
69	0x3d7a3ea0	0.06109488
70	0x3e53afb8	0.206725
71	0x3c68379c	0.014173415
72	0xbd2cf2ff	-0.042223927
73	0x3e8a2aa2	0.2698565
74	0xbd833d9f	-0.06408238
75	0xbeb25583	-0.34830865
76	0xbd884e42	-0.066555515
77	0x3eace865	0.33771053
78	0xbbb86150	-0.005626835
79	0xbe1623f0	-0.14662147
80	0x3db715cf	0.089397065
81	0x3e4530e0	0.19256926
82	0x3c007456	0.007840237
83	0xbdbc7739	-0.092024274
84	0xbddd7fb6	-0.108153746
85	0x3e89b23f	0.26893803
86	0xbde6cc01	-0.112693794
87	0x3d385614	0.045003965
88	0xbc63ac11	-0.013896004
89	0xbe1e63b6	-0.15467724
90	0xbdce9de0	-0.10088706
91	0xbdd55fbb	-0.1041865
92	0x3d304c7d	0.043041695
93	0xbe077433	-0.1322792
94	0xbd5d6e99	-0.054060552
95	0xbe260397	-0.16212307
96	0xbe6a84a7	-0.22902165
97	0xbeaa8c7f	-0.33310315
98	0xbd85aae2	-0.06526734
99	0x3e3c0b49	0.1836368
100	0xbea9af6d	-0.33141652
101	0x3c7a7a79	0.015287989
102	0xbda25e0e	-0.07928096
103	0xbddf1745	-0.1089311
104	0xbd957076	-0.07296841
105	0x3d811e82	0.06304647
106	0xbdcfc1f3	-0.10144415
107	0xbd92790e	-0.071519956
108	0xbda56764	-0.08076361
109	0x3e99d9c5	0.30048957
110	0xbd61d0e8	-0.05513087
111	0x3de9969b	0.11405679
112	0xbdbb3cbb	-0.09142443
113	0xbe047631	-0.12935711
114	0xbba457ef	-0.0050153653
115	0xbcea4f6e	-0.028602328
116	0xbe09e4f3	-0.13466243
117	0xbdf9ceb8	-0.121976316
118	0x3e08fe71	0.13378312
119	0x3e17fbcd	0.14842148
120	0xbd89408f	-0.06701767
121	0xbe154f95	-0.1458114
122	0xbcd75616	-0.026286166
123	0xbbac9baa	-0.00526758
124	0xbdc04810	-0.09388745
125	0xbdbf707d	-0.09347627
126	0xbd8ffa6c	-0.07030186
127	0x397b0a88	0.00023941149
128	0xbddff6df	-0.10935759
129	0xbca30e1c	-0.019904189
130	0xbcd06786	-0.025439989
131	0x3d461678	0.04836127
132	0xbe16d940	-0.14731312
133	0xbddd17e0	-0.107955694
134	0x3d9c3d1c	0.07628843
135	0xbe1b69fa	-0.15177146
136	0x3d28e378	0.041232556
137	0xbd8a4ed0	-0.067533135
138	0xbdc03af2	-0.09386243
139	0xbe2f79c0	-0.17136288
140	0xbd7c1dca	-0.061551847
141	0x3b03b631	0.0020097608
142	0x3e9b989e	0.30389875
143	0xbe130e84	-0.14361006
144	0xbccafaf9	-0.024777876
145	0xbc730edf	-0.0148350885
146	0x3ddc982c	0.10771212
147	0xbe633faa	-0.22192255
148	0x3d616fed	0.05503838
149	0x3c55c2d9	0.013046944
150	0xbdad905e	-0.084748015
151	0xbe1f71d1	-0.15570761
152	0x3c9c5c5a	0.019087005
153	0xbe3afd9d	-0.18260808
154	0xbd52de12	-0.051481314
155	0xbc9e6cea	-0.019339044
156	0x3d560ff1	0.052261297
157	0xbe345130	-0.17609096
158	0x3cc99535	0.02460728
159	0xbcdfc31b	-0.027314713
160	0xbbaf92be	-0.005358069
161	0xbdbf5000	-0.09341431
162	0xbe19a9f2	-0.15006235
163	0xbda4503f	-0.08023118
164	0x3d6a6f09	0.057234798
165	0x3ddf5dcb	0.109065615
166	0x3e148205	0.14502724
167	0x3e4f32f9	0.20234288
168	0xbdc3999a	-0.095507815
169	0xbe7d0e5a	-0.24712506
170	0xbe458498	-0.19288862
171	0xbe20f35c	-0.15717834
172	0x3dcc17de	0.0996549
173	0xbd28fe69	-0.04125825
174	0xbd3f9560	-0.046773314
175	0xbde08630	-0.10963094
176	0xbc7ec3de	-0.015549628
177	0x3dc72d4d	0.09725437
178	0x3c9456f0	0.018107861
179	0x3df416af	0.11918389
180	0xbdba169d	-0.090863444
181	0x3e6155ee	0.22005436
182	0x3ddba953	0.107256554
183	0x3df82430	0.12116277
184	0xbdeacd2c	-0.11464915
185	0x3e85456b	0.26029524
186	0xbe64f5d1	-0.22359397
187	0x3c6ed0c5	0.014576142
188	0xbdb6d1c6	-0.0892673
189	0xbd34e5c9	-0.044164453
190	0x3d86e5e5	0.06586818
191	0xbc212df1	-0.009837613
192	0xbc5a348a	-0.01331819
193	0x3cfe0494	0.031008042
194	0x3d457e0f	0.048215922
195	0x3d82351f	0.06357788
196	0xbe68b8ae	-0.227267
197	0x3cda0719	0.026614713
198	0xbd73b1db	-0.059495788
199	0xbe6cc40d	-0.23121662
200	0xbd93e05a	-0.07220526
201	0x3d368420	0.044559598
202	0xbdcfe71a	-0.10151501
203	0x3e34e76b	0.17666404
204	0xbe834363	-0.2563735
205	0x3eadfb80	0.33980942
206	0xbcdc4a56	-0.026890915
207	0x3ca9e533	0.020739174
208	0xbdd9f61e	-0.10642646
209	0x3d76ba20	0.060236096
210	0xbde87c2b	-0.11351808
211	0xbe0e56a2	-0.13900235
212	0x3d90a8e9	0.07063467
213	0x3d8db72e	0.069197044
214	0x3d7b9703	0.061423313
215	0xbdbf28e8	-0.09333974
216	0xbcc85091	-0.02445248
217	0x3c4baa70	0.012430772
218	0xbcb158da	-0.021648813
219	0x3d0d4388	0.03448823
220	0x3e84b58b	0.25919756
221	0xbde75626	-0.112957284
222	0x3dee393d	0.11632011
223	0xbcf0f77e	-0.029414888
224	0xbc048721	-0.008088858
225	0xbdd36364	-0.10321692
226	0xbafa369b	-0.001908976
227	0xbcc181df	-0.023621498
228	0xbd7fd474	-0.06245847
229	0x3e27305d	0.16327043
230	0xbd011ceb	-0.03152172
231	0x3e2b2520	0.16713381
232	0x3e1020e7	0.14075051
233	0xbe0a136d	-0.13483973
234	0x3dbec730	0.09315336
235	0x3dda4d92	0.106593266
236	0x3dce86cc	0.10084304
237	0xbd7d3da8	-0.061826378
238	0xbe8d2fe7	-0.2757561
239	0x3d0c4dcc	0.03425388
240	0xbd0ce72c	-0.03440015
241	0xbd891ef9	-0.06695361
242	0x3d69b64a	0.05705861
243	0xbdcb042a	-0.099129036
244	0x3d6b1e38	0.057401866
245	0xbe0bb966	-0.13644943
246	0xbda6bd95	-0.08141629
247	0x3d839af7	0.064260416
248	0x3d68ac66	0.056805037
249	0xbdfab475	-0.12241451
250	0x393e6c72	0.00018160211
251	0xbd7a1089	-0.061050925
252	0xbdddbae6	-0.10826664
253	0xbe888816	-0.26666325
254	0xbd607401	-0.05479813
255	0xbe08afa7	-0.13348256

layers.1.bias f4 [100]
0	0xbdb14529	-0.086557694
1	0xbe4f9812	-0.20272854
2	0xbe4e821a	-0.20166817
3	0xbe7cd56e	-0.24690792
4	0xbe4c03a2	-0.19923261
5	0x3b204a4b	0.0024458345
6	0x3e4a2711	0.19741465
7	0x3d53fbbb	0.05175374
8	0x3e99e27a	0.300556
9	0xbe47521a	-0.19464913
10	0x3e3aa50e	0.18227026
11	0xbd780234	-0.060548976
12	0x3cf09f8d	0.029372955
13	0xbea288c5	-0.31744972
14	0xbc294ff3	-0.010334003
15	0x3e553149	0.20819582
16	0x3e5f007f	0.21777533
17	0x3e21626b	0.157602
18	0xbe0a23b1	-0.13490178
19	0xbdc3b32c	-0.09555659
20	0x3e387329	0.1801268
21	0x3e8d23ad	0.2756628
22	0x3e3a929e	0.18219993
23	0x3dba91df	0.09109854
24	0xbe6d3941	-0.23166372
25	0xbe333fe0	-0.17504835
26	0x3e1fa635	0.15590747
27	0xbe25acfb	-0.16179268
28	0x3d8a5884	0.06755164
29	0x3e08dbc1	0.1336508
30	0xbdc4991f	-0.09599518
31	0x3dfdc647	0.12391334
32	0x3dba84f3	0.09107389
33	0xbe2f1a39	-0.17099847
34	0xbc1c31b4	-0.0095333345
35	0x3e0fe957	0.14053856
36	0xbe684ebd	-0.22686286
37	0xbe56d1a9	-0.20978417
38	0x3e0983ea	0.13429227
39	0xbd41f980	-0.047357082
40	0x3c819426	0.015817713
41	0x3dc1610a	0.09442337
42	0xbd6cab65	-0.057780642
43	0x3cc17474	0.0236151
44	0xbe8018f2	-0.25019032
45	0xbcd7f5c8	-0.026362315
46	0x3e18d3be	0.14924523
47	0xbd5af1b4	-0.053453162
48	0x3e481ace	0.19541475
49	0x3cb6d9a9	0.022320585
50	0xbe07e45a	-0.13270703
51	0xbe02d723	-0.1277738
52	0x3e7b4a79	0.24540128
53	0xbe3eed4c	-0.18645209
54	0x3e265070	0.16241622
55	0x3e800c19	0.2500923
56	0x3da60724	0.08106831
57	0xbd281937	-0.04103967
58	0xbe060a28	-0.13089812
59	0xbe0ccda8	-0.13750327
60	0xbd87ff4d	-0.06640492
61	0xbd8e53f3	-0.06949606
62	0x3e372fc6	0.17889318
63	0xbdc44e02	-0.09585191
64	0x3d6cdc56	0.057827316
65	0x3e5e3221	0.2169881
66	0xbda83425	-0.08213071
67	0xbe145bea	-0.14488187
68	0x3d7063de	0.05868899
69	0x3d893e87	0.06701379
70	0xbe82184e	-0.25409168
71	0xbd1fa8e3	-0.038979422
72	0xbe0bda28	-0.13657439
73	0xbd18a2b3	-0.037264537
74	0x3d3e7e9d	0.046507467
75	0x3d2a81dd	0.041627754
76	0xbdca04a2	-0.09864165
77	0x3d898a0c	0.067157835
78	0xbb460403	-0.0030214794
79	0x3d31fe40	0.043455362
80	0x3d8d4da6	0.06899576
81	0xbc6242a1	-0.013809831
82	0xbd946c6d	-0.07247243
83	0x3dabb412	0.08383955
84	0x3df59b78	0.11992544
85	0x3ea6b14c	0.32557142
86	0xbd901715	-0.070356525
87	0xbdba3754	-0.09092584
88	0xbd5d2756	-0.05399259
89	0x3dbfc517	0.09363764
90	0xbeff4a63	-0.4986144
91	0x3e2d4614	0.16921264
92	0x3c8eeae8	0.017445996
93	0x3d0e80a2	0.034790643
94	0x3dea68f7	0.11445802
95	0x3e1df9e5	0.15427358
96	0xbe2d12e0	-0.16901731
97	0x3e2cc28d	0.1687109
98	0xbe18d95b	-0.14926665
99	0x3d34342b	0.043995064

advantage_head.0.weight f4 [64, 100]
0	0x3d928d94	0.0715591
1	0x3ead6402	0.33865362
2	0xbe2ee839	-0.17080773
3	0x3e9e3cd5	0.30905786
4	0x3d9cfc8e	0.076653585
5	0x3d3b18dc	0.045678005
6	0xbde7c1c2	-0.11316253
7	0xbe024985	-0.12723358
8	0x3ca35656	0.01993863
9	0x3e1ed012	0.1550906
10	0x3dcf2cae	0.10115944
11	0x3db77d44	0.089594394
12	0xbd3be1fd	-0.045869816
13	0x3dbd00d1	0.09228671
14	0xbbe170dc	-0.006879909
15	0x3df68bbd	0.12038372
16	0xbd72d6cc	-0.059286878
17	0xbe227140	-0.15863514
18	0xbdb6220d	-0.088932134
19	0xbd6fa918	-0.05851087
20	0x3d432a6f	0.04764789
21	0xbd9b9050	-0.07595885
22	0x3e2c93e6	0.16853294
23	0xbe020828	-0.12698424
24	0xbdb34e02	-0.08755113
25	0xbdf1d03c	-0.11807296
26	0x3e81d0b0	0.25354528
27	0x3ec44c43	0.38339433
28	0xbe25d498	-0.1619438
29	0xbb6a1829	-0.0035719967
30	0xbe4f23c3	-0.20228486
31	0xbd2c1935	-0.042016227
32	0x3d6cbdc6	0.05779817
33	0x3d1b5c75	0.03792997
34	0xbe170c1e	-0.14750716
35	0xbdc13019	-0.09433002
36	0xbdca30d0	-0.098725915
37	0xbd14b969	-0.036309633
38	0x3b36674c	0.0027832566
39	0xbc568726	-0.013093745
40	0x3e2ce424	0.16883904
41	0xbcdb07e2	-0.026737157
42	0xbea0b664	-0.31389153
43	0xbd528a38	-0.051401347
44	0xbe42d43d	-0.19026275
45	0x3e59bb7f	0.2126293
46	0x3e954f2c	0.29161966
47	0xbcdff1d9	-0.027337002
48	0xbe511c20	-0.20420885
49	0x3ca8e57e	0.020617243
50	0xbda66389	-0.081244536
51	0x3de3910a	0.111116484
52	0xbd02b8af	-0.03191441
53	0xbde1740b	-0.110084616
54	0x3e2b37f3	0.16720562
55	0xbe0fcd23	-0.14043097
56	0x3df299bb	0.11845728
57	0x3e681550	0.2266438
58	0xbd977f51	-0.073973306
59	0x3cee4549	0.029085772
60	0x3da621f8	0.08111948
61	0x3e0907c4	0.13381869
62	0xbbb80b4c	-0.005616581
63	0x3c83b30a	0.016076583
64	0x3e33499e	0.17508551
65	0x3e0b225b	0.13587324
66	0xbe0e0e59	-0.1387266
67	0x3cd8ee61	0.026480855
68	0x3e3e4cc8	0.18583977
69	0xbe472372	-0.19447115
70	0xbe83c033	-0.25732574
71	0x3e087f99	0.13329925
72	0x3c94c849	0.01816191
73	0x3e4b52d2	0.19855812
74	0xbdf77d49	-0.12084443
75	0x3e0bb787	0.13644229
76	0x3c98e49c	0.018663697
77	0xbe3b61d2	-0.18299034
78	0x3c36f413	0.01116659
79	0x3c2163b5	0.009850432
80	0x3d83f602	0.06443407
81	0xbdf93540	-0.1216836
82	0x3e0e2a84	0.13883406
83	0xbdbafff2	-0.09130849
84	0xbafe646f	-0.0019408594
85	0xbebe9f51	-0.37230924
86	0x3dfe5d50	0.12420142
87	0xbe1f39d1	-0.15549399
88	0xbd034050	-0.032043755
89	0xbdcdb3d8	-0.10044068
90	0x3ea20853	0.31646976
91	0x3ddd6d1e	0.10811828
92	0xbe4ff028	-0.20306456
93	0x3e0ee0a6	0.13952884
94	0x3d7b1236	0.061296664
95	0x3aa53228	0.0012603449
96	0x3daba55a	0.08381148
97	0xbd85f581	-0.06540967
98	0xbd3ce933	-0.046120834
99	0x3d4fd674	0.050741628
100	0xbd4e4871	-0.050362054
101	0x3dbcf0ae	0.092255935
102	0xbdd92679	-0.10603041
103	0x3ec75911	0.3893514
104	0x3d703695	0.058645803
105	0x3e4396b4	0.19100457
106	0x3d8b07c4	0.067885906
107	0x3dc39c92	0.09551348
108	0x3e2c4a84	0.168253
109	0xbdaaa57e	-0.083323464
110	0x3d03af92	0.03214986
111	0x3e1962ce	0.14979097
112	0x3cbd41f4	0.023102738
113	0x3e72c814	0.23709136
114	0xbe1228e8	-0.14273417
115	0xbe8a8490	-0.27054262
116	0xbd8377cf	-0.06419336
117	0x3db45731	0.08805693
118	0xbdb6db18	-0.089285076
119	0xbe619bd1	-0.22032095
120	0x3e6348e8	0.2219578
121	0xbd4a1761	-0.049338702
122	0xbb813b7d	-0.003943859
123	0xbdb5ad3d	-0.08870933
124	0x3cfa9571	0.030588837
125	0x3e1ef91a	0.15524712
126	0xbdabf0ed	-0.08395562
127	0x3d167f5d	0.036742557
128	0x3dda4a6c	0.10658726
129	0x3e077eff	0.13232039
130	0xbdfd81c5	-0.12378267
131	0xbdf1abe8	-0.11800367
132	0xbdbc6c5a	-0.09200354
133	0xbdb1a20e	-0.086734876
134	0x3de99628	0.11405593
135	0x3c015793	0.0078944145
136	0xbc6c49b1	-0.014421866
137	0xbcc54e32	-0.024085138
138	0xbcfc4241	-0.030793311
139	0x3c946f52	0.018119488
140	0xbe0353e8	-0.12824976
141	0x3e20eda0	0.15715647
142	0xbd3422e3	-0.043978583
143	0x3e2d3aec	0.16917008
144	0xbce99d05	-0.028517256
145	0x3da115ed	0.0786551
146	0x3e80c852	0.25152832
147	0xbc92535d	-0.017862016
148	0xbd8c34be	-0.06845997
149	0x3dbaf1ab	0.09128126
150	0x3e6cedeb	0.23137634
151	0xbdceb2a9	-0.100926705
152	0xbc5e6997	-0.013574979
153	0x3d5c8ac8	0.05384329
154	0xbddc297c	-0.107501
155	0xbd83d880	-0.064377785
156	0xbe343033	-0.17596512
157	0xbd03c6cd	-0.032172013
158	0xbd3c91ad	-0.046037365
159	0x3d8f97d7	0.07011383
160	0xbecf9241	-0.4054127
161	0xbc50faf8	-0.012755148
162	0x3cfc4814	0.030796088
163	0x3d3eef4b	0.046614926
164	0xbcfa1d55	-0.030531565
165	0x3e1449c0	0.14481258
166	0x3cc711bb	0.024300447
167	0x3cf1d4ca	0.029520411
168	0xbd2011a3	-0.03907932
169	0xbe062de5	-0.13103445
170	0x3df7055b	0.12061568
171	0xbd2794c9	-0.040913377
172	0x3d240a35	0.040048797
173	0xbe0b3262	-0.13593438
174	0x3c7a3e88	0.015273698
175	0x3e1b8521	0.15187503
176	0x3dc022ed	0.093816616
177	0x3d4bf2bd	0.04979204
178	0xbd01e5d4	-0.03171332
179	0x3d245167	0.040116694
180	0x3df537c2	0.119735256
181	0x3e68acc2	0.22722152
182	0xbe217daa	-0.15770593
183	0x3e5237b2	0.20529059
184	0x3c94c9a6	0.01816256
185	0xbce563db	-0.028001716
186	0xbe1f75aa	-0.15572229
187	0x3d736bbd	0.05942892
188	0x3e11301c	0.14178509
189	0xbdfe1577	-0.12406438
190	0x3e812626	0.25224417
191	0xbcbc69c1	-0.022999646
192	0xbe41227f	-0.18860815
193	0x3bf9a65c	0.0076187085
194	0x3e87a99d	0.26496592
195	0xbdc93712	-0.09824957
196	0x3d822bbd	0.06355999
197	0x3e858293	0.26076183
198	0x3cf6dac7	0.030133618
199	0x3dbb03fa	0.09131618
200	0xbd2a5621	-0.041586045
201	0xbd8b7b7f	-0.068106644
202	0x3de3ae0d	0.11117182
203	0xbd056ec6	-0.032576345
204	0x3db5eae4	0.088826925
205	0xbb7e61d1	-0.0038815627
206	0xbe962401	-0.29324344
207	0x3dbde7cd	0.09272728
208	0xbd3318e8	-0.043724924
209	0xbe5fa6da	-0.21840993
210	0xbe021004	-0.12701422
211	0xbdac596b	-0.084154926
212	0xbd912174	-0.07086459
213	0x3cbfb447	0.023401393
214	0xbe6f1a28	-0.23349822
215	0xbddfc812	-0.10926832
216	0xbe21f8ce	-0.15817568
217	0x3e30a83a	0.17251673
218	0x3ca36584	0.019945867
219	0xbdb6c5e2	-0.08924462
220	0x3dd8da1c	0.10588476
221	0xbd9fa969	-0.07795984
222	0xbcc32b02	-0.023824219
223	0x3d81b36b	0.063330494
224	0x3d7fdd31	0.062466804
225	0x3dbfd04b	0.093659006
226	0x3d69ad51	0.057050053
227	0xbbcb93f1	-0.0062127043
228	0x3bb6c897	0.0055781114
229	0x3b37acc8	0.002802657
230	0x3d867346	0.065649554
231	0x3d031fc0	0.0320127
232	0x3dddef37	0.10836642
233	0xbd3b28a8	-0.04569307
234	0x3e0400e4	0.12890965
235	0x3d3c05be	0.045903914
236	0xbe91f99a	-0.28510743
237	0x3e25cec5	0.16192158
238	0xbd9798e2	-0.07402207
239	0xbb6cf8fd	-0.003615915
240	0xbc141dd2	-0.009040313
241	0xbd5c9192	-0.053849764
242	0x3d45e1cf	0.04831105
243	0x3d767816	0.060173117
244	0x3dfc3787	0.123152785
245	0x3d948b07	0.0725308
246	0x3e568eb8	0.2095288
247	0xbe30a0c7	-0.17248832
248	0xbded05c9	-0.11573369
249	0x3cc9a2cd	0.024613762
250	0xbe37675f	-0.17910527
251	0xbd6916fc	-0.056906685
252	0xbde82ede	-0.11337064
253	0x3c5586a8	0.013032593
254	0xbcdb2631	-0.02675161
255	0xbe45896d	-0.19290705

advantage_head.0.bias f4 [64]
0	0xbe3e7400	-0.18598938
1	0xbe80a423	-0.25125226
2	0x3c9839c7	0.018582238
3	0xbe2db0c7	-0.16961966
4	0xbdb14e04	-0.086574584
5	0xbe829785	-0.25506225
6	0xbd71e340	-0.059054613
7	0xbccca275	-0.02497981
8	0xbc0231ee	-0.0079464745
9	0xbec61617	-0.38688728
10	0xbda4bc94	-0.08043781
11	0xbe56e4ef	-0.20985769
12	0xbddb4f30	-0.10708463
13	0xbe1fcb2c	-0.15604848
14	0xbdec3e19	-0.11535282
15	0xbe0cfcbd	-0.13768287
16	0x3dbb5514	0.09147087
17	0xbd91b40f	-0.071144216
18	0xbda8ee95	-0.08248631
19	0xbdbbaa5c	-0.09163353
20	0xbe94f2f9	-0.29091623
21	0xbe900431	-0.28128198
22	0xbe8436be	-0.25823015
23	0xbe92d59e	-0.28678602
24	0x3d34dd65	0.04415645
25	0x3d95c628	0.07313186
26	0xbb8766f9	-0.0041321483
27	0xbd93248d	-0.07184706
28	0xbe8e8652	-0.27836853
29	0xbea1f90a	-0.31635314
30	0xbe95598d	-0.29169884
31	0xbe713d0e	-0.23558447
32	0xbe098881	-0.13430978
33	0xbe9668e4	-0.293769
34	0xbe402f04	-0.18767935
35	0xbe980932	-0.29694515
36	0xbe38371a	-0.1798977
37	0x3e1fd5ee	0.15608951
38	0xbded1c72	-0.11577691
39	0xbe418e6c	-0.18901986
40	0xbd455c9a	-0.048184015
41	0xbe228433	-0.15870742
42	0xbec2fcbd	-0.3808345
43	0x3e2936fe	0.16524884
44	0x3c6f04c2	0.014588537
45	0xbe64792b	-0.22311847
46	0xbe3eb2cb	-0.18622892
47	0xbc55f8f3	-0.013059842
48	0xbbb7e6d3	-0.005612233
49	0xbdec17b9	-0.11527962
50	0xbe049011	-0.12945582
51	0xbdf5a4dd	-0.11994336
52	0xbebfcc5d	-0.37460604
53	0xbe774a69	-0.24149479
54	0xbe877697	-0.26457664
55	0xbe62b431	-0.2213905
56	0xbe851f8c	-0.2600063
57	0xbe2850af	-0.16437028
58	0xbe0efe4e	-0.13964197
59	0xbc7b5e47	-0.015342302
60	0xbde91acb	-0.113820635
61	0xbd5ca8e6	-0.05387201
62	0xbd8d5b0d	-0.06902132
63	0x3da66371	0.08124436

advantage_head.2.weight f4 [7, 64]
0	0xbe90ab5e	-0.28255743
1	0x3e875454	0.26431525
2	0xbe56faec	-0.20994157
3	0xbe6303b9	-0.22169389
4	0xbde16c0f	-0.11006939
5	0x3eb7daf2	0.3590923
6	0x3db4acf7	0.08822053
7	0xbe8227b1	-0.25420907
8	0xbe98225b	-0.2971371
9	0x3e3ad3a4	0.18244797
10	0xbe954691	-0.291554
11	0x3d14b1c2	0.036302336
12	0xbe5a8fde	-0.21343943
13	0x3deb92f4	0.115026385
14	0x3e5e861d	0.21730848
15	0xbe983ade	-0.29732412
16	0x3e2d08c7	0.1689788
17	0xbda58bf5	-0.08083335
18	0xbe778a97	-0.24173962
19	0x3d12adf9	0.035810445
20	0x3ddf3cd2	0.109002724
21	0x3dbf81a0	0.09350896
22	0x3f05b662	0.5223142
23	0xbdc8a9c1	-0.09798003
24	0xbe180c92	-0.14848545
25	0x3ec8519b	0.3912476
26	0xbe0a6b50	-0.13517499
27	0xbe73f0c2	-0.2382231
28	0xbe80882a	-0.25103885
29	0xbe4cf3ab	-0.20014827
30	0x3ed49638	0.41520858
31	0xbb5b4284	-0.0033456394
32	0xbe7c3cd1	-0.24632575
33	0x3e8c4db7	0.27403042
34	0x3e4288ab	0.18997447
35	0xbedef794	-0.43548262
36	0xbd3a727a	-0.04551933
37	0xbd9495ce	-0.072551355
38	0xbe695e28	-0.22789824
39	0x3e353f09	0.17699827
40	0xbe8c4c95	-0.27402177
41	0xbe6cdc22	-0.23130849
42	0xbd561335	-0.05226441
43	0xbe0ebe55	-0.13939793
44	0xbe83437d	-0.25637427
45	0xbe92c3e4	-0.28665078
46	0x3d95d0bb	0.07315203
47	0xbe350331	-0.17676999
48	0x3e915f46	0.28393
49	0x3e8606d2	0.26177078
50	0xbd4b678c	-0.049659297
51	0x3be90280	0.0071108937
52	0x3ca879f8	0.020565972
53	0xbdff47ba	-0.12464853
54	0x3d5a377d	0.053275574
55	0xbe6ab3ea	-0.22920194
56	0x3e5d3d0b	0.21605317
57	0xbe5dbb46	-0.2165347
58	0x3df1f393	0.11814036
59	0x3e037e72	0.12841204
60	0x3ecfca08	0.40583825
61	0xbe1a858e	-0.1509001
62	0xbdab735e	-0.08371614
63	0xbd8640c8	-0.06555325
64	0xbe565169	-0.20929493
65	0x3e907de6	0.28221053
66	0xbe754e6a	-0.23955694
67	0x3dda2470	0.10651481
68	0xbdaa47d3	-0.08314481
69	0x3eb19df8	0.34690833
70	0x3eff9cd2	0.49924332
71	0xbe647d5a	-0.22313443
72	0xbeb079d5	-0.3446795
73	0x3e89095c	0.26764953
74	0xbe28fb72	-0.16502169
75	0xbe005f76	-0.12536415
76	0xbe1a1603	-0.1504746
77	0xbe1e0e07	-0.15435039
78	0x3e89080c	0.26763952
79	0xbe7b35d6	-0.24532256
80	0x3e5debfc	0.21672052
81	0xbe7088f0	-0.23489738
82	0xbe4d9c4c	-0.20079154
83	0xbbdc994d	-0.006732142
84	0x3ec94f12	0.39318138
85	0x3d7f5e5a	0.06234584
86	0x3f074a5e	0.5284785
87	0x3deb7267	0.1149643
88	0xbe5e91b9	-0.21735276
89	0x3e54b763	0.20773081
90	0xbe152f7d	-0.14568897
91	0xbe4b4ca4	-0.19853455
92	0xbe32fcdd	-0.17479272
93	0xbed00676	-0.4062993
94	0x3ee16758	0.44024158
95	0x3d012e44	0.031538263
96	0xbe494df3	-0.19658642
97	0x3ea2995a	0.31757623
98	0x3e5e287d	0.21695133
99	0xbeb316a1	-0.34978202
100	0xbd0838fe	-0.033257477
101	0xbe1b7593	-0.1518157
102	0xbe59a62e	-0.21254799
103	0x3e2ca749	0.16860689
104	0xbeb21395	-0.34780565
105	0xbdfd8529	-0.12378914
106	0xbe62b757	-0.22140251
107	0xbdf41e5e	-0.119198546
108	0xbea63af4	-0.32466853
109	0xbeb096a3	-0.34489927
110	0x3d951707	0.07279783
111	0xbe15485e	-0.14578387
112	0x3d80cd76	0.062891886
113	0x3e7f8fcf	0.24957202
114	0xbdc0845d	-0.09400246
115	0xbe0f5f8d	-0.14001293
116	0x3eadfab7	0.33980343
117	0xbd3df4b8	-0.04637596
118	0xbdcc1111	-0.09964193
119	0xbea6ec08	-0.32601953
120	0x3e4b0dd1	0.1982949
121	0xbdd1fe28	-0.102535546
122	0x3e000f17	0.12505756
123	0xbdaf0d58	-0.08547467
124	0x3ec74964	0.3892318
125	0xbe0e9c97	-0.13926922
126	0xbe83159e	-0.2560243
127	0xbd41fd7c	-0.047360882
128	0xbe93d13f	-0.2887058
129	0x3e3731d7	0.17890106
130	0xbe66c32b	-0.22535388
131	0xbea62081	-0.32446674
132	0x3cf57c4c	0.029966496
133	0x3e5c68cf	0.21524356
134	0xbdaa347e	-0.08310793
135	0xbed40e13	-0.41416988
136	0xbeb5b0b3	-0.35486373
137	0x3eb3cd40	0.3511753
138	0xbea8e5ca	-0.32987815
139	0x3e00fef4	0.12597257
140	0xbe4ae510	-0.19813943
141	0x3e58f682	0.21187785
142	0x3e89d489	0.26919964
143	0xbe9faa3d	-0.3118457
144	0x3e063cbf	0.1310911
145	0xbe080322	-0.13282445
146	0xbea9cd46	-0.33164424
147	0x3dfb561d	0.12272284
148	0x3e9d7b93	0.30758342
149	0x3d57ad20	0.05265534
150	0x3efcf1cb	0.49403223
151	0x3e7d55d8	0.24739778
152	0xbe3b0f6c	-0.18267602
153	0x3e7080ee	0.23486683
154	0xbe0f14ac	-0.1397273
155	0xbe850f7d	-0.2598838
156	0xbe59a234	-0.21253282
157	0x3d5920ea	0.053009905
158	0x3ed33410	0.41250658
159	0x3dac5b99	0.08415908
160	0xbe7fc91d	-0.24979062
161	0xbb8f3867	-0.0043707374
162	0x3e3a21ef	0.18177007
163	0xbeaea229	-0.34108093
164	0xbc93ad9d	-0.018027121
165	0x3d9ca7b2	0.07649173
166	0xbe69e32a	-0.22840562
167	0x3e4a7aa1	0.19773342
168	0xbea6a2d5	-0.32546106
169	0xbebf29da	-0.37336618
170	0x3e8c51ce	0.27406162
171	0xbe50fc2c	-0.20408696
172	0xbe851fed	-0.2600092
173	0xbee84bed	-0.45370427
174	0xbe2f8f54	-0.17144519
175	0xbe2a4c59	-0.16630687
176	0x3ea4c9b6	0.32185143
177	0x3e78b1ca	0.24286571
178	0xbcd25756	-0.02567641
179	0x3e01b956	0.12668356
180	0x3cb8befe	0.02255201
181	0xbe0ba918	-0.13638723
182	0x3e64f8f3	0.22360592
183	0xbe378c8b	-0.17924707
184	0x3e853122	0.26014048
185	0xbe8d9821	-0.27655128
186	0x3e1b42de	0.15162227
187	0x3e89ca12	0.2691198
188	0x3eda891d	0.42682734
189	0xbe32bb99	-0.17454375
190	0xbdff092e	-0.12452923
191	0xbd49f5ac	-0.049306557
192	0xbe9ae893	-0.30255565
193	0x3f036887	0.5133137
194	0xbe9c8457	-0.30569717
195	0xbea8d92a	-0.32978183
196	0xbe8dab0e	-0.27669567
197	0x3e1e21b8	0.1544255
198	0x3f0b8a39	0.54507786
199	0xbdcf7eb4	-0.101315886
200	0xbeb6b9e0	-0.35688686
201	0x3d098b7e	0.033580296
202	0xbda87db6	-0.082271025
203	0xbe2d3e7d	-0.16918369
204	0xbebad292	-0.36488777
205	0x3d85b885	0.06529335
206	0x3eb88455	0.3603846
207	0xbeae7841	-0.3407612
208	0x3d6f2bce	0.058391385
209	0xbe46fc7c	-0.19432253
210	0xbe71a3d7	-0.23597656
211	0x3e8fd66e	0.28093284
212	0x3e2fa337	0.17152105
213	0x3d7cb146	0.0616925
214	0x3ec167b9	0.37774447
215	0x3dd28f76	0.10281269
216	0xbe3bfcc2	-0.18358138
217	0x3e3ad741	0.18246175
218	0xbe1b796b	-0.15183036
219	0xbe8891a2	-0.2667361
220	0xbb3be16d	-0.00286683
221	0xbe832223	-0.25611982
222	0x3ea26302	0.31716162
223	0xbe8944e1	-0.26810363
224	0xbe0665b4	-0.13124734
225	0x3f04c331	0.5186034
226	0x3e93e6b6	0.28886956
227	0xbea3bf4a	-0.3198188
228	0xbea4f439	-0.32217577
229	0x3d4ebcaa	0.050472893
230	0xbe29f255	-0.16596349
231	0x3e088d6f	0.13335203
232	0xbeb76c78	-0.35824943
233	0x3df97271	0.12180031
234	0xbe96d3a2	-0.29458338
235	0xbe4fb496	-0.20283732
236	0xbe322b9a	-0.17399445
237	0xbeb4916c	-0.35267198
238	0xbccad75b	-0.024760893
239	0xbe0a6f01	-0.13518907
240	0x3e893f06	0.26805896
241	0x3e8dbddc	0.27683914
242	0xbe7910d1	-0.24322821
243	0x3e7bc03e	0.24585053
244	0x3e4126db	0.18862478
245	0xbe1f6b0f	-0.15568183
246	0xbe23e0a5	-0.16003664
247	0xbe97df01	-0.29662326
248	0x3d47e486	0.04880192
249	0xbe011eb6	-0.12609372
250	0x3e54b931	0.2077377
251	0xbe085c76	-0.13316521
252	0x3ece60c1	0.40308192
253	0xbda4825c	-0.080326766
254	0x3db82afd	0.08992574
255	0x3d913464	0.07090071

advantage_head.2.bias f4 [7]
0	0xbd123d02	-0.035702713
1	0xbd353fd7	-0.044250336
2	0xbd42d212	-0.04756362
3	0xbd10a963	-0.03531779
4	0xbd27bfa0	-0.040954232
5	0xbd67f908	-0.05663398
6	0xbc78cff6	-0.0151863005

value_head.0.weight f4 [64, 100]
0	0xbceffd38	-0.029295549
1	0xbd379094	-0.044815615
2	0x3e0e73cf	0.13911365
3	0x3e26fcc2	0.16307357
4	0x3e22352c	0.15840596
5	0x3ecb7992	0.39741188
6	0xbe2d31ad	-0.16913481
7	0xbdb4bc4a	-0.08824976
8	0xbdaabbce	-0.08336602
9	0xbcfbfbb1	-0.030759664
10	0xbd504c10	-0.05085379
11	0xbe78f010	-0.24310327
12	0x3e294f3a	0.16534129
13	0x3dbb5fc7	0.091491275
14	0x3cd69373	0.026193356
15	0x3bd37f1b	0.006454361
16	0x3d050122	0.032471783
17	0x3d844e3c	0.064602345
18	0xbe157e81	-0.14599039
19	0x3ca1078b	0.019656917
20	0xbd2b0379	-0.04175136
21	0x3cc363af	0.023851244
22	0xbd0133c1	-0.031543497
23	0xbdbe0cf7	-0.092798166
24	0x3c0954f1	0.008382068
25	0xbec1cb2e	-0.37850326
26	0xbe84933e	-0.25893587
27	0x3d9325c6	0.07184939
28	0xbe91f577	-0.28507587
29	0xbdcafc96	-0.09911458
30	0xbd0ffc65	-0.03515281
31	0xbea81ce3	-0.3283454
32	0x3e262afc	0.16227335
33	0x3ccc90b5	0.024971345
34	0xbda023cc	-0.07819328
35	0xbdb46c4a	-0.08809717
36	0xbe8eb159	-0.2786968
37	0x3cb321f2	0.021866772
38	0xbe856ecb	-0.2606109
39	0x3ddc689d	0.10762141
40	0x3e1dd91d	0.15414853
41	0x3e1983d8	0.149917
42	0x3d91cac7	0.07118755
43	0x3c378ea7	0.011203445
44	0xbe24222d	-0.16028662
45	0x3cbb3bd2	0.022855673
46	0x3de1a320	0.11017442
47	0x3c9043fc	0.017610542
48	0xbdde66e2	-0.10859467
49	0x3da55c3f	0.08074235
50	0xbd8e7a31	-0.069569
51	0x3df337d6	0.11875884
52	0xbcd64809	-0.026157396
53	0xbdef3f9c	-0.116820544
54	0xbd9ff098	-0.078095615
55	0xbcd4ffcc	-0.02600088
56	0xbdb2a6d1	-0.08723224
57	0xbd4d2c0a	-0.050090827
58	0x3d331d72	0.043729253
59	0x3cba153e	0.022715207
60	0xbea76636	-0.32695168
61	0x3ea60030	0.32422018
62	0x3dccbcc0	0.09996939
63	0x3dd247ac	0.102675766
64	0x3e4450e5	0.19171484
65	0xbdf08e1c	-0.11745855
66	0x3d904314	0.07044044
67	0xbd881c4a	-0.06646021
68	0x3db84ae2	0.08998658
69	0xbd7a8aa3	-0.06116737
70	0xbe489e3d	-0.19591613
71	0xbc2baef6	-0.010478726
72	0x3daeef6a	0.08541758
73	0x3daafb87	0.08348756
74	0x3e75530a	0.23957458
75	0xbe46af66	-0.19402847
76	0xbd9e3c5f	-0.077263586
77	0xbc419c22	-0.01181701
78	0xbd7c1f04	-0.061553016
79	0x3d61fbb7	0.055171695
80	0xbe5acfc2	-0.21368316
81	0x3e198ad1	0.1499436
82	0xbe3ef55f	-0.18648289
83	0xbcdcc70e	-0.026950385
84	0x3e28c475	0.16481192
85	0xbdeb2623	-0.114818834
86	0xbd81142d	-0.06302676
87	0xbe0d236b	-0.13783042
88	0x3e5d0c6a	0.21586767
89	0xbe141fff	-0.1446533
90	0x3e14cd68	0.14531481
91	0xbe537905	-0.20651634
92	0x3d3f82e7	0.046755698
93	0x3d82662a	0.063671425
94	0xbe8f1d89	-0.2795222
95	0xbb165ef1	-0.0022944773
96	0xbe1e4d94	-0.15459281
97	0x3ccc6631	0.024951072
98	0x3e43a98b	0.19107644
99	0xbd323538	-0.043507785
100	0xbd26e836	-0.040748797
101	0x3c47e048	0.012199469
102	0x3e5083b0	0.20362735
103	0xbcdc63e1	-0.026903095
104	0x3e383b06	0.17991266
105	0x3d5df7af	0.054191288
106	0x3e1e5ed5	0.15465863
107	0x3dd3abce	0.103355035
108	0x3eb56ff5	0.3543698
109	0xbe2f8fdd	-0.17144723
110	0x3ce0c39b	0.027437022
111	0x3ea4d8f1	0.32196763
112	0x3e13710f	0.14398597
113	0x3e4dca27	0.20096646
114	0x3e66f900	0.22555923
115	0xbe4d9c86	-0.2007924
116	0xbcfa7482	-0.030573133
117	0xbcbcbc1e	-0.02303892
118	0x3dd218b2	0.102586165
119	0xbddac654	-0.10682359
120	0xbd445a8a	-0.047937907
121	0x3d08cb2a	0.033396877
122	0x3dbbd5d1	0.091716416
123	0xbcf8c41e	-0.030366953
124	0xbd40934a	-0.047015466
125	0xbd444c8d	-0.047924567
126	0x3e2da95f	0.16959141
127	0x3e2aa1fb	0.16663353
128	0xbe01a201	-0.12659456
129	0xbd92cbab	-0.07167753
130	0xbdd393c9	-0.10330922
131	0x3d183d4e	0.03716784
132	0xbddc2fac	-0.1075128
133	0x3d5acdf2	0.05341906
134	0x3e382bd6	0.17985472
135	0xbe2a2284	-0.16614729
136	0x3e4d7715	0.20064957
137	0x3df247d5	0.11830107
138	0xbcb35be3	-0.021894401
139	0x3bb38eca	0.0054796683
140	0xbed214c4	-0.41031468
141	0x3d27be81	0.040953163
142	0x3e2b9a10	0.16757989
143	0xbd889cf9	-0.06670565
144	0x3e1d9716	0.15389666
145	0xbc4c4dd2	-0.012469726
146	0x3e91bb66	0.28463286
147	0x3e0f92a8	0.14020789
148	0xbc1b70da	-0.009487355
149	0xbe568741	-0.20950033
150	0x3dd09952	0.101854935
151	0xbe1ac7d3	-0.1511529
152	0x3e2413aa	0.16023126
153	0x3bcecac9	0.006310795
154	0xbdaafad2	-0.083486214
155	0xbcc6fe95	-0.024291316
156	0xbe61f031	-0.22064282
157	0xbe67d1a0	-0.2263856
158	0xbdc59619	-0.096477695
159	0xbd6d0366	-0.05786457
160	0x3dcdae9b	0.10043069
161	0xbcfdce42	-0.03098214
162	0xbc400156	-0.0117190685
163	0x3d025d09	0.031827006
164	0xbbf66af3	-0.0075200736
165	0xbc1bcdd6	-0.009509524
166	0xbd1036dc	-0.035208568
167	0x3ddc2a10	0.1075021
168	0x3da3be80	0.07995319
169	0xbd8de894	-0.069291264
170	0xbd52da0f	-0.051477488
171	0xbdcf9ebd	-0.10137699
172	0x3e268d0f	0.16264747
173	0x3d5e3fae	0.05425995
174	0xbdbf6bb7	-0.09346717
175	0x3e494419	0.19654883
176	0x3d119fa9	0.035552654
177	0x3e9b66b5	0.30351797
178	0xbe2e2be4	-0.1700893
179	0xbda680d9	-0.081300445
180	0xbe03ebd3	-0.12882929
181	0x3acfeff7	0.0015864362
182	0x3e2c468b	0.16823785
183	0x3daa0fee	0.083038196
184	0x3d2071ad	0.03917091
185	0xbe0f7e23	-0.14012961
186	0x3c3f01b5	0.011658122
187	0x3efc5cef	0.49289653
188	0x3e20ebde	0.15714976
189	0x3e2b633f	0.16737078
190	0x3db6e037	0.08929484
191	0x3dba02fd	0.09082601
192	0x3cc98069	0.024597364
193	0xbda954d6	-0.08268134
194	0xbe055697	-0.13021313
195	0xbe37db06	-0.17954645
196	0x3da1833f	0.07886361
197	0xbd283ed0	-0.041075528
198	0x3d902127	0.07037573
199	0xbe4bc35e	-0.19898745
200	0xbd8d89b4	-0.069110304
201	0x3e01d5f9	0.1267928
202	0xbe3d4802	-0.184845
203	0xbde9b5cf	-0.1141163
204	0xbd310605	-0.04321863
205	0xbc0d1385	-0.008610611
206	0xbdcb8167	-0.09936791
207	0xbe02da3d	-0.12778564
208	0xbdb12dbd	-0.08651302
209	0x3e23ee82	0.16008952
210	0xbb8d9aed	-0.004321447
211	0x3e8d2f67	0.27575228
212	0xbe076d21	-0.13225223
213	0x3dc85751	0.09782279
214	0x3c7509de	0.014955966
215	0xbdafca17	-0.085834675
216	0xbd032c50	-0.03202468
217	0xbe08d3a6	-0.13361987
218	0x3b400f65	0.002930605
219	0x3d113811	0.03545386
220	0x3d1e3260	0.03862226
221	0xbdbd602f	-0.09246861
222	0xbe1c0c2d	-0.1523902
223	0xbcac0baf	-0.021001665
224	0xbc55787c	-0.013029214
225	0xbd6a445e	-0.057194106
226	0x3d6f8e2b	0.05848519
227	0x3e040587	0.12892734
228	0xbe163269	-0.14667667
229	0xbe0046d0	-0.12527013
230	0xbd74b0f3	-0.059739064
231	0xbdb6b8cc	-0.08921966
232	0x3dbd8806	0.0925446
233	0x3cc5a293	0.024125373
234	0xbdb040d0	-0.08606112
235	0xbe16d954	-0.14731342
236	0x3e12fa37	0.14353262
237	0x3b9d3836	0.0047979606
238	0xbcde0bd6	-0.027105253
239	0xbe0d73f4	-0.13813764
240	0xbdc5efa8	-0.096648514
241	0x3d5bc025	0.05365004
242	0xbe233ebd	-0.15941902
243	0xbe013c56	-0.12620673
244	0x3db4bcef	0.08825099
245	0xbde18f50	-0.11013663
246	0x3c9d9b9b	0.019239238
247	0x3dc08fd0	0.0940243
248	0xbd3235fe	-0.043508522
249	0x3e49c725	0.19704874
250	0x3d1ce8fa	0.03830812
251	0x3d1b1869	0.037865076
252	0x3bff9c90	0.007800646
253	0xbcd7f248	-0.026360646
254	0x3c6fe659	0.0146423215
255	0xbd3c8e33	-0.04603405

value_head.0.bias f4 [64]
0	0x3d292485	0.041294593
1	0xbdd57de9	-0.10424406
2	0xbdbc4c1f	-0.091942064
3	0x3dfe372c	0.12412867
4	0xbd44e2b1	-0.048067752
5	0xbb8657af	-0.004099808
6	0xbe804881	-0.25055316
7	0x3b7c2a1d	0.003847725
8	0xbe44d261	-0.19220878
9	0x3d8f27e2	0.06990029
10	0xbbd2d4aa	-0.006434043
11	0xbdf99408	-0.12186438
12	0xbe830a6f	-0.25593898
13	0x3c33152f	0.0109303435
14	0xbd67ba7d	-0.056574333
15	0xbdb493e7	-0.08817273
16	0xbb880e99	-0.004152131
17	0x3ba8eaf4	0.0051549617
18	0xbdb84523	-0.08997562
19	0xbda13049	-0.07870538
20	0xbe577898	-0.21042097
21	0xbe43d66e	-0.19124767
22	0xbe108a70	-0.1411531
23	0xbe1fbcbe	-0.15599343
24	0x3d1d1af7	0.038355794
25	0xbe8505e1	-0.25981048
26	0xbd92a63d	-0.07160614
27	0xbe380e2a	-0.17974153
28	0xbd4f4377	-0.05060145
29	0xbd23e13f	-0.040009733
30	0xbe2d133d	-0.1690187
31	0x3d829ff1	0.06378163
32	0x3cfa9014	0.03058628
33	0x3d741d21	0.059598092
34	0xbd645f64	-0.055755034
35	0xbdd1984e	-0.10234128
36	0x3d18b8f8	0.037285775
37	0x3cb59e42	0.02217019
38	0xbe8a1639	-0.2697008
39	0x3dbd654b	0.09247836
40	0x3d6aaa7a	0.057291485
41	0xbd2ed4b5	-0.042683322
42	0xbd3f11dd	-0.046647895
43	0x3e15e415	0.14637788
44	0xbe491aa4	-0.19639069
45	0xbe009921	-0.12558414
46	0x3e242ac4	0.16031939
47	0xbdea5582	-0.114420906
48	0x3db8c59c	0.09022066
49	0x3dabd2e1	0.08389831
50	0xbd6d9751	-0.058005635
51	0xbe2a4188	-0.1662656
52	0xbdddd638	-0.108318746
53	0xbcb555ae	-0.022135582
54	0x3e42ed5a	0.19035855
55	0x3c6e80b8	0.014557056
56	0x3d74a323	0.05972589
57	0xbe1786af	-0.14797471
58	0xbc2935d9	-0.01032778
59	0x3d3163b0	0.04330796
60	0x3cab7fa5	0.02093489
61	0x3dbfb167	0.09360009
62	0x3d78708a	0.0606542
63	0xbd1990d2	-0.037491627

value_head.2.weight f4 [1, 64]
0	0x3f3d7b75	0.74016505
1	0xbefb72a2	-0.49110895
2	0x3e3cbb1b	0.1843075
3	0xbe95bb8e	-0.29244655
4	0x3e9129de	0.28352255
5	0xbf346ead	-0.7048138
6	0x3f251c58	0.64496374
7	0xbe84c755	-0.25933328
8	0x3eb38508	0.35062432
9	0x3ec6f8ac	0.38861597
10	0x3eac4f68	0.33654332
11	0xbf30dec5	-0.6908992
12	0xbf27c72b	-0.6553828
13	0x3e87547f	0.26431653
14	0x3eed215c	0.46314514
15	0xbed80a06	-0.42195147
16	0x3e85488e	0.26031917
17	0x3f059083	0.5217363
18	0xbed79f60	-0.4211378
19	0xbf04e62a	-0.519137
20	0x3ef0b468	0.4701264
21	0xbf2623f4	-0.6489861
22	0x3f209fd6	0.6274389
23	0xbf1524cc	-0.5825927
24	0x3ec1a860	0.37823772
25	0xbf106d45	-0.5641673
26	0xbec0a908	-0.3762896
27	0x3eacd10e	0.33753246
28	0xbf253d5d	-0.6454676
29	0x3eaccf81	0.33752063
30	0x3f10e020	0.5659199
31	0xbf2c5b22	-0.6732656
32	0x3e4c4f34	0.19952089
33	0xbe9e801a	-0.3095711
34	0x3e769bc4	0.24082857
35	0x3ee46c13	0.44613704
36	0xbf012631	-0.504489
37	0xbeb86746	-0.3601629
38	0xbedb174b	-0.4279121
39	0x3ebaf705	0.36516586
40	0x3e99bea4	0.3002826
41	0x3e9622f9	0.29323557
42	0xbec6da83	-0.38838586
43	0xbe9e44b4	-0.3091179
44	0xbef2469b	-0.47319493
45	0xbf0833f6	-0.53204286
46	0x3f05c87e	0.5225905
47	0xbed94287	-0.4243357
48	0x3f1fb2c5	0.62382156
49	0xbeb59873	-0.35467872
50	0x3f32daaf	0.69864935
51	0x3f0e5f16	0.5561384
52	0x3e89f8d4	0.26947653
53	0xbf1c973b	-0.6116826
54	0xbebf897d	-0.37409583
55	0x3eb15b16	0.34639806
56	0x3ea6a481	0.32547382
57	0x3f2bc206	0.6709293
58	0xbef287f3	-0.47369346
59	0x3e96c801	0.29449466
60	0x3e927a32	0.28608853
61	0xbe7558c2	-0.2395964
62	0xbeab194d	-0.3341774
63	0x3e9db0fc	0.3079909
