TD3/models/hockey_best_agent/02000000/actor.pth (torch, 288583 bytes, 6 tensors)

fc1.weight f4 [256, 18]
0	0x4007f51c	2.1243353
1	0xc089afba	-4.302701
2	0x4107195d	8.443692
3	0xbe284cd6	-0.1643556
4	0x3eebb0bb	0.46033272
5	0x3e97f9cc	0.29682767
6	0xbf372133	-0.71535033
7	0x404cbc5d	3.1989968
8	0x3ec7c206	0.39015216
9	0x3d010976	0.031503163
10	0xbf8160a1	-1.0107614
11	0x3d15589a	0.03646145
12	0xbf278c4c	-0.6544845
13	0x3e2d24e4	0.16908604
14	0x3e3ddd05	0.18541344
15	0xbe33a2b8	-0.17542541
16	0x3e9b5195	0.3033568
17	0x3eb26bb1	0.34847787
18	0xbdec9d3e	-0.11553429
19	0xc0999328	-4.7992134
20	0x409c7f3e	4.8905325
21	0x3d8432f4	0.06455031
22	0x3e022fab	0.12713496
23	0xbda61d9b	-0.081111155
24	0xc015004e	-2.3281436
25	0x3f8ce11e	1.10062
26	0xbfc1b868	-1.5134401
27	0x3df8c2d1	0.12146533
28	0xbe9e671c	-0.3093804
29	0x3e1509d9	0.14554538
30	0x40086aee	2.1315265
31	0x40736177	3.8028238
32	0x3c3d05fa	0.011537069
33	0x3d5d7167	0.054063227
34	0xbeefe498	-0.4685409
35	0x3e809a1b	0.25117573
36	0x3fa62307	1.297944
37	0x40279510	2.618473
38	0x3ec6882e	0.38775772
39	0x3e856386	0.26052493
40	0xbe0350ca	-0.12823787
41	0xbddf8e2a	-0.109157875
42	0xbfd20796	-1.6408565
43	0xc0c0884e	-6.0166388
44	0xbfeb9798	-1.8405638
45	0x3f7da277	0.99076027
46	0x3fbdcd26	1.4828231
47	0x3f025699	0.5091339
48	0x3fc2383d	1.5173413
49	0x4073ceb5	3.8094914
50	0x3d5576cc	0.052115247
51	0x3f422fe2	0.75854313
52	0xbeb9784d	-0.36224595
53	0xbf48de2f	-0.78464025
54	0x3f248f7c	0.6428144
55	0x40203760	2.5033798
56	0xbf922eb7	-1.1420506
57	0xbc881fee	-0.016616788
58	0xbe9c79da	-0.30561715
59	0xbe79f52f	-0.24409936
60	0xbf4cf730	-0.8006468
61	0x3ea78fd0	0.32726908
62	0x4018853c	2.383132
63	0x3f409f84	0.752434
64	0x3f21ddc0	0.6322899
65	0x3c91a907	0.017780794
66	0x3e2d12e1	0.16901733
67	0xbf4d16b4	-0.8011277
68	0x3d9060f1	0.0704974
69	0x3e07a057	0.13244759
70	0x3ec749f5	0.38923612
71	0xbe4b5b1b	-0.19858973
72	0x3dacbbaa	0.084342316
73	0x3fc6075f	1.5471
74	0x3d046515	0.03232296
75	0xbd89dde8	-0.067317784
76	0x3eac8eba	0.33702642
77	0xbbf3a15b	-0.0074350066
78	0xbea6cebb	-0.32579598
79	0xbf20a8fa	-0.6275784
80	0x3fc10164	1.5078549
81	0xbec601b3	-0.3867317
82	0xbeb11539	-0.34586504
83	0xbe8d2fd6	-0.27575558
84	0xbfd7cb3c	-1.6858897
85	0xbc1db4c2	-0.009625616
86	0xbcf33f5b	-0.029693296
87	0xbe704d5e	-0.23467013
88	0x3ef5c994	0.48005354
89	0x3f080cf7	0.5314478
90	0x3ec3093e	0.3809299
91	0xbf5ac54b	-0.85457295
92	0xbfbd789b	-1.4802431
93	0xbd9168ac	-0.07100043
94	0xbcc70a9c	-0.024297051
95	0x3d67ff03	0.056639683
96	0xbda927d9	-0.082595535
97	0x3e86d4d0	0.26334238
98	0x405b4865	3.4262936
99	0x3c34fc06	0.011046415
100	0xbe9888c0	-0.29791832
101	0xbe0c8dab	-0.13725917
102	0x3f852a1e	1.0403478
103	0xc042b8dd	-3.0425332
104	0xbd8e34e6	-0.06943683
105	0xbf3386c1	-0.70127493
106	0xbfccdd2e	-1.6004999
107	0xbfc2c752	-1.5217078
108	0x3fc2b376	1.5211017
109	0x3e01689c	0.12637562
110	0x40ccd8e3	6.4014754
111	0x3e5f3adb	0.21799795
112	0xbd8d2b62	-0.0689304
113	0xbd7f7331	-0.062365714
114	0xbf8117fd	-1.0085446
115	0xbfe0d0df	-1.7563742
116	0xbfb00777	-1.3752278
117	0xbc9f8173	-0.019470906
118	0x3f67337a	0.9031292
119	0x3cf007d8	0.029300615
120	0xc00228b2	-2.0337338
121	0xc003d464	-2.0598383
122	0xbe1f2a3f	-0.1554346
123	0xbea58409	-0.32327297
124	0xbe4dfdfd	-0.2011642
125	0xbdbb22a4	-0.091374665
126	0x3f63ad38	0.88936186
127	0xc04efe97	-3.234289
128	0x3ef9a2ce	0.48757023
129	0x3efd1008	0.49426293
130	0xbacb3cd8	-0.0015505804
131	0xb808ca61	-3.2613407e-05
132	0xbf9a4ecd	-1.2055298
133	0xbfc420d9	-1.5322524
134	0xbfcf3cca	-1.6190426
135	0x3f323b23	0.69621485
136	0xbe9c6328	-0.305444
137	0x3de1db5e	0.11028169
138	0x3ff15b01	1.8855897
139	0xbfa518f3	-1.2898239
140	0xbe65a8ce	-0.22427675
141	0x3daf2767	0.08552437
142	0x3e836b1a	0.2566765
143	0x3d7ad591	0.06123883
144	0x40136694	2.3031359
145	0x4071ab8c	3.7760954
146	0x3e6edb90	0.23325944
147	0x3e375a05	0.17905433
148	0xbd8547a0	-0.06507802
149	0xbe63eb09	-0.22257628
150	0xbf8a4b7d	-1.0804287
151	0x4003f797	2.0619867
152	0x3e3e2fba	0.18572894
153	0x3ede24ab	0.4338735
154	0x3ffb85e4	1.9650235
155	0x3de3a477	0.111153536
156	0xbf2a63de	-0.66558635
157	0x40916ca7	4.544513
158	0xbc1b07ea	-0.009462336
159	0x3e86fd75	0.26365247
160	0xc0287dc3	-2.632676
161	0xbec25cdb	-0.37961468
162	0xbea220dc	-0.31665695
163	0xbf7408de	-0.9532603
164	0x3feb168c	1.8366256
165	0xbe433183	-0.19061856
166	0xbee257aa	-0.44207507
167	0xbd1ef2c5	-0.03880574
168	0xc0090794	-2.1410875
169	0xbf6c7ed4	-0.92381024
170	0xbfccaf2a	-1.5990956
171	0x3ecebc93	0.40378246
172	0x3ed574f8	0.41690803
173	0xbef7304e	-0.4827904
174	0xbf0483ae	-0.5176343
175	0x404c74bf	3.1946256
176	0xbe0435f7	-0.12911211
177	0x3ea75741	0.32683757
178	0x3e1f7a23	0.15573935
179	0x3f840d72	1.0316603
180	0x3fca7474	1.5816789
181	0x406d6076	3.7090125
182	0xbf96ef8d	-1.1791855
183	0x3e32214b	0.17395513
184	0x3d8531d0	0.065036416
185	0x3e3d3e41	0.18480779
186	0xc0207c3f	-2.5075834
187	0xc0b3c650	-5.617958
188	0xbe280f6c	-0.16412133
189	0x3e618add	0.22025628
190	0x3fb7b88c	1.4353194
191	0x3f04d6da	0.5189034
192	0x3ea8e043	0.32983598
193	0xbfe0ce6e	-1.7562997
194	0x3e59b6ac	0.2126109
195	0x3da9f447	0.08298545
196	0xbfcd043c	-1.6016917
197	0xbf7c9816	-0.98669565
198	0x3ff13c29	1.8846484
199	0xc0322cb9	-2.7839797
200	0x3f054605	0.52059966
201	0x3d33e254	0.043917015
202	0xbe7c772c	-0.24654835
203	0xbed8c3c0	-0.42336845
204	0xbf0a2f61	-0.53978544
205	0xbf865327	-1.0494126
206	0xbfabad03	-1.3412174
207	0x3e6c1aa3	0.23057036
208	0x3f5c3bbf	0.86028665
209	0x3e341990	0.17587876
210	0x40083e3e	2.128799
211	0xc06c9cc8	-3.6970692
212	0x3e6ba855	0.23013432
213	0xbe2fbabc	-0.17161077
214	0xbf713b81	-0.9423142
215	0xbfd5faf9	-1.6717216
216	0x3f38fcc4	0.7226069
217	0xc095609b	-4.6680427
218	0xc0eece31	-7.46267
219	0xbd49ea0e	-0.049295478
220	0x3c861f17	0.016372247
221	0xbebe5d63	-0.37180623
222	0x3ea2d46f	0.318027
223	0x3f5ffe80	0.8749771
224	0xbee91dfd	-0.45530692
225	0xbd9e85e8	-0.07740384
226	0x3f828f60	1.0200005
227	0x3e0595de	0.13045451
228	0xbfe514a4	-1.7896924
229	0x405afeba	3.4217973
230	0xbc237e76	-0.009978881
231	0x3cc85672	0.024455283
232	0xbfe01128	-1.7505236
233	0x3e336835	0.1752022
234	0x401b8fce	2.4306521
235	0xbe181c04	-0.14854437
236	0x3cb82b3d	0.022481555
237	0x3e34bfd7	0.17651306
238	0xbecdcfc8	-0.40197587
239	0xbe205f74	-0.15661412
240	0xbefc8894	-0.4932295
241	0xc0521c80	-3.2829895
242	0x4016e7e7	2.3579042
243	0x3ebbaba9	0.36654404
244	0x404ae073	3.1699493
245	0x3dea53ec	0.11441788
246	0x3f78ac46	0.9713787
247	0xbedb4469	-0.4282563
248	0xbe289e0d	-0.16466542
249	0xbcd53cf5	-0.026030043
250	0xbee3963a	-0.4445055
251	0x3c202e52	0.009776669
252	0xbe4bfb15	-0.19919999
253	0xbfe3bf7a	-1.7792809
254	0x3ddccf1a	0.10781689
255	0x3ddbd6c8	0.10734326

fc1.bias f4 [256]
0	0xbdc77be5	-0.09740428
1	0x3db4f911	0.08836568
2	0x3e31ea4f	0.17374538
3	0x3f2cdc41	0.6752358
4	0xc0834112	-4.101693
5	0xbf3d7a25	-0.740145
6	0xbfc48e2f	-1.5355891
7	0x3d86f273	0.06589212
8	0xc03bfc58	-2.9372768
9	0x3f1a3f45	0.6025279
10	0xbf55514c	-0.83327174
11	0xbecd4fd4	-0.40099967
12	0xbf1c6d27	-0.61104053
13	0x3d1ca76a	0.038245596
14	0x3e92f66a	0.28703624
15	0xbfd6df69	-1.6786929
16	0xc0089bea	-2.1345162
17	0xc05342c0	-3.300949
18	0xbe600e57	-0.2188047
19	0x3c096baf	0.00838749
20	0xbf9a0678	-1.2033224
21	0xbfa469e9	-1.2844821
22	0xc0115794	-2.2709703
23	0xbfaaa1ab	-1.3330587
24	0xbe822cee	-0.25424904
25	0xc0385195	-2.8799794
26	0xbf88cf39	-1.0688239
27	0xc09726f9	-4.7235074
28	0x404a2e24	3.1590662
29	0x3d64e395	0.0558811
30	0x3ec70775	0.38872877
31	0x3e552c99	0.20817794
32	0xbff824d0	-1.9386234
33	0xc00197ce	-2.0248904
34	0xc02bf15a	-2.686606
35	0xc0480257	-3.1251428
36	0xc01e61f4	-2.4747286
37	0xbfa8dc53	-1.3192238
38	0xbf816d80	-1.0111542
39	0x3f7be3ac	0.98394275
40	0xbfdfe58b	-1.7491926
41	0xbfacbad0	-1.3494511
42	0xbfdf7bd4	-1.7459664
43	0x3ea57f40	0.32323647
44	0xbfeef679	-1.8668967
45	0xc03d6374	-2.9591951
46	0x3eafd813	0.3434454
47	0xbfac4360	-1.3458061
48	0xc08728df	-4.223739
49	0x3fffd3d6	1.9986522
50	0xbf85fc1b	-1.0467561
51	0xc013f3c6	-2.3117537
52	0xc017d124	-2.37214
53	0xbe932887	-0.28741857
54	0x3f20778c	0.62682414
55	0xbfd8d2d6	-1.6939342
56	0xbf68fae9	-0.9100786
57	0xbecc1fa3	-0.39867887
58	0xbfa667bc	-1.3000407
59	0xbfa980cc	-1.3242431
60	0xc04fe22c	-3.2481794
61	0x3f2fc79e	0.68663967
62	0xbfb09c24	-1.379765
63	0xc04c3cc1	-3.1912081
64	0xc0133139	-2.2998793
65	0x3ee76bea	0.4519952
66	0xbfe1ff6c	-1.7656074
67	0x3d8dc81f	0.06922936
68	0xc059d273	-3.4034698
69	0x3f8d2b29	1.1028796
70	0xbfa5c92e	-1.295202
71	0x3f48d55f	0.7845058
72	0xbfaf73c2	-1.3707201
73	0x4069faf1	3.6559412
74	0xbf58d88a	-0.8470541
75	0x3fdfa3bf	1.7471846
76	0x3f2e2e40	0.6803932
77	0x3fd7137d	1.6802822
78	0xc029d5a2	-2.653664
79	0xbf8061da	-1.0029862
80	0xbf85e46f	-1.0460337
81	0x3f0b484b	0.54407185
82	0x403c57eb	2.942866
83	0xc01d3eaf	-2.456951
84	0xbf1b5245	-0.6067241
85	0xc06ba9a1	-3.6822283
86	0xbf51650d	-0.81794816
87	0xbf85ba52	-1.0447485
88	0xbfa9a700	-1.3254089
89	0x3f54e6c8	0.83164644
90	0xbfb4e749	-1.4133083
91	0xbd4bd2a8	-0.049761444
92	0x3f4c38d7	0.7977423
93	0xc03171f6	-2.7725806
94	0xbe7ece6e	-0.24883434
95	0x3fbf4ccd	1.4945313
96	0xc024a9ea	-2.5728707
97	0xc0513fd2	-3.2695203
98	0x3f52ffa9	0.82421356
99	0x403ddb56	2.9665122
100	0xbfab743e	-1.3394849
101	0xbfb5404a	-1.4160244
102	0x3fe661a5	1.7998549
103	0x3fad6b92	1.3548453
104	0x3f3fd06a	0.7492739
105	0x3ed5e7ae	0.4177832
106	0xbe145ac7	-0.14487754
107	0xbfa7d886	-1.3112953
108	0xbeae1575	-0.34000745
109	0xbf4b2f1c	-0.7936876
110	0xbf38392e	-0.7196225
111	0xc02dee9b	-2.7176883
112	0xc001aeee	-2.0263019
113	0x3f004d1c	0.5011766
114	0xc00e8e5f	-2.2274396
115	0xbed1d8b4	-0.40985644
116	0xc0190797	-2.3910882
117	0xbf96aa91	-1.1770803
118	0x3f59d821	0.8509541
119	0xbf0a9d1f	-0.54146
120	0xc04ea06c	-3.2285414
121	0xbf5fed58	-0.8747153
122	0xbf923c73	-1.1424698
123	0xbf85bf83	-1.044907
124	0x3e37e1fe	0.17957303
125	0xbfee60ef	-1.8623332
126	0xc01eec12	-2.4831586
127	0xc0382dc3	-2.877793
128	0xbf12ca44	-0.5733988
129	0xc041c0e1	-3.0273974
130	0xc05cec39	-3.451918
131	0xc015be7b	-2.339751
132	0x4065c270	3.5899925
133	0xc073cf8e	-3.8095431
134	0xbe93882a	-0.28814822
135	0x3ee03868	0.43793035
136	0xbfff7cae	-1.9959924
137	0x3d4b0673	0.049566697
138	0xc043468f	-3.0511816
139	0xbf5d2584	-0.8638537
140	0x3ffcde75	1.9755388
141	0xbf617596	-0.88070047
142	0xc026fb1e	-2.609077
143	0xbdad64ba	-0.08466478
144	0x3f539140	0.8264351
145	0xbf08e356	-0.5347189
146	0xbfb9d72e	-1.4518793
147	0xbe96d16c	-0.2945665
148	0xbf994901	-1.1975404
149	0xc052df05	-3.294862
150	0xbf94d97e	-1.1628873
151	0x3fc3af48	1.5287867
152	0xc02e48f9	-2.723204
153	0xc070e847	-3.764177
154	0xbefedfe9	-0.49780205
155	0x3fc507ab	1.5392965
156	0xbf8e2255	-1.1104227
157	0xc0096aff	-2.1471555
158	0x3e17a177	0.14807688
159	0xbfda0d7f	-1.7035369
160	0xbff504c1	-1.9142076
161	0x3f8aaf93	1.0834831
162	0xbfe6ea9b	-1.8040346
163	0xbe4ee7a2	-0.20205548
164	0xbffde5d0	-1.9835758
165	0xc0087d43	-2.1326454
166	0xc01405ed	-2.3128617
167	0x408bfea9	4.3748364
168	0xc01fb3ea	-2.495356
169	0xbfdc43ee	-1.720823
170	0x3fb4ade1	1.4115564
171	0xbf2689cb	-0.65054005
172	0xc02724b3	-2.611615
173	0xbf982538	-1.1886358
174	0xbe9036db	-0.2816685
175	0xc000ce80	-2.0126038
176	0xc01a1d63	-2.4080436
177	0xbfec2d8e	-1.8451402
178	0xbf616e7f	-0.8805923
179	0xbffebf5c	-1.9902148
180	0xbf193775	-0.59850246
181	0x3f3de753	0.741811
182	0xc01aa756	-2.4164634
183	0xbdb9f3ef	-0.0907973
184	0xbff4dab9	-1.9129249
185	0xbe3540a4	-0.1770044
186	0x4057cc39	3.3718398
187	0xbf8f3453	-1.1187843
188	0xc0010339	-2.0158217
189	0xc06f6cdf	-3.74102
190	0xbefa357f	-0.4886894
191	0xc0aece36	-5.462672
192	0x404ae4bb	3.1702106
193	0xbfa58581	-1.2931367
194	0xc0465839	-3.0991347
195	0xbe8aeb06	-0.27132434
196	0x3ca9157b	0.020640125
197	0xc0154d10	-2.3328285
198	0xc0106674	-2.2562532
199	0xbfef14a4	-1.8678174
200	0x3e953829	0.2914441
201	0xbf6ab9da	-0.91689837
202	0xc05cbb3e	-3.4489284
203	0x3f7b0686	0.9805683
204	0xbf2f6d85	-0.6852649
205	0xbfb8ff6f	-1.4452952
206	0xbfd17e7b	-1.6366724
207	0xc024648e	-2.5686374
208	0xbfa03aec	-1.2517982
209	0xbe3f7bfc	-0.1869964
210	0xc006f46e	-2.1086688
211	0x3e28a682	0.16469768
212	0x4015a20c	2.3380156
213	0xbee3480b	-0.44390902
214	0x3f67c2ed	0.9053181
215	0xc038c502	-2.8870244
216	0xc01b7bda	-2.4294343
217	0xbf8f8e42	-1.1215289
218	0xbd49667d	-0.049170006
219	0xbfb00019	-1.375003
220	0xbfc1f365	-1.5152403
221	0x3f10fff6	0.56640565
222	0xbfed581b	-1.8542513
223	0xbfe319ee	-1.7742288
224	0xbfcf3a3d	-1.6189648
225	0xc00134df	-2.018852
226	0xbf97a2fc	-1.1846614
227	0xbfdf09ee	-1.7424905
228	0xbfc6bc0d	-1.5526139
229	0xc0845008	-4.1347694
230	0xc0316cab	-2.7722576
231	0xbf04a475	-0.5181344
232	0xbfc86a7d	-1.5657498
233	0x3ef0dec4	0.47044957
234	0xbfe70702	-1.8049014
235	0xc03e4053	-2.972676
236	0xbfc5e602	-1.5460818
237	0xbf38b423	-0.72149867
238	0xc080e2b6	-4.0276747
239	0xc014eb0a	-2.3268456
240	0xbf3f8e56	-0.7482656
241	0x3fadadf3	1.356871
242	0xc033da7d	-2.8102105
243	0xbfda2e1e	-1.7045324
244	0x3f1f0f82	0.6213304
245	0xbf3d0a99	-0.73844296
246	0xbf9a4754	-1.2053018
247	0xbfe2fe7e	-1.7733915
248	0xc06f5494	-3.7395372
249	0xc02f593f	-2.7398221
250	0xbffcc14f	-1.9746493
251	0xbffed944	-1.9910054
252	0xc051596d	-3.271083
253	0xc0549d93	-3.3221176
254	0x4015b524	2.339181
255	0x3ecfd75d	0.40593997

fc2.weight f4 [256, 256]
0	0x3e07b1a4	0.13251358
1	0xbef0678c	-0.46954
2	0x3c05f422	0.008175882
3	0x3e8358a0	0.25653553
4	0xbeb555bc	-0.35416973
5	0xbb50ba08	-0.0031849165
6	0xbd03f380	-0.03221464
7	0xbf1cef12	-0.6130229
8	0xbe405f7b	-0.18786423
9	0xbf801f17	-1.0009488
10	0xbe41abb1	-0.18913151
11	0x3ea55399	0.32290342
12	0xbee0b4e2	-0.43888003
13	0x3d73bbce	0.059505276
14	0xbec6dcdc	-0.38840377
15	0xbefd7d0b	-0.49509463
16	0xbec60a94	-0.38679945
17	0xbecd36e8	-0.40080953
18	0xbe9fac15	-0.31185976
19	0xbed8b780	-0.423275
20	0xbe888e8a	-0.2667125
21	0xbdf8de1c	-0.12151739
22	0xbf14dfb2	-0.5815383
23	0xbef9c0ca	-0.487799
24	0xbbd554c9	-0.0065103513
25	0xbe8df9c9	-0.27729633
26	0xbe032579	-0.12807263
27	0xbf8880ec	-1.0664344
28	0xbc220109	-0.009887942
29	0xbe385fff	-0.1800537
30	0xbef5ef9b	-0.48034367
31	0xbf1708bf	-0.5899772
32	0xbf64e06a	-0.8940493
33	0xbf4d8ed7	-0.8029608
34	0x3d7b2923	0.061318528
35	0x3e031b14	0.12803298
36	0x3e2f30aa	0.17108408
37	0xbeda40e3	-0.4262763
38	0xbf22da22	-0.63614094
39	0xbf0d9deb	-0.5531909
40	0x3ebccbf7	0.36874363
41	0xbf49bfa6	-0.7880806
42	0x3e0c5f89	0.13708319
43	0x3dbdf89b	0.09275933
44	0xbe5e29ee	-0.21695682
45	0x3be4f971	0.0069877435
46	0xbeaff258	-0.3436458
47	0x3e1fce9d	0.1560616
48	0xbf4db37d	-0.80352
49	0xb8df85ad	-0.00010658368
50	0x3e5e3dab	0.21703212
51	0xbe39baa4	-0.18137604
52	0x3e9718f0	0.29511213
53	0xbe91005e	-0.28320593
54	0xbda56d74	-0.08077517
55	0xbc67b9e9	-0.0141434455
56	0xbe19af01	-0.15008165
57	0xbf19dc7a	-0.60102046
58	0xbeea0494	-0.45706618
59	0x3ec40b18	0.38289714
60	0xbe0a622a	-0.13514009
61	0xbf2bdcc5	-0.6713374
62	0xbdb080d0	-0.08618319
63	0xbde3144b	-0.11087855
64	0xbecf788c	-0.40521657
65	0xbecdf623	-0.4022685
66	0x3f2d10ad	0.6760357
67	0xbd97f3dd	-0.0741956
68	0xbdd63003	-0.10458376
69	0xbe8800e8	-0.2656319
70	0xbe92bf46	-0.28661555
71	0xbe24d299	-0.16095962
72	0xbf5ab1d4	-0.85427594
73	0xbf7766e7	-0.9664139
74	0x3f17c522	0.59285176
75	0x3e063b33	0.1310852
76	0xbc9fecd9	-0.019522117
77	0xbf0d04c2	-0.55085385
78	0xbf0a9b77	-0.5414347
79	0xbf23df0b	-0.6401221
80	0x3ede8067	0.43457338
81	0xbe8d4657	-0.27592728
82	0xbe846f43	-0.25866136
83	0xbd92706b	-0.07150348
84	0xbf23dc5a	-0.64008105
85	0xbd9b11df	-0.07571768
86	0x3f06af40	0.5261116
87	0x3d8150bb	0.06314226
88	0xbf0845b7	-0.53231376
89	0xbc57243e	-0.013131199
90	0x3e2d1d51	0.16905715
91	0x3ea7b7cb	0.3275741
92	0xbf3c85c5	-0.73641616
93	0xbf1a8bd7	-0.6036963
94	0x3f33460d	0.70028764
95	0x3e037c65	0.12840421
96	0x3e577ed2	0.21044472
97	0xbf540be8	-0.8283067
98	0x3dfac545	0.122446574
99	0xbdf8aef2	-0.12142743
100	0x3f099129	0.5373712
101	0x3df97225	0.121799745
102	0xbded7731	-0.115949996
103	0xbf00b6a4	-0.5027869
104	0xbe1ff977	-0.15622507
105	0xbee5f5bb	-0.4491404
106	0x3c639800	0.01389122
107	0xbe22bf4b	-0.15893285
108	0xbb3efabc	-0.0029141149
109	0xbe9cdb35	-0.30635992
110	0xbf18db89	-0.59709984
111	0xbd3e548d	-0.046467353
112	0xbd721a10	-0.059106886
113	0xbf51c11f	-0.81935304
114	0xbf1e8b0e	-0.6193093
115	0xbf0c8037	-0.5488314
116	0x3f0626e6	0.52403104
117	0x3cd0b021	0.02547461
118	0x3e1b4da5	0.15166338
119	0xbf733562	-0.9500333
120	0xbda3814b	-0.07983645
121	0xbde8fd69	-0.11376459
122	0xbf69bccb	-0.913037
123	0xbe97808b	-0.29590258
124	0xbf183ca4	-0.5946753
125	0x3e1da8eb	0.15396468
126	0xbe94ee40	-0.2908802
127	0xbe446f3d	-0.19183059
128	0xbe47b718	-0.19503438
129	0xbe0869a9	-0.13321556
130	0xbe170bee	-0.14750645
131	0xbf398651	-0.72470576
132	0xbf9661e2	-1.1748621
133	0xbc1dc7ff	-0.009630202
134	0x3e1d60aa	0.15368906
135	0xbdb68042	-0.08911182
136	0x3e4db04a	0.2008678
137	0xbeaafba8	-0.33395123
138	0x3f78ad2b	0.97139233
139	0x3c6cb4f9	0.014447444
140	0xbe54c3d6	-0.2077783
141	0xbea88a6b	-0.32918105
142	0xbd0ab7eb	-0.033866804
143	0x3ccbab93	0.024862086
144	0xbe88bee1	-0.2670813
145	0xbdda9d05	-0.1067448
146	0x3ea10dde	0.31455892
147	0xbe4884e7	-0.19581948
148	0x3b87ed58	0.0041481666
149	0xbe98e6f2	-0.29863697
150	0xbdd17510	-0.10227406
151	0x3ed136d7	0.40862152
152	0x3f44ae59	0.76828533
153	0xbe637c4c	-0.22215384
154	0x3df6e1e9	0.12054808
155	0xbf0b0f13	-0.54319876
156	0xbf186d79	-0.5954204
157	0xbaa42e2c	-0.0012525967
158	0xbf625b2a	-0.88420355
159	0xbdee8ca6	-0.1164792
160	0xbe4de400	-0.20106506
161	0xbcd19eeb	-0.025588473
162	0xbee9a671	-0.45634797
163	0xbe8886f0	-0.2666545
164	0x3c8e85b5	0.01739774
165	0xbd4a3f2c	-0.04937665
166	0xbe47f542	-0.19527152
167	0xbdd20ca4	-0.10256317
168	0xbdc83449	-0.097755976
169	0xbf030a9a	-0.5118805
170	0xbe31c84b	-0.17361562
171	0xbbb4331b	-0.0054992563
172	0x3ec08173	0.37598762
173	0xbdaa1ac5	-0.08305887
174	0xbe6ce50d	-0.23134251
175	0xbf350b42	-0.70720303
176	0xbebfee63	-0.37486562
177	0xbf123fcc	-0.57128596
178	0x3e36ae76	0.17839989
179	0xbf451f3c	-0.77000785
180	0xbe81350b	-0.2523578
181	0xbf797efb	-0.9745938
182	0x3d39bb4c	0.045344636
183	0xbf51cc73	-0.8195259
184	0x3ef2c73f	0.47417638
185	0xbef25426	-0.47329825
186	0x3e487936	0.19577488
187	0x3c00969f	0.007848411
188	0xbe03facf	-0.12888645
189	0xbe697c27	-0.22801267
190	0xbdd19dae	-0.10235153
191	0x3dff88a5	0.12477235
192	0xbe299e0e	-0.165642
193	0xbf0afab1	-0.54288775
194	0x3d5ef2c7	0.05443075
195	0xbf61c26c	-0.8818729
196	0xbeae97b2	-0.3410011
197	0xbf3a240f	-0.7271127
198	0x3d330864	0.043709174
199	0xbe44e194	-0.19226676
200	0xbec44281	-0.38331988
201	0x3de09101	0.10965157
202	0xbe811eed	-0.25218907
203	0x3cbf0457	0.0233175
204	0x3ba3e35a	0.0050014677
205	0xbd31e870	-0.04343456
206	0xbf403fb8	-0.7509723
207	0xbf1d66be	-0.614849
208	0x3e4b0c7c	0.19828981
209	0xbe253f70	-0.1613748
210	0x3f49e160	0.7885952
211	0xbdfcabe6	-0.123374745
212	0xbf662ec6	-0.8991512
213	0xbf6d302f	-0.9265165
214	0x3b17d961	0.002317034
215	0xbe8b9a22	-0.27266032
216	0xbd7c3505	-0.061574
217	0xbe653f2a	-0.22387376
218	0xbf401162	-0.75026524
219	0xbe904f6f	-0.28185603
220	0x3d41f58f	0.047353324
221	0x3f3bb65e	0.73325145
222	0xbfb12996	-1.3840816
223	0x3e1980ad	0.14990492
224	0xbf516401	-0.8179322
225	0xbd14da46	-0.036340974
226	0xbf169872	-0.58826363
227	0x3ec5f1bf	0.38661
228	0x3e26a623	0.16274314
229	0x3f252a7a	0.6451794
230	0xbea31085	-0.3184854
231	0xbdd1120c	-0.1020852
232	0x3effc04f	0.49951407
233	0xbd64a9e4	-0.055826083
234	0xbb693838	-0.0035586488
235	0xbe81a238	-0.25319076
236	0x3d84f4a0	0.06491971
237	0xbea27638	-0.3173082
238	0xbe8835c4	-0.2660352
239	0xbf128239	-0.57229954
240	0x3e74f09c	0.2391991
241	0xbf23db87	-0.6400685
242	0x3d8b269f	0.06794476
243	0xbe2107fe	-0.15725705
244	0xbee91b33	-0.45528564
245	0xbecd804f	-0.40136954
246	0xbf013721	-0.50474745
247	0x3e55b2a4	0.20868927
248	0xbc997cfe	-0.018736359
249	0xbee10641	-0.43950084
250	0x3ddc5427	0.10758238
251	0xbe8f737b	-0.28017792
252	0x3e3fbec3	0.18725114
253	0x3c052129	0.008125582
254	0xbb1b06ac	-0.00236551
255	0x3da58eb7	0.08083861

fc2.bias f4 [256]
0	0xbf17a79d	-0.5924013
1	0xbd7c5310	-0.061602652
2	0x3f2d0696	0.67588174
3	0xbfc69557	-1.5514325
4	0x3ff22438	1.8917303
5	0xbdc26eb5	-0.09493772
6	0xbd3f0987	-0.046639945
7	0xbec131c5	-0.37733284
8	0x3f125109	0.571549
9	0xbe86f8a4	-0.26361573
10	0xbd90a4be	-0.07062672
11	0xbcebfa29	-0.02880581
12	0xbd3598d3	-0.044335198
13	0x3d95bfd7	0.07311981
14	0x3fda7222	1.706608
15	0xbd5eaa72	-0.054361768
16	0xbd372a84	-0.04471828
17	0xbbb40fef	-0.0054950635
18	0xbf9ff4e8	-1.2496614
19	0xbca126f5	-0.019671896
20	0xbe8b06b3	-0.2715355
21	0x3f3ba9d2	0.73306
22	0xc00b60a3	-2.1777732
23	0xbb397a72	-0.0028301743
24	0xc02e3ba3	-2.72239
25	0xbf9b91c3	-1.2153858
26	0x3fc02baf	1.5013331
27	0xbdd28a88	-0.10280329
28	0xbe0276ef	-0.12740682
29	0x3c75c0c6	0.014999574
30	0xc01769ef	-2.3658407
31	0x3f27dc3c	0.65570426
32	0x3ddde821	0.10835291
33	0xbfb5693c	-1.417274
34	0xbdea9f83	-0.11456206
35	0xbb710986	-0.0036779358
36	0xbf05679e	-0.5211123
37	0x3e005dc3	0.12535767
38	0xbf53e28d	-0.82767564
39	0xbd95594b	-0.07292422
40	0xbfc1c4d3	-1.5138191
41	0xbab187f3	-0.0013544544
42	0xbd498aab	-0.04920451
43	0xc02792f9	-2.6183455
44	0xbf00ad84	-0.50264764
45	0xbd9b0fbb	-0.0757136
46	0xbdbec213	-0.093143605
47	0xbeb34cf5	-0.3501965
48	0xbf472499	-0.7779022
49	0xbded29d7	-0.11580246
50	0xbf777295	-0.96659213
51	0x3df716a1	0.12064863
52	0xc011ffb6	-2.2812324
53	0x3f91ba4a	1.1384976
54	0xbf417dbe	-0.7558249
55	0xc04c56fa	-3.1928086
56	0xbf9d0ab1	-1.2268888
57	0xc00c9184	-2.1963816
58	0x3ea2973d	0.3175601
59	0x3ed26770	0.41094542
60	0xbd94bcae	-0.0726255
61	0x3e4891cb	0.19586866
62	0xc00dce66	-2.2157226
63	0xbf90cb79	-1.1312095
64	0xc06b6d89	-3.6785605
65	0xbf26b2f1	-0.6511679
66	0x3eb40ead	0.35167447
67	0x3fe6402d	1.7988335
68	0x3f04a3a2	0.51812184
69	0xbd59f339	-0.05321047
70	0xbe812c3c	-0.2522906
71	0x3f18c641	0.5967751
72	0xc05b1eda	-3.423758
73	0xbfce0a34	-1.6096864
74	0x3fcbf937	1.5935429
75	0x3bc6fefa	0.006072876
76	0xbf89092b	-1.0705923
77	0xc00a768a	-2.163485
78	0xbfb84d97	-1.4398679
79	0xc0573a97	-3.362951
80	0xc02c9de7	-2.6971376
81	0xbc9e5d59	-0.019331621
82	0x3f11c5c1	0.56942374
83	0xbf53be82	-0.82712567
84	0xc0477b24	-3.116891
85	0xbd91853a	-0.07105489
86	0xbda9b3bb	-0.08286234
87	0x3fbba735	1.4660403
88	0xbd90ac0f	-0.070640676
89	0xbdc0c2c0	-0.094121456
90	0xbfc03015	-1.5014673
91	0xbd639efe	-0.05557155
92	0xbe065cdd	-0.13121362
93	0xbf79bbc3	-0.97552127
94	0x3f5d18eb	0.86366147
95	0xbfc5ec9c	-1.5462832
96	0xbf84a39a	-1.0362427
97	0xbd88a2fa	-0.0667171
98	0xbef63f71	-0.48095277
99	0xbf4ba047	-0.7954144
100	0xbf54bf96	-0.83104837
101	0xc0255f47	-2.5839403
102	0x3eddb224	0.43299973
103	0xbe1efa30	-0.15525126
104	0xbf372502	-0.71540844
105	0xbd56b54e	-0.052419
106	0xbfdc3ba6	-1.7205703
107	0x3e67dde4	0.22643238
108	0x3fb66e5f	1.4252433
109	0x3f72f993	0.9491207
110	0xbe09a2a2	-0.13440946
111	0xbf2fbc95	-0.6864713
112	0xc074ee2c	-3.8270369
113	0xbccf1110	-0.02527669
114	0x3ebedf6f	0.3727984
115	0xbfeec11d	-1.8652683
116	0xbebc3abf	-0.3676357
117	0xbfcec6af	-1.6154383
118	0xc00070b4	-2.0068789
119	0xbdaade8d	-0.083432294
120	0xc012cde3	-2.2938163
121	0xc01c67c8	-2.4438343
122	0xc0188caf	-2.3835866
123	0xbf552b91	-0.832696
124	0x3b631230	0.0034648292
125	0xc01815c8	-2.3763294
126	0x3e2a4d79	0.16631116
127	0xbcdea7d8	-0.027179644
128	0xbda05aa5	-0.07829789
129	0xbf23d937	-0.6400332
130	0xbcf04ffe	-0.029335018
131	0xbefe7980	-0.49702072
132	0xbfb52839	-1.41529
133	0xbd53ceac	-0.05171077
134	0xc033c449	-2.8088553
135	0x3e5b1209	0.21393599
136	0xbfbe74b8	-1.487937
137	0xbe1669ce	-0.14688799
138	0xc02683ae	-2.601787
139	0xc032f23b	-2.7960346
140	0xbff9bd42	-1.9510882
141	0xbdf8eb9d	-0.12154315
142	0xbfe40688	-1.7814493
143	0x3f9f2caa	1.2435505
144	0x3f09dff5	0.53857356
145	0xbdaf5d3f	-0.08562707
146	0xbfebf96c	-1.8435493
147	0x3d5ec677	0.05438849
148	0xbbdf4e07	-0.0068147215
149	0xc00517e9	-2.0795844
150	0xc01a42bf	-2.4103239
151	0x3f77a4ca	0.96735823
152	0x3f505241	0.8137551
153	0xc013e7e3	-2.3110282
154	0xbfa4cb52	-1.2874548
155	0xbf392037	-0.7231478
156	0x4011ec35	2.280042
157	0xbffdda9b	-1.9832338
158	0xbfcb19ee	-1.5867288
159	0xbe05691a	-0.13028374
160	0xbf0f864b	-0.5606429
161	0xbfc60158	-1.546916
162	0xbf89203b	-1.0712961
163	0xbfa75c50	-1.3075047
164	0x3ea52387	0.32253668
165	0x3f5517c0	0.83239365
166	0xbf887c52	-1.066294
167	0xc08f9991	-4.487496
168	0xbfe67d08	-1.8006907
169	0xbf13b9af	-0.57705206
170	0x3f15e641	0.58554465
171	0xbc1f9f7e	-0.009742616
172	0xbf6156f8	-0.8802333
173	0xbf61d318	-0.8821273
174	0xbdab36ac	-0.08360037
175	0xbdd01252	-0.10159744
176	0x3d5bf90c	0.053704306
177	0xbdeebe64	-0.11657408
178	0xbf1a4311	-0.60258585
179	0xbd3680e4	-0.044556513
180	0x3e8ae2b0	0.27126074
181	0x3f11b542	0.569172
182	0xbfc528e8	-1.5403109
183	0xbb3081cd	-0.0026932836
184	0xbdaa8b6b	-0.08327373
185	0xc0123ba0	-2.2848892
186	0xbf6b5ca6	-0.91938245
187	0x3dd7c210	0.10535061
188	0x3c704e4e	0.014667107
189	0x3f9c7375	1.2222735
190	0xbfd43b14	-1.6580529
191	0x3c686a83	0.014185551
192	0xbf5722f7	-0.8403773
193	0xbdb38f1d	-0.08767531
194	0xbfe7d198	-1.8110838
195	0xbff7369c	-1.931354
196	0xbf619129	-0.8811212
197	0xbfaff6ce	-1.3747194
198	0xbe56972d	-0.20956106
199	0xbdcf5e12	-0.10125364
200	0x3db0582d	0.08610568
201	0xbe71b44e	-0.23603937
202	0xc00ba02e	-2.1816516
203	0xbd4250d4	-0.047440365
204	0x3f6fd560	0.9368496
205	0x3f0ee719	0.5582138
206	0x3d9ef166	0.07760887
207	0xc0106e5d	-2.256736
208	0xbd96dce0	-0.07366347
209	0xbf7d6578	-0.98982954
210	0x3b017c70	0.0019758008
211	0xbdc14d88	-0.09438616
212	0xbe4dd843	-0.20102029
213	0xbf9771cb	-1.1831602
214	0xc0351c32	-2.829846
215	0xc009d21b	-2.1534488
216	0xbc8e7b05	-0.017392645
217	0x3e86d03e	0.2633075
218	0xbd28528b	-0.041094344
219	0x3fd853b0	1.6900539
220	0xc05a49ad	-3.4107468
221	0x3ed1e61b	0.4099587
222	0xbf851ff2	-1.0400374
223	0xbf4a58cb	-0.7904174
224	0x3f888910	1.0666828
225	0xbe174847	-0.14773665
226	0xbc929125	-0.017891476
227	0xc0b3e1fb	-5.6213355
228	0xbd68484b	-0.05670957
229	0x3d790cf1	0.060803358
230	0xc04aa7a5	-3.1664822
231	0xbf8f1a93	-1.1179985
232	0xbd11aec5	-0.035567064
233	0xc069ae91	-3.6512797
234	0xbf6602d8	-0.8984809
235	0xc04bcf61	-3.1845324
236	0xbed6a9c6	-0.41926402
237	0xc06016db	-3.501395
238	0xc04333a2	-3.0500264
239	0xc02d7684	-2.7103586
240	0xbe649ac1	-0.22324659
241	0xbf5ef343	-0.8708994
242	0xbf1a444b	-0.60260457
243	0xbffb78cc	-1.9646239
244	0xbf1b65e9	-0.6070238
245	0xbc4d5913	-0.012533444
246	0x3e630fcf	0.22173999
247	0xbfcea3d5	-1.6143748
248	0xc0544973	-3.316983
249	0xbf8fb94d	-1.1228424
250	0xbf3e2f2b	-0.7429072
251	0xbd96be5a	-0.073605254
252	0x3f161e6c	0.5864017
253	0xbfea0ada	-1.8284562
254	0xc05258ac	-3.286662
255	0xc004f770	-2.0776024

mu.weight f4 [4, 256]
0	0x3d859973	0.06523409
1	0x3d159849	0.036522184
2	0x3d49d099	0.0492712
3	0xbe98829a	-0.2978714
4	0xbcfaebbd	-0.030629987
5	0x3d871733	0.06596222
6	0x3d7bb22f	0.061449226
7	0xbe2f6ad0	-0.1713059
8	0x3dcf2e58	0.10116261
9	0xbd2ef0dc	-0.04271017
10	0x3cf41860	0.02979678
11	0xbda20c83	-0.07912543
12	0x3c26bad2	0.010176377
13	0xbd9ce3f6	-0.076606676
14	0x3e831426	0.2560131
15	0xbd3a3163	-0.045457255
16	0xbbb82521	-0.0056196605
17	0xbdc08586	-0.094004676
18	0xbf9aaed2	-1.2084601
19	0x3c68f1de	0.014217822
20	0xbf0360ce	-0.5131959
21	0x3d5a834d	0.053347874
22	0xbd747caf	-0.05968922
23	0xbd47c686	-0.04877331
24	0xbf838038	-1.0273504
25	0x3b8b0173	0.004242116
26	0x3e20031f	0.1562619
27	0xbb560541	-0.003265694
28	0xbb41f235	-0.002959383
29	0x3d3e7576	0.04649874
30	0xbf078668	-0.5293946
31	0x3c7daa5e	0.015482513
32	0x3e145834	0.14486772
33	0x3b326f18	0.0027226862
34	0x3e462742	0.19350913
35	0xbd44bf6a	-0.04803411
36	0x3da7599f	0.08171391
37	0xbd6a48d1	-0.05719835
38	0xbce53fb2	-0.027984474
39	0xbd554f35	-0.05207749
40	0xbc6cbce0	-0.014449328
41	0xbd2cd5cc	-0.04219608
42	0x3ca2e439	0.019884216
43	0xbed4770f	-0.41497084
44	0x3c8de37a	0.017320383
45	0x3ce6f9e6	0.028195333
46	0x3c609352	0.013706999
47	0xbd085889	-0.03328756
48	0x3ec8fa0f	0.3925328
49	0xbbaccdaf	-0.005273543
50	0xbeab452e	-0.33451217
51	0x3e5a6031	0.21325757
52	0xbf4eab73	-0.8073036
53	0xbda52542	-0.08063747
54	0xbe82cda9	-0.2554753
55	0xbef74aa9	-0.4829915
56	0xbf82da27	-1.0222825
57	0x3cc5fca4	0.02416832
58	0x3f0b9bd7	0.5453467
59	0x3d6671c7	0.05626085
60	0x3daef2f6	0.08542435
61	0xbdd2ca25	-0.10292462
62	0xbf642faa	-0.8913523
63	0x3db82899	0.089921184
64	0xbfe34053	-1.7754005
65	0x3dd305fa	0.10303874
66	0x3d424ec0	0.047438383
67	0x3de35a60	0.11101222
68	0x3a691fb3	0.0008892968
69	0x3bd93231	0.0066282977
70	0xbe72e232	-0.23719099
71	0x3bc67ce4	0.0060573686
72	0xbe84c7b7	-0.2593362
73	0xbe26f304	-0.1630364
74	0xbe9a25ae	-0.30106872
75	0xbdb26b5f	-0.08711886
76	0xbf7e0bce	-0.9923676
77	0x3f087529	0.5330377
78	0x3f36a974	0.71352315
79	0xbdec8d11	-0.11550344
80	0xbf123a93	-0.5712063
81	0xbd4271ee	-0.047471933
82	0x3d42350b	0.047413867
83	0x3e6f725a	0.23383465
84	0xbf7dac76	-0.9909128
85	0x3d92633d	0.071478345
86	0xbd216c1e	-0.03940975
87	0xbe2805c9	-0.16408457
88	0x3db70eb4	0.08938351
89	0x3d32b5c8	0.04363039
90	0x3e619be7	0.22032128
91	0x3d5e0a50	0.054209054
92	0x3d25f89a	0.040520288
93	0xbe125f4f	-0.1429417
94	0x3edf7e18	0.4365089
95	0xbe1c7029	-0.1527716
96	0x3ef1b2ee	0.47206825
97	0x3d11df67	0.035613444
98	0x3db7246d	0.089424945
99	0x3ef11a53	0.47090396
100	0xbe14fc3e	-0.14549348
101	0xbe4e6058	-0.2015394
102	0x3e19605b	0.14978163
103	0x3c974b8e	0.018468644
104	0xbd3061ba	-0.04306195
105	0xbbfc4739	-0.00769892
106	0xbd3f7251	-0.04673988
107	0xbd1e0757	-0.03858122
108	0x3de3529e	0.11099742
109	0x3e6aa25d	0.22913499
110	0xbcdbdd9b	-0.026839068
111	0x3e660adf	0.22465084
112	0xbf501a6b	-0.8129031
113	0x3c1864ec	0.009301405
114	0xbd261786	-0.040549777
115	0xbe127516	-0.14302477
116	0x3cfdae31	0.03096685
117	0xbe2f360f	-0.17110465
118	0xbec55969	-0.38544777
119	0xbd5d2c1e	-0.05399715
120	0x3dee58de	0.11638044
121	0xbeeb747b	-0.45987305
122	0xbf4dfc27	-0.8046288
123	0xbe4460d3	-0.1917756
124	0x3ebddceb	0.3708261
125	0x3e86bbb2	0.26315075
126	0xbe183442	-0.14863685
127	0x3c279572	0.010228502
128	0x3c097741	0.008390249
129	0x3ea8f492	0.32999092
130	0xbc3ec3a8	-0.011643328
131	0xbf03b7c5	-0.51452285
132	0x3d8eaf91	0.069670804
133	0xbc93e05d	-0.01805132
134	0x3905c476	0.00012757056
135	0xbdd27473	-0.10276117
136	0x3de86fbf	0.11349439
137	0xbcb95299	-0.022622393
138	0xbebba9d5	-0.3665301
139	0xbd17e86b	-0.037086885
140	0x3f6d66d4	0.9273503
141	0xbbc74e58	-0.0060823373
142	0xbbdc2364	-0.006718086
143	0x3f1c96a3	0.61167353
144	0xbc209f1f	-0.009803562
145	0x3f2a3267	0.6648316
146	0xbe3e2988	-0.1857053
147	0x3c5d9e5d	0.013526526
148	0x3c1bf9e6	0.00952003
149	0x3ebbaf25	0.36657062
150	0xbe6cb3e8	-0.23115504
151	0x3e753ee3	0.2394977
152	0xbed83227	-0.42225763
153	0xbe39fa4a	-0.18161884
154	0x3f87df94	1.0615106
155	0x3f246a3b	0.64224595
156	0xbce43bbd	-0.027860517
157	0x3c99f532	0.018793676
158	0xbeb54386	-0.3540308
159	0xbe814826	-0.25250357
160	0x3f1afd8d	0.6054314
161	0x3eb80186	0.35938662
162	0xbd6b3da6	-0.05743184
163	0xbd287d21	-0.041134957
164	0x3b267fd5	0.0025405784
165	0x3e83d9c7	0.25752088
166	0x3de8688c	0.11348066
167	0xbf5fb943	-0.8739206
168	0xbe466032	-0.19372633
169	0xbe557a90	-0.20847535
170	0x3f494a73	0.78629225
171	0x3cc16149	0.02360596
172	0xbe2f3bd9	-0.17112674
173	0xbe325621	-0.17415668
174	0x3d0c966e	0.03432315
175	0x3ca95e8b	0.020674964
176	0x3f12bc6c	0.5731876
177	0x3dd1ba78	0.10240644
178	0xbd9ed243	-0.07754948
179	0x3d490fa8	0.049087197
180	0xbd83a5f5	-0.06428138
181	0x3ec2e682	0.38066489
182	0x3e6cc9d2	0.23123863
183	0x3d3cbf6c	0.04608099
184	0x3d6af610	0.05736357
185	0xbfad5173	-1.3540481
186	0x3dec19f4	0.11528388
187	0x3de97493	0.11399188
188	0x3d8772d3	0.06613698
189	0x40239ed5	2.5565693
190	0x3d9e65c8	0.07734257
191	0x3ceb0b83	0.028692013
192	0xbd8e7afd	-0.06957052
193	0x3ba2fcc2	0.0049739787
194	0x3d80ec90	0.06295121
195	0x3e2df04b	0.16986196
196	0xbe175924	-0.14780098
197	0xbf359ae1	-0.7093945
198	0xbe9f3c69	-0.31100777
199	0x3cf90fcc	0.03040304
200	0xbe959ca2	-0.29221064
201	0x3d927002	0.0715027
202	0xbea7ac73	-0.32748756
203	0xbd88b25a	-0.06674643
204	0xbc54ef82	-0.012996556
205	0x3d8dc052	0.06921448
206	0x3f51a889	0.8189779
207	0xbe80c210	-0.25148058
208	0x3c4ff4cb	0.012692641
209	0x3dd78ad7	0.105245285
210	0xbccf4397	-0.025300784
211	0x3c224261	0.009903521
212	0xbece7cad	-0.40329495
213	0xbd256d7b	-0.04038761
214	0xbed30e6f	-0.4122195
215	0xbf61d9b9	-0.88222843
216	0xbd6870d5	-0.05674823
217	0x3ca0cd4a	0.01962914
218	0xbe396748	-0.18105805
219	0xbc269cb2	-0.010169195
220	0xbf61375a	-0.87975085
221	0xbd8cbb84	-0.06871703
222	0xbc8481e7	-0.016175224
223	0xbed10b7d	-0.40829077
224	0xbe9255ad	-0.2858099
225	0x3caa78c8	0.020809546
226	0x3c1584f3	0.009125936
227	0xbefcb809	-0.49359158
228	0xbbc4bb7e	-0.006003796
229	0x3d3b0275	0.04565664
230	0xbf477853	-0.77917975
231	0x3f10089e	0.5626315
232	0xbd4b3296	-0.04960879
233	0xbe977564	-0.2958175
234	0x3ca525b2	0.020159576
235	0xbfa8508d	-1.3149582
236	0xbc80581f	-0.01566702
237	0xbe94bbfa	-0.29049665
238	0xbf106c0c	-0.56414866
239	0xbeb6bf37	-0.3569276
240	0x3bba9714	0.0056942794
241	0x3ee2d7b4	0.44305193
242	0x3caa5d5e	0.020796474
243	0x3c2ecb63	0.010668608
244	0x3f1e49bd	0.61831266
245	0x3e4a4f88	0.19756901
246	0x3eb2a3b1	0.34890512
247	0x3ce6d0f8	0.028175816
248	0x3e42d684	0.19027144
249	0x3f8bcc68	1.0921755
250	0xbd5404fb	-0.051762562
251	0x3c7f1984	0.015570048
252	0x3eacb972	0.33735234
253	0x3ec90be4	0.39266884
254	0xbf67823b	-0.9043309
255	0xbe16d193	-0.14728384

mu.bias f4 [4]
0	0x400db7d4	2.214345
1	0x3dc64814	0.096817166
2	0xbf898674	-1.0744157
3	0x3e6159c5	0.220069
