TD3/models/hockey_best_agent/02000000/critic_1.pth (torch, 289951 bytes, 5 tensors)

fc1.weight f4 [256, 22]
0	0xc198650d	-19.049341
1	0x421ebf9d	39.687122
2	0x418a539a	17.290821
3	0xc12fcdcd	-10.987744
4	0x3fa19451	1.2623388
5	0x3ee6c53a	0.45072347
6	0x426a8c5f	58.63708
7	0x41fabefa	31.34325
8	0x41da2695	27.268839
9	0xc0c97a35	-6.296168
10	0x409a099a	4.813672
11	0x40469b7e	3.1032405
12	0x4168d2b2	14.551439
13	0xc13f4781	-11.954957
14	0x410f239f	8.946197
15	0xbfe545ec	-1.7911963
16	0xc050efca	-3.2646356
17	0x41c566e5	24.675241
18	0xc2372ee7	-45.795803
19	0x419ef112	19.86771
20	0x414926b0	12.571945
21	0xc0871531	-4.221337
22	0x418f93fe	17.947262
23	0x4149ecba	12.620295
24	0xc124bb79	-10.29577
25	0x3eda831f	0.42678162
26	0x3f01e2c4	0.5073664
27	0x3f41fe74	0.7577889
28	0x4185ab95	16.70878
29	0xc2520283	-52.502453
30	0xc1f62353	-30.767248
31	0x412ee767	10.931495
32	0xc0a2e073	-5.0898986
33	0xc036016e	-2.8438373
34	0xc10e3917	-8.888938
35	0xc23c147c	-47.020004
36	0xbe223ef7	-0.15844332
37	0xc21fcd84	-39.9507
38	0xbe262846	-0.162263
39	0xc2730a0d	-60.759815
40	0x418389ac	16.442223
41	0x3f3084af	0.6895246
42	0x40c733a7	6.225055
43	0xc16d89ae	-14.846113
44	0x41bf6377	23.923567
45	0xc23c3b0d	-47.057667
46	0x43480a69	200.04066
47	0x3fa5450e	1.2911699
48	0x4039e1f3	2.9044158
49	0xbf3f382b	-0.7469508
50	0xc15e8f25	-13.909947
51	0x41f96bea	31.177692
52	0xc1b7d09e	-22.976864
53	0x4006a4a7	2.1037996
54	0x4023e371	2.560757
55	0x40103b63	2.2536247
56	0xc0874c13	-4.2280364
57	0x421245eb	36.56828
58	0x3f1b50a4	0.6066992
59	0xbdcf631f	-0.10126328
60	0xbf744d6d	-0.9543064
61	0xbf245da0	-0.6420536
62	0x4163f36e	14.246931
63	0xc034c9c8	-2.8248158
64	0x401ca2e3	2.4474418
65	0xc0923ffd	-4.570311
66	0xc1df6e6e	-27.92892
67	0x421823a6	38.034813
68	0xc0c12338	-6.035549
69	0x41064b30	8.393356
70	0x40839d40	4.1129456
71	0xc052aac4	-3.2916727
72	0x4227df59	41.968113
73	0x3f92dd5d	1.1473805
74	0x419d0815	19.628946
75	0xc0876c8e	-4.2320013
76	0x41e3404e	28.406399
77	0xc0871602	-4.2214365
78	0xc1e687ca	-28.816303
79	0x418bb803	17.46485
80	0xc01394b8	-2.305952
81	0x4010b21f	2.2608716
82	0xc181e3f3	-16.236303
83	0x40833c17	4.101085
84	0x4094a626	4.645282
85	0x3ff7de24	1.9364667
86	0xc040f7ff	-3.0151365
87	0xc1bf586a	-23.91817
88	0xc1a059f4	-20.043922
89	0x42160b79	37.511204
90	0x418eab03	17.833502
91	0x3e7c133f	0.24616717
92	0x40badb29	5.839253
93	0xc08a7e90	-4.3279495
94	0xc0925259	-4.572552
95	0x428f4614	71.63687
96	0x42378417	45.878994
97	0xc0ef086a	-7.469777
98	0x40c6f892	6.217843
99	0xbfbc8249	-1.472726
100	0x3e8be36b	0.27321944
101	0x4245fc8b	49.496624
102	0x400f6a9f	2.2408826
103	0x417c56a8	15.771156
104	0xc14a90a3	-12.660312
105	0x41b5f017	22.742231
106	0xc1361039	-11.378961
107	0x412eb5ba	10.919367
108	0xc0b881be	-5.7658377
109	0x4134043d	11.251035
110	0xbfe89909	-1.8171703
111	0x421ed43d	39.707264
112	0x414fdc4b	12.991282
113	0x3f745aa7	0.95450824
114	0x40973ca2	4.7261515
115	0x40102b7d	2.2526543
116	0xc0eee1df	-7.465072
117	0xc229371e	-42.303825
118	0xc17ac9c5	-15.67426
119	0xc14a0723	-12.626742
120	0xc14440de	-12.265837
121	0x40d216c0	6.565277
122	0xc2046c14	-33.105545
123	0x4157bfed	13.484357
124	0xbf2336f4	-0.63755727
125	0x41c0b6b7	24.089216
126	0x410220ce	8.133009
127	0x4119f160	9.621429
128	0xc018e316	-2.3888602
129	0x40e4af76	7.1464186
130	0xbf37f0b3	-0.7185165
131	0xc03f5284	-2.9894114
132	0xc19a44a1	-19.28351
133	0xc0592d8e	-3.3934054
134	0x413ea5b5	11.915456
135	0xbe9b3726	-0.30315512
136	0xbd36ec31	-0.044658843
137	0x3d889003	0.06668093
138	0x41eb23c7	29.39247
139	0x426ed870	59.711365
140	0x42460a57	49.510098
141	0xbec097ba	-0.37615758
142	0xc0d31e03	-6.5974135
143	0xc0065e06	-2.0994887
144	0xc184d41b	-16.603567
145	0xc2bf9eee	-95.81041
146	0x3f85c19a	1.0449708
147	0xc011768c	-2.2728605
148	0xc13f1025	-11.941442
149	0xc110dd3d	-9.054013
150	0x409b0863	4.844774
151	0xc08ca8ae	-4.395591
152	0xc0136271	-2.3028834
153	0x40db3d89	6.8512616
154	0x409b5f6a	4.855397
155	0xc2265c67	-41.590237
156	0x41a3b3c2	20.462772
157	0x40171cd3	2.3611343
158	0xc0e9b611	-7.303475
159	0x3d971589	0.073771544
160	0xc1077a5f	-8.467376
161	0x42b7fcc3	91.993675
162	0x41f4a0a3	30.578436
163	0xbfe27a37	-1.7693547
164	0x420229f1	32.54096
165	0xc0f5cfee	-7.681632
166	0xc0dd5c49	-6.9175153
167	0x43020b53	130.04424
168	0xbff10c2c	-1.883184
169	0x41adc26f	21.719938
170	0xc2e53096	-114.594894
171	0xc2780af1	-62.010685
172	0xc103640f	-8.211928
173	0x3d1ea6ef	0.03873342
174	0xc024c693	-2.57462
175	0x41efb4d8	29.963303
176	0x41b4aa64	22.583199
177	0x42440847	49.008083
178	0x423081e8	44.12686
179	0xc08df023	-4.4355636
180	0x41489d6e	12.538435
181	0x4087d974	4.2452946
182	0x3fae7aa9	1.3631183
183	0x42d69c2c	107.30502
184	0xc2585acf	-54.08868
185	0xc0b0dc39	-5.5268826
186	0x410f892a	8.970987
187	0x411ddd17	9.866477
188	0xc1d9b50a	-27.213398
189	0x4306a33d	134.63765
190	0x40ca1609	6.31519
191	0x40c52a76	6.161433
192	0xc2a3cc39	-81.89887
193	0x41c37451	24.431795
194	0xc156ff09	-13.437264
195	0x407c9a6c	3.9469252
196	0xc099126e	-4.7834997
197	0x41647913	14.279559
198	0x3f568a79	0.8380504
199	0xc1b7b307	-22.962416
200	0xc0efd07e	-7.4942007
201	0x403e8cd7	2.9773462
202	0xc0041966	-2.0640502
203	0xbfbc6039	-1.4716865
204	0xc16c7b82	-14.780153
205	0x417328b0	15.197433
206	0xc27b1e3c	-62.779526
207	0xbe6e7af0	-0.23289084
208	0x42207819	40.117283
209	0x410ef1ec	8.934063
210	0xc127b237	-10.4810095
211	0x43162359	150.13808
212	0xbfb0eab5	-1.3821627
213	0x4105f0fb	8.371333
214	0xc19e424b	-19.78237
215	0x41ba47d9	23.285082
216	0xc07225a8	-3.7835484
217	0xc0e5ec74	-7.185114
218	0xc002e4d9	-2.0452178
219	0x40c70027	6.2187686
220	0xc156f43f	-13.43463
221	0xc0afa0c8	-5.4883766
222	0xc10ae928	-8.681923
223	0xc0154d66	-2.332849
224	0xbfcfdc85	-1.6239172
225	0xbf3e32d3	-0.742963
226	0x41b49f6c	22.577843
227	0x4290da30	72.42615
228	0x428e2d9e	71.089096
229	0xbeef41e1	-0.4672995
230	0xc1c784b3	-24.939795
231	0x3f273245	0.6531108
232	0xc10cb0fa	-8.793207
233	0xc2c8722c	-100.22299
234	0x3fb3872f	1.402563
235	0xbfdcc6fc	-1.7248225
236	0xbf9b2379	-1.21202
237	0xc081721d	-4.04518
238	0x400ac4cf	2.1682622
239	0xc0101ebf	-2.2518766
240	0xc00a13ca	-2.1574578
241	0x3ff8355d	1.9391285
242	0x42b15c46	88.68022
243	0xc20a9209	-34.642612
244	0x419a0432	19.252048
245	0x4047f0e6	3.1240783
246	0x40a68eb9	5.204922
247	0xc16259b0	-14.146896
248	0xc043afbe	-3.0576015
249	0x4164a302	14.289797
250	0x3fdc744e	1.7222993
251	0xc1852fe2	-16.64838
252	0x41edb7d7	29.714766
253	0x41874b70	16.911835
254	0x42c2430d	97.13096
255	0xc184d225	-16.60261

fc1.bias f4 [256]
0	0x428ebcf8	71.36908
1	0x3da89aef	0.08232676
2	0x409cb208	4.8967323
3	0xc1b0d145	-22.102182
4	0xc104bb22	-8.295687
5	0x424e2da7	51.544582
6	0x416a791c	14.654568
7	0xc1865d54	-16.79557
8	0xc155a84f	-13.353591
9	0xc225f253	-41.486645
10	0x41348899	11.283349
11	0x41eb17ac	29.386559
12	0x4112e0db	9.179896
13	0xc0dc0650	-6.8757706
14	0xc1882d3c	-17.022087
15	0x42301323	44.01869
16	0xc1dc3338	-27.52501
17	0xc172223b	-15.133357
18	0xc1412fb0	-12.074142
19	0xc1480bed	-12.502912
20	0x404af6ba	3.171309
21	0xbdcb37cf	-0.09922754
22	0xbfcc58fd	-1.5964657
23	0xc2059ad3	-33.401196
24	0x413d9ac2	11.850283
25	0x413a071e	11.626738
26	0xc1ab163c	-21.385857
27	0x4277ca40	61.94751
28	0xc2168ae3	-37.63563
29	0x410fba92	8.983049
30	0x41843474	16.525612
31	0x418b2574	17.393288
32	0x402431c2	2.565537
33	0x4086f788	4.217716
34	0xc13ef74c	-11.935375
35	0x416d96e5	14.8493395
36	0xc176c704	-15.423588
37	0x42678434	57.879105
38	0xc01071a6	-2.2569366
39	0xc236a2cb	-45.658978
40	0xc0d80c80	-6.751526
41	0xc1b35680	-22.417236
42	0xc1f9882b	-31.191488
43	0x42a0c6e1	80.388435
44	0x3fdba5b9	1.715995
45	0xbeaae1ed	-0.33375493
46	0xc217bc72	-37.93403
47	0xc1b530d1	-22.648836
48	0x420d3b26	35.307762
49	0x4297b9e7	75.86309
50	0x42c93edd	100.62278
51	0x42ebdb42	117.92824
52	0x429f2d55	79.58854
53	0xc202f225	-32.73647
54	0x42e24e9d	113.15354
55	0xbfa23311	-1.2671834
56	0xc158e712	-13.556414
57	0x421f4427	39.816555
58	0xc18645e3	-16.784124
59	0xc16e944c	-14.911205
60	0xc20a7086	-34.609886
61	0xc132adb1	-11.167405
62	0xc1f7e1e4	-30.985298
63	0x41cbcd4f	25.475248
64	0xc1b4406d	-22.531458
65	0x4212df6f	36.718197
66	0xc0f4712e	-7.638816
67	0x411efe7d	9.937131
68	0x41a5c39d	20.720514
69	0x42c139ad	96.61265
70	0x41814e0f	16.163115
71	0xc20779fa	-33.869118
72	0xc1a77a95	-20.934855
73	0xc14cb640	-12.794495
74	0x41738aa1	15.221345
75	0xc1dd56f1	-27.667452
76	0xbf36f030	-0.7146025
77	0x4082d760	4.088791
78	0x42797119	62.360447
79	0xc1f52c2d	-30.64657
80	0xc11eee14	-9.933125
81	0x3f2e37ef	0.680541
82	0x4246df58	49.71811
83	0xc1934ee4	-18.41352
84	0x41f2bac0	30.341187
85	0xc206f164	-33.735733
86	0x419dafe6	19.710888
87	0xc20550b4	-33.32881
88	0x3f440dec	0.76583743
89	0xc0a5545d	-5.1665483
90	0xc0bcaeae	-5.896323
91	0xc1e6593b	-28.79357
92	0xbfac1ac6	-1.3445671
93	0x4277f3ff	61.988277
94	0xc085282f	-4.161155
95	0x42b114fe	88.541
96	0x4219f18c	38.485886
97	0x41310d36	11.065725
98	0x42eb5230	117.66052
99	0xc16ef480	-14.934692
100	0x42279cde	41.90319
101	0x40685937	3.6304452
102	0xc27191ff	-60.392574
103	0x40e8fbe5	7.280749
104	0x423076c3	44.11598
105	0xc14a8ccc	-12.659374
106	0x4278cfa6	62.20278
107	0x3f56fac2	0.83976376
108	0x41971382	18.884525
109	0xc14e9b74	-12.912952
110	0xc1e93916	-29.152874
111	0x42448a89	49.13529
112	0xc0965c33	-4.698755
113	0xbfeb0bc7	-1.8362969
114	0xc171e070	-15.117294
115	0x421c28d1	39.03986
116	0x42245538	41.08322
117	0x4065dcb8	3.5915966
118	0x420b30c6	34.79763
119	0xc2088ea1	-34.139286
120	0x4068a22b	3.634898
121	0xc237bdb0	-45.93524
122	0xc11380aa	-9.218912
123	0x42216073	40.34419
124	0xc21a860f	-38.630917
125	0xc1ed0bc8	-29.630753
126	0x4280f95a	64.487015
127	0x41fc3e24	31.530342
128	0x42e316d9	113.544624
129	0x403432c8	2.8155994
130	0x3fb0eca0	1.3822212
131	0xc21cacb1	-39.168644
132	0x41bdf144	23.742805
133	0xc267495d	-57.821644
134	0x42a54ef5	82.65421
135	0x4136940c	11.411144
136	0xc15192d4	-13.098347
137	0xc2607ac3	-56.119884
138	0x41243a04	10.264164
139	0xc03e9056	-2.9775596
140	0x4224ec28	41.23062
141	0x429e0658	79.01239
142	0x4297aefd	75.841774
143	0x42b4de68	90.43439
144	0x4100a051	8.03914
145	0xc1b94a38	-23.16124
146	0xc131d604	-11.11475
147	0x40969f92	4.706979
148	0xc164f221	-14.3091135
149	0x4064ca56	3.5748496
150	0x4184ac62	16.584171
151	0x415c27ec	13.759747
152	0xc11ed04d	-9.925855
153	0x3ff9ba84	1.9510045
154	0xc1177c8d	-9.467908
155	0x41796b96	15.588766
156	0xc1317706	-11.091558
157	0x427fe2da	63.971535
158	0xc138c421	-11.547883
159	0xc1fb0688	-31.37819
160	0x430bc046	139.75107
161	0x4060d010	3.5126991
162	0x42a480b9	82.25141
163	0xc16d3971	-14.826524
164	0x4217b937	37.930874
165	0xc182822f	-16.313566
166	0xc11a5460	-9.645599
167	0xc049d727	-3.1537569
168	0x42d7ec3a	107.96138
169	0xc09cf1dc	-4.904524
170	0x41fdfb86	31.747814
171	0xc16892df	-14.535857
172	0xc15f57d8	-13.958946
173	0xc18b5eae	-17.42123
174	0x420dbb20	35.43274
175	0xc11d1c0e	-9.819349
176	0xbff15a8d	-1.8855759
177	0x402a37ab	2.6596477
178	0xc0fbe88c	-7.872137
179	0x40f4031f	7.625381
180	0x42b1e038	88.93793
181	0xc1c7ff04	-24.99952
182	0xc223b795	-40.92928
183	0x42286e49	42.1077
184	0x41e5a1f4	28.704079
185	0xbf6c0576	-0.9219583
186	0x40b1c386	5.5551176
187	0x4243bc07	48.93362
188	0x42231cb3	40.778027
189	0xc1c10aae	-24.130215
190	0x42945a5e	74.1765
191	0xc234e741	-45.225834
192	0x4013d40a	2.3098168
193	0xc1d86ca0	-27.05304
194	0xc1fe274e	-31.769192
195	0x41243e54	10.265217
196	0x4220b29b	40.17442
197	0xc163d968	-14.240578
198	0xc1d2ae18	-26.335007
199	0x418538c9	16.652727
200	0xc183d5d3	-16.479406
201	0x41cb6098	25.422165
202	0x4258bbd9	54.183445
203	0x4299359d	76.60471
204	0x40dfb29a	6.990552
205	0xc0d5c438	-6.6802025
206	0x42aefdcf	87.49572
207	0xc220ca9b	-40.197857
208	0x40d6f036	6.7168226
209	0x4002e277	2.0450723
210	0x424c6818	51.101654
211	0x421426c6	37.037865
212	0xc1ebafe3	-29.460882
213	0x4255ee27	53.48257
214	0x426bce85	58.95168
215	0x424c7281	51.11182
216	0xc20d6da3	-35.357067
217	0xc136c3d2	-11.422808
218	0xc1b20e98	-22.257126
219	0xc13d5fb2	-11.835863
220	0xc10d18bd	-8.81854
221	0x42ee49c9	119.14411
222	0x4165c077	14.3594885
223	0x430a3ab8	138.22937
224	0x42f131de	120.5974
225	0xc200558b	-32.083538
226	0xc1b60839	-22.754015
227	0xc1a74f2d	-20.91366
228	0x411698e6	9.412329
229	0x4124bc03	10.295901
230	0x40dc04a5	6.875567
231	0x407b65aa	3.92808
232	0x4167763e	14.466368
233	0x414183a0	12.094635
234	0x41f462b2	30.548191
235	0xc007f9c8	-2.1246204
236	0xbdbb0d26	-0.09133367
237	0xc198f361	-19.118837
238	0x421e067f	39.506344
239	0x4140cf4e	12.0506115
240	0xbee00c5a	-0.43759423
241	0x42e9f8cc	116.98593
242	0xc1d40ed7	-26.507246
243	0xbf771238	-0.96512175
244	0xc240fbe7	-48.246
245	0xc0a1375e	-5.0380087
246	0x421234b5	36.55147
247	0xbfc36d27	-1.5267686
248	0xc1f0f39e	-30.118954
249	0x4294da12	74.42592
250	0x42a9bd22	84.8694
251	0x4298bee3	76.372826
252	0xbb22d5a2	-0.0024846573
253	0x412697b8	10.412041
254	0x4238e24c	46.220993
255	0x40b145b1	5.5397573

fc2.weight f4 [256, 256]
0	0xbd08c500	-0.033391
1	0xbd5577ec	-0.05211632
2	0x3d206011	0.039154116
3	0xba01924d	-0.000494276
4	0xbe0c98d3	-0.13730173
5	0xbab0f873	-0.0013501778
6	0xbd555790	-0.05208546
7	0xbdab5ca0	-0.08367276
8	0xbbfd49e3	-0.0077297552
9	0xbd1df2a0	-0.038561463
10	0xbd0ccfbd	-0.034377802
11	0xbc4e89df	-0.012606113
12	0xbdf90182	-0.12158491
13	0xbde0d465	-0.10978011
14	0x3d433173	0.04765458
15	0xbcd40a4c	-0.025883816
16	0xbb81e1d8	-0.0039636903
17	0xbe0149d9	-0.12625827
18	0xbde24389	-0.110480376
19	0xbcf6d3da	-0.030130316
20	0xbd97d93f	-0.07414483
21	0xbc731a69	-0.01483784
22	0xbd898d9b	-0.06716462
23	0xbd679c89	-0.056545768
24	0xbd6f83de	-0.058475368
25	0xbdc615a4	-0.09672096
26	0xbd863ded	-0.0655478
27	0xbc9a4931	-0.018833729
28	0xbdd4ddac	-0.10393843
29	0x3d0f3dd2	0.034971066
30	0xbca18b71	-0.019719811
31	0xbd3db535	-0.04631539
32	0xbde326c7	-0.110913806
33	0xbda4d6a5	-0.08048753
34	0x3c8ada15	0.016949693
35	0xbd9f6d07	-0.07784467
36	0xbdc930ac	-0.098237365
37	0xbd1593c2	-0.036517866
38	0xbac051ad	-0.0014672779
39	0x3b40b976	0.0029407418
40	0xbdf14a66	-0.117817685
41	0xbdd7fde5	-0.105464734
42	0xbd983908	-0.07432753
43	0x3d2b0ef0	0.041762292
44	0xbc042e09	-0.008067616
45	0xb8bf6b52	-9.12758e-05
46	0xbdbb4a9f	-0.09145092
47	0x3b81c32f	0.0039600353
48	0x3d11e1c9	0.035615716
49	0xbc7ca381	-0.015419842
50	0xbe1de0c6	-0.15417776
51	0x3caf687e	0.02141213
52	0xbda9d6ba	-0.08292909
53	0xbe17a499	-0.14808883
54	0xbdd7a7b7	-0.10530036
55	0xbe08af9e	-0.13348243
56	0xbdcd9e65	-0.10039977
57	0xbd1723a4	-0.036899224
58	0xbd430c25	-0.047619004
59	0xbd53d362	-0.051715262
60	0xbda1488c	-0.07875165
61	0xbb6fb2bf	-0.0036575047
62	0xbdce802e	-0.10083042
63	0xbd94e403	-0.07270052
64	0xbda1988a	-0.07890423
65	0xbe163d36	-0.14671788
66	0xbca4d0df	-0.020119129
67	0xbe0184b1	-0.12648274
68	0xbd5b6a91	-0.053568427
69	0x3c19cae4	0.009386752
70	0x3b327a44	0.002723352
71	0xbe0f4d88	-0.1399442
72	0xbd9a9217	-0.07547396
73	0xbcef710e	-0.029228713
74	0x3dd11729	0.102094956
75	0x3bb710cf	0.0055867205
76	0x3d17d5cf	0.03706914
77	0xbd09e980	-0.03366995
78	0xbb6baa39	-0.0035959615
79	0xbbabe822	-0.0052461782
80	0xbe08f5b4	-0.13374978
81	0xbd5dfe93	-0.05419786
82	0xbdaac135	-0.083376326
83	0xbd05ac0e	-0.032634787
84	0xbd08d25d	-0.033403743
85	0xbdec7418	-0.115455806
86	0xbd1e3dcc	-0.038633153
87	0xbe18b752	-0.14913681
88	0xbd060273	-0.03271718
89	0xbd31d2cf	-0.043413933
90	0xbd1e572f	-0.038657364
91	0xbd3d7afb	-0.04625986
92	0xbdc31962	-0.09526326
93	0xb3bffd78	-8.940236e-08
94	0xbd1bd198	-0.03804168
95	0xbd957858	-0.072983444
96	0xbd7d5940	-0.061852694
97	0xbcf6e88f	-0.03014019
98	0xbe16edcd	-0.14739151
99	0xbd920486	-0.07129769
100	0xbddacd6a	-0.10683711
101	0x3cb1197e	0.021618601
102	0xbc354de9	-0.0110659385
103	0xbd119ae7	-0.035548117
104	0x3d0e7617	0.034780588
105	0xbdc281b4	-0.09497395
106	0xbc13ec1a	-0.009028459
107	0x3c3b28d2	0.011423307
108	0xbe05a020	-0.13049364
109	0xbd941426	-0.072304055
110	0xbdaa26c6	-0.08308177
111	0xbd834ac9	-0.064107485
112	0x3b0b8274	0.0021287473
113	0x3d416ea1	0.047224645
114	0xbde8a18c	-0.113589376
115	0x3cb0f7d0	0.021602541
116	0xbbcab2cb	-0.0061858646
117	0xbcc80337	-0.024415595
118	0x3c972442	0.018449906
119	0xb9f25937	-0.00046224307
120	0xbd017c2f	-0.03161257
121	0x3ba9e737	0.0051850337
122	0x3add5094	0.0016884976
123	0xbce95089	-0.028480785
124	0xbcedf7fd	-0.029048914
125	0xbc854ee1	-0.016272964
126	0xbc699984	-0.014257792
127	0xbd70f146	-0.058823846
128	0xbc8fabd4	-0.017537989
129	0x3d020fde	0.031753413
130	0xbcf8eeee	-0.030387368
131	0xbd29f0d4	-0.041489437
132	0xbc99a704	-0.018756397
133	0x3c82fecc	0.015990637
134	0xbd5f729c	-0.05455266
135	0xbd6a7685	-0.057241935
136	0xbd8bc315	-0.06824318
137	0xbdbce7ba	-0.09223886
138	0x3d904c5d	0.07045815
139	0xbd8956e1	-0.06706024
140	0xbde7abe6	-0.11312084
141	0x3d859f20	0.06524491
142	0xbe0e3db2	-0.13890722
143	0xbd660433	-0.05615635
144	0xbcf0f792	-0.029414926
145	0xbd7645d6	-0.060125194
146	0xbca73c1b	-0.020414403
147	0xbd91ee62	-0.07125546
148	0xbcddf3d4	-0.027093805
149	0xbd3713d0	-0.04469663
150	0xbd54c18c	-0.051942393
151	0xbda1d279	-0.079014726
152	0xbde32eba	-0.11092897
153	0xbe1b3687	-0.1515752
154	0xbcee35d6	-0.029078405
155	0xbc4e16dc	-0.012578692
156	0x3d634723	0.055487763
157	0x3c0c3c48	0.008559294
158	0x3c94e87d	0.018177265
159	0xbd150971	-0.036385957
160	0xbe139cfb	-0.14415352
161	0x3b305e9a	0.0026911856
162	0xbde4c9c2	-0.11171295
163	0x3cc44b7e	0.023961779
164	0xbdda7aab	-0.10667928
165	0xbd319223	-0.043352257
166	0x3d46c6a7	0.048529293
167	0xbaea1a83	-0.0017860684
168	0x3d083ca1	0.033260945
169	0xbd4a00c8	-0.04931715
170	0xbd1c506b	-0.03816263
171	0xbc5c95ce	-0.013463451
172	0xbd9c2c76	-0.07625668
173	0xbcca3aa8	-0.024686173
174	0xbc083c22	-0.008315118
175	0xbdd04a8c	-0.10170469
176	0xbd118d42	-0.035535105
177	0xbb34fbf9	-0.0027616008
178	0xbd92065a	-0.07130118
179	0xbd36ec38	-0.04465887
180	0xbe22ac2a	-0.15885988
181	0xbdc232d5	-0.09482352
182	0xbdf38c62	-0.1189201
183	0xbdd9b9af	-0.106311195
184	0xbdf9e536	-0.12201922
185	0xbcb2e01b	-0.021835377
186	0xbcfb2f4c	-0.030662201
187	0x3ce74dd0	0.028235346
188	0xbc65501a	-0.0139961485
189	0x3d3fa044	0.0467837
190	0xbd96f5ec	-0.073711246
191	0xbd48ba81	-0.04900599
192	0xbb852870	-0.0040636584
193	0xbd1789bb	-0.036996584
194	0xbdf0d03d	-0.11758468
195	0xbd55ce0f	-0.052198466
196	0xbdc4fcb2	-0.0961851
197	0x3d3f47e9	0.04669944
198	0x3d30e1a5	0.04318394
199	0xbda8c4c6	-0.082406566
200	0xbd59110f	-0.052994784
201	0x3cb0e712	0.021594558
202	0xbb9a5b16	-0.0047105653
203	0xbdeb02c1	-0.11475135
204	0xbdefdf81	-0.11712552
205	0x3d915de9	0.0709799
206	0xbdb55600	-0.08854294
207	0xbd6f26df	-0.05838668
208	0xbd7fc8b4	-0.062447265
209	0xbdee533d	-0.1163697
210	0xbdd3e244	-0.10345891
211	0xbd7665a6	-0.060155533
212	0xbd9310a7	-0.071809106
213	0xbcd91cb9	-0.026502954
214	0xbc87681b	-0.016529134
215	0xbd8fb1a3	-0.070163034
216	0xbd399f50	-0.045317948
217	0xbd6f4b0e	-0.058421187
218	0x3d286d98	0.04112014
219	0xbdb91d06	-0.09038739
220	0xbc80bb81	-0.015714409
221	0xbc192bb4	-0.009348799
222	0xbd459f63	-0.048247706
223	0xbc6b14d5	-0.014348228
224	0x3d8de53e	0.0692849
225	0xbd8b8a45	-0.06813482
226	0xbe09d642	-0.13460639
227	0xbdbe43ca	-0.092902735
228	0xbdb0f80d	-0.08641062
229	0xbd283cff	-0.041073795
230	0xbdaac621	-0.08338571
231	0xbcd84c5b	-0.026403597
232	0xbdcae76f	-0.09907424
233	0xbc6a400a	-0.014297495
234	0xbc6b833a	-0.014374549
235	0xbd9b4abd	-0.075826146
236	0xbda094b8	-0.07840866
237	0xbc75755d	-0.014981595
238	0x3c05c7c6	0.0081653055
239	0xbd84a154	-0.064760834
240	0xbd1de10c	-0.0385447
241	0x3cb984ba	0.022646297
242	0xbd88eeff	-0.0668621
243	0xbda8bc72	-0.08239068
244	0xbe079f0b	-0.13244264
245	0xbce0c509	-0.027437704
246	0xbcd81d00	-0.026381016
247	0xbdb6933d	-0.08914802
248	0xbb09ac04	-0.002100707
249	0xbc40a215	-0.011757393
250	0xbc053a3a	-0.008131558
251	0xbd7d8793	-0.06189687
252	0x3c92abf9	0.017904269
253	0x3d3d33ef	0.046192106
254	0xbddbd72b	-0.107343994
255	0x3bab9558	0.005236309

fc2.bias f4 [256]
0	0xbd1906f3	-0.037360143
1	0xbd07ab62	-0.033122428
2	0x42e3b0b5	113.84513
3	0x421100ba	36.25071
4	0xbd788643	-0.060674917
5	0x3cd9d651	0.026591452
6	0x420f4c3d	35.82445
7	0x420aeaca	34.729286
8	0x42121605	36.521503
9	0x42159e14	37.404373
10	0xbc28ec8b	-0.0103103025
11	0x41e9f9be	29.246944
12	0xbc9d1764	-0.019176193
13	0x40d0a02c	6.519552
14	0xc195b7c1	-18.714724
15	0xbbb87e38	-0.005630281
16	0xc2000fc0	-32.01538
17	0x3bcc56b2	0.006235921
18	0xc11fe308	-9.992928
19	0x428d9f90	70.811646
20	0x4234c906	45.196312
21	0xbdaefc01	-0.0854416
22	0x3c05d24d	0.008167815
23	0xc20bfec1	-34.998783
24	0x422af26f	42.73675
25	0xbc619fbc	-0.013770994
26	0xb9914450	-0.00027707452
27	0xbe27cc6d	-0.16386576
28	0x4215ae8d	37.42046
29	0xbdcf44cf	-0.10120546
30	0xbc522e28	-0.012828387
31	0xc1afc23a	-21.969837
32	0x41a544f0	20.65866
33	0x426c8923	59.133923
34	0x41ce94b6	25.822613
35	0xbd78c65d	-0.06073605
36	0xc188b667	-17.089064
37	0x41f0a572	30.080784
38	0xbd6dfbfe	-0.058101647
39	0x42bad59a	93.41719
40	0x3cce6c8d	0.025198245
41	0xc1c84739	-25.034777
42	0x42081a04	34.025406
43	0x40da0aae	6.8138037
44	0x423cab62	47.167366
45	0x418df60a	17.745136
46	0x4237a4f1	45.911076
47	0x4201094a	32.25907
48	0xbd8d5e72	-0.0690278
49	0xbdb29fd5	-0.08721892
50	0xbd86fc49	-0.06591088
51	0xc1d4b831	-26.589937
52	0xc1ee6435	-29.79893
53	0xbd22dbcb	-0.039760392
54	0x42129bb1	36.652042
55	0xbc4c602b	-0.0124741
56	0xc208b4b7	-34.17648
57	0xc125b8ad	-10.357587
58	0x414106d8	12.064171
59	0xbd21815b	-0.039430004
60	0xbd8149ae	-0.063128814
61	0x4236f874	45.74263
62	0xbdc3b79f	-0.09556507
63	0xbdc1b403	-0.09458163
64	0x427f2d87	63.79446
65	0xbd0ca9b2	-0.03434152
66	0x421500f4	37.25093
67	0xbcc2b6d3	-0.023768818
68	0xbdb4ff65	-0.08837775
69	0xc21c7dd2	-39.12287
70	0xc0fdeb37	-7.9349627
71	0xbd07b869	-0.03313485
72	0xbd4749e6	-0.04865446
73	0xbccfc5be	-0.025362846
74	0x421103d6	36.253746
75	0x42118bca	36.386513
76	0xbd8ce5d4	-0.06879774
77	0xbd202ff6	-0.03910824
78	0x422393c9	40.89432
79	0xbd93343e	-0.07187699
80	0x420fb39f	35.92541
81	0x41320afa	11.12768
82	0x3cb8280c	0.022480033
83	0xbd0b0d93	-0.033948492
84	0x3bff2203	0.007786037
85	0x412a9b7f	10.662963
86	0x422b6fd2	42.8592
87	0xbd996d78	-0.07491583
88	0x410c0b0d	8.752698
89	0xbd5ccedf	-0.053908225
90	0xbd9ab247	-0.07553535
91	0xc0cc4961	-6.3839574
92	0x42609b1d	56.151478
93	0xc1a7167c	-20.885979
94	0x40488ddc	3.1336584
95	0xbcdd7ecc	-0.027038
96	0x3d24b5e5	0.04021253
97	0xbe19a3c5	-0.1500388
98	0x424ce32c	51.221848
99	0x422f05ff	43.755856
100	0x3d18c6c8	0.037298948
101	0x3caa4b57	0.020787878
102	0xbd7ebd18	-0.062192053
103	0xbde1d10e	-0.11026202
104	0xbda576e3	-0.080793165
105	0x4240b0fd	48.17284
106	0xbd87bc5e	-0.06627725
107	0x40ca3ca3	6.319902
108	0x4217765a	37.865578
109	0xbd0bfb19	-0.034175012
110	0xbb5b4647	-0.0033458637
111	0x428274e6	65.22832
112	0xbdacc7a4	-0.08436516
113	0xbcd2e01e	-0.025741633
114	0xc22ddc32	-43.465034
115	0x3b445295	0.002995645
116	0xbcbbb85f	-0.022915063
117	0xbd0efa1d	-0.034906495
118	0xbd844baf	-0.06459748
119	0xc1834b39	-16.41173
120	0x42146dae	37.10711
121	0xbd8500ce	-0.06494294
122	0x420ef64b	35.74052
123	0xbc80dadf	-0.015729366
124	0xbd0dd862	-0.034630187
125	0xbd5096a7	-0.050924923
126	0xbd999594	-0.07499233
127	0xbd90a479	-0.07062621
128	0x422f3f4a	43.811806
129	0x423c4156	47.063805
130	0xbc1ef984	-0.009703044
131	0x428487b8	66.265076
132	0x41f8abc0	31.083862
133	0xbd86c18d	-0.06579886
134	0x3cb72789	0.022357719
135	0x41e8f13c	29.11779
136	0xbde4ef63	-0.11178472
137	0xbd69151a	-0.05690489
138	0x41f16d7f	30.178465
139	0xc0090332	-2.14082
140	0x3cf8fd58	0.030394241
141	0x41dcb0e8	27.58638
142	0x4230a833	44.164257
143	0xbda3227e	-0.07965563
144	0xbd9dd9e0	-0.07707572
145	0xbd369834	-0.044578746
146	0xc19e665d	-19.799982
147	0x3c064105	0.008194213
148	0x41d951b7	27.1649
149	0xbbbb743e	-0.0057206443
150	0x422c4eda	43.077003
151	0x3cdcf254	0.02697102
152	0xbd309926	-0.043114804
153	0x3ce38910	0.027775317
154	0x41a9c520	21.221252
155	0x41fec5ce	31.846584
156	0x3ce606e7	0.028079463
157	0xbc017e27	-0.007903612
158	0x3c4a2840	0.012338698
159	0xbd6960d0	-0.056977093
160	0xbd7fbf4d	-0.062438298
161	0xbd42be0b	-0.04754452
162	0x42775d96	61.841393
163	0x41b7c4ef	22.971159
164	0xc15137a8	-13.076088
165	0x42cb8ee2	101.77907
166	0x41cf5f07	25.9214
167	0x3c60fee9	0.01373265
168	0x4200a9a4	32.165665
169	0xbd066b7c	-0.03281735
170	0x4191dff2	18.234348
171	0x42b8b233	92.348045
172	0x41f9b939	31.21544
173	0x3c20866d	0.009797675
174	0x40d247fd	6.5712876
175	0xbd071333	-0.032977294
176	0x3b7ef385	0.0038902473
177	0x42298829	42.38297
178	0xbcb580ab	-0.02215608
179	0x3c58a424	0.013222728
180	0xbc927aa3	-0.017880743
181	0x41f77a1b	30.934622
182	0xbd6a2f54	-0.057174042
183	0x415b18ae	13.693525
184	0x421de20a	39.47074
185	0x3c8632cc	0.016381644
186	0xbdd2ef21	-0.102995165
187	0x3c957393	0.018243587
188	0x3c0b8bf1	0.008517251
189	0x42a55b17	82.67791
190	0x42198fa8	38.39029
191	0x390a69a4	0.0001320006
192	0xc1b30c14	-22.380898
193	0xbd7f8356	-0.06238111
194	0xc1eed3d6	-29.853436
195	0x420478b9	33.117893
196	0xbd4538ee	-0.048149996
197	0xc20b9e32	-34.904488
198	0xbc5667a0	-0.01308623
199	0x41b56ba0	22.677551
200	0xbc545c18	-0.01296141
201	0x4154e62e	13.306196
202	0x418ce711	17.612825
203	0x4068ffa8	3.640604
204	0xbc272e33	-0.010203886
205	0x41b23154	22.274086
206	0x42199939	38.39963
207	0x41dc2eaf	27.522795
208	0xc10cdbf3	-8.803699
209	0x42118d0e	36.38775
210	0xc2243130	-41.048035
211	0xbd614cb0	-0.055004776
212	0x3c039701	0.008031608
213	0x3d260d38	0.04053995
214	0xbd279e3b	-0.040922385
215	0xbda56aa2	-0.08076979
216	0xbdb8b3da	-0.09018679
217	0x41a3f167	20.492872
218	0xbc542b3e	-0.012949763
219	0x42a3d67c	81.918915
220	0xbda39500	-0.07987404
221	0x42814b36	64.6469
222	0xc20a6f3e	-34.608635
223	0xc2246984	-41.103043
224	0xbb6f8f13	-0.0036553785
225	0x41f7a3c4	30.954964
226	0xbd7b93e6	-0.061420344
227	0xbce84bc7	-0.028356446
228	0xbd93ca0b	-0.07216271
229	0xc23aaa01	-46.66602
230	0x3c92a9f3	0.017903304
231	0xbc997fb4	-0.018737651
232	0x42163a3d	37.556873
233	0xbd870bb3	-0.06594028
234	0x42127e1f	36.623165
235	0x4233c852	44.945625
236	0xbe980d35	-0.29697576
237	0xbd3fc4fc	-0.04681872
238	0xc14b0463	-12.688571
239	0xbdb31fd8	-0.08746308
240	0x428a70e4	69.22049
241	0x3d3f02fe	0.046633713
242	0x4095687c	4.6690044
243	0x42013f00	32.311523
244	0xbc8e61b6	-0.017380577
245	0xbd836d0f	-0.06417286
246	0xbd393cb6	-0.045223914
247	0x3ce5d353	0.028054869
248	0xbd2f4cfb	-0.042798024
249	0xbca786f7	-0.020450098
250	0x421230eb	36.54777
251	0x3c02601d	0.0079574855
252	0xbd128787	-0.03577378
253	0xbd74d29b	-0.05977116
254	0xbbd51ef5	-0.0065039345
255	0x40ec7926	7.3897886

q.weight f4 [1, 256]
0	0xbc4055b1	-0.01173918
1	0xbbe873c7	-0.00709388
2	0x42f860ec	124.1893
3	0x43798ba7	249.54552
4	0xbebaf359	-0.36513785
5	0x3cb90225	0.02258403
6	0x43717693	241.46318
7	0x4384306e	264.37836
8	0x4388481c	272.56335
9	0x43403762	192.21634
10	0x3eebceb1	0.4605613
11	0xc3a44d89	-328.60574
12	0xbbd6183c	-0.0065336507
13	0xc38de5bf	-283.7949
14	0xc3b63c8c	-364.47302
15	0x3d316996	0.043313585
16	0xc39f0bf8	-318.0935
17	0xbc510c57	-0.01275929
18	0xc39ed777	-317.68332
19	0x42ca7b29	101.24055
20	0x435d56b0	221.33862
21	0x3c9c288b	0.019062301
22	0x3c60aed2	0.013713555
23	0xc37a894b	-250.5363
24	0x4331f4cc	177.95624
25	0x3c0879c8	0.008329816
26	0x3ca3725d	0.019951994
27	0xbf841c4d	-1.0321137
28	0xc3be4546	-380.5412
29	0xbce32845	-0.027729163
30	0xbccc2516	-0.024920028
31	0xc398fae0	-305.95996
32	0xc3841859	-264.19022
33	0x430d3775	141.21663
34	0xc3d76f33	-430.86874
35	0xbd6bfa4d	-0.057611752
36	0xc38500f4	-266.00745
37	0xc3a91f09	-338.24246
38	0x3b8ac025	0.004234331
39	0x434c8909	204.5353
40	0x3b7c2060	0.0038471445
41	0xc38a8549	-277.0413
42	0x439a04fc	308.03894
43	0xc3bf02ff	-382.0234
44	0x43865859	268.69022
45	0xc3849b68	-265.2141
46	0xc3b81630	-368.17334
47	0xc3a8b3c9	-337.40457
48	0x3cb2578a	0.021770258
49	0xbd8001a3	-0.06250312
50	0x3c73628a	0.0148550365
51	0xc39f8c0c	-319.09412
52	0xc3952df4	-298.359
53	0x3b9c0256	0.0047610207
54	0xc3bb2c68	-374.34692
55	0xbccc6679	-0.024951207
56	0xc3837be2	-262.96783
57	0xc3afac8d	-351.34805
58	0xc397b53d	-303.41592
59	0xbc9bc0d8	-0.019012854
60	0x38900812	6.867958e-05
61	0x43385c10	184.35962
62	0xbcc0b00a	-0.023521442
63	0xbcc12f26	-0.023582052
64	0x43038240	131.50879
65	0x3c07b77c	0.008283492
66	0xc3a456e9	-328.679
67	0xbca1a72c	-0.019733034
68	0xbc8e3bb1	-0.017362447
69	0xc39016d9	-288.1785
70	0xc3815d87	-258.73068
71	0xbcff02a9	-0.031129198
72	0x3ddacebb	0.10683962
73	0x3ab857c8	0.0014064247
74	0x4352885a	210.53262
75	0xc3c4e5a7	-393.79416
76	0xbc829601	-0.015940668
77	0xbcee7b19	-0.029111432
78	0xc3b64e42	-364.6114
79	0x3cee3d0b	0.029081842
80	0x436f1c41	239.11037
81	0xc3b53fc2	-362.4981
82	0xbbcb7cde	-0.0062099537
83	0x3ca6327a	0.020287741
84	0x3b2a5f8a	0.0025996887
85	0xc3cd5d4a	-410.72882
86	0xc3b6f120	-365.8838
87	0x3c5dc242	0.013535084
88	0xc3c17e02	-386.98444
89	0xbbf10377	-0.0073551494
90	0x3a9d412c	0.0011997572
91	0xc3cf0ccf	-414.10007
92	0x437cb265	252.69685
93	0xc39059ef	-288.7026
94	0xc3a10440	-322.0332
95	0xbc9244c6	-0.01785506
96	0x3bf3fb87	0.007445756
97	0xbf85a3b9	-1.0440589
98	0x4334f11b	180.94182
99	0xc3c9e914	-403.82092
100	0x3bd3a830	0.0064592585
101	0x3bdefa75	0.006804759
102	0xbd28b230	-0.041185558
103	0x3d0d835b	0.0345491
104	0x3cb01095	0.021492282
105	0x436f7de2	239.49173
106	0x3cc41216	0.023934405
107	0xc3acbd31	-345.47806
108	0x4385656b	266.79233
109	0xba0bed70	-0.000533781
110	0xbcd8a6c8	-0.026446715
111	0x431d95ae	157.58469
112	0x3cae6d89	0.021292465
113	0x3ca1919f	0.019722758
114	0xc3ac8236	-345.01727
115	0x3d16ae2a	0.03678719
116	0xbd00e42d	-0.031467605
117	0xbc41958b	-0.011815439
118	0x3ce1b139	0.027550327
119	0xc368a3fe	-232.6406
120	0xc3c1980d	-387.1879
121	0xbcfdf70a	-0.031001586
122	0xc3a9df19	-339.74295
123	0xbd8b4456	-0.068001434
124	0xbcb2bff5	-0.021820048
125	0x3b67ab4b	0.0035349901
126	0xbc8eb536	-0.017420392
127	0xbc1a636c	-0.009423118
128	0xc3acdda0	-345.73145
129	0x43472528	199.14514
130	0xbcd92b9d	-0.026510054
131	0x43579338	215.57507
132	0xc39e284d	-316.31485
133	0xbb167c86	-0.0022962405
134	0xbcf37c4f	-0.02972236
135	0x439332c8	294.39673
136	0x3c222bee	0.009898169
137	0xbd91bf47	-0.071165614
138	0x437d7184	253.44342
139	0xc38fbf67	-287.49533
140	0x3ca289c6	0.019841086
141	0xc387db99	-271.7156
142	0x436c6f4f	236.4348
143	0xbd415ca1	-0.04720748
144	0x3cc2793c	0.02373945
145	0x3d5a7e73	0.053343248
146	0xc3b202e0	-356.02246
147	0x3d2fde5e	0.042936675
148	0xc3a5c9e7	-331.57736
149	0x3cf815d0	0.030283839
150	0xc3bb4f93	-374.62167
151	0xbb95e2f3	-0.0045741736
152	0x3c9b61c6	0.01896752
153	0xbcbeca7e	-0.023289915
154	0x438df601	283.9219
155	0x43550e4f	213.0559
156	0xbd0d8134	-0.034547046
157	0xbc2e10fa	-0.010624165
158	0x3d72bfb0	0.05926484
159	0x3c0c7472	0.008572685
160	0x3b4fcb2f	0.00317068
161	0x3c508c29	0.012728729
162	0x4309a839	137.65712
163	0xc38f17a0	-286.18457
164	0xc3ad99bb	-347.20102
165	0x4317f7e6	151.96835
166	0xc37cf33a	-252.9501
167	0x3b2146be	0.0024608816
168	0x436faa65	239.6656
169	0xbbf05c11	-0.007335194
170	0x43958865	299.06558
171	0x43919ea1	291.2393
172	0xc392f4fe	-293.914
173	0xbccc29eb	-0.024922332
174	0xc3909594	-289.16858
175	0xbd0cd10b	-0.034379046
176	0x3ceb8d97	0.028754039
177	0x4330adac	176.6784
178	0xbbf73061	-0.007543609
179	0x3cdd870d	0.027041936
180	0x3cb2c452	0.021822128
181	0x435f4c15	223.2972
182	0xbbdb2ca5	-0.0066886717
183	0xc3962b54	-300.3385
184	0x438d736c	282.90173
185	0x3d0db239	0.034593794
186	0xbcc01755	-0.023448626
187	0x3cc8f24e	0.024529602
188	0x3cd04353	0.025422728
189	0x42b3c55c	89.88547
190	0xc3b6aab6	-365.33368
191	0x3bc1c17e	0.0059129586
192	0xc3a35e42	-326.7364
193	0xbcd2a08a	-0.025711317
194	0xc384c723	-265.55576
195	0x4387c71c	271.55554
196	0xbd11db07	-0.03560927
197	0xc38a96d9	-277.1785
198	0xbc8cfb87	-0.017209781
199	0xc3bb5c5d	-374.7216
200	0xbc95e818	-0.018299147
201	0xc3b22ef4	-356.36682
202	0xc38871d6	-272.88934
203	0xc38700cb	-270.0062
204	0xbcd47780	-0.025935888
205	0xc37e1699	-254.08827
206	0x4380a13f	257.25974
207	0x43887508	272.9143
208	0xc37ecdad	-254.80342
209	0xc3aedc33	-349.7203
210	0xc393b1f3	-295.39023
211	0x3b2776d2	0.0025553
212	0xbca6b497	-0.020349784
213	0x3d1a30ee	0.03764432
214	0x3c8777a8	0.016536549
215	0xbba9f4bd	-0.005186646
216	0xbcf7685e	-0.030201133
217	0xc38d247d	-282.28506
218	0x3ad06cd5	0.0015901575
219	0x429604b5	75.00919
220	0x3cc73bf0	0.024320573
221	0x4313211a	147.1293
222	0xc3914395	-290.52798
223	0xc3a1ac5f	-323.34665
224	0x3c120426	0.008912122
225	0x43719af1	241.60524
226	0x3c1a2a93	0.009409565
227	0x3a8a7402	0.0010563137
228	0x3ccac3e6	0.024751615
229	0xc3baf199	-373.88748
230	0x3d24b264	0.04020919
231	0xbcade655	-0.021227995
232	0x435c78a6	220.47128
233	0xbc8dd125	-0.017311642
234	0x43540a3c	212.03998
235	0x436e4a5c	238.29047
236	0x3f0f8445	0.560612
237	0xbbec1a22	-0.0072052637
238	0xc3ae3b1d	-348.46182
239	0xbce4d9f1	-0.027935954
240	0x431bf41e	155.95358
241	0x3a1dcf1d	0.0006019937
242	0xc3a7a6c5	-335.3029
243	0x436142c6	225.26083
244	0xbc43fd6e	-0.011962278
245	0xbbda0d5d	-0.006654425
246	0xbd8ca3e6	-0.06867199
247	0x3b8f9671	0.0043819477
248	0xbc1588da	-0.009126866
249	0x3c3e53ad	0.01161663
250	0xc3bbd814	-375.6881
251	0xbc880082	-0.016601805
252	0x3c11ef91	0.008907215
253	0xbcc4458e	-0.023958948
254	0x3c902915	0.017597714
255	0xc38cb54a	-281.41632
