TD3/models/hockey_best_agent/02000000/critic_2.pth (torch, 289951 bytes, 5 tensors)

fc1.weight f4 [256, 22]
00000000: e641 f341 d54d da41 4c16 7042 dc2e 42c0
00000010: 9c5c 9ac0 e209 18c0 51ba 3dc2 e156 5542
00000020: 118d 45c1 4708 3141 f93d ca41 e4cf 8340
00000030: e145 d83f 9eba e942 74a8 533e a546 5041
00000040: a41e b3c0 2b28 d541 50d4 d2bf 3466 0dc1
00000050: 9b34 92c0 677a d740 683f 1bc1 ae2f 87c2
00000060: 26ac dd41 f278 1dbf e01b 9c3f a937 a4bf
00000070: 784a 4041 b1c6 7cc2 29a8 f441 5a80 85c0
00000080: 6cb5 d8bf 5b47 04c0 194e d641 9966 edc2
00000090: 9a23 0341 f0c5 08c2 872e 063e 8b81 1fc0
000000a0: 6115 bd40 1f5b dac0 f207 b3c0 3fdf e840
000000b0: a3d6 c241 da5a 0e43 6483 8fc0 5213 bf3e
000000c0: 74f1 823e 3281 4840 0738 fbbf b09d 86c2
000000d0: 4723 8fc2 ad03 97bf 2384 8942 49c9 dac0
000000e0: 04ed 16c2 9d4b 7343 3ee6 6d40 2e4a f141
000000f0: 1c6b 44c2 df5d 8541 4f7f 07c2 0c64 8f40
00000100: 7e18 3641 3025 cd41 0e9f 0c43 b604 e7c1
00000110: 201c 3e40 8895 0dc1 f966 62c0 e10b d7c1
00000120: bca8 90c1 860b c8c0 c803 09c2 b628 79c1
00000130: fb49 0942 2a58 3f41 e2ca 0943 9d3e cdc1
00000140: 7f11 2b42 3416 0940 d6c4 4142 600c 1bc3
00000150: 9db7 e542 3add 94c2 00b7 61c2 d57d 67c2
00000160: 6a3c 3542 7869 6f41 108e 44c2 c0eb 2ac0
00000170: d2f7 30c1 2c78 6ac0 14e9 b541 ad47 f4c2
00000180: 0577 3a40 2b9c c140 dc30 0442 b0b0 1e41
00000190: af29 7441 0aaf 1842 a56b 4dc0 71b5 a441
000001a0: cb8b d9c0 3bde 9dc1 b989 fbbf 7d4e 1ac1
000001b0: 94b2 f640 5366 bd3f dbbc 02c1 7d5b 6fc0
000001c0: e31f 28c1 6839 9dbf 9593 7ec1 3ab2 aa3e
000001d0: 1ed8 afc1 6adc e2c1 4645 063f a506 e241
000001e0: 715e 38c0 0f13 dcbf ffe0 b641 7354 9b41
000001f0: e7cc 9340 6941 f23f 4afd 99c0 910f ebc1
00000200: dcac ce41 2947 aac1 d8f9 6cc1 f642 fdc1
00000210: aec8 afc1 9859 02c2 0f48 f141 dc69 afbf
00000220: 111d 41bf 8775 81be 9ddf f641 433a 8242
00000230: 8459 16c1 bddb 4fbf 0c5e 0bc1 0752 3ac0
00000240: ace8 9bc1 99ea b1c2 3217 d33e f91d 89c0
00000250: 63e3 28c1 da07 e4c1 deaf 8541 81e5 4dc1
00000260: 5616 2340 551c 31c1 2951 c0c1 39f6 81c1
00000270: 7729 343f fa83 bb40 7eb3 83c0 557d 82c0
00000280: 0bab bf41 a4ab ddc1 5548 ca3f ca2b 0942
00000290: 2122 e43f a868 b940 4671 f741 8a64 4fc2
000002a0: 61c5 7fbf 0a2a 25c2 671a a03f 4cdb 64c0
000002b0: 8720 ca40 9038 46c1 170a 55bf 8cb1 523f
000002c0: dfe9 da41 16de 2dc1 3210 c441 8793 eec0
000002d0: 7e2c 2e40 2533 a5c0 fa5c ebc1 f3ed 93c2
000002e0: 7ff1 29c0 61d3 de40 a704 1242 a180 e7c1
000002f0: c29d 1841 3eda 3ac2 bc99 de40 2723 2e40
00000300: 71c8 3e40 8820 6e41 5a2a 56c1 f7a9 6bbf
00000310: 10e7 a140 201c 78bf 5b66 8ec1 c940 ca42
00000320: 84bb 8dc1 341c 85be 83d6 2740 0e9d aec0
00000330: 896d 07c1 1b55 c640 ecb2 5ac2 4f61 0f41
00000340: b632 cdbf 0060 9340 5c5e c4c0 9b2e 1b43
00000350: d6ff 00c1 6db7 3a42 f7fc 13c2 7812 59bf
00000360: 8bf7 7cbf 7f73 cfbf 007d 42c0 7f0c 98c0
00000370: 4db3 9ec1 5ba1 e3c1 5f40 0542 61fc 5dc0
00000380: 2831 2ec0 6051 19c0 2285 bb41 9294 4642
00000390: 9a8d 1a42 c815 1bbf 5b1a 8dc1 db9a 16c1
000003a0: 7796 1dc1 05cb 8cc2 d89c ed3f 1748 a1c0
000003b0: c72f 92c0 e8a1 7740 f63c 8b3d 0cf6 f640
000003c0: 3a81 bdc0 e2de 3841 b634 a3c0 da66 af41
000003d0: 8319 2941 ba63 cebe f61a 4240 bc8f f640
000003e0: 9f9f d641 6e91 2f42 30f5 1342 feda 29c0
000003f0: f240 3bc1 d981 61bf 9e2b 2fc2 058f 87c2
30.407177 27.288004 60.021774 -3.03411 -4.823805 -2.3756032 -47.43195 53.334843
-12.34694 11.064521 25.28026 4.1191273 1.6896325 116.86449 0.20669729 13.017247
-5.5974903 26.644613 -1.6471043 -8.837452 -4.5689216 6.7336917 -9.70298 -67.593124
27.709057 -0.6151267 1.2196007 -1.2829486 12.018181 -63.194035 30.58211 -4.171918
-1.6930366 -2.0668552 26.788134 -118.700386 8.196192 -34.1933 0.13103686 -2.4922817
5.9088597 -6.823623 -5.59472 7.2772517 24.354803 142.35489 -4.484789 0.37319428
0.2557484 3.1328855 -1.9626473 -67.30798 -71.5689 -1.1797997 68.75808 -6.837071
-37.73146 243.29536 3.7171779 30.16122 -49.1046 16.670835 -33.874325 4.4809628
11.38098 25.643158 140.6213 -28.8773 2.9704666 -8.849007 -3.537535 -26.8808
-18.08239 -6.2514067 -34.253693 -15.572439 34.322247 11.959024 137.79251 -25.655573
42.767086 2.1419802 48.442223 -155.04834 114.85862 -74.43208 -56.42871 -57.872883
45.309 14.963249 -49.138733 -2.670639 -11.060503 -3.6635847 22.738808 -122.13999
2.9135144 6.0503135 33.047714 9.918137 15.260177 38.170937 -3.209695 20.588594
-6.7983146 -19.733511 -1.9651405 -9.644162 7.709299 1.4796852 -8.171107 -3.739959
-10.507785 -1.2283144 -15.911031 0.333391 -21.980526 -28.357624 0.5244945 28.253244
-2.8807642 -1.7193316 22.859861 19.416235 4.6187625 1.8926212 -4.812169 -29.3826
25.834404 -21.284746 -14.810997 -31.657696 -21.972988 -32.587494 30.160185 -1.3704181
-0.75434977 -0.2528498 30.859186 65.11379 -9.396854 -0.8119467 -8.710461 -2.9112566
-19.48861 -88.9582 0.41228634 -4.284909 -10.555514 -28.503834 16.710873 -12.868531
2.5482383 -11.069417 -24.039629 -16.245226 0.7037577 5.8598604 -4.1156607 -4.0777993
23.958517 -27.708809 1.5803324 34.292763 1.7822915 5.7940254 30.93031 -51.848183
-0.9991055 -41.291054 1.2508057 -3.5758848 6.3164706 -12.388809 -0.8321852 0.82302165
27.364195 -10.86672 24.507908 -7.4555087 2.7214656 -5.162493 -29.420399 -73.964745
-2.6553648 6.963303 36.504543 -28.937807 9.538515 -46.713127 6.9562664 2.7208955
2.980984 14.882942 -13.38534 -0.9205622 5.059456 -0.96917915 -17.799978 101.12653
-17.71656 -0.2599808 2.6224678 -5.4566717 -8.464242 6.197889 -54.67473 8.961257
-1.6031101 4.6054688 -6.1365185 155.18205 -8.06246 46.679127 -36.997036 -0.84793806
-0.9881522 -1.6207122 -3.0388794 -4.7515254 -19.83755 -28.453787 33.312862 -3.468529
-2.7217503 -2.3955917 23.440006 49.64509 38.638283 -0.6058011 -17.637869 -9.4128065
-9.849235 -70.39652 1.856349 -5.04005 -4.568332 3.869257 0.06798737 7.717535
-5.9220247 11.554415 -5.1001844 21.92522 10.568728 -0.4031046 3.0328956 7.7050457
26.82794 43.89202 36.98944 -2.6539912 -11.703356 -0.88088757 -43.792595 -67.779335

fc1.bias f4 [256]
00000000: e579 fec1 2db2 7042 c2d8 aac2 5a43 0c42
00000010: 9b86 00c2 86e4 9ec0 6974 3e41 e2db 2942
00000020: cd05 dc40 c6aa 06c2 bdde b63e 76ff 8642
00000030: ce37 43c2 a267 0a42 c313 b641 4907 1ac2
00000040: f747 0f41 bdb7 92c1 d882 d041 fea7 b440
00000050: e1d3 ffc1 5b53 9041 fd52 8040 8fad 24c2
00000060: 4dd5 8241 2ded 2641 db4d 2442 8040 7741
00000070: 77df e4bf 2f8c cec1 4634 7041 5b79 d4c1
00000080: b846 f541 3724 c9c1 a4a1 7641 c650 7140
00000090: 5150 adc1 1dbc 7142 5441 04c1 b76d 2542
000000a0: cac9 a1c1 a01d e242 3d08 e23f 61bc 8542
000000b0: 53dc 0840 b33d 4a41 56d1 9d42 1027 3240
000000c0: 9897 df41 8d18 8ec1 ad87 65c1 ee42 1a42
000000d0: 5328 4fc1 e8b5 b3c0 2628 8cc1 8faa ffbf
000000e0: 341a 0b42 42ea b2c1 3b83 ce41 bb94 2ec1
000000f0: 0178 5dc1 78b2 af42 5906 6a42 3ffb 3b42
00000100: 9514 83c1 c769 b0bf a66d cbc1 7d75 dd41
00000110: f14c 3d41 8553 0bc2 c931 f841 eddc 0d43
00000120: 8c34 70c1 8153 ad42 d639 11c2 599a 5d42
00000130: 4419 3641 f1be b1c1 be0a cdc1 ebe6 9541
00000140: 3ad6 0443 c1db 3042 9b15 f241 7988 f4c0
00000150: 6489 8dc1 c9d0 37c2 910d 6841 4372 13c1
00000160: ab0e 41c2 c4ee e341 f8cc d840 f8a0 7742
00000170: c2fe 3842 614e c142 77a2 45c2 18e5 30c0
00000180: 9ca9 3cc2 bbf4 dcc1 6da7 6ac1 4681 7741
00000190: 9b3b f142 876d c542 a16d fdbf 7ca1 aec1
000001a0: 7b10 bd42 0ff2 0941 65e6 3641 d6eb cfc1
000001b0: 814c 7ac1 948c e242 1c73 d1c0 efeb 6fc1
000001c0: ddb7 4dc2 62ea 6942 678a c941 1606 f5c0
000001d0: 4bf2 1841 2cc2 d641 1ed2 43c2 26c5 1240
000001e0: c47c 0ac2 92d3 08c2 71d8 c3c1 48dc 4e41
000001f0: aa80 7ec1 4f73 f3c0 93ce d43f c900 3e41
00000200: 62d2 eec0 da8e cb40 5a20 c9c1 5092 b3c0
00000210: 31e4 3a41 e5dc d73f ab2b a5c1 a3e6 c0c0
00000220: 7674 15c2 8d64 b442 161f 8840 58fb 34bf
00000230: b951 2141 a35f 9641 c3b4 d540 b59f 1543
00000240: 45ae 5cc0 e3fd 4fc1 d0db 0c43 2e3a 8dc0
00000250: 5ba5 7e42 5568 75c0 2894 cd41 fa08 b7c0
00000260: d170 ff40 39dc 0041 3e41 8f42 12d8 a5c1
00000270: a975 cec1 6faa 2bc2 0514 2ac2 0342 8d41
00000280: 1884 2dc1 7227 2a42 4e35 4642 8728 3442
00000290: 5982 9242 5988 8842 2793 a040 daca a4c1
000002a0: ad9e c3c0 90fd b2c0 ef75 09c0 42ce 2a42
000002b0: 82ae d940 6937 9742 e079 bfc1 57f2 f641
000002c0: 934e 0dc1 2165 0643 3d8f 08c1 7dcc c2c1
000002d0: 58c3 2840 54c4 dfc0 72ba 21c1 8204 4d42
000002e0: aabd 8fc1 8d53 2a42 018a c141 bba4 50c1
000002f0: 3f85 9241 2043 e7c0 f099 8442 7856 89c0
00000300: cce3 17c2 89f0 0542 182d 8abf a4fe 8c42
00000310: f2bc e841 0d1e 0342 328b 89c1 a7f7 4340
00000320: 41f5 be41 9dc7 d1c1 f4a7 78c1 9b56 9cc1
00000330: 10a6 b840 ed7f 55c2 a4ad aec0 5fcc abc1
00000340: a108 4dc0 a692 7e42 abaf edc0 47c5 a3c0
00000350: 594b ae41 c4ef d241 fb96 b5c0 5b68 b8c0
00000360: 5025 6142 b14b 3442 c6c9 f942 8dad c1c1
00000370: f61a 4941 233c d241 0079 f042 2ec9 ba42
00000380: 416f f241 3b78 f5c0 de5b b942 6233 9c41
00000390: b3f5 febf 8482 22c1 39a8 49c1 2a9f 8142
000003a0: 74e6 9b42 a245 8641 8b1c 01bf 7424 eac1
000003b0: ce6f d7c1 5210 0741 516e 54c1 b957 98c1
000003c0: abd9 5d41 a2bd 12c1 673b 0bc2 403c 2ec0
000003d0: 32c7 9242 673a 0642 bce2 8842 1aa7 0b42
000003e0: 42aa f0bf a3a0 ff42 3eca bcc1 4b52 c341
000003f0: ae7f 01c1 dfee 06c2 031c c142 7fc4 82c2
-31.809519 60.174 -85.423355 35.065773 -32.13145 -4.965396 11.90342 42.46473
6.875708 -33.66677 0.3571681 67.49895 -48.804497 34.601204 22.75965 -38.507114
8.95507 -18.339716 26.063889 5.645507 -31.978456 18.0407 4.0101304 -41.16949
16.35415 10.432904 41.07603 15.453247 -1.7880696 -25.818449 15.012762 -26.559256
30.65953 -25.142683 15.414463 3.770555 -21.664217 60.433704 -8.265949 41.357143
-20.22353 113.05786 1.7658764 66.86793 2.1384475 12.640063 78.90886 2.7836342
27.94902 -17.761988 -14.345624 38.56536 -12.947345 -5.6159554 -17.519604 -1.9973925
34.77559 -22.364384 25.814077 -10.911311 -13.841798 87.84857 58.5062 46.995358
-16.38505 -1.3782281 -25.42854 27.682367 11.8312845 -34.831562 31.02431 141.86299
-15.012829 86.66309 -36.30648 55.40073 11.381168 -22.218233 -25.630245 18.737753
132.83682 44.214603 30.26055 -7.6416593 -17.692085 -45.95389 14.503312 -9.215396
-48.264324 28.491585 6.7750206 61.907196 46.248787 96.65308 -49.408657 -2.7639828
-47.165634 -27.619497 -14.665875 15.469061 120.61642 98.71392 -1.9799081 -21.82885
94.53219 8.621596 11.431249 -25.990154 -15.643678 113.27457 -6.5453014 -14.995101
-51.429554 58.47889 25.19258 -7.656993 9.559154 26.84481 -48.955193 2.293283
-34.62184 -34.20661 -24.480684 12.92878 -15.906412 -7.6078258 1.6625541 11.875192
-7.4631815 6.361188 -25.140797 -5.6116104 11.680711 1.6864287 -20.646322 -6.028154
-37.36373 90.19639 4.2537947 -0.7069602 10.082452 18.796698 6.6783156 149.62386
-3.4481366 -12.999484 140.85864 -4.413352 63.66148 -3.834493 25.697342 -5.719846
7.9825215 8.053765 71.627426 -20.730503 -25.807451 -42.91644 -42.51955 17.657232
-10.844749 42.53852 49.552055 45.039577 73.254585 68.266304 5.017963 -20.599049
-6.1131196 -5.5934525 -2.147823 42.701424 6.802552 75.60822 -23.93451 30.86833
-8.831683 134.39503 -8.53497 -24.349848 2.6369228 -6.992716 -10.108019 51.254402
-17.96761 42.581593 24.192385 -13.040217 18.315062 -7.226944 66.30066 -4.2918053
-37.972458 33.484898 -1.0795012 70.497345 29.092258 32.779346 -17.192966 3.0619905
23.869753 -26.222467 -15.541004 -19.542288 5.7702713 -53.374928 -5.4586964 -21.47479
-3.2036517 63.64321 -7.427694 -5.1178317 21.78679 26.367073 -5.67468 -5.7627387
56.286438 45.073917 124.89409 -24.209742 12.569082 26.279364 120.23633 93.39293
30.304323 -7.6709266 92.67943 19.52509 -1.9918731 -10.156864 -12.60357 64.81087
77.9501 16.784 -0.5043418 -29.2678 -26.929592 8.441484 -13.276933 -19.042833
13.865642 -9.171297 -34.80801 -2.7224274 73.38905 33.557034 68.44284 34.913185
-1.8801959 127.81374 -23.598751 24.415182 -8.093672 -33.733273 96.55471 -65.38378

fc2.weight f4 [256, 256]
00000000: 0118 2c3c 1fbf a3bc f40e d6bc 10dd 393b
00000010: a97e 41bc fbad 70bd c0ba 04be 84ab afbb
00000020: 40ad b9bc 60b3 25bd 2c13 b0bd f00e 1abd
00000030: ef93 45bd 9cfe 50bd 0742 3d3d 9977 9dbc
00000040: 6f6a 93ba c33f eabc f66d 2bbd ad2c 9d3d
00000050: 9d5c 63bd f3d2 d43b f547 04be 5e0f cdbd
00000060: a452 803c ce1e 4dbd 7a69 a2bc 0886 55bc
00000070: 11fe 6dbd 59b0 8d3c 3d2a 86bc 7d83 6ebd
00000080: 3755 ef3b 90c0 643b e869 d2bc 0c0a d2bd
00000090: 4e28 77bd 4621 a3bd 7b29 9ebd b4d3 40bd
000000a0: cf90 5c3d 1a27 83bd 8c3e 28bd 7145 6cbc
000000b0: 8851 41bc c4f8 d6bd 23d0 29bd bcf1 703c
000000c0: 3d29 94bc 1f4b bdbd a15f 043d 91af 7abd
000000d0: 0ab2 b6bc c9fa 033d a0c3 b13c 3c79 b1bd
000000e0: ffd7 f8bc 431d 6cbc db18 e8bd dc08 dcbc
000000f0: b5ed 0fbd 01ff e5bb 7af1 4abd 7086 d1bd
00000100: 2c07 e3bc 7527 f4bd e819 febb 8644 c43c
00000110: cc56 d0bc 9782 293b 63a5 cdbd 36c7 22bd
00000120: 6d9c fa3c f975 8fbd 00b4 30be c864 dcbd
00000130: ca9b 933c 08de eabd 8ef0 4ebc 8b6e d6bc
00000140: a7cb 0abd 98a6 253c 1fa0 483d 7d01 893c
00000150: e82a afbd b75f 26be d981 6ebd 940c 833b
00000160: 0b6d b63c a1db fabd dbfc 15bd 449e 363b
00000170: 94cf 94bd b775 40bd ae59 4bbd 5b28 663d
00000180: c115 e6bd 6c1b 583c 849e 53bd 95be c7bc
00000190: df57 88bd 058e 95bd c030 27bb b2eb 97bb
000001a0: a611 993c 7808 3b3b 69ce f53c bf72 d8bd
000001b0: e2f2 6fbc c721 94bd 1745 9fbd e7cc 9dbd
000001c0: 53de 21be 1938 9bbd f4ba a23c c6a4 6dbc
000001d0: 7c92 673d 4ad6 07bd 8fe4 92bd a376 303d
000001e0: aca2 dcbd 7bfa a13a c175 163d 2576 d3bd
000001f0: 90e4 aabc 84ee 5fbd 9450 99bc fa10 2d3b
00000200: fa31 90bd dae9 783c 7f77 813c e117 30bd
00000210: 2465 393d f418 aa3d a44a d8bc a374 183b
00000220: 4218 c9bd d268 73bc 836e b3bd a1b8 8cbd
00000230: ec07 c4bd 7ba4 22bd aa46 c3bc b1b3 8bbc
00000240: afa1 02bd 18ac 663c 1f55 bebc 1dab 96bd
00000250: 5465 7ebd 812b babd c62f 1b3c ae25 27bd
00000260: a4ed c0bb 399e dbbc 0bbf b3bd 01f3 12bd
00000270: 6a09 9abd 9ff4 90bd dc09 c73b 1688 9bbd
00000280: c844 a8bd e4c8 49bd be9f 8fbc 4468 233b
00000290: c40d 6fbb ae7f e7bb d8fd fdbd b702 cfbc
000002a0: e5fa df3c 8065 c4bb 442f 0f3d e6a7 a9bd
000002b0: ec47 c9bd d62e 9ebd db31 45bb 1429 b2bc
000002c0: c0c1 ce3c d26e 4dbd 8741 80bd 9d55 8bbd
000002d0: 1300 90bd 3d03 d3bb 4d18 95bd 2aa1 943c
000002e0: 4e04 5cbb 8e0d 6bbd e995 c7bd 5828 c93c
000002f0: 127b aebc 6a4d f8bc f8f5 91bd 57d0 8dbd
00000300: f059 9fbd 4003 4c3c 19b5 743c 0ec3 05bd
00000310: f0bf 89bd fc6f e0bd d04a f6bc 19d5 cebd
00000320: 2c59 17bd 2edb 80bd 0ca7 08be e93d 3bbd
00000330: 664f f2bb ee1d 7a3b be77 63bd 5e77 11bd
00000340: 6666 1fbc 3be9 5fbd bd8d 383c 420b 11be
00000350: 4291 aa3b cc47 01bd ced4 243d f2a9 d93a
00000360: 39a0 5d3c b1f6 4bbd 2112 e8bc bd71 273d
00000370: be11 7fbc 36be acbd 06aa 41bd 4379 5dbd
00000380: 3952 0e3d 976f a639 6e17 91bd 68de 8cbd
00000390: 19c9 edbd ff66 973c 25a2 1e3d 36fc 0ebc
000003a0: c48f 96bc c07c 99bd acd2 10be b624 d6bd
000003b0: a048 f4bd 1b2d 5e39 99eb 683c 050b 2abe
000003c0: 9a0f 76bd 9322 11bc a0c9 4f3c 700a 90bd
000003d0: aad8 4ebd 766b aebc dcf7 24bd 4741 71bd
000003e0: 49a5 8e3d 6567 b8bd b70c 4fbd c788 b3bc
000003f0: 95b9 283d d9bd 14be ab96 92bc 543b de3d
0.01050377 -0.019988595 -0.026130177 0.0028360523 -0.011809983 -0.05875967 -0.12961864 -0.0053610224
-0.02266562 -0.04045427 -0.08597407 -0.0376119 -0.048236784 -0.051024064 0.046205547 -0.019222068
-0.001124693 -0.028594857 -0.041852914 0.07674537 -0.055508245 0.0064948737 -0.12918074 -0.10012697
0.015664406 -0.050078206 -0.019825686 -0.013032444 -0.058103625 0.017296003 -0.016377563 -0.058230866
0.0073038596 0.0034904815 -0.025685266 -0.102558225 -0.060341172 -0.07965331 -0.077227555 -0.047076896
0.053849038 -0.064039424 -0.041075274 -0.014420853 -0.011799224 -0.10496667 -0.04145826 0.0147060715
-0.01808607 -0.09242844 0.03231776 -0.06120259 -0.022301693 0.03222159 0.021699727 -0.08665702
-0.030376432 -0.014411273 -0.11332866 -0.026859693 -0.035138804 -0.007018924 -0.049546696 -0.1023072
-0.02771338 -0.11921588 -0.007754553 0.023958456 -0.025432013 0.002586519 -0.10041311 -0.039740764
0.030592168 -0.070049234 -0.17256165 -0.1076141 0.018018622 -0.1146813 -0.012630595 -0.026175758
-0.033885624 0.01011052 0.04898083 0.016724342 -0.085531056 -0.1624745 -0.0582293 0.003999302
0.022268793 -0.12248922 -0.036618095 0.002786533 -0.07266155 -0.04698726 -0.049646072 0.05619083
-0.11234618 0.013190132 -0.051664844 -0.024382869 -0.06657385 -0.07302479 -0.0025511235 -0.0046362514
0.018685173 0.0028538983 0.03000565 -0.10568761 -0.01464531 -0.07233005 -0.0777685 -0.07705098
-0.15807466 -0.07579059 0.019864537 -0.014504617 0.056536183 -0.033163346 -0.071725 0.04308189
-0.10773215 0.0012357974 0.036733393 -0.10325269 -0.02086094 -0.054670826 -0.01871518 0.0026407824
-0.07040782 0.015192473 0.01580405 -0.042991523 0.04526247 0.08305541 -0.026402779 0.002326288
-0.0981908 -0.014856534 -0.08761313 -0.06871153 -0.095718235 -0.039707642 -0.023837406 -0.017053457
-0.031892475 0.014079116 -0.023233948 -0.07356856 -0.062108353 -0.09090329 0.009471839 -0.04080742
-0.005887704 -0.026808845 -0.08776673 -0.035876278 -0.07521327 -0.07077908 0.0060741734 -0.07594316
-0.08216244 -0.04926385 -0.017532226 0.0024933973 -0.003647671 -0.007064781 -0.124019325 -0.02526985
0.027341316 -0.005993545 0.034957185 -0.08283977 -0.09828171 -0.07723777 -0.003008953 -0.021748103
0.025238872 -0.050154515 -0.06262498 -0.06803439 -0.07031264 -0.006439595 -0.07280026 0.018143255
-0.0033571902 -0.057385974 -0.0974539 0.02455537 -0.021298919 -0.030310351 -0.07126993 -0.06924503
-0.07780826 0.012451947 0.014935755 -0.03265672 -0.06726062 -0.10958859 -0.03006497 -0.10099239
-0.036950275 -0.06291805 -0.13344973 -0.04571334 -0.007394719 0.0038164812 -0.055534117 -0.035514228
-0.0097290035 -0.054665785 0.011264262 -0.14164451 0.0052053044 -0.03156261 0.04024201 0.0016606434
0.01352697 -0.04979581 -0.028328957 0.040879954 -0.015568195 -0.08434717 -0.047281288 -0.054070722
0.034746382 0.00031745128 -0.07084547 -0.06878358 -0.11610622 0.01848173 0.03872885 -0.008727124
-0.0183791 -0.07494497 -0.14142865 -0.10456221 -0.119279146 0.00021188373 0.014216327 -0.16605766
-0.060073473 -0.008858341 0.0126823485 -0.07033241 -0.050499596 -0.021291476 -0.04027544 -0.058900144
0.069651194 -0.09004096 -0.050549235 -0.021915806 0.04119261 -0.14525546 -0.01789411 0.1085116

fc2.bias f4 [256]
00000000: 092f 36bd bb14 2d42 50a5 01be a8c8 8240
00000010: e47a 96c1 c0cd 83bd 61c8 29c0 7f81 adbb
00000020: a6c8 3b42 7718 86bd 54e7 d2c1 0bb8 3242
00000030: 092f a2bd 686c 0142 b205 0c3d 7059 fbbc
00000040: 476c 9142 3ab5 b5bd f746 86bc 3e4a 3bbc
00000050: 58fa b7bd c941 cd3c c408 c3bc 8e72 4442
00000060: 1d37 b93b 80ac 0542 0083 b8c0 7440 15c1
00000070: ac7d 1642 43cf 13bd 3e5f b140 7cfd b142
00000080: 135a e140 d416 823c 58d4 1dbd f45c 40c0
00000090: 5f41 96bd e4ac a93b 362c 1242 d7da 983c
000000a0: 793d b13c 96c7 c2bd 4bfa 0141 8c33 1142
000000b0: 8fe8 72bd 828c 9dbc f584 1d42 bdba ccbd
000000c0: 7d85 9ebd d370 26bc 14a8 9b3c f645 5342
000000d0: a71c 2242 7dbb 2a3d cd3f 8041 9589 b6bd
000000e0: 4539 98c1 11e4 1642 5871 e0c1 dd97 0442
000000f0: 5e66 1942 0fae 9941 08ad 86c1 2c6b 55bd
00000100: fc50 4d41 a9b4 41bd 2f73 193d dbd2 1741
00000110: b3ac d1bd a05c a2bd 3baa cbbc 090b 2042
00000120: b906 55bd 6823 913f 068a 6041 61cd b940
00000130: dcf2 a6bd bfed 313c 69cf ba41 33c2 0842
00000140: 0d8d aebd 23a0 0e3c d47d f140 ae22 7bbd
00000150: ace2 a4bb 2fc2 a1bb 5cbb 263b a061 4ebd
00000160: e59b 0d42 61bd 8fbd 2e35 5d3c 9b5f 933c
00000170: 0442 a6bd be1a a2bd d5ed f3bd aadd 88bd
00000180: 8efc 56bd f15f b142 0b43 bebd 75b1 0542
00000190: 9bf8 ccbd f51a 36bd 94a7 e9c1 dac9 87bc
000001a0: 824a cabd cb47 863c 9ad1 4bbd 2d59 64bd
000001b0: 8a96 8cbc 001e 7abd 973d 08bc 2a0a 2b42
000001c0: 9961 943b 0727 07bc 83e6 8cbd 33b4 a7bc
000001d0: 0843 53bd fb91 8abd 64f0 8841 2a15 b6c1
000001e0: a282 893c 961b 5ebd 396a 1bbd 5944 bc41
000001f0: df0a 4841 e867 57bc 56c2 cb41 f5da 80bd
00000200: 51b1 0342 573a 2142 5851 c2bd f0c2 b0c1
00000210: 73c9 4fbd 7606 6742 9e11 55bd 4230 97bd
00000220: b0f0 ab41 908f 25bd c6b1 d5bc 3b2a 0b42
00000230: 1bae a8bd 854a 34bd 169c 0f41 fe09 3442
00000240: ecad 80bd 7a00 28bd 00e8 fe41 412a d341
00000250: 13fb 0fbd c7e8 82bd 3104 e1bc f64e 4bbd
00000260: e78f dbc1 18ae 38bd 442a 1242 b196 a8bd
00000270: f6b1 90bd f900 3cbd d547 c4c1 9e2b c5c1
00000280: c0af 38bd 0b19 a142 a44a 2a42 583e 96bd
00000290: 3ded c2c1 2f4c 8842 d54b af41 54a9 5542
000002a0: d401 76bd 9faa d541 326f 91bc f6ad fcb9
000002b0: 42c9 2042 0bef 67c0 abef adbb ba5a 2442
000002c0: bfda d5c1 2d10 95bd 1466 9fbd 711b 0d3d
000002d0: 784f f5bc fa36 373d ac31 a8bd c356 833c
000002e0: c813 21bd b91f 73bd b679 c4bc 15a6 fe3b
000002f0: 71c1 1a41 ec90 973c 94f9 06bd fd3a b4bd
00000300: 3228 0abc e335 513d e5fa 2f3d f33a b9bd
00000310: 1301 4042 0a08 9ebd d62a 1cbd e6ff 3542
00000320: 6f88 8bc1 b445 e3bc 8590 2dbd 7152 95bb
00000330: 52f8 8542 58f3 a5c1 6c29 d3ba 2dd8 eec1
00000340: f8ef 83bd 3f1e a742 7a04 7b42 3099 e341
00000350: 5356 2b42 d2b7 a9bb cf50 c23c efd1 adbc
00000360: 23dc 4cbb 3e1f 9f3a fea8 8ebd 5d6e c7bc
00000370: ef72 7042 a580 89bc bf9e 9abc 09dd cbbc
00000380: d23c 0942 3f83 8ac1 6314 d4c1 6b11 ff41
00000390: ee52 483c 733a 7242 70dc fcbc 05ba 7ebd
000003a0: 89f9 b8bc bf3f cbc1 bb5e 1f42 882d 65bd
000003b0: 4b03 1e42 0559 1d41 c1bd 6fbc c237 bcbc
000003c0: 1d9c bdbd ba5c b1bd 710e 05bd 52c9 acbd
000003d0: 1169 69bd 9f66 023c 0d3b 87bc 0353 2b42
000003e0: d9ed a8bc 9a1c 83bd b37f d6bc 98f6 15bd
000003f0: 0b97 3641 466f 36c1 579f 84bd 3e8d 86bc
-0.04447845 43.270245 -0.12660718 4.086994 -18.810005 -0.06435728 -2.6528552 -0.005294978
46.945946 -0.06547635 -26.362953 44.67973 -0.079191275 32.355865 0.03418512 -0.030682296
72.71148 -0.08872457 -0.01639126 -0.011431275 -0.08983296 0.025055783 -0.02380789 49.11187
0.005652322 33.418457 -5.765991 -9.328236 37.622726 -0.036086332 5.5428762 88.99509
7.0422454 0.015880026 -0.038532585 -3.0056734 -0.07336687 0.005178081 36.543175 0.018659038
0.021635758 -0.09510724 8.123607 36.30034 -0.059303816 -0.019232038 39.37984 -0.09996555
-0.077403046 -0.010158735 0.019001044 52.81832 40.52798 0.04168271 16.031153 -0.089129604
-19.027964 37.72272 -28.055344 33.148304 38.349968 19.20999 -16.834488 -0.05210416
12.832272 -0.04729143 0.037463363 9.488978 -0.10238018 -0.07927823 -0.024861446 40.010777
-0.052008364 1.133893 14.033697 5.8063207 -0.081517905 0.010859906 23.351274 34.189648
-0.08522997 0.008705172 7.54661 -0.06131237 -0.005031904 -0.0049364786 0.0025441265 -0.05038607
35.40224 -0.07018543 0.013501449 0.017989924 -0.0811806 -0.07915257 -0.11910597 -0.06682904
-0.05248695 88.687386 -0.09290131 33.423298 -0.10008355 -0.044459302 -29.206825 -0.016575743
-0.098774925 0.016391655 -0.04976044 -0.055749107 -0.017161626 -0.061063766 -0.008315465 42.759926
0.004528236 -0.008249051 -0.06879904 -0.020471668 -0.051577598 -0.06766125 17.117378 -22.760334
0.016785923 -0.054225527 -0.0379431 23.533373 12.502654 -0.013147332 25.46989 -0.06291763
32.92316 40.306973 -0.09488171 -22.095184 -0.050729226 57.75631 -0.052018754 -0.07382251
21.492523 -0.040420115 -0.026085746 34.79124 -0.08236333 -0.04401638 8.975607 45.009758
-0.06283173 -0.04101608 31.863281 26.395632 -0.035151552 -0.06392055 -0.027467819 -0.04963585
-27.445265 -0.045087904 36.541275 -0.08231867 -0.07065193 -0.045899365 -24.535074 -24.646297
-0.045089483 80.54891 42.57289 -0.0733611 -24.365839 68.148796 21.912027 53.41536
-0.060060337 26.708311 -0.017753217 -0.00048194797 40.19654 -3.623965 -0.0053081117 41.0886
-26.73181 -0.07278476 -0.07783142 0.03445 -0.02994512 0.044730164 -0.08212599 0.016032582
-0.039325505 -0.059356425 -0.023983818 0.0077712634 9.672227 0.018501721 -0.03295286 -0.088003136
-0.008432435 0.05107678 0.04296388 -0.09044447 48.00105 -0.07716377 -0.03812679 45.4999
-17.441618 -0.027743198 -0.042374153 -0.004556947 66.985 -20.74382 -0.0016110367 -29.855555
-0.06442255 83.559074 62.75437 28.449799 42.8343 -0.005179384 0.023720173 -0.021218268
-0.0031259141 0.0012140048 -0.069658265 -0.024344618 60.11224 -0.016784975 -0.018874524 -0.024885671
34.309395 -17.314085 -26.509954 31.883505 0.012226803 60.55708 -0.030866832 -0.06218912
-0.022579925 -25.406126 39.84251 -0.055951625 39.503216 9.834233 -0.014632643 -0.022975806
-0.09258292 -0.08660264 -0.032484476 -0.08436836 -0.056984965 0.007959037 -0.01650765 42.831066
-0.020621227 -0.0640194 -0.026183939 -0.036612123 11.411876 -11.402166 -0.06475704 -0.016424771

q.weight f4 [1, 256]
00000000: 2879 c8bc 907d 8343 54c0 8fbe 660b 90c3
00000010: f0d9 a4c3 eb40 9dbc cdc6 86c3 2fa5 913c
00000020: d1c1 4e43 9a33 8e3c ee2d 9cc3 a0e9 4043
00000030: a99d f93a cdbe 9243 2ace 2bbc 6721 b9bc
00000040: 425e 0643 7c49 c5bc df93 c4ba 98a2 98bb
00000050: 1000 003d 9533 223c 7a19 f43c db54 7a43
00000060: e169 c3bc e1ca a6c3 a31a 52c3 c9a4 7dc3
00000070: b99c 7343 10e0 dbbc e344 81c3 1156 aa42
00000080: 1127 92c3 f89b ed3b 09ee 943b 4839 91c3
00000090: 3603 5bbc 6542 853c e9cb 9443 d968 03bc
000000a0: 3278 2b3a 6c0c f7bb 32e3 acc3 c6e8 bfc3
000000b0: d890 5dbc 1cb2 423b 9bd7 6243 06c8 123d
000000c0: 55de da3c 0e0a b3bc dbe8 163c a23f 8043
000000d0: c0a6 9643 bcdb 94bc 870d 96c3 8793 10bd
000000e0: 91c5 97c3 0fce 9843 a887 9ec3 9d89 a2c3
000000f0: b2a9 9343 7b41 75c3 bc4a 9ec3 eed7 8abc
00000100: cad2 99c3 a390 983c 23a3 33bd 7237 96c3
00000110: 7a7e cdbc 3c74 fd3c 0c4a 8ebb c87c 9543
00000120: 3388 02bc 2d15 8fc3 4ab0 94c3 2953 8ac3
00000130: 1efe c1bc 24d2 aebb 5b20 98c3 c387 7943
00000140: 8257 073d 46e1 dabb 9938 9fc3 01ab 6a3c
00000150: 8cfd c53c 0f5a 2abc 8e4b 75bb 0b06 f6ba
00000160: 4c6a 8543 07a0 823b 2ccf 28bc b7f5 023d
00000170: eed8 143c 2dbd b2bd f7c8 b1bc 990b e83c
00000180: 8918 adb9 674d d042 a841 89bc b7c6 8c43
00000190: 92b4 543c 91a1 1ebc dc68 c2c3 b28d de3b
000001a0: a85e cf3c db3b 56bc f24a c0bc 22a4 e4bb
000001b0: 5c3b 693c 62a2 543d 3342 bd3c e7c3 9543
000001c0: cd88 3a3b 6d31 da3b 1526 b5bb 66a0 8fbc
000001d0: 1f75 c6bb e0f1 2fbc 3d6f 99c3 c701 a6c3
000001e0: ef22 833c 0230 d43b bf25 123e 0e0c b4c3
000001f0: cab8 91c3 aad5 0cbc 7200 cbc3 f61c 3a3c
00000200: cbdc 9843 6b8d c4c3 42bb dc3c b270 95c3
00000210: bda6 73bd 743a 2f43 1612 c2bb cd5b ad3c
00000220: 9d93 9ec3 e3cc a8bd ea02 d2bc 927d b7c3
00000230: 7e76 9e3c a6f3 783b 2303 90c3 d175 5b43
00000240: 33d9 b43c 367b e539 73c3 c0c3 82f6 88c3
00000250: 7825 b53d 86e6 843c fbb6 01bd 4d6c 263d
00000260: 2d4b abc3 e723 5fbc eeb2 8a43 0811 8abc
00000270: aa0f a5ba 8f28 8fbb 65ea a2c3 888f cfc3
00000280: f16f e13a 9ddf ec42 98fe 6d43 a2a3 3fbc
00000290: d55e c7c3 124c 5843 3c4c 97c3 2ad8 3e43
000002a0: 26d1 64bc 01e4 bdc3 bc1d 22bc f65a 24bd
000002b0: 0cfc d6c3 8d84 76c3 d465 f73c 715d 7b43
000002c0: 9b34 a9c3 8fd2 9cba 1649 aabc fc91 253d
000002d0: cec4 9c3c ae39 de3c 06ba 3dbc 9402 0bbb
000002e0: ba78 c9bc 884d 1d3d 08ff 95bc c46c f43c
000002f0: fe54 57c3 5c95 25bf 4d9a ba3d 14d5 c3bc
00000300: 8919 a93c b2ab fbba e088 063c 29ba dc3c
00000310: c9cb 4843 f608 4f3c 3b63 ddbf 8872 8c43
00000320: 8ca1 b7c3 3364 823c b568 b03c 7873 d83b
00000330: b851 fc42 4cf5 b5c3 df5c a33c 8f5c a6c3
00000340: a1dc cabc 39cc 9443 4124 1e43 273a 8dc3
00000350: 12dc c7c3 b493 a4bc e14a b8bc bb83 42bb
00000360: 6137 833c 9961 c3bb 8fdf 063d e835 aa3c
00000370: 5787 7b43 f93e 153d 3709 1c3d b2ed d23b
00000380: 1c71 b7c3 8c12 c8c3 ffd1 76c3 7f3c b9c3
00000390: 5cf7 d9bc 4820 5e43 b8f3 6dba d7d3 483c
000003a0: eb77 11bd fe71 b8c3 a611 8543 ed6d ac3c
000003b0: cbde c1c3 ddd4 aec3 3791 70ba 5469 873a
000003c0: dc06 62bc 2f57 1f3b 3224 b23b d2df e8bc
000003d0: a391 cabb 4139 a63b 9dc6 ae3c 5de7 cdc3
000003e0: 6932 b1bd 4948 c0bb 0848 0dbc 52af 3bbd
000003f0: fb0d 99c3 66c2 bcc3 e10e 38bc b34c 1d3d
-0.024471834 262.98096 -0.28076422 -288.08905 -329.70264 -0.019195994 -269.55313 0.017778961
206.7571 0.01735859 -312.35883 192.9126 0.0019044179 293.49063 -0.010486165 -0.022598935
134.3682 -0.024082892 -0.0014997682 -0.0046580546 0.03125006 0.009899993 0.029797304 250.33147
-0.023854198 -333.585 -210.10405 -253.64369 243.6122 -0.02684024 -258.53818 85.1681
-292.3052 0.007251259 0.0045449776 -290.4475 -0.013367465 0.016267011 297.59305 -0.008020603
0.0006541043 -0.0075393226 -345.77496 -383.81854 -0.013523303 0.0029708212 226.84221 0.03583529
0.026717344 -0.02185538 0.0092107905 256.49713 301.30273 -0.018171184 -300.10568 -0.035296943
-303.5435 305.60983 -317.0598 -325.0751 295.32574 -245.25578 -316.58386 -0.016948666
-307.6468 0.018623656 -0.04385675 -300.43317 -0.025084723 0.030939214 -0.004342323 298.97485
-0.007967043 -286.16544 -297.37726 -276.6497 -0.023680743 -0.0053351093 -304.25278 249.53032
0.03304244 -0.0066796867 -318.44217 0.014322997 0.024168752 -0.010397448 -0.0037429067 -0.0018770111
266.83044 0.003986362 -0.0103033 0.031972613 0.009084923 -0.08727489 -0.021702273 0.028325843
-0.00033015411 104.15118 -0.01675494 281.55246 0.012982504 -0.009682075 -388.8192 0.0067917937
0.02531369 -0.013075794 -0.023473237 -0.006977574 0.014235344 0.051912673 0.023102855 299.5305
0.0028462887 0.006658724 -0.0055282214 -0.017532539 -0.0060564424 -0.01073882 -306.86905 -332.0139
0.016007869 0.0064754495 0.14272211 -360.09418 -291.44366 -0.008595863 -406.00348 0.011359444
305.72495 -393.10483 0.02694476 -298.88043 -0.059485186 175.22833 -0.005922566 0.021161938
-317.15323 -0.08242204 -0.025636155 -366.98102 0.01934361 0.0037987023 -288.0245 219.46022
0.022076225 0.00043770083 -385.52695 -273.92584 0.08845037 0.016223203 -0.031668644 0.040630627
-342.5873 -0.0136194 277.3979 -0.016853824 -0.0012593169 -0.0043688486 -325.8312 -415.12134
0.0017199499 118.436745 237.9945 -0.011696728 -398.74088 216.29715 -302.59558 190.84439
-0.0139658805 -379.78128 -0.009894785 -0.04012581 -429.96912 -246.51778 0.030199923 251.365
-338.41098 -0.0011964607 -0.020786803 0.040422425 0.019136813 0.027127113 -0.011579996 -0.0021211253
-0.0245937 0.038404018 -0.018310085 0.02983702 -215.332 -0.6468103 0.09111462 -0.023905315
0.020642059 -0.001920095 0.0082113445 0.026944237 200.79604 0.012636414 -1.7295908 280.89478
-367.2621 0.01591692 0.021534303 0.006605562 126.15961 -363.91638 0.019941745 -332.7231
-0.024763407 297.5955 158.14162 -282.4543 -399.7193 -0.020089962 -0.022496643 -0.0029680568
0.016017618 -0.0059625623 0.032928046 0.020777658 251.52867 0.03643701 0.038094725 0.006437027
-366.88367 -400.1449 -246.8203 -370.47263 -0.026607208 222.1261 -0.00090771494 0.012257538
-0.035514753 -368.89056 266.13788 0.02104851 -387.74057 -349.663 -0.0009176912 0.0010331073
-0.013795581 0.002431344 0.0054364437 -0.028427038 -0.006181912 0.005072743 0.02133494 -411.80753
-0.08652193 -0.005867992 -0.008623131 -0.045821495 -306.10922 -377.51874 -0.011234016 0.038403224
