TD3/models/hockey_best_agent/02000000/target_critic_2.pth (torch, 290007 bytes, 5 tensors)

fc1.weight f4 [256, 22]
30.397766 27.292204 60.022045 -3.0615675 -4.8197665 -2.3619518 -47.4099 53.351307
-12.347708 11.074459 25.285967 4.1233296 1.6947587 116.85036 0.19298795 13.002626
-5.5883627 26.659058 -1.6492858 -8.849288 -4.5793843 6.728113 -9.690822 -67.56587
27.717436 -0.61076874 1.237439 -1.2882413 12.009506 -63.195473 30.560223 -4.188804
-1.7017678 -2.0694203 26.775549 -118.67758 8.194442 -34.186123 0.12820712 -2.5042107
5.90211 -6.8160048 -5.5961986 7.2818475 24.340336 142.3257 -4.4849987 0.36995518
0.24127203 3.1243324 -1.9459498 -67.27149 -71.57686 -1.165547 68.76823 -6.8510256
-37.71251 243.26497 3.7251723 30.164341 -49.094013 16.671017 -33.864037 4.471352
11.374588 25.638418 140.61531 -28.86454 2.957357 -8.851462 -3.5134978 -26.881744
-18.104427 -6.2684965 -34.249947 -15.584012 34.31363 11.935461 137.74875 -25.657774
42.74545 2.135958 48.432198 -155.00824 114.82461 -74.39242 -56.37682 -57.842213
45.302876 14.964936 -49.14501 -2.6808376 -11.049209 -3.6816857 22.742146 -122.13191
2.894748 6.0490003 33.054 9.908731 15.265861 38.164524 -3.2038321 20.596231
-6.774862 -19.716146 -1.9518868 -9.650169 7.68904 1.4734987 -8.173373 -3.739265
-10.530596 -1.2236109 -15.906113 0.32569242 -21.984356 -28.350693 0.49939746 28.258406
-2.8869667 -1.7403692 22.8494 19.403383 4.613831 1.8904548 -4.816496 -29.372385
25.824202 -21.275963 -14.796423 -31.647144 -21.977795 -32.5783 30.141907 -1.3705082
-0.75202924 -0.24579991 30.857132 65.09592 -9.373774 -0.8102588 -8.723858 -2.9017787
-19.484905 -88.95068 0.41216865 -4.292839 -10.533707 -28.507982 16.703968 -12.863247
2.554271 -11.048337 -24.02656 -16.23188 0.6890313 5.851465 -4.1168923 -4.070979
23.951468 -27.689878 1.5745263 34.282677 1.780839 5.7790723 30.913296 -51.82995
-1.0083799 -41.291294 1.2353426 -3.584299 6.302705 -12.374252 -0.83383566 0.8284845
27.380123 -10.854055 24.502407 -7.4556265 2.7160063 -5.1676297 -29.435656 -73.95315
-2.6705403 6.962469 36.49882 -28.956781 9.533265 -46.700924 6.953003 2.7272177
2.964688 14.86214 -13.396581 -0.91198707 5.058318 -0.96975523 -17.793503 101.11975
-17.706459 -0.254912 2.6215358 -5.443502 -8.471451 6.221124 -54.639988 8.963134
-1.5957714 4.6190596 -6.1338463 155.16386 -8.058598 46.670246 -36.994537 -0.85734004
-0.98613876 -1.6308359 -3.0531466 -4.754522 -19.836016 -28.452291 33.285465 -3.4783163
-2.7156527 -2.397893 23.431854 49.62958 38.66073 -0.59870666 -17.651962 -9.400253
-9.854471 -70.39852 1.8512566 -5.049036 -4.5529428 3.8725858 0.066075996 7.715809
-5.907599 11.560544 -5.0962358 21.913086 10.591596 -0.4168278 3.0305405 7.7061987
26.829752 43.879734 36.956444 -2.6447883 -11.699937 -0.87828183 -43.772816 -67.76143
00000000: a02e f341 6f56 da41 9316 7042 b9f0 43c0
00000010: 873b 9ac0 382a 17c0 bda3 3dc2 bd67 5542
00000020: 3690 45c1 fc30 3141 a949 ca41 51f2 8340
00000030: daed d83f 62b3 e942 a29e 453e c20a 5041
00000040: ded3 b2c0 c045 d541 cc1b d3bf af96 0dc1
00000050: 518a 92c0 b44c d740 9b0d 1bc1 ba21 87c2
00000060: 4fbd dd41 575b 1cbf 6764 9e3f 17e5 a4bf
00000070: f026 4041 2ac8 7cc2 567b f441 af0a 86c0
00000080: 87d3 d9bf 6271 04c0 5334 d641 ec5a edc2
00000090: 6f1c 0341 97be 08c2 ba48 033e fd44 20c0
000000a0: 16de bc40 b61c dac0 0f14 b3c0 e504 e940
000000b0: 02b9 c241 6153 0e43 1c85 8fc0 c46a bd3e
000000c0: 0410 773e 10f5 4740 e214 f9bf 018b 86c2
000000d0: 5a27 8fc2 a530 95bf 5589 8942 9a3b dbc0
000000e0: 9cd9 16c2 d543 7343 3969 6e40 9250 f141
000000f0: 4560 44c2 3e5e 8541 c674 07c2 5115 8f40
00000100: 50fe 3541 7b1b cd41 859d 0c43 94ea e6c1
00000110: 5645 3d40 979f 0dc1 26dd 60c0 d00d d7c1
00000120: ded5 90c1 8697 c8c0 f2ff 08c2 1d58 79c1
00000130: 2841 0942 a6f7 3e41 aebf 0943 1f43 cdc1
00000140: 57fb 2a42 89b3 0840 92ba 4142 1c02 1bc3
00000150: 33a6 e542 ebc8 94c2 dd81 61c2 6d5e 67c2
00000160: 2536 3542 6170 6f41 7e94 44c2 d892 2bc0
00000170: 8fc9 30c1 bda0 6bc0 eaef b541 8a43 f4c2
00000180: 8d43 3940 6991 c140 4c37 0442 2a8a 1e41
00000190: f740 7441 79a8 1842 960b 4dc0 15c5 a441
000001a0: abcb d8c0 abba 9dc1 6dd7 f9bf 1867 1ac1
000001b0: 9e0c f640 9b9b bc3f 23c6 02c1 1e50 6fc0
000001c0: 527d 28c1 489f 9cbf 707f 7ec1 28c1 a63e
000001d0: f6df afc1 38ce e2c1 06b1 ff3e 3711 e241
000001e0: 10c4 38c0 6bc4 debf 92cb b641 213a 9b41
000001f0: 81a4 9340 6cfa f13f bc20 9ac0 a5fa eac1
00000200: f797 ce41 2c35 aac1 26be 6cc1 5a2d fdc1
00000210: 86d2 afc1 2e50 02c2 a022 f141 d06c afbf
00000220: fd84 40bf f9b2 7bbe 68db f641 1c31 8242
00000230: fafa 15c1 1f6d 4fbf ec94 0bc1 beb6 39c0
00000240: 16e1 9bc1 c0e6 b1c2 c507 d33e f05e 89c0
00000250: 108a 28c1 5910 e4c1 baa1 8541 dccf 4dc1
00000260: 2d79 2340 fdc5 30c1 6536 c0c1 e4da 81c1
00000270: 5b64 303f 343f bb40 95bd 83c0 7645 82c0
00000280: 9b9c bf41 df84 ddc1 148a c93f 7621 0942
00000290: 88f2 e33f 29ee b840 6e4e f741 de51 4fc2
000002a0: 9812 81bf 492a 25c2 b51f 9e3f 2865 65c0
000002b0: c2af c940 f0fc 45c1 4176 55bf 8f17 543f
000002c0: 7e0a db41 36aa 2dc1 ee04 c441 7e94 eec0
000002d0: 0cd3 2d40 395d a5c0 397c ebc1 03e8 93c2
000002e0: 22ea 2ac0 8ccc de40 cbfe 1142 7da7 e7c1
000002f0: 4188 1841 bfcd 3ac2 007f de40 bc8a 2e40
00000300: 73bd 3d40 53cb 6d41 6558 56c1 fc77 69bf
00000310: bedd a140 e141 78bf 1859 8ec1 503d ca42
00000320: d4a6 8dc1 d383 82be 3ec7 2740 2b31 aec0
00000330: 108b 07c1 7313 c740 598f 5ac2 ff68 0f41
00000340: 3d42 ccbf 56cf 9340 7848 c4c0 f329 1b43
00000350: 04f0 00c1 55ae 3a42 68fa 13c2 a37a 5bbf
00000360: 9773 7cbf 3bbf d0bf c166 43c0 0b25 98c0
00000370: 29b0 9ec1 4b9e e3c1 5124 0542 bc9c 5ec0
00000380: 41cd 2dc0 1477 19c0 7074 bb41 b184 4642
00000390: 96a4 1a42 d744 19bf 3837 8dc1 7067 16c1
000003a0: eaab 1dc1 0bcc 8cc2 faf5 ec3f b491 a1c0
000003b0: b5b1 91c0 72d8 7740 da52 873d e8e7 f640
000003c0: 0d0b bdc0 fdf7 3841 5d14 a3c0 004e af41
000003d0: 2d77 2941 746a d5be 60f4 4140 2e99 f640
000003e0: 55a3 d641 d984 2f42 66d3 1342 3644 29c0
000003f0: f132 3bc1 14d7 60bf 5d17 2fc2 da85 87c2

fc1.bias f4 [256]
-31.804682 60.16096 -85.39678 35.04904 -32.11484 -4.963178 11.899799 42.448666
6.8598 -33.668594 0.3477074 67.496574 -48.782085 34.593044 22.756876 -38.505234
8.948786 -18.343464 26.06085 5.6337786 -31.97045 18.023428 4.0117087 -41.17217
16.352823 10.417562 41.07007 15.44309 -1.7823391 -25.808363 15.005398 -26.556828
30.657595 -25.135347 15.402159 3.7656102 -21.650389 60.42589 -8.260121 41.348396
-20.218206 113.04219 1.7690233 66.85645 2.1332154 12.638929 78.90179 2.7702029
27.93761 -17.75774 -14.340186 38.568844 -12.938805 -5.611115 -17.511156 -2.0054235
34.7735 -22.367706 25.80442 -10.902996 -13.845033 87.82059 58.479683 46.99036
-16.381752 -1.373778 -25.419573 27.683552 11.826375 -34.83461 30.999907 141.83954
-15.017833 86.6575 -36.29821 55.399277 11.379095 -22.208733 -25.627071 18.72171
132.81848 44.203606 30.263958 -7.6477604 -17.680992 -45.944057 14.500124 -9.209218
-48.24662 28.481384 6.782963 61.896572 46.242294 96.63749 -49.40816 -2.7788503
-47.14397 -27.619522 -14.667024 15.458647 120.60841 98.68924 -1.981784 -21.824856
94.51043 8.612443 11.418107 -25.988598 -15.639102 113.26399 -6.543178 -14.994308
-51.40998 58.47638 25.192966 -7.667445 9.56318 26.844873 -48.9466 2.2891684
-34.618706 -34.195908 -24.468634 12.929555 -15.899978 -7.6018004 1.6539932 11.86724
-7.452634 6.3570457 -25.141914 -5.6055465 11.68107 1.6799 -20.639515 -6.0232744
-37.337456 90.19385 4.2444997 -0.7020736 10.071817 18.792599 6.6674647 149.57835
-3.4507535 -12.990649 140.83086 -4.407831 63.643654 -3.82821 25.69212 -5.714908
7.962534 8.049942 71.6286 -20.73437 -25.803135 -42.913063 -42.501602 17.63767
-10.841727 42.519146 49.538986 45.027367 73.23622 68.26043 5.0247107 -20.58768
-6.10791 -5.589623 -2.1414886 42.69491 6.789291 75.60587 -23.93541 30.868437
-8.823424 134.37894 -8.526144 -24.352615 2.6335866 -7.0005784 -10.109139 51.253338
-17.958906 42.58536 24.189156 -13.036023 18.311188 -7.2291894 66.29165 -4.293458
-37.973953 33.46492 -1.0966777 70.493515 29.074432 32.767414 -17.17651 3.0550923
23.85227 -26.215977 -15.545287 -19.529814 5.777799 -53.351994 -5.4486723 -21.458706
-3.2079222 63.62245 -7.4197097 -5.116964 21.786745 26.362127 -5.6665163 -5.766062
56.27231 45.08214 124.877594 -24.223732 12.5638685 26.265194 120.22122 93.39567
30.289736 -7.6527677 92.66253 19.513247 -2.0050714 -10.162882 -12.589551 64.81074
77.937096 16.779037 -0.5088234 -29.255896 -26.928053 8.439988 -13.287286 -19.037746
13.869152 -9.173087 -34.806732 -2.7164068 73.38082 33.56499 68.43842 34.9068
-1.8767797 127.777466 -23.599438 24.422653 -8.106082 -33.718765 96.5428 -65.388336
00000000: fd6f fec1 d3a4 7042 27cb aac2 3832 0c42
00000010: 9975 00c2 5bd2 9ec0 9465 3e41 6fcb 2942
00000020: 7b83 db40 a4ac 06c2 b406 b23e 3ffe 8642
00000030: db20 43c2 475f 0a42 150e b641 5c05 1ac2
00000040: 3a2e 0f41 6abf 92c1 9f7c d041 ea47 b440
00000050: 7bc3 ffc1 fb2f 9041 eb5f 8040 4db0 24c2
00000060: 95d2 8241 55ae 2641 c047 2442 e616 7741
00000070: b023 e4bf 8777 cec1 1c16 7041 6274 d4c1
00000080: c142 f541 3115 c9c1 3e6f 7641 c2ff 7040
00000090: ff33 adc1 1db4 7142 7529 04c1 c264 2542
000000a0: e3be a1c1 9a15 e242 5b6f e23f 81b6 8542
000000b0: 9a86 0840 0e39 4a41 b7cd 9d42 014b 3140
000000c0: 3a80 df41 da0f 8ec1 6771 65c1 7f46 1a42
000000d0: 5805 4fc1 418e b3c0 d916 8cc1 dc58 00c0
000000e0: 1018 0b42 10f1 b2c1 746f ce41 ac72 2ec1
000000f0: 4185 5dc1 24a4 af42 32eb 6942 21f6 3b42
00000100: d40d 83c1 f5d7 afbf 495b cbc1 ea77 dd41
00000110: d538 3d41 a456 0bc2 cfff f741 ecd6 0d43
00000120: 0b49 70c1 a450 ad42 5e31 11c2 dc98 5d42
00000130: c610 3641 7cab b1c1 3e04 cdc1 10c6 9541
00000140: 88d1 0443 7ed0 3042 961c f241 74ba f4c0
00000150: ac72 8dc1 b7c6 37c2 8200 6841 f558 13c1
00000160: 8afc 40c2 e0d9 e341 080e d940 1796 7742
00000170: 1cf8 3842 6546 c142 f5a1 45c2 afd8 31c0
00000180: 6d93 3cc2 c8f4 dcc1 21ac 6ac1 9e56 7741
00000190: 8237 f142 e460 c542 19ab fdbf 4e99 aec1
000001a0: 5705 bd42 91cc 0941 91b0 3641 a6e8 cfc1
000001b0: c339 7ac1 2a87 e242 b761 d1c0 b0e8 6fc1
000001c0: d2a3 4dc2 d0e7 6942 328b c941 b65b f5c0
000001d0: c902 1941 4dc2 d641 52c9 43c2 bc81 1240
000001e0: 8e79 0ac2 9cc8 08c2 c3bf c3c1 75df 4e41
000001f0: 4f66 7ec1 f341 f3c0 0db6 d33f 37e0 3d41
00000200: fa7b eec0 eb6c cb40 a422 c9c1 a360 b3c0
00000210: aae5 3a41 f706 d73f ba1d a5c1 aabe c0c0
00000220: 8e59 15c2 4063 b442 f1d2 8740 18bb 33bf
00000230: 2a26 2141 3e57 9641 df5b d540 0f94 1543
00000240: 25d9 5cc0 b3d9 4fc1 b3d4 0c43 f40c 8dc0
00000250: 1a93 7e42 6501 75c0 7689 cd41 87e0 b6c0
00000260: 14cd fe40 90cc 0041 d841 8f42 fddf a5c1
00000270: d26c cec1 faa6 2bc2 a401 2ac2 f319 8d41
00000280: b777 2dc1 9b13 2a42 ec27 4642 061c 3442
00000290: f278 9242 5785 8842 6eca a040 92b3 a4c1
000002a0: 0074 c3c0 31de b2c0 260e 09c0 96c7 2a42
000002b0: df41 d940 3536 9742 b87b bfc1 8ff2 f641
000002c0: bf2c 0dc1 0261 0643 166b 08c1 28d2 c2c1
000002d0: af8c 2840 bd04 e0c0 09bf 21c1 6b03 4d42
000002e0: d7ab 8fc1 6957 2a42 6483 c141 8d93 50c1
000002f0: 507d 9241 8555 e7c0 5395 8442 0264 89c0
00000300: 54e5 17c2 14dc 0542 ef5f 8cbf aefc 8c42
00000310: 7098 e841 d511 0342 7e69 89c1 a286 4340
00000320: 73d1 be41 52ba d1c1 7fb9 78c1 0f3d 9cc1
00000330: bbe3 b840 7168 55c2 865b aec0 6eab abc1
00000340: 994e 4dc0 647d 7e42 436e edc0 2bbe a3c0
00000350: 414b ae41 a3e5 d241 1a54 b5c0 9483 b8c0
00000360: d816 6142 1d54 3442 54c1 f942 34ca c1c1
00000370: 9b05 4941 1e1f d241 4471 f042 95ca ba42
00000380: 6151 f241 79e3 f4c0 3753 b942 211b 9c41
00000390: 1753 00c0 2a9b 22c1 cd6e 49c1 199f 8142
000003a0: cbdf 9b42 783b 8641 4042 02bf 130c eac1
000003b0: a76c d7c1 310a 0741 b998 54c1 4e4d 98c1
000003c0: 0ce8 5d41 f7c4 12c1 183a 0bc2 9cd9 2dc0
000003d0: fbc2 9242 8d42 0642 79e0 8842 90a0 0b42
000003e0: 513a f0bf 108e ff42 a6cb bcc1 9861 c341
000003f0: 83b2 01c1 04e0 06c2 ea15 c142 d4c6 82c2

fc2.weight f4 [256, 256]
0.010503931 -0.019988252 -0.026130144 0.0028360893 -0.011809834 -0.058760177 -0.12961788 -0.005361024
-0.02266599 -0.040454086 -0.085973084 -0.037611686 -0.048236966 -0.05102349 0.046205934 -0.019221958
-0.001124678 -0.028594797 -0.04185256 0.07674478 -0.055508 0.00649491 -0.12917979 -0.100126214
0.015664581 -0.05007801 -0.019825457 -0.013032289 -0.058103036 0.017296351 -0.016377324 -0.05823044
0.0073039504 0.0034905304 -0.025684971 -0.10255809 -0.060341194 -0.079652004 -0.07722758 -0.047076914
0.053849492 -0.06403855 -0.04107472 -0.014420706 -0.011799217 -0.10496612 -0.04145768 0.014706249
-0.018085744 -0.09242827 0.03231804 -0.061203223 -0.022301659 0.03222193 0.021700023 -0.08665705
-0.030376233 -0.014411206 -0.11332866 -0.026859555 -0.035138834 -0.007018873 -0.04954678 -0.10230626
-0.027713394 -0.119214624 -0.007754525 0.023958668 -0.025432024 0.0025865412 -0.10041232 -0.03974032
0.030592298 -0.07004819 -0.1725601 -0.107614055 0.018018687 -0.11468019 -0.012630516 -0.026175592
-0.033885647 0.01011054 0.048980538 0.01672452 -0.08553051 -0.162472 -0.05822895 0.0039993357
0.022268875 -0.12248841 -0.03661778 0.002786543 -0.07266037 -0.046986762 -0.049645875 0.056191213
-0.11234518 0.013190241 -0.05166424 -0.024382608 -0.06657324 -0.07302396 -0.0025511046 -0.004636175
0.018685514 0.0028539242 0.030005937 -0.105687335 -0.014645155 -0.072329566 -0.07776849 -0.077050254
-0.15807317 -0.075789616 0.01986457 -0.01450471 0.05653618 -0.03316294 -0.07172458 0.04308191
-0.107731774 0.001235808 0.036733262 -0.103252485 -0.020860715 -0.05467055 -0.018714946 0.0026407444
-0.070407316 0.015192586 0.015804373 -0.042991012 0.04526269 0.08305543 -0.026402833 0.0023263295
-0.09819055 -0.0148563795 -0.08761221 -0.06871156 -0.09571696 -0.03970828 -0.023837226 -0.017053464
-0.03189187 0.014079282 -0.023233727 -0.07356785 -0.062107727 -0.09090239 0.009472025 -0.040807243
-0.0058876877 -0.026808519 -0.08776569 -0.0358757 -0.07521294 -0.070778355 0.006074231 -0.0759431
-0.08216136 -0.04926366 -0.017532535 0.002493409 -0.003647691 -0.00706488 -0.12401876 -0.0252696
0.027341606 -0.005993486 0.03495778 -0.08283936 -0.09828145 -0.07723652 -0.0030089433 -0.02174808
0.02523905 -0.050154004 -0.06262406 -0.06803355 -0.07031194 -0.00643959 -0.07279895 0.018143484
-0.003357165 -0.057385545 -0.097452946 0.02455546 -0.021298809 -0.030310296 -0.0712686 -0.06924502
-0.07780723 0.012452073 0.0149359135 -0.0326563 -0.06726018 -0.10958847 -0.030064799 -0.10099197
-0.036950074 -0.062917985 -0.13344748 -0.04571271 -0.007394662 0.0038164936 -0.055534076 -0.035513602
-0.009728884 -0.054665335 0.01126445 -0.14164314 0.0052053994 -0.031562556 0.040242486 0.0016606313
0.013527007 -0.04979563 -0.028328812 0.040880255 -0.015568096 -0.08434587 -0.04728106 -0.054070033
0.03474693 0.00031745035 -0.07084541 -0.06878308 -0.116106234 0.018482113 0.038728528 -0.008727152
-0.018379295 -0.07494472 -0.14142856 -0.1045623 -0.1192787 0.00021188626 0.014216373 -0.16605721
-0.060072973 -0.008858284 0.012682483 -0.07033132 -0.050498966 -0.021291358 -0.040275272 -0.05890025
0.06965033 -0.09003961 -0.050548885 -0.021915719 0.04119318 -0.14525518 -0.017893892 0.108511105
00000000: ae18 2c3c 67be a3bc e20e d6bc afdd 393b
00000010: 097e 41bc 83ae 70bd 8dba 04be 87ab afbb
00000020: 07ae b9bc 2fb3 25bd a812 b0bd b60e 1abd
00000030: 2094 45bd 02fe 50bd 6f42 3d3d 5e77 9dbc
00000040: ee69 93ba a33f eabc 976d 2bbd 5e2c 9d3d
00000050: 5b5c 63bd 41d3 d43b b547 04be f90e cdbd
00000060: 0253 803c 991e 4dbd ff68 a2bc 6285 55bc
00000070: 73fd 6dbd 14b1 8d3c bd29 86bc 0b83 6ebd
00000080: fa55 ef3b 62c1 643b 4a69 d2bc fa09 d2bd
00000090: 5428 77bd 9720 a3bd 7e29 9ebd b9d3 40bd
000000a0: 4991 5c3d a526 83bd f73d 28bd d344 6cbc
000000b0: 8151 41bc 7af8 d6bd 87cf 29bd 7bf2 703c
000000c0: 8e28 94bc 084b bdbd ec5f 043d 3bb0 7abd
000000d0: f8b1 b6bc 24fb 033d 3fc4 b13c 4079 b1bd
000000e0: 94d7 f8bc fb1c 6cbc db18 e8bd 9208 dcbc
000000f0: bded 0fbd 93fe e5bb 90f1 4abd f285 d1bd
00000100: 3307 e3bc cc26 f4bd ac19 febb f844 c43c
00000110: d256 d0bc f682 293b f9a4 cdbd bfc6 22bd
00000120: b39c fa3c 6d75 8fbd 98b3 30be c264 dcbd
00000130: ed9b 933c 73dd eabd 39f0 4ebc 326e d6bc
00000140: adcb 0abd aea6 253c d19f 483d dc01 893c
00000150: 9f2a afbd 0f5f 26be 7b81 6ebd dc0c 833b
00000160: 376d b63c 34db fabd 86fc 15bd 6f9e 363b
00000170: f6ce 94bd 3175 40bd 7959 4bbd c228 663d
00000180: 3b15 e6bd e11b 583c e29d 53bd 09be c7bc
00000190: 8d57 88bd 968d 95bd 6f30 27bb 0eeb 97bb
000001a0: 5d12 993c e708 3b3b 03cf f53c 9a72 d8bd
000001b0: 3bf2 6fbc 8621 94bd 1645 9fbd 86cc 9dbd
000001c0: efdd 21be 9637 9bbd 06bb a23c 2aa5 6dbc
000001d0: 7b92 673d ddd5 07bd 56e4 92bd a876 303d
000001e0: 7aa2 dcbd d6fa a13a 9e75 163d 0a76 d3bd
000001f0: 17e4 aabc 3aee 5fbd 1650 99bc 5710 2d3b
00000200: b631 90bd 53ea 783c 2c78 813c 5817 30bd
00000210: 5f65 393d f718 aa3d c14a d8bc 5575 183b
00000220: 2118 c9bd 2c68 73bc 086e b3bd a5b8 8cbd
00000230: 4107 c4bd 26a5 22bd 4946 c3bc b5b3 8bbc
00000240: 0da1 02bd caac 663c a854 bebc beaa 96bd
00000250: ac64 7ebd 082b babd 8d30 1b3c 7f25 27bd
00000260: 81ed c0bb 8a9d dbbc 80be b3bd 66f2 12bd
00000270: 3e09 9abd 3ef4 90bd 580a c73b 0e88 9bbd
00000280: 3744 a8bd b1c8 49bd 64a0 8fbc 7668 233b
00000290: 1a0e 6fbb 8280 e7bb 8cfd fdbd 3102 cfbc
000002a0: 81fb df3c 0165 c4bb e42f 0f3d afa7 a9bd
000002b0: c947 c9bd 2e2e 9ebd b131 45bb 0829 b2bc
000002c0: 20c2 ce3c 496e 4dbd 0b41 80bd 2d55 8bbd
000002d0: b5ff 8fbd 3203 d3bb 9e17 95bd a5a1 943c
000002e0: e203 5cbb 1b0d 6bbd 6995 c7bd 8828 c93c
000002f0: d77a aebc 4c4d f8bc 46f5 91bd 55d0 8dbd
00000300: 6659 9fbd c803 4c3c c3b5 743c 9dc2 05bd
00000310: b5bf 89bd eb6f e0bd 744a f6bc e1d4 cebd
00000320: f658 17bd 25db 80bd 75a6 08be 403d 3bbd
00000330: ec4e f2bb 231e 7a3b b377 63bd b676 11bd
00000340: e665 1fbc c2e8 5fbd 878e 383c e60a 11be
00000350: 0e92 aa3b bd47 01bd 4ed5 243d 8aa9 d93a
00000360: 61a0 5d3c 81f6 4bbd d311 e8bc 0e72 273d
00000370: 5411 7fbc 87bd acbd c9a9 41bd 8a78 5dbd
00000380: cc52 0e3d 776f a639 6617 91bd 25de 8cbd
00000390: 1bc9 edbd cd67 973c cea1 1e3d 54fc 0ebc
000003a0: 2d90 96bc 9e7c 99bd a6d2 10be c224 d6bd
000003b0: 6448 f4bd c92d 5e39 caeb 683c e70a 2abe
000003c0: 140f 76bd 5622 11bc 30ca 4f3c de09 90bd
000003d0: 01d8 4ebd 376b aebc aff7 24bd 6341 71bd
000003e0: d5a4 8e3d b066 b8bd 590c 4fbd 9888 b3bc
000003f0: 2eba 283d c6bd 14be 3696 92bc 123b de3d

fc2.bias f4 [256]
-0.04447815 43.2643 -0.12660487 4.081175 -18.807964 -0.06435595 -2.6630206 -0.0052949
46.938194 -0.065475024 -26.365164 44.67305 -0.07919007 32.345306 0.034185156 -0.03068208
72.70059 -0.08872384 -0.016391108 -0.011431158 -0.089832485 0.025056139 -0.023807796 49.10423
0.0056523415 33.41195 -5.7716775 -9.332206 37.616352 -0.036085807 5.5393677 88.982895
7.0275598 0.015880369 -0.038532577 -3.0059266 -0.07336669 0.0051781116 36.538395 0.018659065
0.021635948 -0.09510601 8.11546 36.28974 -0.05930333 -0.019232016 39.36982 -0.09996528
-0.07740192 -0.0101585975 0.019001419 52.80989 40.522274 0.041683428 16.01831 -0.08912915
-19.029547 37.71674 -28.059736 33.136494 38.343742 19.203533 -16.829645 -0.052103825
12.818218 -0.047290746 0.037463415 9.4859 -0.10237928 -0.079277985 -0.024861308 40.003048
-0.052007712 1.1336662 14.022908 5.805375 -0.08151763 0.01086007 23.344366 34.180088
-0.08522951 0.008705359 7.53846 -0.061312005 -0.0050318944 -0.004936434 0.002544166 -0.050385717
35.395454 -0.07018528 0.013501489 0.017990002 -0.08117937 -0.079151325 -0.119105846 -0.06682805
-0.052486785 88.67511 -0.092900634 33.417694 -0.100083 -0.044458777 -29.20304 -0.01657551
-0.09877468 0.016391851 -0.04975987 -0.055748653 -0.017161498 -0.061063156 -0.008315322 42.75241
0.0045283274 -0.008249012 -0.06879798 -0.020471422 -0.05157707 -0.067661025 17.108465 -22.765305
0.016785987 -0.054225005 -0.03794249 23.522266 12.498386 -0.013147214 25.463202 -0.062916495
32.91128 40.295563 -0.094881006 -22.103775 -0.05072919 57.740982 -0.052018143 -0.07382117
21.477808 -0.040419813 -0.02608544 34.782597 -0.082362525 -0.044016212 8.964217 45.002342
-0.06283156 -0.04101586 31.851582 26.388344 -0.0351515 -0.06391934 -0.027467525 -0.049635444
-27.453653 -0.045087606 36.53453 -0.08231782 -0.070651695 -0.045898974 -24.538998 -24.658382
-0.045089096 80.53684 42.56512 -0.073360726 -24.372458 68.139595 21.89652 53.40782
-0.060060307 26.695576 -0.017753076 -0.00048194535 40.18889 -3.6269333 -0.0053080316 41.08212
-26.738989 -0.07278405 -0.077831075 0.034450397 -0.029944845 0.04473072 -0.0821256 0.016032733
-0.039325323 -0.059356228 -0.02398363 0.0077712885 9.6689415 0.018501857 -0.032952834 -0.08800262
-0.008432296 0.05107713 0.042964183 -0.09044343 47.99298 -0.0771635 -0.03812652 45.48993
-17.449163 -0.027743196 -0.0423741 -0.0045569194 66.977005 -20.756063 -0.0016110151 -29.86199
-0.06442151 83.54117 62.7451 28.437113 42.818966 -0.005179323 0.02372025 -0.02121797
-0.0031258708 0.001214015 -0.06965778 -0.02434461 60.103107 -0.016785242 -0.018874388 -0.024885522
34.296444 -17.315565 -26.50956 31.87209 0.01222688 60.54753 -0.030866854 -0.06218894
-0.022579938 -25.417967 39.835754 -0.05595131 39.49332 9.823383 -0.014632489 -0.022975564
-0.09258175 -0.08660191 -0.032484192 -0.08436822 -0.056984704 0.007959183 -0.016507337 42.8197
-0.020621179 -0.06401918 -0.026183788 -0.036611818 11.398127 -11.399116 -0.06475679 -0.016424635
00000000: b82e 36bd a50e 2d42 b5a4 01be fc98 8240
00000010: b676 96c1 0dcd 83bd ee6e 2ac0 d780 adbb
00000020: b6c0 3b42 c517 86bd dbeb d2c1 34b1 3242
00000030: 672e a2bd 9861 0142 bc05 0c3d fc58 fbbc
00000040: b466 9142 d8b4 b5bd a546 86bc c049 3bbc
00000050: 18fa b7bd 8842 cd3c 9108 c3bc bb6a 4442
00000060: 4737 b93b d6a5 0542 95b1 b8c0 b750 15c1
00000070: 2577 1642 b6ce 13bd 8042 b140 3ef7 b142
00000080: c5e1 e040 8c17 823c 56d4 1dbd 1a61 40c0
00000090: 4641 96bd 26ad a93b 5127 1242 e5da 983c
000000a0: df3d b13c f1c6 c2bd edd8 0141 b228 1142
000000b0: 0ce8 72bd 768c 9dbc b27a 1d42 99ba ccbd
000000c0: e684 9ebd 3f70 26bc dda8 9b3c 543d 5342
000000d0: cf16 2242 3ebc 2a3d 8025 8041 5889 b6bd
000000e0: 833c 98c1 f1dd 1642 577a e0c1 c58b 0442
000000f0: fe5f 1942 d6a0 9941 1da3 86c1 d26a 55bd
00000100: 6c17 4d41 f1b3 41bd 3d73 193d 3fc6 1741
00000110: 3aac d1bd 7f5c a2bd f1a9 cbbc 1f03 2042
00000120: 0a06 55bd f91b 913f d55d 6041 a2c5 b940
00000130: b7f2 a6bd 6fee 313c 43c1 ba41 69b8 0842
00000140: cf8c aebd eca0 0e3c 103b f140 4c22 7bbd
00000150: 97e2 a4bb cfc1 a1bb 06bc 263b 4161 4ebd
00000160: f294 0d42 4dbd 8fbd 5935 5d3c c55f 933c
00000170: 5f41 a6bd 171a a2bd c4ed f3bd 25dd 88bd
00000180: 62fc 56bd a859 b142 b042 bebd b8ab 0542
00000190: 51f8 ccbd 681a 36bd d39f e9c1 5dc9 87bc
000001a0: 614a cabd 3448 863c 01d1 4bbd b358 64bd
000001b0: 4596 8cbc 5c1d 7abd fd3c 08bc 7802 2b42
000001c0: 5d62 943b dd26 07bc f5e5 8cbd afb3 a7bc
000001d0: 7a42 53bd dd91 8abd 23de 8841 581f b6c1
000001e0: c482 893c 0a1b 5ebd 9669 1bbd 9a2d bc41
000001f0: 64f9 4741 6a67 57bc a3b4 cb41 5dda 80bd
00000200: 27a5 0342 a82e 2142 f950 c2bd 88d4 b0c1
00000210: 69c9 4fbd c4f6 6642 fa10 55bd 8e2f 97bd
00000220: 8dd2 ab41 3f8f 25bd 22b1 d5bc 6121 0b42
00000230: afad a8bd 584a 34bd 6f6d 0f41 6602 3442
00000240: d5ad 80bd 3f00 28bd 0ad0 fe41 541b d341
00000250: 05fb 0fbd 25e8 82bd 9303 e1bc 894e 4bbd
00000260: 15a1 dbc1 c8ad 38bd 5c23 1242 3f96 a8bd
00000270: d6b1 90bd 9000 3cbd de4f c4c1 5e44 c5c1
00000280: 58af 38bd dd12 a142 af42 2a42 263e 96bd
00000290: cbfa c2c1 7947 8842 132c af41 9ca1 5542
000002a0: cc01 76bd 8a90 d541 e66e 91bc 9cad fcb9
000002b0: 6cc1 2042 ad1f 68c0 ffee adbb 1754 2442
000002c0: 73e9 d5c1 ce0f 95bd e665 9fbd dc1b 0d3d
000002d0: e44e f5bc 8f37 373d 7731 a8bd 1457 833c
000002e0: 9713 21bd 841f 73bd 5179 c4bc 4ba6 fe3b
000002f0: fcb3 1a41 3591 973c 8df9 06bd b83a b4bd
00000300: 9d27 0abc 4136 513d 36fb 2f3d 683a b9bd
00000310: d0f8 3f42 e607 9ebd 8e2a 1cbd b0f5 3542
00000320: e397 8bc1 b345 e3bc 7790 2dbd 3652 95bb
00000330: 3af4 8542 6b0c a6c1 b228 d3ba 5be5 eec1
00000340: 6def 83bd 1415 a742 fbfa 7a42 357f e341
00000350: 9f46 2b42 4fb7 a9bb f850 c23c 4fd1 adbc
00000360: 69db 4cbb 951f 9f3a bda8 8ebd 596e c7bc
00000370: 9569 7042 3481 89bc 769e 9abc b9dc cbbc
00000380: 8f2f 0942 4786 8ac1 9413 d4c1 0afa fe41
00000390: 4053 483c ac30 7242 7cdc fcbc d4b9 7ebd
000003a0: 90f9 b8bc ff57 cbc1 d057 1f42 332d 65bd
000003b0: 29f9 1d42 942c 1d41 1bbd 6fbc 4037 bcbc
000003c0: 809b bdbd 585c b1bd 250e 05bd 3fc9 acbd
000003d0: cb68 69bd 3c67 023c 653a 87bc 5f47 2b42
000003e0: bfed a8bc 7d1c 83bd 627f d6bc 46f6 15bd
000003f0: ba5e 3641 c762 36c1 359f 84bd f58c 86bc

q.weight f4 [1, 256]
-0.024471642 262.92798 -0.28076494 -288.02454 -329.63577 -0.01919588 -269.4848 0.01777878
206.71127 0.017358566 -312.29312 192.87054 0.0019044052 293.43106 -0.010486236 -0.022599308
134.34677 -0.024083093 -0.0014997685 -0.0046580606 0.031249814 0.009899876 0.029797323 250.29034
-0.02385399 -333.50253 -210.05171 -253.56319 243.56029 -0.026840184 -258.47763 85.154076
-292.23087 0.007251238 0.004544998 -290.37436 -0.013367379 0.016266683 297.53683 -0.008020651
0.0006541092 -0.007539389 -345.68076 -383.72845 -0.0135232825 0.0029708056 226.79298 0.035834722
0.02671762 -0.02185574 0.009210882 256.45123 301.2444 -0.018171053 -300.02856 -0.03529679
-303.4779 305.5529 -316.9951 -324.99197 295.27118 -245.20804 -316.5203 -0.016948782
-307.56342 0.018623304 -0.04385751 -300.37704 -0.025084453 0.030939125 -0.004342342 298.923
-0.007967007 -286.10333 -297.30057 -276.58273 -0.023680763 -0.0053351326 -304.17807 249.47784
0.033042982 -0.006679685 -318.3539 0.014323102 0.024169147 -0.010397574 -0.003742919 -0.0018770242
266.77103 0.0039863903 -0.010303324 0.03197308 0.009084967 -0.087273955 -0.02170226 0.028326202
-0.00033015126 104.13644 -0.016755067 281.49567 0.01298237 -0.009682131 -388.7539 0.0067918156
0.025313558 -0.013075874 -0.023472892 -0.0069775223 0.014235372 0.051913086 0.023102967 299.47375
0.002846334 0.006658637 -0.0055282894 -0.017532537 -0.006056536 -0.010738997 -306.79004 -331.95236
0.016008146 0.006475446 0.14272495 -360.00342 -291.37863 -0.008596022 -405.90524 0.011359631
305.6684 -393.01062 0.026944492 -298.83054 -0.059485864 175.19374 -0.005922519 0.021161718
-317.07404 -0.08242212 -0.02563617 -366.89587 0.019343773 0.0037987519 -287.9613 219.41145
0.022076277 0.00043770164 -385.4373 -273.86856 0.08845114 0.016223468 -0.031668354 0.040631406
-342.51083 -0.013619395 277.33588 -0.016853789 -0.0012593239 -0.0043688845 -325.76874 -415.05576
0.0017199565 118.41787 237.9436 -0.01169677 -398.65518 216.26262 -302.51877 190.81288
-0.013966033 -379.6898 -0.009894661 -0.040126257 -429.86887 -246.45305 0.030199654 251.30882
-338.35324 -0.0011964596 -0.020786582 0.04042279 0.019136649 0.027127402 -0.011579983 -0.0021211125
-0.02459383 0.038403682 -0.018310377 0.029837182 -215.2928 -0.6468123 0.09111547 -0.023905026
0.020642411 -0.0019200747 0.008211385 0.02694412 200.75293 0.01263629 -1.7295972 280.8445
-367.18466 0.015916878 0.02153425 0.0066055516 126.13409 -363.84454 0.019941686 -332.65433
-0.024763703 297.53372 158.11108 -282.38254 -399.6252 -0.020089952 -0.022496492 -0.0029681046
0.016017461 -0.0059626587 0.032928243 0.02077764 251.49516 0.03643673 0.038095225 0.006436982
-366.79492 -400.06476 -246.75883 -370.3852 -0.02660698 222.08594 -0.0009077202 0.012257613
-0.035514347 -368.81555 266.08527 0.02104884 -387.64835 -349.56503 -0.00091768545 0.0010331287
-0.013795416 0.0024313363 0.005436461 -0.028426787 -0.0061818925 0.005072779 0.021334944 -411.70917
-0.08652293 -0.0058680363 -0.008623031 -0.04582223 -306.02878 -377.44168 -0.0112339035 0.038402937
00000000: c178 c8bc c876 8343 6cc0 8fbe 2403 90c3
00000010: 61d1 a4c3 ae40 9dbc 0ebe 86c3 cea4 913c
00000020: 16b6 4e43 8d33 8e3c 8525 9cc3 dcde 4043
00000030: 3c9d f93a 2db7 9243 76ce 2bbc 2f22 b9bc
00000040: c658 0643 e849 c5bc e193 c4ba a5a2 98bb
00000050: 9cff ff3c 1733 223c 8419 f43c 544a 7a43
00000060: 7169 c3bc 53c0 a6c3 3d0d 52c3 2d90 7dc3
00000070: 6f8f 7343 f2df dbbc 233d 81c3 e34e aa42
00000080: 8d1d 92c3 cb9b ed3b 35ee 943b eb2f 91c3
00000090: da02 5bbc b541 853c b7c4 9443 0c69 03bc
000000a0: 8678 2b3a fb0c f7bb 23d7 acc3 3edd bfc3
000000b0: c290 5dbc d9b1 423b 01cb 6243 6ec7 123d
000000c0: e9de da3c cf0a b3bc 3de9 163c c239 8043
000000d0: 489f 9643 76db 94bc a803 96c3 5e93 10bd
000000e0: 2cbd 97c3 c5c6 9843 5f7f 9ec3 f97e a2c3
000000f0: b6a2 9343 4235 75c3 9942 9ec3 2cd8 8abc
00000100: 1ec8 99c3 e68f 983c efa3 33bd 4330 96c3
00000110: e97d cdbc 0c74 fd3c 344a 8ebb 2576 9543
00000120: 0d88 02bc 3a0d 8fc3 79a6 94c3 974a 8ac3
00000130: 29fe c1bc 56d2 aebb cb16 98c3 547a 7943
00000140: 1458 073d 42e1 dabb 4d2d 9fc3 72ab 6a3c
00000150: 60fe c53c 965a 2abc c34b 75bb 7b06 f6ba
00000160: b162 8543 44a0 823b 46cf 28bc 34f6 023d
00000170: 1dd9 143c b0bc b2bd f0c8 b1bc 5a0c e83c
00000180: 2718 adb9 db45 d042 ec41 89bc 72bf 8c43
00000190: 02b4 543c cda1 1ebc 8060 c2c3 e18d de3b
000001a0: 615e cf3c 313c 56bc 394a c0bc b3a3 e4bb
000001b0: 7a3b 693c d1a2 543d 6f42 bd3c a4bc 9543
000001c0: 8f89 3a3b b230 da3b a726 b5bb 65a0 8fbc
000001d0: e875 c6bb 9ef2 2fbc 2065 99c3 e7f9 a5c3
000001e0: 8423 833c fa2f d43b 7d26 123e 7000 b4c3
000001f0: 77b0 91c3 54d6 0cbc dff3 cac3 bf1d 3a3c
00000200: 8ed5 9843 5c81 c4c3 b2ba dc3c 4f6a 95c3
00000210: 73a7 73bd 9931 2f43 b111 c2bb 575b ad3c
00000220: 7a89 9ec3 eecc a8bd f202 d2bc ac72 b7c3
00000230: d576 9e3c 7bf4 783b 0cfb 8fc3 5569 5b43
00000240: 4fd9 b43c 527b e539 f9b7 c0c3 2def 88c3
00000250: df25 b53d 14e7 843c adb6 01bd 1e6d 263d
00000260: 6341 abc3 e223 5fbc feaa 8a43 f510 8abc
00000270: e60f a5ba dc28 8fbb 66e2 a2c3 2387 cfc3
00000280: 2a70 e13a f3d5 ec42 90f1 6d43 cfa3 3fbc
00000290: dd53 c7c3 3b43 5843 6742 97c3 19d0 3e43
000002a0: cad1 64bc 4bd8 bdc3 371d 22bc 6e5b 24bd
000002b0: 37ef d6c3 fb73 76c3 4465 f73c 0f4f 7b43
000002c0: 372d a9c3 86d2 9cba 9f48 aabc 5e92 253d
000002d0: 76c4 9c3c 493a de3c f8b9 3dbc 5d02 0bbb
000002e0: 0079 c9bc 2e4d 1d3d a5ff 95bc 1b6d f43c
000002f0: f54a 57c3 7e95 25bf bf9a ba3d 79d4 c3bc
00000300: 461a a93c 04ab fbba 0c89 063c eab9 dc3c
00000310: c0c0 4843 7108 4f3c 7163 ddbf 196c 8c43
00000320: a397 b7c3 1d64 823c 9868 b03c 6273 d83b
00000330: a744 fc42 1aec b5c3 bf5c a33c c153 a6c3
00000340: 40dd cabc 51c4 9443 701c 1e43 f730 8dc3
00000350: 07d0 c7c3 af93 a4bc 904a b8bc 8884 42bb
00000360: 0d37 833c 6862 c3bb c4df 063d df35 aa3c
00000370: c37e 7b43 ae3e 153d bd09 1c3d 52ed d23b
00000380: c065 b7c3 4a08 c8c3 43c2 76c3 4e31 b9c3
00000390: e2f6 d9bc 0016 5e43 12f4 6dba 28d4 483c
000003a0: 7e77 11bd 6468 b8c3 ea0a 8543 9e6e ac3c
000003b0: fdd2 c1c3 53c8 aec3 d490 70ba 0c6a 873a
000003c0: 2b06 62bc 0e57 1f3b 5724 b23b 4bdf e8bc
000003d0: 7991 cabb 8e39 a63b 9fc6 ae3c c6da cdc3
000003e0: ef32 b1bd a848 c0bb 9d47 0dbc 17b0 3bbd
000003f0: af03 99c3 89b8 bcc3 680e 38bc 664c 1d3d
