TD3/models/hockey_best_agent/02000000/target_actor.pth (torch, 288959 bytes, 6 tensors)

fc1.weight f4 [256, 18]
000000 01 cf 07 40 f1 62 89 c0 06 0a 07 41 8a ef 24 be
       2.1220095 -4.293328 8.439947 -0.16107002
000010 e8 af ed 3e 95 c6 94 3e 66 e0 36 bf d2 3b 4d 40
       0.46423268 0.29057756 -0.71436155 3.2067761
000020 36 98 c5 3e 92 a4 c9 3c f8 9d 80 bf 0f 53 36 3d
       0.3859269 0.024614606 -1.0048208 0.044512805
000030 f8 9f 23 bf a5 b5 35 3e b0 b8 43 3e 47 b7 34 be
       -0.6391597 0.17745073 0.19113421 -0.1764804
000040 af 07 99 3e ed 16 ba 3e 48 a5 fa bd 80 33 99 c0
       0.29888675 0.36345616 -0.12238556 -4.7875366
000050 a4 c0 9c 40 77 cd 75 3d 1b a1 0b 3e ee 2b ac bd
       4.8985157 0.0600104 0.13635676 -0.084068164
000060 0f 6f 14 c0 e3 44 8d 3f 27 87 c1 bf 50 e9 f4 3d
       -2.3192785 1.1036648 -1.511937 0.11958563
000070 99 5c a0 be 06 a0 10 3e c3 ed 08 40 ee ce 73 40
       -0.31320646 0.14123544 2.1395118 3.809505
000080 ea 69 54 3c 80 5f 5f 3d 2b e4 ef be 2c 36 83 3e
       0.012964705 0.054534435 -0.46853766 0.25627267
000090 5a ee a4 3f a3 25 28 40 f0 bd c6 3e 27 6a 8a 3e
       1.2885239 2.6272972 0.38816786 0.27034113
0000a0 17 56 16 be 61 2d 00 be 89 06 d2 bf 9e 00 c1 c0
       -0.14681278 -0.1251731 -1.6408244 -6.0313253
0000b0 e6 a5 eb bf a9 7c 7e 3f b5 c3 bb 3f 58 11 03 3f
       -1.8410003 0.99408966 1.46691 0.5119834
0000c0 59 a6 c2 3f 5e 83 73 40 f5 97 5d 3d 1f c1 44 3f
       1.5207015 3.804893 0.054099996 0.7685718
0000d0 87 15 b5 be c9 a6 49 bf ae 9e 23 3f 0d c1 20 40
       -0.35367987 -0.7877012 0.63914 2.511783
0000e0 1d 8d 92 bf 84 ee dd bc b6 d5 9b be 7f 0e 73 be
       -1.1449314 -0.027091272 -0.30436486 -0.23735999
0000f0 22 a6 4b bf ce d4 ac 3e 23 7f 18 40 00 b5 42 3f
       -0.79550374 0.33756107 2.3827598 0.76057434
000100 1f ec 20 3f b7 3a a6 3b d0 3a 2c 3e 3c 63 4b bf
       0.6286029 0.0050729173 0.1681931 -0.79448295
000110 47 eb 87 3d 95 28 f8 3d b1 99 c8 3e be 13 4d be
       0.066366725 0.121171154 0.39179757 -0.20027062
000120 0c c3 a2 3d d0 6b c5 3f 3f 85 0c 3d 02 45 90 bd
       0.079473585 1.5423527 0.03430676 -0.07044412
000130 f0 7c b1 3e 14 68 ee bb c8 f4 a4 be e6 5c 21 bf
       0.34665632 -0.0072755907 -0.32218003 -0.63032377
000140 a5 f1 c2 3f a8 e9 c8 be f9 6f ac be 10 ff 8f be
       1.5229994 -0.39240766 -0.33679178 -0.28124285
000150 e7 9b d7 bf 31 e1 7f bc b2 36 cc bc d5 5a 6d be
       -1.6844453 -0.015617655 -0.024928425 -0.23179181
000160 78 c7 f4 3e 0c 75 0a 3f 71 c7 c7 3e 74 12 5a bf
       0.47808433 0.5408485 0.3901935 -0.8518441
000170 a2 99 bd bf 4d d9 8b bd f7 fb a4 bc 5b 61 8b 3d
       -1.481251 -0.06828556 -0.020139677 0.068056785
000180 74 a1 bb bd 25 15 88 3e f4 08 5b 40 b0 2b ce 3b
       -0.09161654 0.26578632 3.4224215 0.006291829
000190 31 56 96 be c8 bb 11 be 34 c3 83 3f 70 69 42 c0
       -0.29362634 -0.14231789 1.0293946 -3.0376854
0001a0 5d c0 8f bd a5 4a 34 bf 2f 4c cd bf f1 c6 c2 bf
       -0.07019112 -0.704264 -1.6038874 -1.5216962
0001b0 8e b3 c1 3f c7 30 03 3e 63 fa cc 40 ab 56 54 3e
       1.5132921 0.12811576 6.405565 0.20736186
0001c0 0d e0 8e bd d7 5d 83 bd c8 2e 80 bf 2a f0 e0 bf
       -0.06976328 -0.06414383 -1.0014277 -1.7573292
0001d0 13 d7 af bf d8 a1 79 bc e7 ba 67 3f ab 82 f9 3c
       -1.373751 -0.01523634 0.90519565 0.030457815
0001e0 e0 a6 02 c0 b1 13 04 c0 c5 23 23 be 59 e4 a4 be
       -2.0414352 -2.0637019 -0.15931614 -0.32205465
0001f0 82 c9 5a be 7c 6e c4 bd 34 8b 62 3f 48 43 4f c0
       -0.21365932 -0.09591386 0.8849366 -3.2384815
000200 2c 7c f5 3e a9 b9 00 3f 4c 67 bf bc 16 43 18 bc
       0.47946298 0.50283295 -0.023364685 -0.009293338
000210 1e 94 99 bf 64 59 c4 bf ac 8a ce bf 6b 0f 32 3f
       -1.1998327 -1.533978 -1.6136069 0.69554776
000220 f8 dd 9c be e9 09 d7 3d 9b 47 f1 3f 9d dc a4 bf
       -0.306381 0.10499937 1.8849977 -1.2879826
000230 11 7f 65 be 94 37 c0 3d f9 fe 81 3e 4e a7 7c 3d
       -0.22411753 0.09385601 0.2538984 0.06168299
000240 8f f5 12 40 f0 f9 71 40 69 c3 68 3e d1 f2 34 3e
       2.2962377 3.78088 0.22730793 0.17670752
000250 87 a2 91 bd 76 f0 69 be a2 33 89 bf b3 63 04 40
       -0.07111078 -0.22845635 -1.0718882 2.0685852
000260 d1 5d 3c 3e d8 7a e2 3e 5a 43 fc 3f f8 27 dc 3d
       0.18395163 0.44234347 1.9708054 0.10749811
000270 22 39 29 bf ba 86 91 40 1f 11 ce bb 4b 5f 82 3e
       -0.661028 4.547696 -0.006288662 0.25463328
000280 75 82 28 c0 91 23 cc be 0b 1e a7 be f0 fe 75 bf
       -2.6329625 -0.39870885 -0.32640108 -0.9609213
000290 35 67 eb 3f b0 05 4e be 3b 84 e3 be a2 13 38 bd
       1.8390871 -0.20119357 -0.4443682 -0.0449406
0002a0 de 48 08 c0 52 be 71 bf ad 99 cd bf 2b d8 d1 3e
       -2.1294475 -0.9443103 -1.6062523 0.40985236
0002b0 59 47 d5 3e 03 8a f9 be a7 24 06 bf 3c ff 4b 40
       0.41655996 -0.48738107 -0.5239968 3.1874533
0002c0 79 b8 06 be 19 b2 a9 3e d3 94 29 3e 36 b7 84 3f
       -0.13156308 0.3314369 0.16560678 1.0368412
0002d0 5f e0 ca 3f 93 43 6d 40 a4 69 95 bf 14 b3 3d 3e
       1.5849723 3.7072494 -1.1672864 0.18525344
0002e0 72 06 87 3d f8 25 3f 3e a5 97 20 c0 ea 9f b3 c0
       0.06593026 0.18666828 -2.5092556 -5.6132708
0002f0 85 26 29 be 8e d7 61 3e a7 be b7 3f f1 44 07 3f
       -0.165186 0.22054884 1.4355057 0.5283957
000300 65 c9 ab 3e 4d 87 df bf 7e 0b 5c 3e 16 a5 ba 3d
       0.3355209 -1.7463166 0.21488759 0.09113519
000310 09 04 cd bf 82 7f 7c bf 80 48 f0 3f c5 74 32 c0
       -1.6016856 -0.9863206 1.8772125 -2.788377
000320 d6 71 05 3f 08 16 55 3d c6 c6 75 be ab f2 dd be
       0.52126825 0.052022964 -0.24001607 -0.43349203
000330 97 f6 09 bf 63 1d 88 bf b9 ce aa bf 97 0c 74 3e
       -0.5389189 -1.0633968 -1.3344337 0.23832928
000340 64 c8 5a 3f 9b 94 26 3e d4 f7 07 40 14 63 6d c0
       0.8546202 0.16267626 2.1245012 -3.7091722
000350 9f 9a 6b 3e 82 72 22 be 0f 0f 71 bf 20 03 d6 bf
       0.23008202 -0.15863994 -0.941636 -1.6719704
000360 88 0f 39 3f c0 63 95 c0 40 e4 ee c0 9b ff 4f bd
       0.72289324 -4.6684265 -7.4653625 -0.050780874
000370 5f 6d 90 3c 7f 9e c1 be 0a fc a2 3e c4 1f 5f 3f
       0.017630277 -0.37816235 0.31832916 0.87157845
000380 86 66 ee be 57 14 98 bd ed c2 82 3f 46 4a 07 3e
       -0.46562594 -0.074257545 1.0215737 0.13211927
000390 2d c1 e3 bf 18 eb 5a 40 78 2a ba bb 7d b4 e8 3c
       -1.7793328 3.420599 -0.005681332 0.028406376
0003a0 4b 2b df bf ad 4e 35 3e 08 2d 1c 40 c1 ad 1d be
       -1.7435087 0.17705794 2.4402485 -0.15398313
0003b0 c3 56 fa 3c e4 b5 25 3e e4 cd cb be ee 15 1d be
       0.03055895 0.16182667 -0.3980552 -0.15340397
0003c0 9c 6d 01 bf 88 67 52 c0 ce b2 16 40 09 a4 bb 3e
       -0.50557876 -3.287569 2.3546634 0.36648586
0003d0 df 8a 4a 40 36 68 eb 3d b1 db 73 3f 8f 32 de be
       3.164726 0.11494486 0.952571 -0.43397948
0003e0 e1 af 2b be 31 16 d5 bc ff ed e8 be 7c dc 4e 3a
       -0.16766311 -0.026011558 -0.45494077 0.0007891131
0003f0 9d 9b 4c be c2 9d e4 bf 9f f1 f2 3d 29 01 d1 3d
       -0.19981237 -1.7860644 0.11862492 0.102052994

fc1.bias f4 [256]
000000 8b 41 c2 bd 92 b4 c5 3d 74 21 36 3e 42 1d 2e 3f
       -0.094851576 0.09653582 0.17786199 0.68013394
000010 7b 1d 83 c0 29 fe 3f bf a7 2a c4 bf 20 48 8f 3d
       -4.0973487 -0.7499719 -1.5325516 0.069961786
000020 10 9e 3b c0 2a 50 1d 3f 5b 63 54 bf b2 37 cc be
       -2.9315224 0.61450446 -0.82964104 -0.39886242
000030 c0 06 1c bf 05 23 c4 3c c9 35 92 3e d1 24 d7 bf
       -0.609478 0.02394248 0.2855666 -1.680811
000040 22 6e 08 c0 93 ee 52 c0 ac ff 62 be 17 4e 33 3c
       -2.131722 -3.2958114 -0.22167844 0.010943911
000050 ca 64 9a bf b2 03 a4 bf 0e 39 11 c0 85 c5 aa bf
       -1.2062008 -1.2813628 -2.2691073 -1.3341528
000060 5a 15 83 be 75 8b 38 c0 f2 9d 88 bf cc 23 97 c0
       -0.25602227 -2.8835118 -1.0673201 -4.7231197
000070 42 db 49 40 5a a6 5e 3d 49 f7 c8 3e a0 db 57 3e
       3.1540074 0.054357864 0.39251164 0.21079874
000080 d6 6e f8 bf a7 16 02 c0 dd 2b 2c c0 3f 74 48 c0
       -1.9408824 -2.0326326 -2.6901772 -3.132095
000090 cf f3 1d c0 1e 7b a8 bf 52 3b 81 bf 1a 6c 7e 3f
       -2.468006 -1.3162572 -1.0096228 0.993837
0000a0 e6 5b df bf 92 ce ab bf 19 7e df bf f6 33 a9 3e
       -1.744992 -1.3422415 -1.7460357 0.33047456
0000b0 08 43 f0 bf 2b dc 3d c0 b7 89 b5 3e 12 e4 ac bf
       -1.8770456 -2.966563 0.3545663 -1.3507102
0000c0 a3 59 87 c0 9a 49 ff 3f 47 96 86 bf f2 6a 13 c0
       -4.229692 1.9944336 -1.0514611 -2.3034024
0000d0 89 87 17 c0 48 24 94 be c8 2c 20 3f bc 12 d9 bf
       -2.3676474 -0.2893393 0.6256833 -1.6958842
0000e0 98 5b 6a bf 2b 25 c9 be 0d ee a5 bf ec 9d a9 bf
       -0.9154601 -0.3928617 -1.2963272 -1.3251319
0000f0 4a 3e 50 c0 8b 39 32 3f da 90 b1 bf aa f0 4b c0
       -3.2538018 0.69619054 -1.387233 -3.186564
000100 d9 26 13 c0 59 c5 e8 3e 9c bc e1 bf 29 4a 95 3d
       -2.299246 0.45463064 -1.7635684 0.072895356
000110 07 26 5a c0 ac 7d 8e 3f 61 fa a5 bf 40 3f 4b 3f
       -3.408571 1.1132102 -1.2967035 0.79393387
000120 57 84 af bf ee 23 6a 40 e6 e2 55 bf f3 85 de 3f
       -1.3712262 3.658443 -0.83549345 1.7384628
000130 1f 2d 2d 3f 47 24 d6 3f 9f b3 29 c0 27 56 80 bf
       0.67646974 1.6729821 -2.6515882 -1.0026292
000140 af 5d 86 bf 47 06 0c 3f 1e 31 3c 40 35 6b 1d c0
       -1.049734 0.5469708 2.9404979 -2.4596684
000150 e0 b6 1a bf 84 ad 6b c0 8a 7d 51 bf b6 a5 85 bf
       -0.60435295 -3.6824656 -0.8183218 -1.0441196
000160 05 46 aa bf ec e1 53 3f 69 54 b6 bf 34 cf 42 bd
       -1.3302618 0.82766604 -1.424451 -0.047560886
000170 b1 2b 4d 3f c5 5f 31 c0 49 3a 79 be 46 4d bf 3f
       0.8014479 -2.7714703 -0.2433864 1.4945457
000180 38 01 24 c0 61 4f 51 c0 27 ef 53 3f fa 1a 3e 40
       -2.5625744 -3.27047 0.8278679 2.9703965
000190 87 28 ab bf 89 3c b4 bf 92 fb e5 3f 04 8a ad 3f
       -1.3371743 -1.4080974 1.7967398 1.3557744
0001a0 98 1f 41 3f c9 03 d4 3e d6 1f 1e be 1e 09 a9 bf
       0.75438833 0.41409138 -0.15441832 -1.3205907
0001b0 72 d6 b1 be 9f 66 4c bf 78 6d 38 bf c6 d6 2d c0
       -0.3473392 -0.7984409 -0.72042036 -2.7162337
0001c0 38 f1 01 c0 cc 40 fe 3e 20 0a 0e c0 76 13 d2 be
       -2.0303478 0.4965881 -2.219368 -0.41030473
0001d0 b1 7a 18 c0 83 34 97 bf 3c 00 5b 3f 7f a9 09 bf
       -2.3824885 -1.18129 0.8554723 -0.53774256
0001e0 11 71 4e c0 b6 e0 5f bf 8d ad 91 bf 26 cb 85 bf
       -3.225651 -0.87452257 -1.1381088 -1.0452621
0001f0 46 6d 36 3e 87 58 ef bf 62 3a 1f c0 cb df 37 c0
       0.17815122 -1.8698891 -2.4879384 -2.8730342
000200 07 c5 10 bf 28 23 41 c0 7f 8f 5c c0 58 d2 14 c0
       -0.5655064 -3.0177708 -3.4462583 -2.3253384
000210 a7 15 66 40 f9 8f 73 c0 38 bb 92 be 1d 02 e1 3e
       3.5950716 -3.8056624 -0.28658462 0.43946925
000220 c1 98 ff bf b4 e8 35 3d a2 7d 43 c0 43 74 5d bf
       -1.9968492 0.044411376 -3.054543 -0.86505526
000230 36 74 fd 3f e5 64 61 bf 87 5a 27 c0 4a b5 ba bd
       1.980109 -0.8804458 -2.6149004 -0.091166094
000240 cd cf 54 3f 7e f6 08 bf a9 d7 b9 bf 87 ee 96 be
       0.8312958 -0.5350112 -1.4518939 -0.29478857
000250 9e 41 9a bf e2 e7 54 c0 4a d6 94 bf 95 8b c3 3f
       -1.2051275 -3.326653 -1.1627896 1.5276972
000260 88 18 2e c0 1c 62 71 c0 a2 dc fc be a5 e6 c5 3f
       -2.7202473 -3.7716131 -0.4938708 1.5461012
000270 00 c2 8f bf ea 1f 09 c0 5b e5 22 3e a3 7e da bf
       -1.1231079 -2.1425729 0.15907805 -1.7069896
000280 83 96 f4 bf ab b8 8a 3f 0a 36 e7 bf 0e f0 4b be
       -1.9108433 1.0837606 -1.8063366 -0.19915792
000290 d0 15 fe bf bf 31 08 c0 19 db 13 c0 b8 09 8c 40
       -1.9850407 -2.1280363 -2.3102477 4.3761864
0002a0 1d ab 1f c0 94 96 dd bf c3 a9 b4 3f ff 40 26 bf
       -2.494819 -1.7311578 1.4114307 -0.64942926
0002b0 44 d2 26 c0 d8 07 99 bf c3 28 91 be 4d cd 00 c0
       -2.6065836 -1.1955519 -0.2835141 -2.0125306
0002c0 4d cc 19 c0 ba 37 eb bf 15 90 61 bf da 46 ff bf
       -2.4030945 -1.8376381 -0.88110477 -1.9943497
0002d0 b7 a6 19 bf bd 78 3f 3f a4 98 1a c0 cc b4 a5 bd
       -0.6002001 0.74793607 -2.4155664 -0.08091125
0002e0 3c c9 f5 bf 73 0a 27 be 99 f3 57 40 41 64 8f bf
       -1.9202037 -0.1631258 3.374243 -1.120247
0002f0 8a fe 00 c0 f5 dc 6f c0 84 e6 f5 be d2 92 ae c0
       -2.0155358 -3.7478611 -0.48027432 -5.4554224
000300 34 ff 4a 40 3f f1 a5 bf 3e 3f 46 c0 94 92 8c be
       3.1718264 -1.2964247 -3.09761 -0.2745558
000310 8c b8 63 3c 4a bf 14 c0 63 70 10 c0 e4 a2 ee bf
       0.01389898 -2.3241754 -2.2568595 -1.864346
000320 c9 81 92 3e c5 fe 6c bf 85 d4 5c c0 71 a1 7b 3f
       0.28614643 -0.9257625 -3.4504712 0.98293215
000330 c4 9d 2d bf 22 6a b9 bf f0 cb d0 bf 64 13 24 c0
       -0.67818856 -1.4485514 -1.6312237 -2.5636835
000340 0d b3 a0 bf 49 3d 41 be 6f 8b 06 c0 e8 72 24 3e
       -1.2554642 -0.18871035 -2.1022604 0.16059458
000350 d1 9f 15 40 f4 c0 e1 be 1c b4 6a 3f 18 6c 38 c0
       2.3378794 -0.44092524 0.91681075 -2.8815975
000360 fe f5 1a c0 88 a1 8f bf 03 05 4f bd f1 de b0 bf
       -2.4212642 -1.122117 -0.05054189 -1.3818036
000370 05 06 c2 bf ef 7e 10 3f 52 a1 ed bf 6b 08 e3 bf
       -1.5158087 0.56443685 -1.8564856 -1.7736944
000380 1e 45 cf bf 95 d6 00 c0 f4 26 98 bf fc 60 df bf
       -1.6192968 -2.013097 -1.1886888 -1.7451472
000390 d3 1c c7 bf 29 89 84 c0 78 84 30 c0 b1 30 03 bf
       -1.5555671 -4.141743 -2.7580853 -0.5124617
0003a0 96 b6 c7 bf 21 b9 f2 3e f2 dc e7 bf 6a a9 3e c0
       -1.5602596 0.47406867 -1.8114302 -2.9790902
0003b0 0e 83 c6 bf 10 f6 39 bf e5 1d 81 c0 bb 33 15 c0
       -1.5508745 -0.72641087 -4.034899 -2.3312824
0003c0 2b aa 40 bf 36 75 ad 3f e8 b0 33 c0 2a 1e d9 bf
       -0.75259656 1.3551395 -2.8076725 -1.696233
0003d0 26 0f 1f 3f 03 5b 3c bf 9e cd 9a bf fd 3e e3 bf
       0.6213249 -0.7357637 -1.2093999 -1.7753597
0003e0 7a f8 6e c0 1b ae 2f c0 e7 68 fd bf 55 e0 fe bf
       -3.7339158 -2.7450016 -1.9797639 -1.9912211
0003f0 e0 a0 50 c0 43 64 54 c0 50 e2 15 40 33 b9 d4 3e
       -3.259819 -3.3186195 2.341938 0.41547546

fc2.weight f4 [256, 256]
000000 ec b1 07 3e 6c 67 f0 be d5 f3 05 3c 6c 59 83 3e
       0.13251466 -0.46953905 0.00817581 0.2565416
000010 88 55 b5 be 0a ba 50 bb 55 f3 03 bd 6d ef 1c bf
       -0.35416818 -0.003184917 -0.03221448 -0.61302835
000020 51 5f 40 be ab 1e 80 bf 59 ab 41 be de 53 a5 3e
       -0.1878636 -1.0009359 -0.1891302 0.32290548
000030 72 b5 e0 be 8b bc 73 3d 41 dc c6 be a4 7c fd be
       -0.43888432 0.05950598 -0.38839915 -0.49509156
000040 e0 0a c6 be d1 36 cd be 6e ab 9f be 5a b7 d8 be
       -0.38680172 -0.40080884 -0.31185478 -0.42327386
000050 3d 8e 88 be d4 dd f8 bd 5e df 14 bf 64 c0 f9 be
       -0.2667102 -0.12151685 -0.5815333 -0.48779595
000060 2a 54 d5 bb bd f9 8d be 15 25 03 be 2e 80 88 bf
       -0.0065102773 -0.27729598 -0.12807114 -1.0664117
000070 16 01 22 bc a8 5f 38 be 0c ef f5 be 45 09 17 bf
       -0.009887954 -0.1800524 -0.4803394 -0.5899852
000080 db df 64 bf 18 8f 4d bf 53 29 7b 3d b4 1b 03 3e
       -0.89404076 -0.8029647 0.061318707 0.12803537
000090 de 30 2f 3e 19 41 da be 7f d9 22 bf 8d 9d 0d bf
       0.17108485 -0.4262779 -0.6361312 -0.5531853
0000a0 77 cc bc 3e 18 c0 49 bf 94 5f 0c 3e 3f f9 bd 3d
       0.36874744 -0.78808737 0.13708335 0.092760555
0000b0 e2 29 5e be a2 f9 e4 3b d7 f1 af be 5d cf 1f 3e
       -0.21695665 0.0069877664 -0.34364197 0.15606447
0000c0 09 b3 4d bf 51 86 df b8 31 3e 5e 3e 88 ba 39 be
       -0.8035131 -0.00010658487 0.21703412 -0.18137562
0000d0 ad 19 97 3e f6 ff 90 be df 6c a5 bd 8b b9 67 bc
       0.29511777 -0.28320283 -0.08077406 -0.014143358
0000e0 9e ae 19 be ee db 19 bf 43 04 ea be 28 0b c4 3e
       -0.15008017 -0.6010121 -0.45706376 0.38289762
0000f0 6d 61 0a be 87 dc 2b bf d0 80 b0 bd b3 13 e3 bd
       -0.13513727 -0.67133373 -0.08618319 -0.11087742
000100 29 78 cf be 71 f5 cd be 1e 11 2d 3f a6 f3 97 bd
       -0.40521362 -0.4022632 0.67604244 -0.07419519
000110 79 30 d6 bd d5 00 88 be d6 be 92 be 2f d2 24 be
       -0.10458464 -0.26563135 -0.2866122 -0.16095804
000120 9a b1 5a bf d4 66 77 bf 8d c5 17 3f b4 3b 06 3e
       -0.8542725 -0.9664128 0.59285814 0.13108712
000130 46 ec 9f bc 6d 04 0d bf 3d 9b 0a bf 36 df 23 bf
       -0.019521844 -0.5508488 -0.54143125 -0.6401247
000140 99 80 de 3e 0d 46 8d be c5 6e 84 be ee 6f 92 bd
       0.43457487 -0.27592507 -0.2586576 -0.07150255
000150 17 dc 23 bf 4e 11 9b bd 54 af 06 3f 1c 51 81 3d
       -0.64007705 -0.0757166 0.5261128 0.063142985
000160 95 45 08 bf 3a 24 57 bc 9e 1d 2d 3e 5e b8 a7 3e
       -0.53231174 -0.013131196 0.1690583 0.32757849
000170 60 85 3c bf 7d 8c 1a bf 68 45 33 3f 94 7c 03 3e
       -0.73641014 -0.6037062 0.7002778 0.12840492
000180 a1 7f 57 3e 42 0b 54 bf 8c c4 fa 3d f4 ae f8 bd
       0.2104478 -0.8282968 0.122445196 -0.12142745
000190 9c 91 09 3f 43 72 f9 3d 13 77 ed bd 6d b6 00 bf
       0.5373781 0.12179997 -0.11594977 -0.5027836
0001a0 c6 f8 1f be fa f5 e5 be 82 98 63 3c ef be 22 be
       -0.15622243 -0.44914228 0.013891341 -0.15893148
0001b0 48 fa 3e bb 1e db 9c be e6 da 18 bf e0 53 3e bd
       -0.0029140878 -0.30635923 -0.5970901 -0.04646671
0001c0 cc 19 72 bd 8a c0 51 bf 5e 8a 1e bf 9d 7f 0c bf
       -0.059106633 -0.81934416 -0.6192988 -0.5488222
0001d0 64 27 06 3f a9 b0 d0 3c 3d 4e 1b 3e 64 35 73 bf
       0.52403855 0.025474863 0.15166564 -0.9500334
0001e0 af 80 a3 bd fb fc e8 bd 63 bc 69 bf 06 80 97 be
       -0.07983529 -0.11376377 -0.9130308 -0.29589862
0001f0 15 3d 18 bf 96 a8 1d 3e 36 ee 94 be 29 6f 44 be
       -0.59468204 0.15396342 -0.2908799 -0.19183029
000200 01 b7 47 be 85 69 08 be 9e 0b 17 be f7 86 39 bf
       -0.19503404 -0.13321503 -0.14750525 -0.72471565
000210 4e 61 96 bf 9d c8 1d bc b5 60 1d 3e f8 7f b6 bd
       -1.1748445 -0.009630349 0.15368922 -0.08911127
000220 b0 b0 4d 3e 87 fb aa be 63 ad 78 3f 52 b5 6c 3c
       0.20086932 -0.33395025 0.9713957 0.014447527
000230 a2 c3 54 be bf 89 a8 be 5d b7 0a bd 48 ac cb 3c
       -0.20777753 -0.32917592 -0.033866275 0.024862424
000240 ad be 88 be 82 9c da bd 1e 0e a1 3e 40 85 48 be
       -0.26707974 -0.10674383 0.31456083 -0.19582081
000250 14 ee 87 3b 9e e6 98 be c2 74 d1 bd 09 37 d1 3e
       0.004148254 -0.29863447 -0.10227348 0.408623
000260 70 ae 44 3f 9b 7b 63 be 03 e2 f6 3d dd 0e 0b bf
       0.7682867 -0.2221512 0.12054827 -0.54319555
000270 be 6c 18 bf 1f 2e a4 ba 8b 5a 62 bf 6b 8c ee bd
       -0.5954093 -0.0012525952 -0.8841941 -0.11647876
000280 79 e3 4d be f2 9e d1 bc bb a5 e9 be 6d 86 88 be
       -0.20106305 -0.025588486 -0.45634255 -0.2666506
000290 5c 86 8e 3c a9 3e 4a bd 80 f5 47 be 52 0c d2 bd
       0.017398052 -0.049376164 -0.19527245 -0.10256256
0002a0 c8 34 c8 bd 4c 0b 03 bf 28 c8 31 be e8 32 b4 bb
       -0.09775692 -0.5118911 -0.1736151 -0.0054992326
0002b0 b0 81 c0 3e 87 1a aa bd fb e4 6c be 88 0a 35 bf
       0.37598944 -0.08305841 -0.23134224 -0.70719194
0002c0 08 ee bf be 7e 3f 12 bf d7 ae 36 3e f1 1e 45 bf
       -0.3748629 -0.5712813 0.17840134 -0.7700034
0002d0 fd 34 81 be c4 7e 79 bf 17 bc 39 3d 09 cd 51 bf
       -0.2523574 -0.97459054 0.045345392 -0.81953484
0002e0 03 c8 f2 3e 9c 53 f2 be 88 79 48 3e fa 96 00 3c
       0.47418222 -0.47329414 0.1957761 0.007848496
0002f0 5d fa 03 be 8b 7b 69 be 62 9d d1 bd db 88 ff 3d
       -0.12888475 -0.22801034 -0.102350965 0.12477275
000300 87 9d 29 be 8d fa 0a bf aa f2 5e 3d 33 c2 61 bf
       -0.16563998 -0.5428856 0.05443064 -0.8818695
000310 f7 96 ae be c7 24 3a bf 77 08 33 3d 00 e2 44 be
       -0.34099552 -0.7271237 0.043709245 -0.19226837
000320 d9 41 c4 be 82 91 e0 3d 55 1e 81 be 6f 04 bf 3c
       -0.38331488 0.109652534 -0.25218454 0.023317544
000330 e6 e3 a3 3b f7 e8 31 bd 7f 3f 40 bf 2e 66 1d bf
       0.005001533 -0.043435063 -0.7509689 -0.6148404
000340 e8 0c 4b 3e 8e 3f 25 be b0 e1 49 3f 44 ab fc bd
       0.19829142 -0.16137525 0.78859997 -0.12337354
000350 02 2f 66 bf fb 2f 6d bf dd d9 17 3b ed 99 8b be
       -0.8991548 -0.9265134 0.0023170628 -0.27265874
000360 84 34 7c bd 2b 3f 65 be 31 11 40 bf 2d 50 90 be
       -0.06157352 -0.22387378 -0.7502623 -0.2818617
000370 58 f6 41 3d 1f b7 3b 3f 57 2a b1 bf 4d 81 19 3e
       0.047354072 0.73326296 -1.3841046 0.1499073
000380 92 63 51 bf e6 d9 14 bd fe 97 16 bf e0 f1 c5 3e
       -0.8179256 -0.036340617 -0.5882567 0.38661098
000390 ee a6 26 3e 3e 2b 25 3f 2f 10 a3 be 8a 11 d1 bd
       0.16274616 0.6451911 -0.31848285 -0.102084234
0003a0 1b c1 ff 3e 2c a9 64 bd 93 37 69 bb 95 a1 81 be
       0.49952015 -0.055825397 -0.0035586103 -0.2531859
0003b0 24 f5 84 3d a0 75 a2 be f4 35 88 be e6 81 12 bf
       0.06492069 -0.31730366 -0.26603663 -0.5722946
0003c0 23 f1 74 3e 4f db 23 bf 14 27 8b 3d df 07 21 be
       0.23920111 -0.64006513 0.06794563 -0.15725659
0003d0 ab 1a e9 be 41 80 cd be 8d 36 01 bf ea b1 55 3e
       -0.4552816 -0.40136912 -0.5047386 0.2086865
0003e0 9e 7c 99 bc eb 05 e1 be 59 54 dc 3d dc 73 8f be
       -0.01873618 -0.43949828 0.107582755 -0.2801808
0003f0 27 bf 3f 3e ac 21 05 3c 5e 06 1b bb 3e 8f a5 3d
       0.18725263 0.008125704 -0.0023654918 0.08083962

fc2.bias f4 [256]
000000 16 a7 17 bf fc 52 7c bd 80 25 2e 3f 2e 56 c7 bf
       -0.5923933 -0.061602578 0.6802597 -1.5573175
000010 5d c9 f2 3f a9 6e c2 bd 20 09 3f bd 10 0a c2 be
       1.8967701 -0.09493763 -0.04663956 -0.37898302
000020 34 5a 12 3f d6 47 84 be 8e a4 90 bd d3 f9 eb bc
       0.5716889 -0.25836056 -0.07062636 -0.028805649
000030 b8 98 35 bd 9d da b0 3d 60 7b da 3f 02 aa 5e bd
       -0.044335097 0.08635447 1.7068901 -0.05436135
000040 48 2a 37 bd c0 0f b4 bb 31 cf 9f bf 57 26 a1 bc
       -0.044718057 -0.0054950416 -1.2485105 -0.019671602
000050 93 fd 8d be 3f 9f 3c 3f 74 59 0b c0 78 7a 39 bb
       -0.27732524 0.7368049 -2.1773348 -0.0028301757
000060 70 fa 2d c0 f4 a8 9b bf f5 38 c0 3f 1a 8a d2 bd
       -2.7184105 -1.2160935 1.5017382 -0.10280247
000070 dd 76 02 be f3 c0 75 3c b2 74 17 c0 8b 2b 27 3f
       -0.12740655 0.014999616 -2.3664975 0.65300816
000080 8d 99 db 3d 0a a9 b6 bf e9 d6 d0 bd 24 09 71 bb
       0.10722647 -1.4270337 -0.10197241 -0.003677913
000090 7c 8e 04 bf 19 86 02 3e 6e 40 54 bf 3e 59 95 bd
       -0.51779914 0.12746467 -0.8291081 -0.07292412
0000a0 98 30 c2 bf 50 87 b1 ba 85 7f 56 bd e5 43 27 c0
       -1.517108 -0.0013544355 -0.052367706 -2.613519
0000b0 73 b2 01 bf be 0f 9b bd 08 c2 be bd 95 7d b6 be
       -0.50662917 -0.07571362 -0.09314352 -0.35642686
0000c0 b9 3e 46 bf bb 29 ed bd 3d e4 74 bf a6 db e5 3d
       -0.7743946 -0.11580225 -0.95660764 0.11223535
0000d0 f2 4a 12 c0 5a bb 91 3f 13 8e 42 bf 66 65 4c c0
       -2.2858243 1.13853 -0.7599804 -3.1936889
0000e0 96 a1 9c bf e6 8c 0c c0 a8 73 a1 3e d3 97 d2 3e
       -1.2236812 -2.1960998 0.3153355 0.41131458
0000f0 36 bc 94 bd d6 66 49 3e c9 ef 0d c0 63 77 90 bf
       -0.07262461 0.19668135 -2.2177603 -1.1286434
000100 30 8c 6b c0 c4 a0 25 bf d0 9b b4 3e 18 d3 e5 3f
       -3.6804314 -0.64698434 0.35275126 1.7955046
000110 43 71 03 3f fa f2 59 bd 93 ae 85 be 1b 75 18 3f
       0.513447 -0.053210236 -0.26109752 0.5955369
000120 ef 52 5b c0 d5 b7 cc bf fe 6b cb 3f 02 8e d5 3b
       -3.4269369 -1.5993601 1.5892332 0.006517173
000130 91 63 8a bf b3 f3 09 c0 9a 8a b7 bf f7 cb 57 c0
       -1.0811635 -2.1554992 -1.4339173 -3.371824
000140 ab ec 2c c0 0e 5d 9e bc 3f 5e 12 3f c3 6a 53 bf
       -2.701945 -0.019331481 0.5717506 -0.8258478
000150 5d e4 47 c0 c6 84 91 bd 67 b3 a9 bd 9b 2e bc 3f
       -3.1233132 -0.07105403 -0.082861714 1.4701723
000160 30 82 8e bd 89 c2 c0 bd e6 f1 bf bf c3 9e 63 bd
       -0.06958425 -0.09412105 -1.4995697 -0.05557133
000170 85 5c 06 be 04 4b 7c bf 69 43 5e 3f e5 e2 c6 bf
       -0.13121231 -0.98551965 0.8682161 -1.5537993
000180 00 8b 84 bf 8d a2 88 bd e3 ba f7 be a7 a2 4a bf
       -1.035492 -0.06671629 -0.4838477 -0.7915444
000190 c6 35 51 bf b4 59 25 c0 ec 5f e0 3e 22 2a 1e be
       -0.81722677 -2.5836 0.43823183 -0.1544576
0001a0 33 1d 36 bf 4a b5 56 bd 28 f4 dc bf 97 40 6f 3e
       -0.71138304 -0.052418984 -1.726201 0.23364483
0001b0 8d 2e b6 3f 94 07 71 3f 05 a2 09 be 3c 01 30 bf
       1.4232956 0.9415219 -0.13440712 -0.68751884
0001c0 bb cf 74 c0 09 11 cf bc 75 a3 be 3e 56 aa ee bf
       -3.8251789 -0.025276678 0.37234083 -1.8645732
0001d0 df e9 ba be d0 bd cf bf 1c 1d 00 c0 d6 03 a2 bd
       -0.36506554 -1.6229801 -2.0017767 -0.07910888
0001e0 02 15 13 c0 b4 63 1c c0 32 21 18 c0 6e a9 54 bf
       -2.2981572 -2.4435854 -2.377026 -0.8307103
0001f0 05 ee 99 3b ff 57 18 c0 b9 d9 26 3e aa a7 de bc
       0.0046975636 -2.3803709 0.16293992 -0.027179558
000200 6f 5a a0 bd f9 41 23 bf fc 4f f0 bc fc 78 fe be
       -0.07829749 -0.6377254 -0.029335015 -0.4970168
000210 59 d3 b4 bf 52 ce 53 bd 16 05 34 c0 80 6d 63 3e
       -1.4126998 -0.051710434 -2.8128104 0.2220974
000220 b0 74 be bf 1e 69 16 be ef 15 26 c0 c9 0b 33 c0
       -1.487936 -0.14688537 -2.5950887 -2.7975943
000230 90 a9 fa bf 1c eb f8 bd 3a a1 e4 bf de 3d 9f 3f
       -1.9582996 -0.121542186 -1.7861702 1.2440755
000240 18 2f 0a 3f 0a 01 90 bd 23 85 eb bf a3 05 5c 3d
       0.5397811 -0.07031448 -1.8400005 0.053716313
000250 12 4e df bb 33 32 05 c0 ae 60 1a c0 41 e1 76 3f
       -0.0068147266 -2.081189 -2.4121509 0.9643746
000260 21 34 52 3f 4e 45 14 c0 2d 9e a6 bf 3b e1 38 bf
       0.8211079 -2.31673 -1.3017021 -0.72218674
000270 10 10 12 40 75 e3 fd bf 3b 41 ca bf c5 68 05 be
       2.2822304 -1.9835039 -1.5801157 -0.13028248
000280 10 15 11 bf a5 f3 c4 bf c6 35 8a bf f4 10 a8 bf
       -0.56672764 -1.5386854 -1.079766 -1.3130174
000290 c8 6e a4 3e dc e5 53 3f eb 8a 87 bf e4 4d 8f c0
       0.3211577 0.8277261 -1.0589269 -4.478258
0002a0 9f 14 e7 bf 15 61 14 bf 65 20 15 3f ee 9e 1f bc
       -1.8053168 -0.57960635 0.58252555 -0.009742482
0002b0 09 82 61 bf ea 1e 62 bf 1f 36 ab bd 12 12 d0 bd
       -0.8808904 -0.8832842 -0.08359932 -0.10159697
0002c0 87 e3 3d 3d 6b be ee bd ec e5 19 bf 9a bd 3d bd
       0.046359565 -0.11657413 -0.6011646 -0.046323396
0002d0 51 e8 8b 3e 95 ae 11 3f 71 4f c8 bf 98 81 30 bb
       0.2732568 0.56907016 -1.5649244 -0.0026932713
0002e0 07 8b aa bd d4 92 11 c0 2b 17 6b bf 8e 6d ea 3d
       -0.083272986 -2.2745867 -0.91832227 0.11446677
0002f0 6b 4e 70 3c f3 c4 9c 3f 7c 90 d2 bf e2 6a 68 3c
       0.014667134 1.2247604 -1.6450343 0.014185639
000300 ba f1 56 bf d8 8e b3 bd 3f f5 e8 bf a4 89 f5 bf
       -0.83962595 -0.0876748 -1.8199843 -1.918263
000310 6d 3e 61 bf 25 88 af bf f8 65 50 be 99 5d cf bd
       -0.8798588 -1.3713423 -0.20351398 -0.10125274
000320 16 bf 95 3d 84 07 6f be 20 a4 0b c0 31 50 42 bd
       0.073118374 -0.2334271 -2.1818924 -0.047439758
000330 3c 89 71 3f c3 46 10 3f d8 7a a8 3d e7 ee 10 c0
       0.9435003 0.56357974 0.082265556 -2.2645814
000340 be dc 96 bd 26 c2 7d bf dc 7c 01 3b d1 4c c1 bd
       -0.07366322 -0.9912437 0.001975826 -0.0943848
000350 c1 d7 4d be ab 38 97 bf f6 4f 35 c0 76 c4 09 c0
       -0.20101835 -1.1814169 -2.8330054 -2.152616
000360 73 fd aa bc 5c d2 84 3e da c2 25 bd a2 7b d8 3f
       -0.020872807 0.2594174 -0.040469028 1.691273
000370 5e 8c 5a c0 f6 cc cf 3e 56 cf 85 bf 5e 81 47 bf
       -3.4148173 0.4058606 -1.0453899 -0.77931774
000380 01 f5 87 3f c6 47 17 be 9c 95 9a bc fa 44 b4 c0
       1.0621644 -0.14773473 -0.018870167 -5.63342
000390 bb 47 68 bd bf 53 83 3d 6a c9 4a c0 97 59 8f bf
       -0.056709033 0.06412458 -3.1685433 -1.1199216
0003a0 2e ae 11 bd 34 d4 69 c0 25 66 66 bf 2f 95 4b c0
       -0.0355665 -3.6535769 -0.8999961 -3.1809804
0003b0 77 e6 d5 be 5c cf 60 c0 8d 30 43 c0 d3 a4 2d c0
       -0.41777393 -3.5126562 -3.0498383 -2.713185
0003c0 d4 1b 5d be 8b ff 5e bf 75 71 19 bf dc 53 fb bf
       -0.21592647 -0.8710868 -0.59938747 -1.9634967
0003d0 ae 65 1b bf 2a c2 34 bc 63 17 56 3e ff a2 ce bf
       -0.60702026 -0.01103262 0.20907359 -1.6143492
0003e0 76 4b 54 c0 7d 80 90 bf 28 2f 3e bf e2 cb 8e bd
       -3.3171058 -1.1289212 -0.74290705 -0.06972481
0003f0 44 c4 17 3f f3 49 e8 bf 3c d2 52 c0 80 a4 05 c0
       0.5928385 -1.8147568 -3.2940817 -2.0881653

mu.weight f4 [4, 256]
000000 fc 99 85 3d 85 98 15 3d 2d f6 4e 3d 58 56 96 be
       0.06523511 0.036522407 0.05052774 -0.2936275
000010 62 46 fd bc 75 16 87 3d d3 b2 7b 3d 20 38 34 be
       -0.03091735 0.0659608 0.061449837 -0.17599535
000020 73 d4 d6 3d e1 4a 35 bd bb 18 f4 3c 07 0c a2 bd
       0.1048974 -0.044260863 0.029796949 -0.0791245
000030 77 ba 26 3c af d7 a3 bd 00 21 7f 3e 48 31 3a bd
       0.010176293 -0.08000123 0.24914932 -0.045457155
000040 10 25 b8 bb d1 84 c0 bd 87 21 9a bf 43 f1 68 3c
       -0.0056196526 -0.09400333 -1.2041482 0.0142176775
000050 53 77 fe be e9 e8 5a 3d 9f 45 70 bd d9 c5 47 bd
       -0.49700412 0.053444777 -0.058660146 -0.048772667
000060 f5 bf 84 bf de e5 5e 3c 9b c5 1b 3e 81 05 56 bb
       -1.0371081 0.013604609 0.15212099 -0.003265709
000070 a9 f1 41 bb 78 75 3e 3d 26 c3 02 bf dd c2 83 3c
       -0.0029593504 0.046498746 -0.5107902 0.016084129
000080 7e 6b 1a 3e a6 b9 2d 3c 90 c7 48 3e d9 be 44 bd
       0.15080068 0.010603344 0.19607377 -0.04803357
000090 76 b1 9b 3d 43 87 56 bd 0f 55 cf bc b2 4e 55 bd
       0.07602207 -0.05237509 -0.025309114 -0.052077003
0000a0 d4 30 ab bc 86 d6 2c bd fb ee a0 3c e5 b4 d5 be
       -0.020897307 -0.042196773 0.019645205 -0.41739574
0000b0 dd f1 c4 3c 22 fa e6 3c da 93 60 3c 7d 41 20 bd
       0.02404111 0.028195444 0.013707126 -0.039124954
0000c0 ce 8d cc 3e 27 cd ac bb cf 42 aa be e3 d9 56 3e
       0.39951938 -0.0052734795 -0.33254096 0.20981555
0000d0 a0 74 4d bf 50 78 ac bd 14 7c 81 be ec 7c f4 be
       -0.8025608 -0.08421385 -0.25289977 -0.47751558
0000e0 ef 9c 82 bf 68 0a f4 3b 8e 7d 08 3f 9f 7e 90 3d
       -1.0204142 0.0074475296 0.5331658 0.07055401
0000f0 5f f2 ae 3d 14 cd d6 bd 4f 07 65 bf 2d 89 c4 3d
       0.08542322 -0.10488334 -0.8946428 0.09596477
000100 eb 16 e3 bf f5 45 d4 3d 53 6f 3e 3d fd 40 df 3d
       -1.7741369 0.10364906 0.046492886 0.109010674
000110 aa 24 80 ba 02 32 d9 3b b1 56 73 be b8 b9 50 ba
       -0.0009776552 0.006628276 -0.23763539 -0.00079622446
000120 dd 47 86 be 2b aa 29 be 32 d1 99 be b6 12 b7 bd
       -0.26226702 -0.1656882 -0.30042416 -0.08939116
000130 20 49 7e bf e8 28 0a 3f 59 15 39 3f f8 01 f2 bd
       -0.9933033 0.5396867 0.722982 -0.11816782
000140 f2 d8 10 bf c9 71 42 bd ae 9b 50 3d 20 96 77 3e
       -0.5658103 -0.047471795 0.050929718 0.24178362
000150 1a b2 7e bf a6 62 92 3d df 6b 21 bd a6 71 28 be
       -0.9949051 0.07147722 -0.039409515 -0.16449603
000160 74 09 c5 3d a8 b5 32 3d 27 56 5c 3e a1 0a 5e 3d
       0.09620944 0.043630272 0.2151724 0.054209355
000170 ef f7 25 3d 81 bb 0c be b5 b9 e5 3e 1e f7 0e be
       0.04051965 -0.13743402 0.44868246 -0.13961455
000180 a8 34 f1 3e 2d e0 11 3d 26 65 b6 3d 5b 87 f5 3e
       0.47110486 0.03561418 0.08906011 0.4795483
000190 9e 3a 0f be 99 05 42 be 20 c7 1c 3e 82 9a 8d 3c
       -0.13987204 -0.18947448 0.15310335 0.01728559
0001a0 23 ac 17 bd 44 47 fc bb c7 3e 47 bd 0d f3 29 bd
       -0.037029397 -0.007698925 -0.048643854 -0.041491557
0001b0 36 2c e0 3d 1c c0 65 3e 9a dd db bc 0b 12 6a 3e
       0.109459326 0.22436565 -0.026839066 0.22858445
0001c0 af e6 4d bf ee 64 18 3c 47 51 31 bd 4b 62 18 be
       -0.8043012 0.009301407 -0.043290403 -0.14881246
0001d0 f7 1e eb 3c c6 ae 23 be a5 14 c6 be dd b1 4f bd
       0.028701289 -0.1598464 -0.38687626 -0.050706733
0001e0 04 bb e2 3d 45 b4 e9 be ec 88 4d bf 59 90 4b be
       0.11070827 -0.45645347 -0.8028705 -0.19879283
0001f0 38 ad bb 3e 39 52 89 3e 6e 59 16 be fe 95 27 3c
       0.36655593 0.26820543 -0.14682552 0.010228632
000200 d4 77 09 3c 23 52 ac 3e 5f c4 3e bc 2d b7 03 bf
       0.008390386 0.33656415 -0.011643498 -0.5145138
000210 97 3c 9d 3d ad e0 93 bc 84 77 18 3b 0a 77 d6 bd
       0.07677572 -0.01805147 0.0023264596 -0.10471924
000220 5a 70 e8 3d 67 53 b9 bc 76 10 c5 be 9d 94 1c bd
       0.11349554 -0.022622777 -0.3848912 -0.038227666
000230 12 f3 6d 3f 51 4e c7 bb 48 e3 31 bc 47 96 1c 3f
       0.9294902 -0.006082334 -0.010857411 0.61166805
000240 e1 69 5f bc 30 56 2d 3f 71 df 30 be 62 a1 ff 3b
       -0.013636083 0.67709637 -0.17272736 0.0078012208
000250 56 f9 1b 3c f6 28 bd 3e eb 93 7a be 23 9a 81 3e
       0.009519896 0.36945313 -0.24470489 0.2531291
000260 e5 72 da be e0 f6 39 be 89 b0 85 3f 13 4d 24 3f
       -0.42665783 -0.18160582 1.0444499 0.64180106
000270 32 4f ee bc 80 45 6c 3c 2d b3 b7 be bd 47 81 be
       -0.029090498 0.014420867 -0.35878888 -0.25250044
000280 58 4b 1a 3f fb fb c1 3e 72 f1 68 bd 1b 2c 0f bd
       0.60271215 0.37887558 -0.056870885 -0.03495417
000290 ed 30 17 3c f7 5e 84 3e 0f 14 f4 3d 3f 27 5d bf
       0.009227973 0.25853702 0.119178884 -0.8638801
0002a0 1b ab 45 be 76 c6 5b be 01 69 49 3f e8 61 c1 3c
       -0.19303553 -0.21462426 0.7867585 0.023606256
0002b0 cd 4a 31 be 50 75 33 be 0c 97 0c 3d 3f 5e a9 3c
       -0.1731369 -0.1752522 0.034323737 0.020674823
0002c0 af 1c 13 3f 11 bb d1 3d 2f 95 a0 bd 99 1e 6e 3d
       0.5746564 0.10240758 -0.078409545 0.05813465
0002d0 55 5d 89 bd 90 f8 c1 3e c2 f7 6c 3e 30 bf 3c 3d
       -0.06707255 0.3788495 0.23141387 0.046080768
0002e0 ab f5 6a 3d 83 41 ad bf e8 3c e5 3d c9 df e1 3d
       0.057363193 -1.3535618 0.111932576 0.11029012
0002f0 a5 72 87 3d dd 0b 24 40 48 6d a2 3d 52 0c eb 3c
       0.066136636 2.563224 0.07931 0.028692398
000300 0a 9b 66 bd 6e fd a2 3b 81 2b 6d 3d 37 d2 34 3e
       -0.0563002 0.004974059 0.057902817 0.17658316
000310 8e 27 16 be a7 9d 37 bf b5 57 93 be d4 0f f9 3c
       -0.14663526 -0.71724933 -0.28777853 0.030403055
000320 d9 f1 94 be ee 72 89 3d 50 82 a6 be f4 b2 88 bd
       -0.29090765 0.06711374 -0.32521296 -0.066747576
000330 cd 25 4c bc c1 08 88 3d 53 73 52 3f c9 79 80 be
       -0.012460184 0.06642295 0.8220722 -0.25092915
000340 28 f5 4f 3c 87 ab d6 3d 09 43 cf bc ef 41 22 3c
       0.012692727 0.10481935 -0.02530052 0.009903415
000350 60 7d ce be 79 f9 02 bd bd 76 ce be 29 33 63 bf
       -0.4033003 -0.031976197 -0.40324965 -0.8874994
000360 ea 20 5e bd f5 59 a1 3c 91 d2 3b be a6 84 33 bb
       -0.054230608 0.019696215 -0.18342043 -0.0027392297
000370 60 8a 60 bf e2 65 98 bd ca 84 93 bc 25 45 cd be
       -0.87711143 -0.074413076 -0.018007655 -0.40091816
000380 48 7c 94 be 47 78 aa 3c 44 3e fd 3b 91 bb f9 be
       -0.2900107 0.020809306 0.00772837 -0.48775914
000390 f1 ba c4 bb 71 ad 55 3d c4 87 4a bf 16 8d 0f 3f
       -0.0060037305 0.05216736 -0.7911341 0.56074655
0003a0 69 32 4b bd 75 0c 94 be 37 a6 94 3c ec 20 a8 bf
       -0.04960862 -0.28915754 0.018145664 -1.3135047
0003b0 16 f8 1d bc 9e 6b 8f be 24 29 10 bf bd 4a b9 be
       -0.009641668 -0.28011793 -0.56312776 -0.36189833
0003c0 82 13 06 bb 7d 23 e3 3e 80 61 bd 3c 8e 58 81 3c
       -0.0020458405 0.44363013 0.02311778 0.015789296
0003d0 4d 4a 1e 3f c4 9e 51 3e 64 75 b3 3e 37 05 f3 3c
       0.61832124 0.2047072 0.350505 0.029665573
0003e0 84 38 42 3e 44 54 8c 3f c9 05 54 bd 2c 29 34 3c
       0.18966872 1.0963216 -0.05176333 0.010996144
0003f0 8f e3 ad 3e af 3b ce 3e 13 d0 65 bf 5f dc 11 be
       0.33962676 0.4027991 -0.8977062 -0.14244221

mu.bias f4 [4]
000000 6a 95 0d 40 b9 04 cb 3d ea 67 89 bf 0f c8 60 3e
       2.2122445 0.0991301 -1.0734837 0.21951316
