TD3/models/hockey_best_agent/02000000/target_critic_1.pth (torch, 290007 bytes, 5 tensors)

fc1.weight f4 [256, 22]
000000 cb 5c 98 c1 b1 b2 1e 42 80 5c 8a 41 9b ab 2f c1
       -19.04531 39.674503 17.295166 -10.979396
000010 e8 b8 a3 3f 2b 10 e2 3e c2 8c 6a 42 00 a3 fa 41
       1.2790804 0.4415296 58.63746 31.32959
000020 fa f7 d9 41 1d 04 ca c0 40 e4 99 40 cf 75 46 40
       27.246082 -6.313002 4.8091125 3.1009405
000030 3a bb 68 41 d7 47 3f c1 52 11 0f 41 49 72 e4 bf
       14.54571 -11.955039 8.941729 -1.7847377
000040 bd b7 50 c0 08 52 c5 41 c5 26 37 c2 ee ff 9e 41
       -3.2612145 24.665054 -45.78786 19.874966
000050 3f 15 49 41 70 c7 86 c0 ef 91 8f 41 7d 68 49 41
       12.567687 -4.2118454 17.946257 12.58801
000060 f0 08 25 c1 a9 b8 e7 3e eb f3 fd 3e e8 b0 3d 3f
       -10.314682 0.45258072 0.49600157 0.7409806
000070 75 95 85 41 fa 05 52 c2 3d bd f5 c1 53 f7 2e 41
       16.697977 -52.505836 -30.717402 10.935382
000080 96 0c a3 c0 5b f4 36 c0 f0 37 0e c1 ed 17 3c c2
       -5.0952864 -2.8586643 -8.888657 -47.023365
000090 f3 08 1c be 84 c2 1f c2 b7 bd 18 be 1c 08 73 c2
       -0.15237789 -39.939957 -0.1491612 -60.75792
0000a0 49 73 83 41 9a 4c 30 3f 58 f0 c6 40 d1 6b 6d c1
       16.431292 0.68866885 6.216839 -14.838822
0000b0 88 63 bf 41 34 1c 3c c2 2e 01 48 43 65 88 a3 3f
       23.9236 -47.027542 200.00461 1.2775999
0000c0 0e 46 39 40 2d 17 3a bf d2 a1 5e c1 7d 8c f9 41
       2.8949008 -0.72691613 -13.914507 31.193598
0000d0 e9 d6 b7 c1 3a 49 07 40 e0 17 23 40 42 1c 10 40
       -22.979937 2.1138444 2.5483322 2.2517247
0000e0 28 50 87 c0 f7 4a 12 42 7b 6a 1a 3f 4f 75 e1 bd
       -4.2285347 36.573208 0.60318726 -0.11008703
0000f0 c2 a1 72 bf 8f 02 22 bf bc e9 63 41 fe 2a 35 c0
       -0.9477807 -0.63285154 14.244564 -2.830749
000100 9c 81 1c 40 49 ea 91 c0 8a 6b df c1 c1 21 18 42
       2.4454107 -4.5598493 -27.92751 38.032963
000110 e4 c1 c1 c0 c7 33 06 41 fd ec 83 40 92 02 52 c0
       -6.0549183 8.387641 4.122679 -3.2814069
000120 6c d2 27 42 47 ed 93 3f 66 17 9d 41 65 f1 87 c0
       41.95549 1.1556786 19.636425 -4.248217
000130 42 56 e3 41 a0 d0 86 c0 3b 82 e6 c1 b1 bd 8b 41
       28.417118 -4.212967 -28.81359 17.467623
000140 d2 5a 13 c0 45 94 10 40 86 ee 81 c1 81 4b 83 40
       -2.3024182 2.2590497 -16.241467 4.102967
000150 06 8f 94 40 29 7d f6 3f b1 7f 40 c0 d1 60 bf c1
       4.642459 1.9256946 -3.0077937 -23.922274
000160 ef 5d a0 c1 3e 07 16 42 90 a5 8e 41 be bb 7d 3e
       -20.045866 37.507072 17.830841 0.24778649
000170 52 e2 ba 40 2d 11 8a c0 04 0e 92 c0 a2 41 8f 42
       5.840127 -4.3145967 -4.564211 71.62819
000180 04 8e 37 42 56 34 ef c0 4d 5e c7 40 a3 cd b9 bf
       45.888687 -7.4751387 6.2302613 -1.451588
000190 92 37 8d 3e ee fa 45 42 d0 5c 0f 40 7a 3e 7c 41
       0.2758146 49.49505 2.2400398 15.765253
0001a0 0e c1 4a c1 37 f7 b5 41 80 fa 35 c1 eb 80 2e 41
       -12.6721325 22.74571 -11.373657 10.906474
0001b0 54 9f b8 c0 5e f1 33 41 8c de e7 bf 81 c0 1e 42
       -5.769449 11.246428 -1.8114791 39.687992
0001c0 8f e9 4f 41 c0 c8 74 3f 79 54 97 40 25 1d 0f 40
       12.994521 0.9561882 4.7290616 2.2361538
0001d0 5a d1 ee c0 ca 36 29 c2 d7 35 7b c1 3e fb 49 c1
       -7.4630556 -42.303505 -15.7006445 -12.623838
0001e0 a9 49 44 c1 54 bc d1 40 aa 65 04 c2 d2 a4 57 41
       -12.267983 6.5542393 -33.09928 13.477739
0001f0 3f 60 23 bf d3 bb c0 41 55 1c 02 41 67 cd 19 41
       -0.63818735 24.091711 8.131917 9.612647
000200 9b 61 19 c0 84 cb e4 40 54 3c 39 bf 68 51 3f c0
       -2.3965824 7.149843 -0.7235768 -2.9893436
000210 44 4e 9a c1 35 46 59 c0 ca 49 3e 41 e7 f5 96 be
       -19.288216 -3.39491 11.893015 -0.29484484
000220 bc a3 2b bd 93 ca 97 3d 99 11 eb 41 2b cc 6e 42
       -0.041904196 0.07411685 29.383593 59.699383
000230 7a 1e 46 42 f9 28 c1 be cf 3e d3 c0 4e 1f 05 c0
       49.529762 -0.37726572 -6.601417 -2.0800357
000240 99 df 84 c1 6a 97 bf c2 43 de 85 3f eb ac 11 c0
       -16.609179 -95.79573 1.0458454 -2.276179
000250 98 e2 3e c1 91 55 11 c1 02 c6 9a 40 11 b2 8c c0
       -11.930321 -9.08339 4.836671 -4.3967366
000260 b2 21 13 c0 12 5c db 40 69 13 9b 40 94 42 26 c2
       -2.2989316 6.854989 4.8461194 -41.565018
000270 a7 c4 a3 41 4e 7a 16 40 f2 f7 e9 c0 22 47 b2 3d
       20.471022 2.351215 -7.311517 0.08704974
000280 a9 43 07 c1 d0 02 b8 42 13 91 f4 41 8e b9 e1 bf
       -8.454019 92.00549 30.570837 -1.7634752
000290 a8 25 02 42 08 24 f5 c0 f6 36 dd c0 27 08 02 43
       32.536774 -7.6606483 -6.912959 130.03185
0002a0 d6 68 f1 bf 89 b1 ad 41 db 30 e5 c2 43 f0 77 c2
       -1.8860118 21.711687 -114.59542 -61.98463
0002b0 a1 4d 03 c1 f3 e1 02 3d ea ab 25 c0 8b 9a ef 41
       -8.206452 0.031953763 -2.5886178 29.95046
0002c0 15 85 b4 41 7f fa 43 42 82 99 30 42 f2 e7 8d c0
       22.564981 48.994625 44.14991 -4.4345636
0002d0 9a 85 48 41 a1 24 88 40 28 b0 b0 3f 72 94 d6 42
       12.532618 4.2544713 1.3803759 107.28993
0002e0 e0 36 58 c2 94 bb b0 c0 fb a5 0f 41 33 2a 1e 41
       -54.05359 -5.5228977 8.978023 9.885303
0002f0 0c 96 d9 c1 4b 9f 06 43 94 0d ca 40 c7 1f c5 40
       -27.198265 134.62224 6.3141575 6.160129
000300 44 f0 a3 c2 cb 92 c3 41 c9 bf 56 c1 dd 84 7b 40
       -81.96927 24.446676 -13.421823 3.9299843
000310 03 97 99 c0 3c 3c 64 41 70 87 55 3f 7a 9a b7 c1
       -4.799684 14.264706 0.83409786 -22.950428
000320 3a 79 ef c0 56 ae 3d 40 8d af 04 c0 32 31 bb bf
       -7.483548 2.9637656 -2.0732148 -1.4624388
000330 8e 34 6c c1 e3 88 73 41 ae 17 7b c2 4f 67 62 be
       -14.762831 15.22092 -62.773125 -0.22109722
000340 3d 7f 20 42 87 0d 0f 41 b8 73 27 c1 5d 1f 16 43
       40.124256 8.940803 -10.465752 150.12251
000350 d1 f7 b0 bf 48 e2 05 41 5c 14 9e c1 f9 60 ba 41
       -1.3825628 8.367744 -19.759941 23.29735
000360 21 94 71 c0 4b 58 e6 c0 be e8 03 c0 51 1a c6 40
       -3.774666 -7.198278 -2.0610805 6.1907125
000370 0e fd 56 c1 ba e9 af c0 4c 18 0b c1 a8 2f 15 c0
       -13.436781 -5.497281 -8.693432 -2.3310337
000380 8e 66 cf bf 5d d9 3e bf 99 91 b4 41 34 d1 90 42
       -1.6203172 -0.7455042 22.571093 72.4086
000390 d5 3a 8e 42 06 67 ee be 9e 81 c7 c1 0b 57 2c 3f
       71.11491 -0.46562976 -24.93829 0.6732032
0003a0 e4 cc 0c c1 99 6d c8 c2 26 91 b3 3f ef 49 dd bf
       -8.800022 -100.21406 1.4028671 -1.7288188
0003b0 c9 62 9a bf 26 f3 81 c0 d9 af 0a 40 93 ee 0f c0
       -1.2061397 -4.060931 2.166983 -2.2489364
0003c0 f9 82 09 c0 df 2b f9 3f 25 5b b1 42 a1 84 0a c2
       -2.148619 1.9466513 88.67802 -34.62952
0003d0 0d 08 9a 41 f1 2f 48 40 2b 43 a7 40 2c 72 62 c1
       19.253931 3.127926 5.226949 -14.152874
0003e0 76 7d 44 c0 21 61 64 41 b4 61 da 3f 60 48 85 c1
       -3.0701575 14.273713 1.7061067 -16.66034
0003f0 78 b9 ed 41 b1 1f 87 41 8f 34 c2 42 61 d0 84 c1
       29.71556 16.890474 97.10265 -16.601748

fc1.bias f4 [256]
000000 b8 bc 8e 42 1f ce a7 3d 04 75 9c 40 60 d7 b0 c1
       71.36859 0.08193611 4.889284 -22.105164
000010 b8 b4 04 c1 d7 2d 4e 42 1e 40 6a 41 d8 58 86 c1
       -8.294121 51.544765 14.640654 -16.79338
000020 72 64 55 c1 77 dd 25 c2 e6 63 34 41 47 0b eb 41
       -13.337023 -41.466274 11.274389 29.380507
000030 37 b9 12 41 83 f0 db c0 14 2c 88 c1 0a 07 30 42
       9.170218 -6.8731093 -17.021523 44.006874
000040 de 2a dc c1 29 27 72 c1 b9 1a 41 c1 52 17 48 c1
       -27.520931 -15.134561 -12.069024 -12.505693
000050 61 10 4b 40 d1 91 c5 bd 43 b2 cb bf 64 8f 05 c2
       3.1728747 -0.09646953 -1.5913776 -33.39003
000060 a1 aa 3d 41 11 18 3a 41 8b fe aa c1 95 b6 77 42
       11.854157 11.630876 -21.374289 61.928303
000070 04 87 16 c2 24 ab 0f 41 a7 45 84 41 9d 27 8b 41
       -37.63185 8.979282 16.53401 17.394342
000080 16 5d 24 40 42 de 86 40 70 cb 3e c1 5c 8a 6d 41
       2.5681815 4.214631 -11.924667 14.846279
000090 87 9c 76 c1 76 71 67 42 2a e6 10 c0 a5 85 36 c2
       -15.413215 57.8608 -2.264048 -45.630512
0000a0 01 04 d8 c0 41 52 b3 c1 e2 7a f9 c1 94 c0 a0 42
       -6.7504888 -22.415163 -31.185001 80.37613
0000b0 1c 4e dc 3f 8b 9e a8 be c5 b3 17 c2 e0 2b b5 c1
       1.7211337 -0.3293346 -37.925556 -22.646423
0000c0 70 33 0d 42 8c b8 97 42 6c 35 c9 42 0d d2 eb 42
       35.300232 75.86044 100.60434 117.910255
0000d0 5c 26 9f 42 65 e9 02 c2 eb 42 e2 42 92 a9 a1 bf
       79.57492 -32.727924 113.1307 -1.2629874
0000e0 24 f4 58 c1 dd 40 1f 42 d9 60 86 c1 8a 0d 6f c1
       -13.559605 39.813343 -16.797289 -14.940805
0000f0 91 55 0a c2 45 b6 32 c1 59 de f7 c1 d0 c8 cb 41
       -34.58356 -11.169499 -30.983568 25.473053
000100 3d 35 b4 c1 13 e3 12 42 f2 5d f4 c0 aa b7 1e 41
       -22.525995 36.721752 -7.636468 9.91984
000110 df a5 a5 41 a2 38 c1 42 4c 2c 81 41 7e 6d 07 c2
       20.705992 96.61061 16.14663 -33.856926
000120 92 72 a7 c1 12 a8 4c c1 2f ab 73 41 57 4f dd c1
       -20.930943 -12.791033 15.229293 -27.66374
000130 7f 8e 37 bf 46 d2 82 40 69 6e 79 42 6b 26 f5 c1
       -0.71701807 4.088168 62.357822 -30.643759
000140 c8 dc 1e c1 c8 36 2d 3f 72 da 46 42 e6 31 93 c1
       -9.928902 0.67661715 49.713326 -18.399364
000150 31 ad f2 41 95 e4 06 c2 bc 88 9d 41 78 3d 05 c2
       30.334566 -33.723225 19.691765 -33.310028
000160 19 f5 45 3f 0b 16 a5 c0 9b 70 bc c0 2d 45 e6 c1
       0.77327114 -5.158941 -5.888746 -28.783777
000170 1d d1 ac bf 61 ea 77 42 a2 4b 85 c0 ab 10 b1 42
       -1.3501316 61.978886 -4.1654825 88.532555
000180 d4 e8 19 42 d3 1b 31 41 e2 3d eb 42 99 d8 6e c1
       38.47737 11.069293 117.620865 -14.92788
000190 6d 87 27 42 93 a2 68 40 4d 7a 71 c2 a1 fb e8 40
       41.88225 3.6349227 -60.369434 7.2807164
0001a0 a7 6c 30 42 ea 8d 4a c1 79 c4 78 42 d8 70 57 3f
       44.106106 -12.659647 62.191868 0.8415656
0001b0 12 15 97 41 6d a3 4e c1 02 37 e9 c1 51 8e 44 42
       18.885288 -12.914899 -29.15186 49.13898
0001c0 cb 34 96 c0 ca eb ea bf b3 e1 71 c1 41 19 1c 42
       -4.6939445 -1.8353207 -15.117602 39.024662
0001d0 73 48 24 42 75 3b 66 40 c5 30 0b 42 21 89 08 c2
       41.07075 3.597379 34.797626 -34.133915
0001e0 34 19 69 40 ed ae 37 c2 aa 7b 13 c1 af 50 21 42
       3.6421633 -45.920826 -9.217691 40.328793
0001f0 ee 83 1a c2 42 23 ed c1 f2 f7 80 42 9c 38 fc 41
       -38.628838 -29.642216 64.48427 31.527641
000200 6f 15 e3 42 70 b6 33 40 b7 81 b1 3f 78 9e 1c c2
       113.54186 2.80801 1.3867711 -39.154755
000210 b3 d5 bd 41 5b 3b 67 c2 0a 49 a5 42 ca 7b 36 41
       23.729345 -57.807964 82.642654 11.405222
000220 99 6a 51 c1 be 59 60 c2 f1 14 24 41 8b 3a 3e c0
       -13.088525 -56.08764 10.255113 -2.9723232
000230 54 dc 24 42 50 fe 9d 42 34 a9 97 42 7e c9 b4 42
       41.215164 78.996704 75.830475 90.39354
000240 1c c6 00 41 6a 59 b9 c1 23 eb 31 c1 05 79 96 40
       8.048367 -23.16866 -11.119906 4.702273
000250 1f 33 65 c1 a0 02 65 40 65 ae 84 41 40 01 5c 41
       -14.324981 3.5782852 16.585154 13.750305
000260 45 c1 1e c1 9c e3 f8 3f 94 5e 17 c1 e0 41 79 41
       -9.922185 1.9444461 -9.46059 15.578583
000270 d0 52 31 c1 02 ce 7f 42 11 a3 38 c1 d5 f8 fa c1
       -11.082718 63.95118 -11.539811 -31.3715
000280 17 bb 0b 43 f4 55 5f 40 f8 7c a4 42 31 86 6d c1
       139.73082 3.4896212 82.24408 -14.845262
000290 14 93 17 42 f3 82 82 c1 47 7a 1a c1 c3 7c 49 c0
       37.89363 -16.31394 -9.654853 -3.1482399
0002a0 a5 eb d7 42 0f c6 9c c0 62 fd fd 41 39 80 68 c1
       107.96024 -4.899177 31.748722 -14.531304
0002b0 31 4f 5f c1 5c 62 8b c1 2c b0 0d 42 b7 0a 1d c1
       -13.956834 -17.423027 35.422043 -9.815116
0002c0 f6 2e f1 bf 47 f8 29 40 68 19 fc c0 2c c6 f3 40
       -1.8842456 2.6557786 -7.8781013 7.617941
0002d0 a8 de b1 42 c0 fb c7 c1 11 ad 23 c2 76 71 28 42
       88.934875 -24.997925 -40.91901 42.1108
0002e0 4c 95 e5 41 4c 00 6d bf ed 8f b1 40 9b b3 43 42
       28.697899 -0.9257858 5.548819 48.925396
0002f0 e8 1c 23 42 54 18 c1 c1 2b 5c 94 42 68 d0 34 c2
       40.77823 -24.136879 74.180016 -45.20352
000300 17 a5 13 40 80 5a d8 c1 3f 08 fe c1 aa 4c 24 41
       2.3069513 -27.04419 -31.754026 10.268717
000310 7d b3 20 42 0f e1 63 c1 53 a4 d2 c1 4e 1e 85 41
       40.17528 -14.242446 -26.330236 16.639797
000320 c9 c3 83 c1 14 47 cb 41 13 ac 58 42 ac 34 99 42
       -16.470598 25.409706 54.16804 76.602875
000330 68 7f df 40 0d 21 d6 c0 3d fa ae 42 21 b5 20 c2
       6.9843025 -6.6915345 87.48875 -40.176884
000340 ea 68 d6 40 06 d7 02 40 d2 39 4c 42 9b 1e 14 42
       6.700307 2.044374 51.056465 37.02989
000350 c2 af eb c1 3e e4 55 42 cd ce 6b 42 c3 66 4c 42
       -29.46082 53.472893 58.951954 51.100353
000360 62 70 0d c2 d1 95 36 c1 b7 1c b2 c1 44 78 3d c1
       -35.35975 -11.411576 -22.26402 -11.841862
000370 77 ff 0c c1 73 40 ee 42 78 95 65 41 27 36 0a 43
       -8.812369 119.12588 14.348991 138.21153
000380 9f 28 f1 42 13 4c 00 c2 19 f7 b5 c1 51 48 a7 c1
       120.57934 -32.07429 -22.745653 -20.91031
000390 44 75 16 41 b2 ab 24 41 52 fd db 40 c1 4e 7b 40
       9.403629 10.291918 6.874673 3.9266818
0003a0 05 55 67 41 83 80 41 41 ee 46 f4 41 19 3e 08 c0
       14.458257 12.093875 30.534634 -2.1287901
0003b0 58 ee c6 bd f2 fc 98 c1 74 02 1e 42 e7 c9 40 41
       -0.09713429 -19.123508 39.502396 12.049293
0003c0 93 d7 e5 be 44 f1 e9 42 27 1e d4 c1 d9 b4 76 bf
       -0.44891033 116.97122 -26.514723 -0.963697
0003d0 17 f2 40 c2 8d 54 a1 c0 ab 37 12 42 ca e1 c2 bf
       -48.236416 -5.041571 36.554363 -1.5225155
0003e0 95 d8 f0 c1 39 d6 94 42 84 b8 a9 42 c8 b7 98 42
       -30.105753 74.4184 84.86038 76.35895
0003f0 4a 31 cc bb e3 a7 26 41 b7 d6 38 42 36 20 b1 40
       -0.0062314617 10.415988 46.209682 5.535182

fc2.weight f4 [256, 256]
000000 b4 c5 08 bd 52 77 55 bd e7 5f 20 3d f5 91 01 ba
       -0.03339167 -0.052115746 0.03915396 -0.0004942709
000010 9d 98 0c be 58 f8 b0 ba 11 58 55 bd 67 5c ab bd
       -0.13730092 -0.0013501747 -0.05208594 -0.08367234
000020 a3 4a fd bb 06 f2 1d bd 4d cf 0c bd e1 89 4e bc
       -0.0077298447 -0.03856089 -0.034377385 -0.012606115
000030 fc 00 f9 bd eb d3 e0 bd 31 31 43 3d b2 09 d4 bc
       -0.12158391 -0.1097792 0.047654334 -0.02588353
000040 a5 e1 81 bb 4d 49 01 be 1b 43 e2 bd 2c d3 f6 bc
       -0.0039636665 -0.12625618 -0.110479556 -0.030129991
000050 16 d9 97 bd 0c 1a 73 bc b4 8d 89 bd a2 9c 67 bd
       -0.07414453 -0.014837753 -0.06716481 -0.05654586
000060 4b 83 6f bd 09 15 c6 bd 45 3d 86 bd 86 48 9a bc
       -0.05847482 -0.09671981 -0.06554655 -0.01883341
000070 6a dd d4 bd f4 3d 0f 3d 1f 8b a1 bc 80 b4 3d bd
       -0.10393794 0.034971192 -0.019719658 -0.046314716
000080 73 26 e3 bd 17 d6 a4 bd 84 da 8a 3c ee 6c 9f bd
       -0.11091318 -0.08048647 0.0169499 -0.077844486
000090 59 30 c9 bd d5 93 15 bd 41 51 c0 ba f0 b9 40 3b
       -0.09823675 -0.036517937 -0.0014672653 0.0029407702
0000a0 fc 49 f1 bd 6a fd d7 bd 66 38 98 bd 47 0e 2b 3d
       -0.117816895 -0.10546382 -0.07432632 0.041761663
0000b0 ed 2d 04 bc c8 6a bf b8 88 4a bb bd f4 c3 81 3b
       -0.00806759 -9.127479e-05 -0.09145075 0.003960127
0000c0 85 e2 11 3d 3b a4 7c bc 0e e0 1d be 57 68 af 3c
       0.035616416 -0.015420015 -0.15417501 0.021412058
0000d0 8f d6 a9 bd f6 a3 17 be 7a a7 d7 bd 0d af 08 be
       -0.08292877 -0.1480864 -0.105299905 -0.13348027
0000e0 f1 9d cd bd d5 23 17 bd b1 0b 43 bd 02 d3 53 bd
       -0.100398906 -0.036899406 -0.04761857 -0.051714905
0000f0 ef 47 a1 bd 2b b2 6f bb b9 7f ce bd 46 e3 94 bd
       -0.07875048 -0.0036574702 -0.10082955 -0.072699115
000100 67 98 a1 bd 96 3c 16 be 9f d0 a4 bc ad 84 01 be
       -0.078903966 -0.14671549 -0.02011901 -0.12648268
000110 fa 69 5b bd be ca 19 3c 0f 7b 32 3b cd 4c 0f be
       -0.053567864 0.009386716 0.0027233993 -0.13994141
000120 f6 91 9a bd 8b 70 ef bc 02 17 d1 3d 47 11 b7 3b
       -0.07547371 -0.02922847 0.102094665 0.0055867764
000130 f5 d5 17 3d e4 e9 09 bd ea aa 6b bb 77 e7 ab bb
       0.03706928 -0.03367032 -0.0035960027 -0.0052460986
000140 5d f5 08 be 22 fe 5d bd ef c0 aa bd f5 ab 05 bd
       -0.13374849 -0.054197438 -0.083375804 -0.032634694
000150 fc d2 08 bd b3 73 ec bd ce 3d 1e bd f6 b6 18 be
       -0.033404335 -0.115455054 -0.03863316 -0.14913544
000160 e5 01 06 bd 50 d2 31 bd 95 57 1e bd b0 7a 3d bd
       -0.03271665 -0.04341346 -0.038657743 -0.046259582
000170 f9 18 c3 bd e0 fc bf b3 7e d1 1b bd b6 77 95 bd
       -0.095262475 -8.940128e-08 -0.038041584 -0.07298224
000180 b4 58 7d bd 0b e9 f6 bc 26 ed 16 be 1e 04 92 bd
       -0.061852172 -0.03014042 -0.14738902 -0.071296915
000190 f2 cc da bd ef 19 b1 3c b8 4d 35 bc a6 9a 11 bd
       -0.106836215 0.021618811 -0.011065893 -0.035547875
0001a0 bc 76 0e 3d 69 81 c2 bd 9e eb 13 bc ef 28 3b 3c
       0.034781203 -0.09497339 -0.0090283435 0.011423334
0001b0 75 9f 05 be 76 13 94 bd 3f 26 aa bd 95 4a 83 bd
       -0.1304911 -0.072302744 -0.08308076 -0.0641071
0001c0 44 83 0b 3b 69 6e 41 3d 93 a1 e8 bd 57 f8 b0 3c
       0.0021287957 0.047224436 -0.11358943 0.021602793
0001d0 49 b2 ca bb c9 02 c8 bc 9d 24 97 3c db 59 f2 b9
       -0.006185804 -0.02441539 0.018450076 -0.00046224784
0001e0 15 7c 01 bd be e7 a9 3b b1 50 dd 3a 93 50 e9 bc
       -0.031612474 0.0051850965 0.001688501 -0.028480804
0001f0 fb f7 ed bc 35 4e 85 bc 02 9a 69 bc ec f0 70 bd
       -0.02904891 -0.016272644 -0.01425791 -0.05882351
000200 1c ac 8f bc 84 10 02 3d 3c ee f8 bc 57 f0 29 bd
       -0.017538123 0.03175403 -0.030387037 -0.04148897
000210 ce a6 99 bc cd fe 82 3c 02 72 5f bd 53 76 6a bd
       -0.018756296 0.01599064 -0.054552086 -0.05724175
000220 54 c3 8b bd 08 e7 bc bd 46 4c 90 3d 3d 56 89 bd
       -0.06824365 -0.09223753 0.07045798 -0.06705902
000230 7b ab e7 bd ad 9e 85 3d b5 3d 0e be 0b 04 66 bd
       -0.11312004 0.06524406 -0.13890727 -0.0561562
000240 2c f7 f0 bc c4 45 76 bd 5f 3b a7 bc 3e ee 91 bd
       -0.029414736 -0.060125127 -0.020414053 -0.07125519
000250 f9 f3 dd bc a0 13 37 bd 4a c1 54 bd 37 d2 a1 bd
       -0.027093874 -0.04469645 -0.051942147 -0.079014234
000260 43 2e e3 bd 06 36 1b be b3 35 ee bc 08 17 4e bc
       -0.11092808 -0.15157327 -0.02907834 -0.012578733
000270 7b 46 63 3d 6c 3c 0c 3c bd e8 94 3c c6 08 15 bd
       0.055487137 0.008559328 0.018177385 -0.03638532
000280 b6 9c 13 be 37 5f 30 3b 33 c9 e4 bd 00 4c c4 3c
       -0.14415249 0.0026912221 -0.11171188 0.02396202
000290 22 7a da bd 78 91 31 bd 61 c6 46 3d ea 1a ea ba
       -0.10667826 -0.04335162 0.048529033 -0.0017860804
0002a0 35 3c 08 3d 29 00 4a bd 0e 50 1c bd 32 95 5c bc
       0.033260543 -0.04931656 -0.038162284 -0.013463305
0002b0 1e 2c 9c bd f9 39 ca bc 6d 3b 08 bc 52 4a d0 bd
       -0.07625602 -0.024685847 -0.008314949 -0.101704255
0002c0 96 8c 11 bd 77 fc 34 bb ae 05 92 bd c8 eb 36 bd
       -0.035534464 -0.00276163 -0.071299896 -0.044658452
0002d0 2f ac 22 be 81 32 c2 bd 1c 8c f3 bd 2a b9 d9 bd
       -0.15885995 -0.09482289 -0.11891958 -0.1063102
0002e0 1c e5 f9 bd d8 df b2 bc cc 2e fb bc bb 4d e7 3c
       -0.12201902 -0.021835253 -0.030661963 0.028235307
0002f0 93 4f 65 bc e8 9f 3f 3d be f5 96 bd 61 ba 48 bd
       -0.013996023 0.046783358 -0.0737109 -0.04900587
000300 b4 28 85 bb 66 89 17 bd 1c d0 f0 bd 0a ce 55 bd
       -0.00406369 -0.036996268 -0.11758444 -0.052198447
000310 91 fc c4 bd a0 47 3f 3d b0 e1 30 3d 57 c4 a8 bd
       -0.09618486 0.046699166 0.043183982 -0.08240574
000320 31 11 59 bd 60 e6 b0 3c 7e 5a 9a bb 2b 02 eb bd
       -0.05299491 0.021594226 -0.0047104945 -0.11475023
000330 7b df ef bd b6 5d 91 3d 88 55 b5 bd 53 26 6f bd
       -0.117125474 0.07097952 -0.088542044 -0.05838616
000340 24 c8 7f bd 9b 52 ee bd da e1 d3 bd 04 65 76 bd
       -0.06244673 -0.116368495 -0.10345812 -0.06015493
000350 16 10 93 bd 22 1c d9 bc b5 67 87 bc 95 b1 8f bd
       -0.071808025 -0.026502673 -0.016528944 -0.07016293
000360 30 9f 39 bd 0b 4b 6f bd 9f 6d 28 3d b8 1c b9 bd
       -0.04531783 -0.058421176 0.041120168 -0.09038681
000370 1d bb 80 bc 5e 2b 19 bc 11 9f 45 bd 23 14 6b bc
       -0.015714223 -0.009348718 -0.0482474 -0.014348063
000380 a5 e4 8d 3d 4d 8a 8b bd 95 d5 09 be 78 43 be bd
       0.06928376 -0.06813488 -0.13460381 -0.092902124
000390 90 f7 b0 bd 67 3c 28 bd 9f c5 aa bd 52 4c d8 bc
       -0.08640969 -0.04107323 -0.083384745 -0.02640358
0003a0 69 e7 ca bd a3 3f 6a bc 13 83 6b bc 56 4a 9b bd
       -0.09907419 -0.014297399 -0.014374512 -0.07582538
0003b0 3f 94 a0 bd 2c 75 75 bc 14 c8 05 3c c5 a0 84 bd
       -0.07840776 -0.014981549 0.008165378 -0.06475977
0003c0 9d e1 1d bd a0 84 b9 3c 55 ee 88 bd bf bb a8 bd
       -0.03854524 0.022646248 -0.06686083 -0.08238935
0003d0 65 9e 07 be 13 c5 e0 bc aa 1c d8 bc b8 92 b6 bd
       -0.13244016 -0.027437722 -0.026380856 -0.08914703
0003e0 2c ac 09 bb 80 a2 40 bc e5 39 05 bc 94 87 7d bd
       -0.0021007163 -0.011757493 -0.008131479 -0.061896876
0003f0 15 ac 92 3c 98 33 3d 3d 92 d6 db bd 6e 95 ab 3b
       0.01790432 0.04619178 -0.107342854 0.0052363193

fc2.bias f4 [256]
000000 a6 06 19 bd e5 aa 07 bd 10 ab e3 42 02 fb 10 42
       -0.037359856 -0.033121962 113.83411 36.245125
000010 8c 85 78 bd d9 d6 d9 3c 50 46 0f 42 a2 e3 0a 42
       -0.060674235 0.026591705 35.818665 34.722298
000020 21 10 12 42 c7 98 15 42 2f ec 28 bc 68 d8 e9 41
       36.51575 37.399197 -0.010310217 29.230667
000030 46 17 9d bc 70 4e d0 40 38 c3 95 c1 20 7e b8 bb
       -0.019176137 6.509575 -18.720322 -0.0056302696
000040 19 14 00 c2 60 57 cc 3b 84 f8 1f c1 c9 99 8d 42
       -32.019627 0.006236002 -9.998173 70.80036
000050 d7 c1 34 42 bf fb ae bd 04 d3 05 3c 63 f8 0b c2
       45.189297 -0.085441105 0.008167986 -34.992565
000060 3c ec 2a 42 0b 9f 61 bc ee 43 91 b9 e7 cb 27 be
       42.730698 -0.013770829 -0.00027707167 -0.16386376
000070 a9 a8 15 42 99 44 cf bd ea 2d 52 bc ef c0 af c1
       37.414707 -0.10120506 -0.01282833 -21.969206
000080 82 37 a5 41 46 81 6c 42 36 9b ce 41 64 c6 78 bd
       20.652103 59.126244 25.825787 -0.060736075
000090 c7 b3 88 c1 1c 89 f0 41 e3 fb 6d bd df d3 ba 42
       -17.087782 30.066948 -0.058101546 93.41381
0000a0 f8 6c ce 3c 4b 62 c8 c1 15 16 08 42 1b de d9 40
       0.025198445 -25.047995 34.021564 6.8083625
0000b0 27 a0 3c 42 b6 e0 8d 41 5b 99 37 42 0a fe 00 42
       47.1564 17.734722 45.89976 32.248085
0000c0 45 5e 8d bd c8 9f b2 bd e5 fb 86 bd 5d bc d4 c1
       -0.06902746 -0.08721882 -0.06591014 -26.591974
0000d0 b2 65 ee c1 0f db 22 bd 4e 93 12 42 f9 5f 4c bc
       -29.799656 -0.03975969 36.643852 -0.012474054
0000e0 11 a5 08 c2 a3 c5 25 c1 bb d8 40 41 f7 80 21 bd
       -34.161198 -10.360751 12.052913 -0.03942963
0000f0 4d 49 81 bd a1 f1 36 42 91 b7 c3 bd f1 b3 c1 bd
       -0.06312809 45.735966 -0.09556497 -0.09458149
000100 99 1f 7f 42 05 a9 0c bd 66 f1 14 42 89 b6 c2 bc
       63.780857 -0.034340877 37.23574 -0.02376868
000110 d0 fe b4 bd 1d 7b 1c c2 04 2e fe c0 2d b8 07 bd
       -0.08837664 -39.120228 -7.943117 -0.033134628
000120 a1 49 47 bd 81 c5 cf bc c7 fd 10 42 63 83 11 42
       -0.048654202 -0.025362732 36.24783 36.378307
000130 2d e5 8c bd 77 2f 20 bd e5 84 23 42 06 34 93 bd
       -0.06879649 -0.039107766 40.87978 -0.07187657
000140 36 ad 0f 42 3e db 31 41 2f 28 b8 3c 4d 0d 0b bd
       35.91915 11.116026 0.022480099 -0.03394823
000150 83 22 ff 3b 58 86 2a 41 29 61 2b 42 fe 6c 99 bd
       0.0077860965 10.657799 42.844883 -0.07491492
000160 d2 fb 0b 41 3a ce 5c bd fe b1 9a bd 9c 8a cc c0
       8.74898 -0.05390761 -0.075534806 -6.39192
000170 48 91 60 42 c3 2c a7 c1 cb dc 47 40 ca 7e dd bc
       56.141876 -20.896856 3.1228511 -0.027037997
000180 0e b6 24 3d ae a3 19 be 6c da 4c 42 88 f8 2e 42
       0.040212683 -0.15003845 51.213303 43.742706
000190 5d c7 18 3d be 4b aa 3c f4 bc 7e bd 0b d1 e1 bd
       0.037299503 0.02078807 -0.06219192 -0.110262
0001a0 3f 76 a5 bd 5c a9 40 42 15 bc 87 bd 6d 19 ca 40
       -0.08079194 48.16539 -0.06627671 6.3156037
0001b0 b8 71 17 42 cd fa 0b bd 0a 46 5b bb d6 6d 82 42
       37.861053 -0.03417473 -0.0033458495 65.21452
0001c0 e8 c6 ac bd 0a e0 d2 bc 51 dd 2d c2 08 53 44 3b
       -0.08436376 -0.025741596 -43.46613 0.0029956717
0001d0 e8 b7 bb bc fd f9 0e bd 9d 4b 84 bd 4f 60 83 c1
       -0.022914842 -0.034906376 -0.064597346 -16.422026
0001e0 fc 65 14 42 15 00 85 bd a1 e8 0e 42 5d da 80 bc
       37.099594 -0.06494156 35.727177 -0.015729124
0001f0 25 d8 0d bd 1a 96 50 bd d6 94 99 bd c6 a3 90 bd
       -0.03462996 -0.050924398 -0.07499091 -0.07062487
000200 e5 35 2f 42 60 39 3c 42 4e f9 1e bc 53 82 84 42
       43.80263 47.05603 -0.009702994 66.25454
000210 f7 90 f8 41 4d c1 86 bd ef 27 b7 3c 8e e1 e8 41
       31.070784 -0.06579838 0.022357909 29.110134
000220 b3 ee e4 bd 6b 14 69 bd 7c 64 f1 41 a9 d4 08 c0
       -0.11178341 -0.056904238 30.174065 -2.1379797
000230 db fd f8 3c b6 99 dc 41 64 a3 30 42 27 22 a3 bd
       0.030394485 27.575054 44.15956 -0.079654984
000240 ce d9 9d bd 30 98 36 bd ec 6e 9e c1 2c 41 06 3c
       -0.077075586 -0.04457873 -19.804161 0.008194249
000250 79 38 d9 41 f0 73 bb bb 6e 47 2c 42 f1 f2 dc 3c
       27.152575 -0.005720608 43.069756 0.026971312
000260 08 99 30 bd aa 89 e3 3c 7f b7 a9 41 41 b7 fe 41
       -0.043114692 0.027775604 21.214598 31.83948
000270 2a 07 e6 3c a5 7d 01 bc c8 28 4a 3c 33 60 69 bd
       0.028079588 -0.007903491 0.012338825 -0.05697651
000280 c4 be 7f bd 91 bd 42 bd ee 56 77 42 e2 b5 b7 41
       -0.062437788 -0.047544066 61.834892 22.96381
000290 11 55 51 c1 00 8a cb 42 46 50 cf 41 aa ff 60 3c
       -13.083268 101.76953 25.914196 0.01373283
0002a0 5d a2 00 42 5d 6b 06 bd ee d7 91 41 d6 ad b8 42
       32.158558 -0.032817233 18.230434 92.33952
0002b0 12 a1 f9 41 f6 86 20 3c ff ca d1 40 8d 12 07 bd
       31.203648 0.009797802 6.55603 -0.032976676
0002c0 a3 f3 7e 3b a6 82 29 42 80 80 b5 bc 99 a4 58 3c
       0.0038902543 42.377586 -0.022156 0.013222837
0002d0 16 7a 92 bc b3 6c f7 41 3b 2f 6a bd 82 10 5b 41
       -0.01788048 30.928076 -0.05717395 13.69153
0002e0 bd de 1d 42 1c 33 86 3c e2 ee d2 bd cd 73 95 3c
       39.467518 0.016381793 -0.102994695 0.018243695
0002f0 a4 8c 0b 3c 24 54 a5 42 f2 80 19 42 04 6a 0a 39
       0.008517418 82.66434 38.375923 0.000132002
000300 69 f8 b2 c1 64 83 7f bd 0f cc ee c1 50 72 04 42
       -22.371294 -0.062381163 -29.849638 33.111633
000310 b9 38 45 bd 35 9c 0b c2 2a 67 56 bc ee 6d b5 41
       -0.048149798 -34.902546 -0.01308612 22.678677
000320 ba 5b 54 bc b2 b1 54 41 da d2 8c 41 c7 f0 68 40
       -0.012961322 13.293383 17.602955 3.639696
000330 17 2e 27 bc 61 20 b2 41 b1 93 19 42 83 26 dc 41
       -0.01020386 22.26581 38.39423 27.518805
000340 b2 d2 0c c1 58 7f 11 42 a1 3e 24 c2 3b 4c 61 bd
       -8.801439 36.37436 -41.06116 -0.05500434
000350 24 97 03 3c ce 0d 26 3d cf 9d 27 bd 87 6a a5 bd
       0.00803164 0.04054051 -0.040921982 -0.08076959
000360 40 b3 b8 bd 30 d8 a3 41 4a 2b 54 bc 86 cf a3 42
       -0.09018564 20.48056 -0.012949774 81.90532
000370 ff 94 a3 bd a7 44 81 42 9e 70 0a c2 a5 64 24 c2
       -0.07987403 64.63409 -34.609978 -41.098286
000380 03 8f 6f bb ec 99 f7 41 94 93 7b bd a3 4b e8 bc
       -0.0036553747 30.950157 -0.06142004 -0.028356379
000390 06 ca 93 bd 2c a6 3a c2 85 aa 92 3c f6 7e 99 bc
       -0.07216267 -46.662277 0.017903576 -0.018737298
0003a0 7e 33 16 42 85 0b 87 bd a2 77 12 42 cc c2 33 42
       37.550285 -0.06593994 36.61683 44.94023
0003b0 a6 0c 98 be a0 c4 3f bd 84 4d 4b c1 20 1f b3 bd
       -0.2969715 -0.046818376 -12.706425 -0.08746171
0003c0 d2 6a 8a 42 a7 03 3f 3d 13 0d 95 40 9f 3a 01 42
       69.20863 0.046634343 4.657846 32.307247
0003d0 a5 61 8e bc f5 6c 83 bd c0 3c 39 bd 9a d3 e5 3c
       -0.017380545 -0.06417266 -0.04522395 0.028055001
0003e0 ff 4c 2f bd 5f 86 a7 bc 01 29 12 42 34 60 02 3c
       -0.04279804 -0.020449815 36.540043 0.007957507
0003f0 5e 87 12 bd e4 d1 74 bd 42 1e d5 bb 24 1b ec 40
       -0.035773627 -0.05977048 -0.006503851 7.378313

q.weight f4 [1, 256]
000000 29 55 40 bc 42 74 e8 bb b1 56 f8 42 77 7d 79 43
       -0.011739054 -0.007093937 124.16932 249.4901
000010 cf f3 ba be ef 02 b9 3c f5 68 71 43 e2 29 84 43
       -0.36514136 0.022584407 241.40999 264.3272
000020 01 41 88 43 f5 2b 40 43 da ce eb 3e 2f 44 a4 c3
       272.50784 192.1717 0.46056253 -328.53268
000030 42 18 d6 bb 86 dd 8d c3 80 33 b6 c3 67 6a 31 3d
       -0.0065336535 -283.73065 -364.40234 0.043314364
000040 fb 02 9f c3 d9 0c 51 bc 8d ce 9e c3 23 72 ca 42
       -318.0233 -0.012759411 -317.61368 101.22292
000050 04 4b 5d 43 fd 28 9c 3c 6b ae 60 3c ee 7d 7a c3
       221.29303 0.019062513 0.0137134595 -250.49191
000060 1c ea 31 43 ec 79 08 3c d7 71 a3 3c bc 1c 84 bf
       177.91449 0.00832985 0.019951744 -1.0321269
000070 18 39 be c3 03 28 e3 bc 99 24 cc bc c8 f3 98 c3
       -380.44604 -0.02772904 -0.024919795 -305.90454
000080 94 10 84 c3 fa 2e 0d 43 76 63 d7 c3 9a fa 6b bd
       -264.12952 141.1835 -430.77704 -0.05761204
000090 f9 f9 84 c3 cd 14 a9 c3 f5 bf 8a 3b 66 7f 4c 43
       -265.9529 -338.1625 0.004234309 204.49765
0000a0 fb 20 7c 3b ea 7c 8a c3 38 fd 99 43 fa f6 be c3
       0.0038471806 -276.9759 307.97827 -381.9295
0000b0 38 52 86 43 f0 92 84 c3 c9 0a b8 c3 a3 a9 a8 c3
       268.64233 -265.14795 -368.08426 -337.3253
0000c0 e7 57 b2 3c 26 02 80 bd ec 61 73 3c 47 83 9f c3
       0.02177043 -0.0625041 0.014854889 -319.0256
0000d0 28 28 95 c3 ee 01 9c 3b 06 20 bb c3 39 66 cc bc
       -298.31372 0.004760972 -374.25018 -0.024951087
0000e0 be 74 83 c3 8e a3 af c3 a7 ab 97 c3 4e c0 9b bc
       -262.91205 -351.27777 -303.34103 -0.019012596
0000f0 86 07 90 38 3e 51 38 43 c9 af c0 bc 21 2f c1 bc
       6.8678564e-05 184.31735 -0.02352132 -0.023582043
000100 4a 7b 03 43 2c b8 07 3c ca 4c a4 c3 77 a6 a1 bc
       131.4816 0.008283656 -328.5999 -0.019732697
000110 5d 3b 8e bc bb 0f 90 c3 1e 55 81 c3 7c 02 ff bc
       -0.017362291 -288.1229 -258.66498 -0.031129114
000120 49 cf da 3d 10 57 b8 3a 28 7c 52 43 fd d9 c4 c3
       0.10684068 0.0014064033 210.48499 -393.70303
000130 55 95 82 bc 73 7a ee bc 7a 43 b6 c3 bb 3c ee 3c
       -0.015940348 -0.029111123 -364.52716 0.029081693
000140 13 0f 6f 43 0b 35 b5 c3 68 7d cb bb bf 31 a6 3c
       239.05888 -362.4144 -0.006210018 0.020287393
000150 0e 60 2a 3b 76 52 cd c3 2f e6 b6 c3 c1 c2 5d 3c
       0.0025997194 -410.64423 -365.7983 0.0135352025
000160 38 73 c1 c3 ab 03 f1 bb 75 41 9d 3a 79 02 cf c3
       -386.90015 -0.0073551736 0.0011997657 -414.01932
000170 e3 a7 7c 43 f6 54 90 c3 97 f8 a0 c3 2e 44 92 bc
       252.6558 -288.66376 -321.9421 -0.017854776
000180 0c fb f3 3b 24 a4 85 bf cd e6 34 43 c7 dc c9 c3
       0.0074456986 -1.0440717 180.90157 -403.72482
000190 0a a8 d3 3b 41 fb de 3b 5e b2 28 bd fd 82 0d 3d
       0.006459241 0.006804854 -0.04118573 0.03454875
0001a0 17 11 b0 3c 9a 70 6f 43 69 11 c4 3c c5 b2 ac c3
       0.021492524 239.43985 0.023934083 -345.39664
0001b0 14 5e 85 43 bd ec 0b ba 2a a6 d8 bc 45 8f 1d 43
       266.735 -0.0005337706 -0.02644642 157.55965
0001c0 8f 6d ae 3c 26 92 a1 3c 95 78 ac c3 a5 ae 16 3d
       0.021292476 0.01972301 -344.94205 0.036787648
0001d0 bd e3 00 bd 79 95 41 bc ca b1 e1 3c 61 98 68 c3
       -0.03146719 -0.011815422 0.027550597 -232.59523
0001e0 ec 8b c1 c3 4b f7 fd bc b9 d4 a9 c3 c4 44 8b bd
       -387.09314 -0.031001708 -339.6619 -0.068002254
0001f0 97 c0 b2 bc b3 aa 67 3b 04 b6 8e bc dd 63 1a bc
       -0.02182035 0.0035349547 -0.017420776 -0.009423223
000200 b7 d2 ac c3 83 19 47 43 c1 2b d9 bc 7d 89 57 43
       -345.6462 199.09966 -0.026510121 215.53706
000210 e2 1e 9e c3 de 7b 16 bb b4 7b f3 bc 76 2b 93 43
       -316.24127 -0.0022962014 -0.029722072 294.33954
000220 47 2b 22 3c 5d bf 91 bd 25 63 7d 43 c6 b9 8f c3
       0.009898013 -0.07116578 253.38728 -287.45135
000230 96 8a a2 3c c4 d3 87 c3 8d 63 6c 43 71 5c 41 bd
       0.019841474 -271.65442 236.38887 -0.0472073
000240 98 79 c2 3c 0a 7e 5a 3d c4 f9 b1 c3 16 df 2f 3d
       0.023739621 0.053342856 -355.9513 0.04293736
000250 90 bf a5 c3 9b 16 f8 3c c8 43 bb c3 be e2 95 bb
       -331.49658 0.030284217 -374.52954 -0.004574149
000260 8d 62 9b 3c d8 c9 be bc 43 ee 8d 43 1b 01 55 43
       0.018967891 -0.023289606 283.86142 213.00432
000270 6c 81 0d bd 5e 11 2e bc 33 c0 72 3d ac 74 0c 3c
       -0.034547254 -0.010624258 0.059265327 0.008572739
000280 c0 cb 4f 3b b9 8c 50 3c 78 9f 09 43 60 0e 8f c3
       0.0031707138 0.012728863 137.62292 -286.1123
000290 56 90 ad c3 3a f1 17 43 da e5 7c c3 26 47 21 3b
       -347.12762 151.94229 -252.89786 0.0024609058
0002a0 57 9d 6f 43 b4 5b f0 bb ae 80 95 43 1a 97 91 43
       239.61461 -0.0073351506 299.0053 291.18048
0002b0 6f ec 92 c3 49 29 cc bc 3f 8c 90 c3 dd d0 0c bd
       -293.84714 -0.02492203 -289.09567 -0.034378875
0002c0 3b 8d eb 3c 8a a2 30 43 eb 30 f7 bb 61 87 dd 3c
       0.028753867 176.63492 -0.0075436733 0.027042093
0002d0 b8 c3 b2 3c 02 3f 5f 43 09 2d db bb 0b 22 96 c3
       0.021821842 223.24612 -0.006688718 -300.26596
0002e0 86 6b 8d 43 a4 b2 0d 3d a9 16 c0 bc a0 f2 c8 3c
       282.84003 0.034594193 -0.023448305 0.024529755
0002f0 11 44 d0 3c d8 bc b3 42 e0 9f b6 c3 39 c1 c1 3b
       0.025423082 89.868835 -365.24902 0.0059129265
000300 3c 54 a3 c3 fa 9f d2 bc b6 c0 84 c3 c8 bf 87 43
       -326.65808 -0.025711048 -265.50555 271.4983
000310 b6 da 11 bd 31 91 8a c3 0d fb 8c bc 44 51 bb c3
       -0.03560897 -277.1343 -0.017209554 -374.6349
000320 35 e8 95 bc 87 26 b2 c3 89 6b 88 c3 69 f8 86 c3
       -0.018299202 -356.301 -272.84012 -269.9407
000330 12 77 d4 bc 98 09 7e c3 41 9a 80 43 f5 6d 88 43
       -0.025935683 -254.03748 257.2051 272.85904
000340 b8 be 7e c3 d2 d1 ae c3 a2 ab 93 c3 86 77 27 3b
       -254.745 -349.63922 -295.34088 0.002555342
000350 fe b4 a6 bc 4e 30 1a 3d 55 77 87 3c 06 f5 a9 bb
       -0.020349976 0.037643723 0.016536394 -0.00518668
000360 64 68 f7 bc d9 1b 8d c3 79 6d d0 3a 8b fc 95 42
       -0.030201145 -282.21756 0.0015901766 74.99325
000370 91 3b c7 3c 31 19 13 43 b7 3b 91 c3 cd a4 a1 c3
       0.024320396 147.0984 -290.46652 -323.2875
000380 1e 04 12 3c 4e 8d 71 43 d5 2a 1a 3c 2c 74 8a 3a
       0.008912114 241.55197 0.009409626 0.0010563186
000390 79 c3 ca 3c e9 e8 ba c3 27 b2 24 3d 9f e5 ad bc
       0.024751412 -373.8196 0.04020896 -0.021227656
0003a0 ff 6b 5c 43 1d d1 8d bc 03 fe 53 43 9e 3c 6e 43
       220.42186 -0.017311627 211.99223 238.23679
0003b0 0c 85 0f 3f a2 1a ec bb d3 30 ae c3 9b d9 e4 bc
       0.5606239 -0.0072053233 -348.38144 -0.027935794
0003c0 e7 ec 1b 43 a5 cf 1d 3a c3 9a a7 c3 bf 35 61 43
       155.9254 0.0006020016 -335.20908 225.20995
0003d0 e0 fd 43 bc c2 0c da bb 54 a4 8c bd 3d 96 8f 3b
       -0.011962384 -0.006654353 -0.068672806 0.0043819235
0003e0 e5 88 15 bc df 53 3e 3c d0 cc bb c3 0d 00 88 bc
       -0.0091268765 0.011616676 -375.6001 -0.016601587
0003f0 06 ef 11 3c f9 44 c4 bc 1e 29 90 3c 3f ac 8c c3
       0.008907085 -0.02395867 0.017597731 -281.34567
