TD3/models/hockey_tournament_agent/01000000/actor.pth (torch, 288583 bytes, 6 tensors)

fc1.weight f4 [256, 18]
00000000: f7bd 153f 204d 6cbe 0678 ff3e 5626 b3bd
00000010: b0b5 8f3c d921 56be 0519 dcbe e06a 9cbb
00000020: 137d 623e a6ed 08bf 02c8 98bf 7f34 d8be
00000030: b0fb d5be 68c9 d5be 13ef b2bb b407 f83d
00000040: e7a9 3ec0 2ee3 bfbe d89a a7be 4c06 e23e
00000050: 7812 13bf 18c6 ad3c f6a3 703c 2bcf d7bd
00000060: 56b7 04be 89fb 303f a0b6 b33f 67c4 963d
00000070: 3450 45bf 3b2b bc3d 5d0c 863e 30da 863e
00000080: 64d9 ddbc 0c32 613d 54be 183e c97b 92be
00000090: 2d6c 08be bf0a 2d3e 1e91 da3d 1b20 05be
000000a0: e81a bebd 4511 cb3d 30b0 0cbd 5094 7c3f
000000b0: d301 18bf 46f8 cf3d c125 ca3e a0e3 05be
000000c0: 9077 f5be 9378 81bf 9fa8 ca3d 275f c3bc
000000d0: 1ba4 b03c 939b 303e 9754 47be f959 0fbf
000000e0: 065c 453f 298b 82be 623e 44bc f42d 883c
000000f0: 2822 dbbe 5ece dc3d 8463 dc3d 1948 dfbd
00000100: 1f24 453e 1c25 37bd 4728 893e 8f37 bd3e
00000110: 9276 273d 97a9 e53e 40cb 223f 8147 8fbe
00000120: dd0c e73d 97cb 65bd ed56 c43e 10da e93d
00000130: 8519 603e fe09 a73d 2ecb ae3e c504 f93e
00000140: 8269 a1bd c115 78be 5641 453e b5f1 c8be
00000150: 29b4 82be 3c92 00bf ff60 04bd 1a0e 623d
00000160: c0c3 1abf 98bc bbbe a04f 2c3f 26a7 a93d
00000170: e17d 17bf c871 73bd c833 603e 48e1 44bd
00000180: edaf 3abe 42e4 cf3d cadf 2040 b133 db3e
00000190: 18ea 57be aa6e a6bd 6081 3f3e dd31 9abe
000001a0: 455a 513d 6bb0 74be 8ec5 2c3e 040f 383d
000001b0: df86 dabe 1294 073f 2f96 94be d192 9fbe
000001c0: fecf 1f3d cd51 ec3d 830d c0be b07a f73e
000001d0: dbf8 103e 239e 03be caea a7be 81a7 6a3e
000001e0: 080c 953e 7ad3 fd3e f191 2d3d 6058 753d
000001f0: 81b2 d9bf 6e89 9ebf 4dbd dd3e 30ea e53e
00000200: f640 c0be 326a 9b3e 789e bcbd f213 51be
00000210: f5e8 d4be b687 ab3e 2793 ff3e f879 493e
00000220: e6a3 fabe d866 18bc 8f34 d83e a7a2 1bbe
00000230: ac82 0dbd 9beb 35be c652 babc ed9c aabd
00000240: 4e43 733f 5382 a1be b2fb 063f cb98 0bbc
00000250: 9446 6c3e c601 f33d 5406 17bf 0eef ac3e
00000260: 3c8a 133f 29b6 3b3d 17b5 8cbd 809f 223e
00000270: 5d32 36bf fa05 6cbe f9fc 34bd 936c b5bd
00000280: 090f d43b d2cc 553e 6104 bebd 28bb ee3d
00000290: 566e 4a3e ad81 34bd b8e5 9a3c 80dd a83d
000002a0: a710 b8be 8579 81bf c2ae a23e 7468 25be
000002b0: 0eb8 f33e 1ffb 233e 47bf 0ebd 4860 fdbf
000002c0: 6ccc b53d f4ac 4fbf c571 5abf 2735 2fbe
000002d0: ed95 993f 8e15 5c3d 10eb 1c3f b3c4 473e
000002e0: 89ea bf3e f370 2dbe 0740 00bf e89d e73e
000002f0: f5a5 a13f 335f 8dbe c1f8 0ebe 1f2e c13d
00000300: adb6 5a3d fe3a b73e 29d0 0c3e 5aa9 03be
00000310: 3113 323d fa8a 8d3e bffe 7cbe ef4f c8bd
00000320: e83b 80be e677 7ebb 8a6d 52bd 69fe 8e3c
00000330: 86f8 cdbc 3c1f 42bf 48a6 8540 f6b0 64bd
00000340: e215 6c3d a738 cb3d e094 143d 6668 76be
00000350: 9fc5 9bbd 040b 84be a962 103f 0350 a73d
00000360: 46ce 8e3e 15b3 f7bd da34 63bf 7fb8 06be
00000370: f3bf f1bd 9128 643c 47b0 4c3e 5ace 8f3f
00000380: 4fc6 873f 6951 1ebc cc69 b53c 9b0a 333d
00000390: 5d5e 2abf 7aca 20bf d84f 603d daa2 1cbe
000003a0: 74e5 b53e 71db a43e 05a4 e1be 2527 413f
000003b0: 6899 1bbf 7a77 163d fa31 12bd 5bee 283d
000003c0: 3cc6 9abe 6ada 6f3f 1aa1 efbe 933f a23e
000003d0: d99b 7e3d 1731 33bd ed56 173f b83c fa3b
000003e0: 92e6 c33c f881 33bd ffd7 3fbf bfd2 adbe
000003f0: 8272 8ebe 8573 0f3e 4f41 a4bf d0a4 28be
0.5849299 -0.23076296 0.49896258 -0.087475464 0.01754269 -0.2091135 -0.42987838 -0.0047734827
0.22118025 -0.5348762 -1.1936038 -0.4222755 -0.41793585 -0.41755223 -0.005460629 0.12110844
-2.97912 -0.37478012 -0.32735324 0.4414543 -0.57450056 0.021212623 0.014687529 -0.10537561
-0.12960562 0.6913381 1.4040108 0.073616795 -0.77075505 0.09187933 0.26181307 0.2633834
-0.027081199 0.05497937 0.14916354 -0.28610066 -0.13322516 0.1689863 0.1067221 -0.13000529
-0.09282476 0.09915403 -0.034347713 0.98663807 -0.59377784 0.10154776 0.3948193 -0.13075113
-0.4794278 -1.0114921 0.09895443 -0.023849083 0.021562627 0.17246847 -0.19465862 -0.5599666
0.7709354 -0.25496796 -0.011977764 0.016623475 -0.42799497 0.10781549 0.107611686 -0.109024234
0.1925206 -0.044713125 0.26788542 0.3695645 0.04088456 0.4485595 0.63591385 -0.2798424
0.1128175 -0.05610236 0.3834757 0.11418545 0.21884735 0.08156203 0.3413939 0.4863645
-0.07881452 -0.24227048 0.19263205 -0.39246908 -0.25528076 -0.50223136 -0.032319065 0.05518923
-0.6045494 -0.36667323 0.67309 0.08283834 -0.5917645 -0.059434682 0.21894753 -0.048066407
-0.18231173 0.101509586 2.513659 0.42812875 -0.21085393 -0.08126576 0.18701696 -0.30116168
0.05111148 -0.23895423 0.16872236 0.044936195 -0.42681023 0.5296031 -0.2902083 -0.311667
0.039016716 0.1153904 -0.3751031 0.4833579 0.14157431 -0.12853293 -0.32796317 0.2291546
0.29110742 0.49575406 0.04237551 0.059898734 -1.70076 -1.238569 0.43308488 0.44905233
-0.3754956 0.30354458 -0.09209913 -0.20417765 -0.41583982 0.33501977 0.49916956 0.19675434
-0.4895317 -0.009301864 0.422276 -0.15198766 -0.034548447 -0.17765658 -0.022744548 -0.083307125
0.95024574 -0.31544742 0.52727807 -0.008520315 0.23073798 0.11865573 -0.5899403 0.33776134
0.57632804 0.04582802 -0.06870478 0.15881157 -0.711706 -0.23049155 -0.044186566 -0.088585995
0.006471519 0.20878914 -0.09278179 0.11656791 0.19768652 -0.04406898 0.018908367 0.08245373
-0.35950205 -1.011521 0.31773955 -0.16153127 0.4760136 0.16013764 -0.034850385 -1.9795008
0.08876881 -0.8112328 -0.8532985 -0.1711012 1.1998879 0.053731494 0.61296177 0.19508629
0.37483624 -0.16937618 -0.500977 0.4523766 1.2628771 -0.27611694 -0.1396208 0.09432625
0.05339687 0.35787195 0.13751282 -0.12857571 0.043475334 0.27645093 -0.24706553 -0.09780871
-0.25045705 -0.003882879 -0.051373996 0.017455297 -0.02514292 -0.7582891 4.176548 -0.055832826
0.057638057 0.09922915 0.03627479 -0.24063262 -0.076060526 -0.25789654 0.56400543 0.08169558
0.2789175 -0.12094704 -0.8875252 -0.13156317 -0.118041895 0.013925687 0.1998912 1.1234848
1.0607394 -0.009662964 0.022145174 0.043711286 -0.66550237 -0.62808955 0.054763645 -0.15296498
0.3552662 0.3219867 -0.4407045 0.75450355 -0.60780954 0.036735035 -0.035692193 0.04124294
-0.30229366 0.9369265 -0.46802598 0.31689128 0.062160347 -0.043747988 0.59117013 0.007636633
0.023913655 -0.04382512 -0.7493896 -0.3394985 -0.27821738 0.14008911 -1.2832431 -0.16469121

fc1.bias f4 [256]
00000000: fa5e 823e df6c 1f3f 09ff e6bd 52d2 683e
00000010: 139e ebbe 35d2 5bbe 839c 083f 8bfc c9be
00000020: 5bee e53e c174 0abf dae1 e0be 22b2 62bf
00000030: 9ab1 21bf 7004 02bf 46b7 a7be 936c f4be
00000040: 0fe1 0bbe 767e 47be da1d 2abf e3c9 9cbe
00000050: f532 bcbe aa18 be3e b6a5 5cbe 0fbc a63e
00000060: d605 6ebe bceb c0be 24d7 693e 8bb7 5f3e
00000070: 4449 8a3e 4800 553f dfd9 18bf 638b 08bf
00000080: a98e 24bf e12a 963e d918 863d 39fa 91be
00000090: 4ddf 35be d49f 22bf 5316 2abd 1c3c 38bf
000000a0: 6e0e 133e d384 fabe e58a adbe d374 a9be
000000b0: 5de1 cfbe 6f2a c6be 4847 eebe 2308 8fbd
000000c0: fb89 c03e 7335 203f d1b4 1ebc cdf8 20bf
000000d0: 0b7a eebe 8fc0 99be 6fb5 c33c 7a08 a1be
000000e0: cf17 2fbf a38a 85be bfa7 23bf 968b c4be
000000f0: ab9c 0dbd 8255 c1be 5979 27be 27f3 a3bf
00000100: a20e a9bf b1a3 5ebc 2584 12bf 4487 b6be
00000110: b5c8 cdbe 17e0 ea3e ad55 bdbe 7eaf e8be
00000120: 19af 6fbe 9ae9 42bf 0827 d6be 8b78 b13d
00000130: 45df 5abe 2c70 4f3e c01a e2be 949b 31bc
00000140: dd62 10bd c278 67bc ad28 3d3d 7b19 dfbe
00000150: 0302 a8bc 2268 063e 6ba7 17bf e5b3 e1be
00000160: 337b 3d3c 9ead f0be 6252 9cbe f801 2c3e
00000170: 798c f5bd 6436 a9be a467 5dbf 6554 42be
00000180: 4463 e3be 1f4c e0be c7d3 a0be e763 0d3f
00000190: eb81 a03d f517 62bf d554 47bd 5f67 c1be
000001a0: d479 f1be eef5 93be 0206 f03b fa9c 41bf
000001b0: 227e 88bf 3b1c 673f 4153 8abe 045d 8abe
000001c0: 2395 163e 0ffc 9c3e 65b0 aebe c2c5 09bf
000001d0: 4799 2ebb d603 29be a3ea e03d 925b 2abd
000001e0: 03a9 c43e e82e 7abe ee6f ecbe a3a5 463f
000001f0: 6d60 37bf 99c8 59bc 3756 0cbe 119a 483e
00000200: 4db4 2bbe d206 583f 5a08 6dbf 3af6 0d3f
00000210: 0ee5 bb3d 4657 57be 1b72 bf3e 4695 2dbf
00000220: 3e6c debe b141 0b3d d95f 56bf 7364 243c
00000230: b8c9 f3be f630 3cbf ecc7 97be a108 1bbf
00000240: 2440 b2be ff33 fabe 5106 20bf ee36 ab3e
00000250: 9dd4 8dbe 6228 05bf 8627 853e 0865 61be
00000260: 1eac 36bf bb0a 1fbf 2ed7 433e 6d46 97be
00000270: 486e 69bf 1b49 adbe 04a7 6fbf 841c 08bf
00000280: 190b 173f 8d79 2bbf 9f29 3839 fd73 6f3e
00000290: aaba 2c3f 423f 2dbe 78d0 cbbe bf70 fdbe
000002a0: b204 08bf 4582 ad3c ebb4 55bf 5010 04bf
000002b0: c726 5d3d 92b5 45bc 16a4 02bf 5d6e 26be
000002c0: a123 0bbe 949e 85bf 043d b23e 40dc d4be
000002d0: 4e2e 313d 5039 e43a 76ab b5be bbda 913e
000002e0: 7720 b23c 3ef7 3fbf f6c5 bfbd eb77 e4be
000002f0: b6b3 aebe 8cfb cbbe 2e47 f2be 643c 58be
00000300: bab2 5abf 264a 4a3e 550f 863e ee44 28bf
00000310: 0ff4 cbbe 9854 2bbc e8d5 acbe feb9 42bf
00000320: b29c 4d3e 3d50 89be 5491 c23e 08fb 09bf
00000330: 3229 2ebf 08cf 333e 0c11 63bf 4cbd 143c
00000340: d661 12bf 7865 21bf f36b bc3e faf3 fdbd
00000350: 28dd ab3c 75f0 27bf 5822 bfbc e5d5 163f
00000360: cf9f eebe 135e f33d 436c 35bf a108 34bd
00000370: 6512 bcbe 019f ccbd b66d 8e3e 16d2 bd3d
00000380: fe44 5dbe 9e16 4dbf ee24 8bbe 1d9d e7be
00000390: 37bf 2ebe ae9d 433e abdb 14be db3e d83d
000003a0: 7e86 313f 984e b4be fb3c 12bd 19a2 c9be
000003b0: 16ff c8bd 9aef c0bc 2675 3fbf ce04 36be
000003c0: 3e6e 0ebf 3439 903e c0c5 173c c7a3 12bf
000003d0: f8a8 cabe d6ee 283c c6e9 be3e be01 45bf
000003e0: d4ce 58bf 3100 123e 5ba4 31be aa3d b6be
000003f0: dccc bdbe d8d1 2bbe 008c 0dbf 0a26 9fbe
0.25463086 0.622755 -0.11279113 0.22736481 -0.4601904 -0.21466906 0.5336382 -0.39450487
0.44908413 -0.540844 -0.4392231 -0.8855306 -0.63161623 -0.5078802 -0.32757014 -0.47739086
-0.13660072 -0.19481835 -0.664518 -0.30622777 -0.36757627 0.37128192 -0.21547589 0.32565352
-0.23244414 -0.3767985 0.22835976 0.2184736 0.27009022 0.83203554 -0.59707445 -0.5333769
-0.6428018 0.2932959 0.06547708 -0.28511217 -0.17760964 -0.6352513 -0.041525196 -0.7196672
0.14360973 -0.48929462 -0.3389503 -0.33096942 -0.40601626 -0.3870425 -0.46538758 -0.06983974
0.3760527 0.6258156 -0.009686665 -0.6287964 -0.46577486 -0.30029723 0.023890225 -0.3145178
-0.68395704 -0.26082334 -0.63927835 -0.38387746 -0.03457324 -0.3776055 -0.16354884 -1.2808579
-1.320759 -0.013588832 -0.57232887 -0.35650074 -0.4019219 0.45874092 -0.36979428 -0.4544639
-0.23406638 -0.761377 -0.41826653 0.0866557 -0.21374233 0.20257634 -0.44161034 -0.010840315
-0.035250533 -0.014127912 0.04618137 -0.43574128 -0.020508772 0.13125661 -0.59239835 -0.4408256
0.0115650175 -0.4700746 -0.30531603 0.16797626 -0.11989684 -0.3304931 -0.8648627 -0.18977506
-0.4441167 -0.43808076 -0.31411573 0.55230564 0.0783728 -0.88317806 -0.048664887 -0.37774178
-0.4716326 -0.28898567 0.007324935 -0.7563015 -1.0663493 0.9027745 -0.27016643 -0.2702409
0.14705329 0.30661055 -0.34118953 -0.5381738 -0.0026641653 -0.1650537 0.109822534 -0.041591235
0.38410196 -0.24431956 -0.46179146 0.7759649 -0.7163151 -0.013292455 -0.13704763 0.19590022
-0.16767998 0.84385407 -0.9259087 0.55453837 0.09174548 -0.21029386 0.37391743 -0.678059
-0.43441957 0.033998195 -0.8374 0.010033715 -0.47614837 -0.7351221 -0.29644716 -0.6056004
-0.3481456 -0.48867795 -0.6250964 0.33440346 -0.27701274 -0.52014744 0.26006716 -0.22011197
-0.7135638 -0.6212575 0.19125053 -0.29545918 -0.911839 -0.33844838 -0.9361422 -0.5316851
0.5900131 -0.66982347 0.00017563112 0.2338409 0.67472327 -0.16918662 -0.39807487 -0.4950008
-0.53132164 0.021180281 -0.83479184 -0.5158739 0.05399206 -0.0120672155 -0.51031625 -0.16253038
-0.1358781 -1.0439019 0.34812176 -0.41574287 0.04325705 0.00174121 -0.35482377 0.2848719
0.021743996 -0.74986637 -0.0936393 -0.4462274 -0.34121484 -0.39840353 -0.4731993 -0.21116787
-0.85428965 0.19754848 0.26183572 -0.6573018 -0.3983464 -0.01045718 -0.33756948 -0.7606505
0.20079306 -0.2681903 0.38001502 -0.5389867 -0.6803161 0.17559445 -0.88697886 0.009078335
-0.57180536 -0.63045454 0.3680111 -0.124000505 0.020979479 -0.65601283 -0.023331806 0.5892013
-0.466063 0.118831776 -0.7086832 -0.04395354 -0.36732784 -0.09991265 0.27818078 0.09268586
-0.2160835 -0.80112636 -0.27176613 -0.45237055 -0.1706513 0.19103119 -0.14536922 0.10558864
0.69345844 -0.35216212 -0.035702687 -0.39381483 -0.09814279 -0.02355175 -0.7478813 -0.1777527
-0.55636966 0.28168643 0.009263456 -0.57281154 -0.39582038 0.010310849 0.3728773 -0.76955783
-0.84690595 0.14257886 -0.17347853 -0.3559392 -0.37070358 -0.16779268 -0.5529175 -0.3108371

fc2.weight f4 [256, 256]
00000000: 3490 4d3d b6d4 adbd ec92 6abe 9729 463e
00000010: cc03 473e e04f 483e 9e70 0b3e ea5f b73c
00000020: cdf2 113d 611b 883a 41d6 033e f8dc 2abf
00000030: 0193 33be 22af 713e 6322 d33e e892 ba3e
00000040: 38a6 8bbe a63f aebe 5996 a7bd d973 72bf
00000050: 6d40 413e 1999 6f3e 31ff 263e 82ae 0dbd
00000060: 5450 663d b71a f9be 79ff f6bc e0e0 20bf
00000070: 2d67 403e 3c3d 0a3e 9889 5f3e fa02 22be
00000080: b099 8d3d b694 afbe 01c8 f9bd b563 0f3e
00000090: b29f 113e d488 02be 6b4b 04bf 62e9 ffbe
000000a0: 68db 483e 4210 033c 3c91 ccbd 7c7b cdbd
000000b0: c9d4 543e 47b4 5cbe 6e96 4b3e ca9d b3be
000000c0: 1edc 08bf 91c6 9d3e 6b6c 8c3d 33e8 fabd
000000d0: a3e1 b9be a481 62bd 5890 82be e84b 90be
000000e0: c99d fdbd f609 893e 3bec 63be 7945 803d
000000f0: b87e 7f3e fecf c73d 84ba 92be c260 8c3e
00000100: be0f 46bd dbb4 fb3d 3b82 9a3e 9c37 103e
00000110: 7c40 613e 72ed fdbd ba77 06be edd8 5bbd
00000120: b740 a93d ac8e b63c 7c26 9a3e 5962 db3d
00000130: 6da0 5dbf baa5 0d3e 6ac6 be3e b428 d53d
00000140: ceca 32be ba8d bbbe 81d1 03bf 24d5 c9bd
00000150: 6fc7 b6bd 0b15 bb3e dacc 3e3e 79c8 87bd
00000160: 6cdc ec3b 8ab7 8cbf d3ac aabe 443d 343e
00000170: 1310 84be 83ea 05bf 5567 5f3e 041c 883e
00000180: 5997 e7bd 1685 4ebe 9703 d83e 601a 75bd
00000190: 82bd 29be a8c1 2a3e 4a86 cb3e acc5 72bf
000001a0: 2846 b73e 2fce 443e 9563 693e 78e6 13be
000001b0: dc2d 05bf a1e7 2a3e 1cdf 28be d766 7abe
000001c0: d61c adbc 231e d2bc 5471 42be 8d62 b63e
000001d0: c223 093e 3d78 b2bd 6f7b 243f 7923 293d
000001e0: 449c 2c3e 7e21 c53d 7317 bdbd b5f1 68bf
000001f0: fe7f d13e 3805 55bf 7206 193e 4137 3ebe
00000200: 3036 513e 9e61 85bd 6d30 a03e e2ab ae3d
00000210: 2afd 90be c619 be3e ba43 ba3d c28c 9fbd
00000220: 2ccf 78bd 2196 4a3c 6b1b fabe 0c67 43be
00000230: 33bf 3cbd 3e32 6cbd 646c 8e3e 1416 e23c
00000240: 7075 57be 0a39 0fbc 70a2 1fbf 0723 d0bd
00000250: c2e2 9bbe ddec 7bbd 29f2 0d3d 3dbb 21bc
00000260: 9769 bfbe fafa 27bb 3c4f 60be 7455 64bd
00000270: 7b57 0ebe b7de 4a3d 764d 9ebc 23f8 2dbf
00000280: 1352 3f3e 7070 453d 9308 eabc 9a49 fe3e
00000290: cfcd 92be 8adf 8d3e cc09 333d 2094 003e
000002a0: 9272 16be c6e4 febd ecb7 48bd cd7a b8be
000002b0: 757b 883c 0010 063d cda6 043e 8880 2abe
000002c0: 1c52 85be 497d a3bc a816 b9be b7dd 993e
000002d0: e8f9 783e 2348 ab3e f11a ee3b 8a7e da3e
000002e0: e277 9ebe a084 9b3d 3498 8fbe 88e7 acbe
000002f0: 9911 2b3e a4da 93bc 4e8c 513e 63c9 82be
00000300: b248 3e3e 3b83 b43e 7e2a 57be b386 97be
00000310: a69a 823e 4bfc a23d b4d0 50be fd22 433e
00000320: ebfc ce3e 841b 8b3e e4db 45be 466a 8c3e
00000330: f308 cc3d 6637 99bd d88b 153e 5cbb 733e
00000340: 3746 febd ba4b 39be 5cb2 9fbd bf07 0dbd
00000350: 07e1 b93c 5887 f0be fc77 9ebe f399 b2be
00000360: b86a dabd f647 95bf 1519 f23d 4a66 7f3e
00000370: c1a9 013f 0db3 89be 43e5 bdbb 6beb fabd
00000380: e78f 18bd f039 4e3d f4fc acbe 50cf da3d
00000390: 3866 023c a516 05bd 7346 04be 8daf cf3d
000003a0: 5c7e a53e 472b c5bc 4c5b 9b3c cf55 d0bb
000003b0: 85a5 7f3d e8f9 7abe 9f65 20be 0d73 05be
000003c0: 0665 1f3e 972a 313e 121f 393e 1bab 6e3e
000003d0: f999 2bbe 3193 95bd 9490 bc3e 307f e73d
000003e0: 2706 97be c417 52be 33cc c63d 4eff 6f3e
000003f0: 9e10 103e f6ae ce3d 5fe2 28bc 471b 283e
0.05018635 -0.08487837 -0.22907609 0.19351803 0.19435042 0.1956172 0.13617179 0.022384603
0.035631943 0.0010384136 0.128747 -0.6674342 -0.17536546 0.23601964 0.41237172 0.36440206
-0.27275252 -0.34032935 -0.081829734 -0.9470802 0.18872233 0.23398246 0.16308285 -0.03459025
0.05622895 -0.48653194 -0.030151116 -0.6284313 0.18789358 0.13499922 0.21829832 -0.15821448
0.06914079 -0.34293145 -0.12196351 0.14002879 0.14221075 -0.12747508 -0.5167758 -0.49982744
0.19614947 0.007999482 -0.09988639 -0.100333184 0.20784296 -0.21553145 0.19881603 -0.3508132
-0.5346087 0.30815557 0.068566166 -0.1225132 -0.3630496 -0.055299416 -0.2550075 -0.28182912
-0.12383611 0.26765412 -0.22258084 0.06263251 0.24950683 0.09756468 -0.28657925 0.2741757
-0.048354857 0.12290355 0.30177483 0.14083713 0.21997255 -0.12398805 -0.1313161 -0.053673673
0.082642965 0.022284828 0.30107486 0.10712118 -0.86572915 0.13832751 0.37260753 0.10408154
-0.17460176 -0.36631566 -0.5149155 -0.098551065 -0.08924758 0.36539492 0.18632832 -0.06630034
0.007228425 -1.0993512 -0.3333498 0.17601496 -0.25793514 -0.5231096 0.21816762 0.26583874
-0.11308164 -0.20167956 0.4219024 -0.059839606 -0.16576198 0.16675436 0.39750892 -0.94832873
0.35795712 0.19219278 0.22791894 -0.14443386 -0.520231 0.16689922 -0.1649136 -0.24453293
-0.021131914 -0.025649136 -0.18988544 0.35622063 0.13392547 -0.0871434 0.64250845 0.041293595
0.16856486 0.09625529 -0.09232988 -0.90993816 0.40917963 -0.8321109 0.14943865 -0.18575765
0.20430827 -0.065127596 0.31286946 0.08528878 -0.2831815 0.3712904 0.09094949 -0.07790519
-0.06074445 0.012364895 -0.48849043 -0.19082278 -0.04608078 -0.057665102 0.2781707 0.027598418
-0.21040893 -0.0087416265 -0.62357235 -0.10162931 -0.3044644 -0.061505187 0.03465477 -0.009871301
-0.37385246 -0.0025631771 -0.21905226 -0.055745557 -0.13900559 0.049528804 -0.019324046 -0.6795675
0.18683653 0.048202932 -0.028568542 0.4966553 -0.28672644 0.2770961 0.043710515 0.12556505
-0.14692143 -0.12445979 -0.049003527 -0.3603119 0.016660431 0.032730103 0.12954254 -0.16650593
-0.26039207 -0.019957202 -0.36150098 0.30051968 0.24314082 0.33453473 0.0072663953 0.42674667
-0.30950838 0.075936556 -0.2804581 -0.33770394 0.16705932 -0.018048592 0.20463678 -0.2554427
0.18582419 0.3525637 -0.21012303 -0.29594955 0.25508612 0.07958277 -0.20392114 0.19056316
0.40427336 0.2716943 -0.19322163 0.2742483 0.099626444 -0.074812695 0.14604127 0.2380194
-0.12415736 -0.18095294 -0.07797691 -0.034431215 0.02269031 -0.4697826 -0.30950916 -0.3488308
-0.10664886 -1.1662586 0.1182119 0.24941364 0.5064965 -0.26894417 -0.0057951524 -0.12251934
-0.03724661 0.050348222 -0.33786738 0.10684073 0.007958941 -0.0324923 -0.12917499 0.101409055
0.32322967 -0.024068488 0.018964432 -0.0063578854 0.06241371 -0.24509394 -0.15663765 -0.1303217
0.15565881 0.17301403 0.18078259 0.23307459 -0.16757955 -0.07303465 0.36829054 0.11303556
-0.2949688 -0.20516878 0.09706917 0.23437235 0.14068839 0.10091965 -0.010307877 0.16416655

fc2.bias f4 [256]
00000000: 56c7 ebbd 003e 9abe 2f5e ccbd b343 febd
00000010: 8d48 903c a38b 293f 019a a63d 87a7 5a3e
00000020: f014 7e3e 0282 87bd 4ca7 853e b730 b2be
00000030: 5127 953b d283 ad3d f037 68be c150 50bc
00000040: 07ff e8bd 1642 443e 2c4a 93be 09f4 1c3e
00000050: dac9 8abe 6f49 10be a67e 44be 14b7 923d
00000060: f83b b1be fcd4 54be bbba b23d 80a2 bf3e
00000070: bb22 5ebe ffaf 213d d01b a0be 2ce8 28be
00000080: e58f ac3d e885 373d c80e f63d d83d 42be
00000090: 143f 0abe 7d6f bc3c 96d0 c2be e2cc 80be
000000a0: f3c4 df3c fef4 0f3e 4f29 babd 2f3f 85bc
000000b0: a47e 7abe f2fd 27bd 3af5 91be a4eb bdbe
000000c0: a82d 73be 4548 12be 009b 5abe 4d90 87be
000000d0: 6b2a 0abf 73da 0d3d 3e1a 56bd 15fe 8cbe
000000e0: f578 53be 387d c13d 115c a93d e445 1fbe
000000f0: 2747 143e 9033 33be 7473 1dbe eb43 263d
00000100: 0cdd 0f3e 1640 b6be 5441 623e 2635 5abe
00000110: 2168 f03b 1ac7 be3c f6d2 c4bb d200 c7be
00000120: 6c98 f2bc c5f5 3ebc 4c52 90bd 583f 88be
00000130: 6d87 133e f1d4 afbe f44a 93bd 619b 62bd
00000140: f273 febd 6d08 0dbf ae34 03bf 5de0 b63e
00000150: 55cd 95bd 1c9d 80bd 442a 863d 3ff0 a1bd
00000160: ae49 a53e 9218 a7be ddd9 f0be e4bc 013e
00000170: 4d99 143e f4df 4b3e 00cb c4be 7e7a 503c
00000180: 7d97 1abe 2042 f63c 371b a0be 273c e0be
00000190: cd3c 7dbe d0e9 21bc 62da 9e3d 46ea 12bd
000001a0: f1c7 7dbe 66ea 59be d972 383e 05fb 34bd
000001b0: 806a 44bd 8416 67bc 8827 a8be de42 0fbe
000001c0: 18b5 b5bd b6bb 2d3e a608 01bf 0fe1 9d3e
000001d0: 20cc 67be 9323 51be ca19 6bbe 1862 3a3e
000001e0: b6ce f1be e034 a53c ef12 12be 848c 99be
000001f0: 6b43 adbd e0b0 b7be eed1 97bd 537c 82bd
00000200: eb7e c33e 200e 99be bdc4 113e 7a3d 93be
00000210: f24a 0cbd c27e 093e fced 24be 52c2 61be
00000220: 3055 d73e 3bee fbbd 81cd f03d 2244 dd3d
00000230: 8c74 c33c 3b94 953e 14d7 b8bd e365 f9bd
00000240: 3421 8cbe b4bb 99bd 6d6d cbbd dc0a d83e
00000250: d3cf 2cbe 94af 9e3d c1df 19be 4498 62be
00000260: accb d83d 619b e6bd c97f 623e acc2 52be
00000270: c831 fabd c666 ac3e b553 ddbd 2d1a 47be
00000280: c058 a4bc 5902 04be c801 b4be 561c 623c
00000290: 787c 83bd 4cf3 82be 9711 90be 93f2 683e
000002a0: 8fc4 60be 8f2f 09bf ac87 533b 7a7b 6dbe
000002b0: 29e7 2cbf 9773 07be fb02 cf3d 9298 c2bd
000002c0: a840 f0bd 2056 6f3d cb61 e93e b78c 3abd
000002d0: cb92 1bbe ccd4 0ebd b145 c8be 104c c0be
000002e0: 35f5 b4be 05b5 42bd 96c8 d5be 3ec0 473e
000002f0: bdfd 1fbe c91b 50be 628b 80be ca37 91be
00000300: d182 d9be bbfb 99be 4869 38bd 64d2 ccbd
00000310: 961e 44be 7e17 a43d 23ce cabe 4328 1bbe
00000320: 6ec0 55bc ab1d 033e af32 1dbe 307f 7abc
00000330: 8490 ad3e 0b18 5cbc d2cf a63d f7bf a2bd
00000340: 6cfc bc3d 8921 04bf 0aa2 3dbc 5de6 59be
00000350: 7269 14bd 3705 bb3d 7adf ccbe 866d a3be
00000360: 5fc1 cebe a366 23bc 8c90 633e 1eff 423e
00000370: 0776 e83c 2f95 bbbe 912a 17be 36bd cf3e
00000380: a27b 8fbd 3fae 3d3d 3720 343e f31b 9c3d
00000390: 45a4 9dbd e664 87be 4275 41be 925c d7bb
000003a0: 62e7 8ebe 6ce5 22bc 0f4b f0be 0b82 13bc
000003b0: e193 313e 57c4 6cbe 556c 9cbe b8f8 73bd
000003c0: 980c 08bf b9e8 2cbe 6c93 1cbf 9f61 07bd
000003d0: fd76 51be 8aa0 abbc 2a4c db3d 78ed 34bd
000003e0: 187e 8bbe 85e5 c7bc 4ea5 083d c859 17be
000003f0: 6d94 a7be d945 223c 14d2 eebe 1812 fcbe
-0.1151263 -0.30125427 -0.099789016 -0.12415256 0.01761272 0.66228694 0.08134843 0.21352969
0.24812675 -0.06616594 0.261042 -0.3480279 0.004551806 0.08472408 -0.22677588 -0.012714566
-0.113767676 0.19165835 -0.28767526 0.15327467 -0.27107126 -0.14090513 -0.19188938 0.07163826
-0.34616065 -0.20784372 0.08727022 0.37428665 -0.21692936 0.039474484 -0.3127122 -0.16494817
0.08425883 0.044805437 0.12014538 -0.18968904 -0.13500625 0.02300238 -0.38049763 -0.25156313
0.027315592 0.14058301 -0.0908991 -0.01626548 -0.24462372 -0.041013665 -0.28507406 -0.37093842
-0.23747885 -0.14285381 -0.2134819 -0.2647728 -0.53970975 0.034632158 -0.05227112 -0.275376
-0.2065161 0.09447712 0.082695134 -0.15554005 0.14480267 -0.17500138 -0.15376073 0.040592115
0.14049166 -0.3559577 0.22095233 -0.21309337 0.007336632 0.023288298 -0.006006594 -0.38867813
-0.029613696 -0.011655276 -0.07046947 -0.26610827 0.1440713 -0.3434215 -0.071920305 -0.055323962
-0.124244586 -0.5509098 -0.5125226 0.3571805 -0.073145546 -0.06279966 0.0655103 -0.079071514
0.32282776 -0.32635933 -0.47041216 0.12669712 0.14511605 0.1990965 -0.38436127 0.012724517
-0.1509685 0.030060828 -0.31270763 -0.43795893 -0.24730225 -0.009882405 0.07756497 -0.03586795
-0.24783303 -0.21280822 0.18012561 -0.044184703 -0.04795313 -0.014104489 -0.3284266 -0.13990352
-0.088724315 0.16966137 -0.5040382 0.3083577 -0.22636461 -0.20423727 -0.22959056 0.18201482
-0.4722802 0.020166814 -0.14265035 -0.29990017 -0.084601246 -0.35877132 -0.07413088 -0.06371369
0.38182768 -0.2989359 0.14235206 -0.2875784 -0.03425116 0.1342726 -0.16106409 -0.22046784
0.4205718 -0.12301298 0.11757947 0.10804011 0.023859285 0.29214653 -0.09025398 -0.121776365
-0.27369082 -0.07506505 -0.09932981 0.42195785 -0.16876154 0.077483326 -0.15026762 -0.22128397
0.10585722 -0.11260105 0.22119059 -0.20582074 -0.12216526 0.3367216 -0.108069815 -0.19443579
-0.02006185 -0.1289152 -0.3515761 0.013800701 -0.06420225 -0.25576246 -0.2813842 0.22748785
-0.21949981 -0.53588194 0.0032276912 -0.23191634 -0.6754022 -0.13227688 0.1010799 -0.09501757
-0.11731082 0.058431745 0.45582423 -0.045544352 -0.15192716 -0.034870908 -0.3911567 -0.3755803
-0.35343328 -0.047535915 -0.41754597 0.19506928 -0.15624137 -0.20323099 -0.2510634 -0.28362876
-0.42482617 -0.30074868 -0.04502228 -0.10001066 -0.19152293 0.08012293 -0.39610395 -0.15152077
-0.013046367 0.12804286 -0.15351366 -0.015289113 0.3389932 -0.013433467 0.08145107 -0.07946771
0.09227833 -0.5161367 -0.011574278 -0.21279283 -0.036233373 0.09131854 -0.4001425 -0.31919497
-0.40381905 -0.009973201 0.22223109 0.19042632 0.028376592 -0.36637256 -0.14762332 0.40574044
-0.07006003 0.046308752 0.17590414 0.076225184 -0.076973476 -0.26444167 -0.18892387 -0.0065723145
-0.27910906 -0.009942394 -0.46932265 -0.009003173 0.17341568 -0.23121773 -0.305514 -0.05956337
-0.53144217 -0.16885652 -0.6116245 -0.033052083 -0.20455547 -0.020950574 0.107078865 -0.04417178
-0.2724464 -0.024401436 0.03336077 -0.14780343 -0.32730427 0.009904348 -0.46644652 -0.49232554

mu.weight f4 [4, 256]
00000000: 904a 0d3e bfc3 f53e 2f9a 9c3e 301e 63bf
00000010: 38c8 2e3e 21e4 f0be 271b db3d edbd 483d
00000020: 3093 033d 2774 debe 3c87 223c eaea 98be
00000030: 6605 693d be31 133f b28a a23e 4c5c 5e3d
00000040: 2585 763e aee8 0fbe dec8 9ebe 6c35 ae3d
00000050: a8e9 163f 8f34 823d a67d 30bf 5702 9f3d
00000060: 88c9 83bd 4383 a33b 20ce 193d bc14 633e
00000070: 3ec4 553e f6bb 61bd cd51 d4be 2fc8 d4bc
00000080: 6673 05bf db57 bfbe efbf b1bd c543 ffbe
00000090: 915c 06bf 47bf 06be 2e24 293f 4a15 f4be
000000a0: 05e6 9d3d f35f 283e cf85 333d ef3e e13e
000000b0: bbf8 ca3e e278 cd3e 05c9 a4be c5ed 0d3f
000000c0: 0fb3 f73e 6ca6 d33e 34d2 a03e 4db2 18bc
000000d0: 95d4 babe 21eb ad3e 45f5 c2be b617 7c3e
000000e0: 7746 c3bd d02b fb3c afee dd3e e9c8 e2be
000000f0: 733a d33e 4c18 eebd 0c55 c6be 3546 0a3d
00000100: e1b2 43bc f1a5 cdbe 094d 85bd 290e ac3d
00000110: 87ca 60be adf5 e9be 4826 1c3d e38e d7be
00000120: 8a45 173e 8d15 debd 3eab 8ebe 0206 b1bc
00000130: 02a9 d4be 7332 aa3e 0a60 36bd 0340 803c
00000140: da4a 603d 627b 76bc a649 923e 7d6d 20be
00000150: e937 d13d cc6e 25bd b526 06bf ddc1 d73d
00000160: 5b6a 71be 39bd 793e d3f7 443f f961 b23e
00000170: cb80 c5be 917c 2fbe eeab 213e 9495 fcbe
00000180: 9ee5 423f 1544 8e3e c0e1 cb3d f83b 943e
00000190: 7f3c a93e 696a c53e 15ae 43bd 618e 8b3d
000001a0: aadd 65bd eedc e23e 0271 f03d 4786 c8bd
000001b0: 1b02 40be f775 133d c717 a43e b114 d8bd
000001c0: 920f 533e d416 54be 4993 59bf 1b24 fbbe
000001d0: 6023 33bf 1a0b 813e 80be abbe 8a88 24be
000001e0: 2ccc 7abf 00eb 4e3f 39d6 f4bc 5fd6 4dbe
000001f0: 41ca b63e 9a0b e33d bb34 493f 63fc b9be
00000200: 49db 97be 84bb 05bd eeb9 31be be35 3abe
00000210: 9313 e3bd 7efa 053f fe6f b73e a6ed 06be
00000220: ce7e d5bc de9e d9bd fdf8 b7be aea4 c8bd
00000230: b8d6 d3bd 3c07 b3be b2c7 2c3f 6f55 dfbe
00000240: 9b89 69be 4f7b a4bc 4c44 ef3e 5607 5dbe
00000250: 0c48 bd3e ae71 48be b038 18bd 9f42 9b3d
00000260: 01dc fbbd 1cfe 0ebe 63dc 49ba 0aed 7b3d
00000270: 6b83 60bd 0a98 dfbe 9f4d 6dbe b8a6 98be
00000280: 1dfd afbe d205 bbbe d103 a83e 057c b2bd
00000290: d524 ff3c c070 babe b946 9b3d fba7 b73d
000002a0: b444 8c3e 4032 fc3e a902 813e 8583 e2bd
000002b0: 59a4 5b3f 4375 3bbf 297d 433e 39a0 213d
000002c0: 5262 863e a3ca 60be cd43 8b3e 321d 983c
000002d0: a102 d9be 8bd8 ae3c 5d7c 40be 596f 983d
000002e0: aba7 033d 0e18 50bc 9a55 693e 4dc5 02be
000002f0: 5302 a73e 2783 843e e6cc a43e 13fa 2ebd
00000300: 9940 60be 963e f73c a465 103e 7c66 8fbe
00000310: 4f02 6d3e 3006 08bd f6b3 233e b461 92be
00000320: 46b2 c03d 867b 573e c064 93be ba73 413c
00000330: 7ac0 53bd 4ede 9bbe 45a8 893e b609 853e
00000340: d49c df3d 89fe e13e 177c fdbe c970 78bd
00000350: b44d 1fbe d528 b33e b26d b4bd 81cd b63e
00000360: 98af fc3d c4b6 033c 8172 c53e a3cd 94bd
00000370: f790 b0bc d534 083f eb26 6a3e 39f2 de3d
00000380: 3cb8 4ebd 7da7 c0be 5ef1 473e ad95 20bf
00000390: e057 84be 50e3 b33d 3c1d b03c ffbe 4e3e
000003a0: 27fa b0be d603 eebd 3e7c 07be db03 0e3f
000003b0: 1952 2ebf 7b56 56be 1a30 edbe 6612 f33c
000003c0: 7813 04bd 166b c73e f64f 90be ff39 8abc
000003d0: 9118 183d a5f4 d93e 32a2 72be 9767 da3e
000003e0: 877b e13e 93db 07be e1c1 8ebe 0b8d 7dbe
000003f0: 9af2 4ebc bc00 6bbf 492c e4be adf7 6c3e
0.13797975 0.48000905 0.30586383 -0.8871794 0.17068565 -0.4704905 0.10698538 0.049009252
0.03212279 -0.43447992 0.009919938 -0.29866725 0.056889914 0.57497776 0.3174644 0.05428724
0.24074228 -0.14053604 -0.31012625 0.08506283 0.5895028 0.06357681 -0.68941724 0.07764118
-0.064349234 0.004990013 0.03755009 0.22175878 0.20875642 -0.055110894 -0.4146866 -0.025974361
-0.5212921 -0.37371716 -0.086791866 -0.49856392 -0.52484995 -0.13158904 0.6607083 -0.47672492
0.07709888 0.16442852 0.04382878 0.43993327 0.3964289 0.4013129 -0.32184616 0.5544093
0.48378798 0.41337907 0.31410372 -0.009319854 -0.36490312 0.33968452 -0.3807775 0.2461842
-0.095349245 0.03066054 0.43346164 -0.44293907 0.4125553 -0.11625728 -0.3873676 0.03375836
-0.0119445035 -0.40165666 -0.06508834 0.08401138 -0.21952258 -0.45695248 0.038122445 -0.421012
0.14772621 -0.10843954 -0.27865022 -0.02160931 -0.41535193 0.33241615 -0.044525184 0.015655523
0.054758884 -0.015044065 0.28571814 -0.15666766 0.10215742 -0.040388867 -0.5240281 0.10535023
-0.23575728 0.24388589 0.7694065 0.34840372 -0.38574824 -0.17137362 0.15788242 -0.4933287
0.7613162 0.27786317 0.09955168 0.28952003 0.33053967 0.38557747 -0.04777344 0.06814266
-0.0561196 0.4430918 0.117403045 -0.09791236 -0.18750803 0.036001172 0.3204939 -0.105508216
0.20611408 -0.20711833 -0.84990364 -0.49050984 -0.6997585 0.25203782 -0.33543777 -0.1606771
-0.9796779 0.8082733 -0.029887306 -0.20101307 0.35701182 0.11086197 0.78596085 -0.36325368
-0.2965949 -0.032649532 -0.17356083 -0.18184564 -0.11087718 0.52335346 0.3582763 -0.13176593
-0.026061442 -0.10626005 -0.3593215 -0.09797035 -0.10343689 -0.34966457 0.6749221 -0.43619868
-0.22806399 -0.02007833 0.46731794 -0.2158483 0.3696903 -0.19574615 -0.037163436 0.07581066
-0.12297822 -0.13964123 -0.00077003817 0.061505355 -0.05481283 -0.43670684 -0.23174141 -0.29814696
-0.34372798 -0.36527878 0.32815412 -0.08715061 0.031145493 -0.36414146 0.07581849 0.089675866
0.27396166 0.49257088 0.25197342 -0.110602416 0.8579765 -0.732258 0.19090714 0.03945944
0.26246887 -0.219523 0.27200165 0.018568609 -0.42384818 0.02134349 -0.18797441 0.07443113
0.032142323 -0.012701048 0.2278656 -0.12770577 0.3261896 0.2588131 0.32187575 -0.042718958
-0.21899642 0.03018121 0.14101273 -0.28007877 0.23145412 -0.033209026 0.15986618 -0.28590167
0.09409003 0.21043214 -0.28787804 0.0118073765 -0.05169723 -0.30443043 0.26886192 0.2598397
0.109185845 0.44139507 -0.49508736 -0.060654435 -0.15556985 0.3499209 -0.08809985 0.35703662
0.12338179 0.00803918 0.38563922 -0.072657846 -0.0215535 0.53205615 0.22866409 0.10886044
-0.05046867 -0.37627783 0.19525668 -0.6272839 -0.25848293 0.08783591 0.021498315 0.20190047
-0.3456585 -0.116218254 -0.13230988 0.5547463 -0.6809402 -0.20931427 -0.4632576 0.029671859
-0.03224513 0.38948888 -0.28186005 -0.016873358 0.037132803 0.4256946 -0.23694685 0.42657158
0.44039556 -0.13267355 -0.27882293 -0.24760835 -0.012631083 -0.91797996 -0.44565037 0.23141356

mu.bias f4 [4]
00000000: 75c4 67be 6394 d33c 40d2 a5bc 2c8c ccbc
-0.22633536 0.025827592 -0.020241857 -0.024969183
