TD3/models/hockey_tournament_agent/01000000/critic_1.pth (torch, 289951 bytes, 5 tensors)

fc1.weight f4 [256, 22]
000000 ff cd f4 be 49 c8 5f bf ed 04 fd 3e 08 22 eb be
       -0.47813413 -0.87414986 0.4941782 -0.459244
000010 7c d7 15 3f f4 b4 31 3e 60 5e d5 be a0 67 a3 3e
       0.5853193 0.17354184 -0.41673565 0.31914997
000020 d5 2c c6 be 09 84 e1 be a5 26 89 bc 9c a8 91 bf
       -0.3870608 -0.44046047 -0.01674206 -1.137958
000030 e2 3d 7c 3d ba eb 45 bf 9a 84 a6 3c de cd c9 bd
       0.061582454 -0.77312815 0.020326901 -0.09853719
000040 ef 52 ca 3e 95 c3 31 bf eb 3b fb be fb 48 bc 3b
       0.39516398 -0.6943906 -0.4906915 0.0057460046
000050 a2 e5 3a 3e 24 01 b5 be 69 e9 85 3e 79 0f 42 be
       0.1825166 -0.35352433 0.2615464 -0.18951215
000060 97 19 05 bf 11 11 bf bd e9 c5 71 3c e2 e3 ea 3b
       -0.5199217 -0.09329427 0.014756658 0.007168279
000070 ed 96 9f be 94 0d 87 bf 5f 88 5a 40 5f ae 5f 3d
       -0.31169835 -1.0551019 3.4145734 0.054609653
000080 c1 51 44 3f cc 0a a3 bd 31 f1 f4 3e c1 58 3c c0
       0.76687247 -0.07961044 0.47840264 -2.942917
000090 95 ae 38 3d ee a4 6f bf e0 97 24 bd ed 90 96 be
       0.04508837 -0.9361104 -0.0401839 -0.29407445
0000a0 02 3d b8 3d 2c e7 22 3e 32 34 45 bc 5d c5 59 3b
       0.08996011 0.15908498 -0.01203637 0.003322921
0000b0 61 3a 52 3e ad 5c f3 be 6a 46 8a bf a0 37 80 3e
       0.20530082 -0.47531644 -1.0802739 0.25042439
0000c0 f4 58 94 bd dc 4e a4 3b f3 c5 5c be fa c9 11 3f
       -0.07243529 0.0050142836 -0.21559887 0.56948817
0000d0 e5 67 30 bf bb f3 47 bd eb c5 55 3f cd eb c4 be
       -0.6890853 -0.048816424 0.83505124 -0.38461152
0000e0 31 4a 33 bf 45 ab e0 3d 69 90 ca 3c bc 6a 3e 3e
       -0.7003508 0.10970167 0.024727063 0.18595403
0000f0 e5 3a 0e 3e 62 7b 5d bd 10 81 c7 3d 46 1a e8 be
       0.13889654 -0.054072745 0.097414136 -0.45332545
000100 4b 24 31 3f a4 83 1a bd f7 ec 11 3e dc 03 68 be
       0.69196004 -0.0377232 0.14250551 -0.22657722
000110 1d c5 8b 3e ad 76 d2 bd 99 cb 94 be 0d bc 26 3f
       0.27298823 -0.10276542 -0.29061583 0.6513069
000120 1c 9b 41 bf 17 f4 a2 bf 26 fb 02 40 31 b6 f2 bd
       -0.75627303 -1.273074 2.046579 -0.118511565
000130 c4 48 36 3f 12 65 43 be ce 8c d8 be ed 52 61 3e
       0.7120478 -0.19081524 -0.42294925 0.2200429
000140 3b 14 14 3e b5 4f 82 3e 9e ba 74 3e 1c 19 ac be
       0.14460842 0.25451437 0.23899314 -0.33612907
000150 65 5f d4 be 77 16 30 3d 3d 78 a5 3f c9 a8 de be
       -0.4147903 0.042990174 1.2927319 -0.43488148
000160 02 7c ba 3e c1 08 14 3f ff d8 85 3f e2 d5 c9 bd
       0.36422735 0.5782586 1.0456847 -0.09855248
000170 af 5a 99 bc 1f dc ac bd ab 99 26 3e a8 70 84 bf
       -0.01872 -0.08440422 0.16269557 -1.034688
000180 a3 ad 37 3f c6 cb c7 be 3b ad 10 be 57 29 f3 3e
       0.71749324 -0.39022654 -0.14128582 0.47492477
000190 48 0c 23 be 79 8d 30 be 2e 1f 01 bd a8 85 d4 3b
       -0.15922654 -0.17241468 -0.031523876 0.0064856596
0001a0 e9 b5 2b 3e 57 fc b7 3d 39 32 19 bf 31 7f f2 bd
       0.16768612 0.08983677 -0.5984226 -0.11840666
0001b0 77 04 03 be f1 32 07 3e 5d 83 03 bf c2 59 af 3e
       -0.12794672 0.13203026 -0.5137232 0.34248167
0001c0 58 7f 33 3f 38 af 74 3b 96 17 b4 3c ec 5f 84 be
       0.70116186 0.0037335884 0.021983903 -0.25854433
0001d0 7c a8 56 be 5e b2 2b 3f bb bf 00 3f 53 55 39 be
       -0.20962709 0.6706904 0.5029256 -0.18098955
0001e0 c1 1f 04 be 13 f0 b2 3c 7a a5 86 3f 1c fa 4a be
       -0.12902738 0.021842992 1.051925 -0.19821972
0001f0 f1 13 c7 3d 12 94 15 3e b8 81 b7 bf 5a bd 92 bd
       0.097206004 0.14607266 -1.4336462 -0.07165022
000200 1a 4f 59 3d 01 d8 13 3d 53 a2 0d bf 95 65 2e be
       0.053053953 0.03609467 -0.5532581 -0.17030938
000210 42 c8 2c be 3e d2 94 be d7 80 c2 3e 7e dc 84 3d
       -0.16873267 -0.29066652 0.37988922 0.06487368
000220 84 90 20 be ac 04 ea 3e c4 4b 41 bf 96 54 36 3f
       -0.15680128 0.4570669 -0.75506234 0.7122282
000230 f5 76 a9 3f a8 65 c0 3d 10 da 67 bf 54 12 82 bf
       1.3239428 0.093943894 -0.9056711 -1.0161843
000240 a2 26 37 bf 72 b7 13 bf b4 9c 59 3d fa bf 9a be
       -0.71543324 -0.5770179 0.05312796 -0.30224591
000250 3a c4 80 bf 87 17 1e be 5c 22 5a 3f ef f9 32 bf
       -1.0059884 -0.15438662 0.8520868 -0.6991262
000260 92 6b 20 3f 18 ec 31 3f 63 14 5e bf 41 7b 67 bd
       0.6266414 0.69500875 -0.8674986 -0.05651403
000270 76 c8 02 bf f9 10 03 3e f6 84 13 be 50 01 e7 bc
       -0.5108713 0.12799443 -0.1440619 -0.028198868
000280 2d 44 68 3e 0e af b4 3f 09 d4 84 3e e8 27 ad be
       0.22682257 1.4115922 0.2594302 -0.3381951
000290 53 88 ce be f4 78 59 3f e5 5e 0b 3f ff a1 a9 3f
       -0.40338382 0.84950185 0.5444167 1.3252562
0002a0 34 e5 19 3e 25 41 6d 3e f1 77 65 c0 d5 92 15 bf
       0.1502884 0.23169382 -3.5854456 -0.5842717
0002b0 02 79 01 bd 51 74 0d 3e 85 85 ab 3e 12 c3 3e 3f
       -0.031609543 0.13813902 0.33500305 0.74516404
0002c0 3a fa 9d 3f 2c d9 5c bf 50 7d 17 40 33 da c2 3e
       1.2341988 -0.8626888 2.3670235 0.38057098
0002d0 7f 0a 08 3e 9f 8e 30 be d8 10 d1 be cf be 39 3f
       0.13285254 -0.17241906 -0.40833163 0.72556776
0002e0 38 f7 7c be b4 ce 1f bf c6 8f 03 3f e6 f3 f7 be
       -0.24703681 -0.6242478 0.51391256 -0.48428267
0002f0 37 b2 2d 3e 03 77 70 be ae c7 8c 3d dc e0 df 3e
       0.16962515 -0.234829 0.068740234 0.43726242
000300 12 b2 b4 3e 19 13 d9 be 80 2c d8 3e 39 94 96 be
       0.35292107 -0.42397383 0.4222145 -0.2940996
000310 55 06 b8 be 32 53 27 3c 78 26 00 3f 82 80 aa bf
       -0.3594233 0.010212706 0.500587 -1.3320467
000320 3b 5a b8 3e 21 82 ed bc 1e b9 0e bc 61 21 52 3e
       0.3600634 -0.028992714 -0.008711128 0.20520546
000330 ac c1 2c bf 5a 27 c8 3e c3 1f 1a c0 57 9b 40 bd
       -0.6748302 0.39092523 -2.4081886 -0.047023144
000340 c0 f0 cb be e0 74 3d 3e ee 7c 04 bf 29 3c bd 3e
       -0.39832115 0.18501616 -0.5175313 0.3695996
000350 8b 0f 64 3e ff 53 1a 3f f7 fa de bf c1 0c 56 3e
       0.22271554 0.6028442 -1.7420338 0.20903303
000360 f6 9b 0e be de 89 85 be 1e cc 76 3e ea b7 59 be
       -0.13926682 -0.26081747 0.24101302 -0.21261564
000370 01 0d 55 be ff be 81 be 5d 77 50 bd 26 e7 f6 3c
       -0.20805742 -0.2534103 -0.050895084 0.030139517
000380 4a ca 93 bc f6 c3 82 3d 3b f0 63 3f be a8 db 3d
       -0.018040795 0.06385033 0.8903844 0.107255444
000390 1d 5a a9 3f 02 f8 cd be d6 37 81 be f8 cc 01 bf
       1.3230625 -0.40228277 -0.25237912 -0.5070338
0003a0 20 7d 8a bf 2e 99 9b bd dd 49 54 bd 1a fc 17 3d
       -1.0819435 -0.07597576 -0.051828254 0.037105657
0003b0 3d 1a f5 bf c3 f0 33 3e fd 40 ac 3e 63 7e 7f be
       -1.9148632 0.17572312 0.33643332 -0.24950556
0003c0 c5 28 e1 3d 92 51 17 3b e9 b5 cb 3e 5a bf af bf
       0.10994104 0.0023089391 0.39787224 -1.3730271
0003d0 8a 74 d0 be 7d da ee be ca df f7 3c 3e 98 c1 bd
       -0.40713912 -0.46651068 0.030258078 -0.09452866
0003e0 8d 80 80 3e b3 7f 15 bf 73 4e 37 40 16 a3 c1 3e
       0.25098076 -0.5839798 2.8641632 0.37819737
0003f0 94 1a 18 be 39 b6 0c 3f ad a8 23 bf 84 9b 04 3f
       -0.14853889 0.5496555 -0.63929254 0.517998

fc1.bias f4 [256]
000000 f8 2d 3f bf 37 15 0d bf c3 4a a3 3e 35 07 b5 be
       -0.7467952 -0.55110496 0.31892976 -0.3535706
000010 d9 f9 06 3f 19 be 33 3f b4 cd 61 bf fe bc 9b 3e
       0.5272499 0.7021194 -0.88204503 0.30417627
000020 4c 6d d2 3e 88 c6 84 3f e9 dc 30 bf 80 b4 60 bd
       0.41099012 1.0373087 -0.6908708 -0.05485964
000030 f7 cc 97 3d 54 72 77 be fd b7 14 bf 3d da b3 be
       0.07412141 -0.24164706 -0.58093244 -0.3512744
000040 0a c6 ae bf 47 3c 25 3f 18 f1 e1 3d 6e 91 6c be
       -1.3654187 0.645451 0.11032313 -0.23102352
000050 f7 23 88 be 03 2e 3a be f3 51 d4 be cd 1c 37 3e
       -0.2658994 -0.18181615 -0.41468772 0.1788208
000060 c0 46 53 3e 4c ea 88 3f 6d 03 d2 be ed e3 43 3d
       0.20632458 1.0696502 -0.4101824 0.04782479
000070 18 89 e4 be 31 85 7f 3e 0f c7 0f 40 bf 50 28 bf
       -0.44635844 0.24953152 2.2465246 -0.6574821
000080 76 75 57 be b9 e0 8d 3e 5f 29 4a bf 91 0f e5 3e
       -0.21040902 0.27710512 -0.7896938 0.4473844
000090 d3 86 2d 3f d5 7d 43 bf 47 be 5f bf 77 57 b1 3f
       0.6778385 -0.7636388 -0.87399715 1.3854817
0000a0 8f 7c df bd bf ca 11 bf 14 9b 0c bf 55 d9 9e be
       -0.109124295 -0.5694999 -0.5492413 -0.31025186
0000b0 31 d1 b5 bf 48 49 2d 3f d0 a4 3d bf d8 11 b1 3e
       -1.4204465 0.67689943 -0.7407961 0.34583926
0000c0 fc 0d 8c be c1 3c f9 be e6 bb c5 3e ad 64 47 be
       -0.2735442 -0.48679164 0.38619918 -0.19471999
0000d0 e4 01 b2 3e 9c d6 27 3e d0 6b fe be f1 3f ff 3e
       0.34767067 0.1639046 -0.4969163 0.4985347
0000e0 a4 d5 dd 3e 68 4e a9 be 76 c3 06 3e 5b e3 c0 3e
       0.43327057 -0.33067632 0.131605 0.37673458
0000f0 fa 9d 40 3f e5 81 c0 3b 80 b5 99 bd c1 22 bb 3e
       0.75241053 0.0058748596 -0.075053215 0.36549953
000100 0d 9d 7e bf 84 c6 2c bd 59 d9 a8 3d 6b d9 7c bc
       -0.9945839 -0.042181507 0.08244581 -0.015432696
000110 67 a2 97 bd 88 16 47 bf 2c aa 96 3f 3a db 6c be
       -0.07404023 -0.77768755 1.1770682 -0.23130503
000120 6d 86 ac bf d9 3b 52 3e 30 69 01 3f 22 99 35 3e
       -1.3478523 0.20530643 0.5055113 0.17734197
000130 2d e4 c0 bf 5e 6f 25 3f 27 62 5c be bb ca 1c bf
       -1.5069634 0.6462306 -0.21521817 -0.6124684
000140 22 28 da bf 4f 23 13 be f4 10 c8 3f b2 c6 1a bf
       -1.7043498 -0.14368938 1.5630174 -0.60459435
000150 68 83 28 bf 07 da 35 3f 63 7b f7 3e 26 e9 10 40
       -0.6582551 0.7103581 0.48336324 2.2642303
000160 45 ce 28 3f f4 9e 71 bf 14 e5 aa be 5a 6f 39 be
       0.6593974 -0.9438317 -0.33377898 -0.18108884
000170 73 f8 b5 bc 0c ea 54 bf e1 3b 30 be 9e 8d f1 bc
       -0.022213196 -0.8316963 -0.17210342 -0.029486474
000180 2a 82 58 be 0e 37 d5 3e d0 89 4b 3e bf 2c f9 be
       -0.21143404 0.41643566 0.1987679 -0.4866695
000190 0b 62 33 bf 2c 35 50 be df 44 e2 be 8c 17 1f 3e
       -0.70071477 -0.20332783 -0.4419317 0.15536326
0001a0 71 03 fa 3c 88 31 12 3f 9d fc 9d bd 21 94 03 3f
       0.03051922 0.5710683 -0.07714198 0.513979
0001b0 5e bb f9 be 3c ee 03 3f 78 e7 b7 3d 6e 63 b4 3d
       -0.48775762 0.5153539 0.08979696 0.08808027
0001c0 65 fb 0f 3e cd d7 3f bf 18 b2 b4 bd 23 91 a2 be
       0.14060743 -0.7493866 -0.08823031 -0.31751356
0001d0 e5 5b 8e bd 9a 1e f4 3e f9 e3 b7 be 3c 49 12 be
       -0.06951121 0.47679597 -0.35916117 -0.14285749
0001e0 7c 94 0f bf eb aa 06 3f 00 bb bc be b3 a3 8a 3e
       -0.56085944 0.5260455 -0.3686142 0.27078018
0001f0 80 70 29 bf ea 5c c0 3e 16 6b d4 3e 3c 76 29 be
       -0.66187286 0.37570888 0.4148795 -0.16549009
000200 3a 44 f1 be 41 7a 00 bf 4f e6 2e bf 06 72 51 bf
       -0.47122365 -0.50186545 -0.68320173 -0.8181461
000210 76 51 9a be 14 7f cb 3e 76 49 89 3e 71 06 cc be
       -0.30140275 0.3974539 0.2681386 -0.39848664
000220 2d c5 35 3e b3 85 2e 3f 49 0b bc be b9 76 1e bf
       0.17750998 0.6817276 -0.3672736 -0.61899906
000230 cb e6 a1 3d 71 ba 19 3f 04 60 e1 3e e9 62 28 bf
       0.079053484 0.6005011 0.44018567 -0.65775925
000240 96 24 61 be f6 dc af 3d 4d 89 18 3e 18 44 65 bd
       -0.21986613 0.08587067 0.14896126 -0.055973142
000250 e9 44 b5 bd 12 7a ef be 31 ff 5c bf 60 a7 6a bf
       -0.08851034 -0.4677282 -0.8632689 -0.91661644
000260 4d 75 88 bf 79 05 64 be d5 54 b2 bf 4d 12 09 3e
       -1.0660797 -0.22267713 -1.3932139 0.13385887
000270 81 35 b6 3e d0 3b 3e 3f 2d f5 9e 3f 71 19 ba bf
       0.35587695 0.74310017 1.2418572 -1.4539014
000280 e1 59 f2 3d c4 df 15 3e 0c 29 77 3f 60 87 e1 3e
       0.11833549 0.14636141 0.9654701 0.44048595
000290 53 63 0e 3f 48 68 8f be d5 b1 0f 3f a4 68 93 be
       0.55620307 -0.28009248 0.56130725 -0.28790772
0002a0 84 76 1f 3f aa 4d 6a 3e 49 0e 94 be b6 8d bd bd
       0.62290215 0.22881189 -0.2891715 -0.09255545
0002b0 f4 f9 44 3f 27 76 76 be 13 3f 62 bf 32 b6 d9 be
       0.769439 -0.24068509 -0.88377494 -0.42521816
0002c0 c6 98 f2 be 7e 39 ac 3e 95 64 87 3d 69 af 97 bd
       -0.47382182 0.33637613 0.066109814 -0.07406504
0002d0 5e d6 0d 3f cd e0 06 be 19 25 75 3e 96 07 41 bf
       0.55405223 -0.13171692 0.23939933 -0.754022
0002e0 e4 35 8f 3e f4 24 54 3f 62 a8 0d 3e 1e 6f fe be
       0.27970803 0.82868886 0.13833764 -0.4969415
0002f0 c3 90 10 bf 49 f6 bc 3e d0 7e 1d bf 63 c5 96 bf
       -0.5647089 0.3690665 -0.61521626 -1.1778988
000300 d8 8a 3e 3e 17 3c 40 be eb 1e c7 bd 59 24 ad 3d
       0.18607652 -0.18772922 -0.09722694 0.084541984
000310 ee d7 e1 3e 46 67 0b be b7 9d 8f be 86 d0 2d bf
       0.44110054 -0.13613614 -0.28050014 -0.67896307
000320 05 19 0f bf b8 df 66 3e f9 0f 5e bd f4 e7 bb 3e
       -0.5589755 0.2254628 -0.05421445 0.36700404
000330 e7 74 ab 3c b5 ea 65 bd 0f c2 f1 be b3 35 39 3f
       0.020929767 -0.056132037 -0.47218367 0.72347564
000340 0d fd 0f be 87 03 cb 3e 9a 69 00 bf ad 0e 7b 3c
       -0.14061375 0.3965113 -0.50161135 0.015323323
000350 6b 5c a1 be 5d 7b 0e 3e 82 6c 81 3f 52 52 e4 be
       -0.31515822 0.13914247 1.0111239 -0.44594055
000360 04 c4 a6 bf 7f d7 d5 be d7 87 43 bf 94 e8 4e be
       -1.3028569 -0.41765973 -0.7637915 -0.20205909
000370 51 f5 ce 3e db ef 0d 3e a8 63 0b bf 04 01 88 3c
       0.40421537 0.13861029 -0.5444894 0.016602047
000380 77 a8 d8 bd 7e b7 40 bf cd 8d 9e 3e a5 dc 95 3f
       -0.10579007 -0.75279987 0.3096756 1.170796
000390 bc d9 97 bf 1f 61 0b be 8b bc 4e 3f 49 af 9b 3e
       -1.1863322 -0.13611268 0.80756444 0.3040717
0003a0 22 9e 01 bf 2e 77 07 3f 08 ee fc be 97 ab 9d 3e
       -0.50631917 0.5291623 -0.49400353 0.30794975
0003b0 a8 ee 3d 3d aa fc 89 bb bf c2 33 3f 73 68 b7 be
       0.04637018 -0.004211028 0.70219034 -0.35821876
0003c0 8c 8d 88 3f df 63 92 3c 78 c9 ff 3e 9f 5c 14 3e
       1.0668197 0.017869888 0.49958396 0.14488457
0003d0 43 ad 2f bf 65 94 11 bf ae e8 3f bf 2b 6b 09 bf
       -0.6862375 -0.5686706 -0.74964416 -0.5367915
0003e0 11 45 43 3f 31 63 10 3f bc 14 ab 3f 1c ea 21 3f
       0.7627726 0.56401354 1.3365703 0.6324785
0003f0 f2 1e 9e bd d2 de 91 be 5e 25 58 be c2 d6 a4 3e
       -0.07720746 -0.2849031 -0.21108004 0.32195097

fc2.weight f4 [256, 256]
000000 05 2e 96 3e 4c bb 29 3e f4 de 63 3d db 3d 94 3e
       0.29331985 0.16575354 0.055632547 0.28953442
000010 48 b3 35 be fb d0 d4 3e 2b c0 70 3c c2 12 18 3e
       -0.17744172 0.4156569 0.014694254 0.14850906
000020 2c 87 9e 3c 7e 90 29 3e 86 65 50 3e 3a 24 79 3e
       0.019351564 0.16559026 0.20351228 0.24330226
000030 33 07 19 3d 3e 19 20 3e 15 86 87 3d 7b 93 cf 3d
       0.03736038 0.15634629 0.06617371 0.101355515
000040 18 5d 8d 3e 20 2d 6c bf 5c 5a 16 3f 7a de 96 bf
       0.27610087 -0.92256355 0.5873163 -1.1786644
000050 90 62 05 3d 86 3d 4e 3e 1c bd f4 3e 78 21 7e 3d
       0.0325647 0.20140657 0.4780053 0.062043637
000060 96 4a 24 bf 21 b2 32 be 50 ea e4 bd 87 26 8c 3e
       -0.6417631 -0.17450763 -0.11177504 0.27373144
000070 9a a1 4a 3e 38 81 a4 3e 3e 6a 55 3e 10 b9 18 bf
       0.19788209 0.32129836 0.2084131 -0.5965738
000080 b5 93 f2 bc a7 db 04 be 93 19 38 3e 01 cd 80 3d
       -0.029611448 -0.12974416 0.17978506 0.062891014
000090 2f bd 10 bf bd 13 2a bd c1 05 67 3e ec 25 de 3e
       -0.5653867 -0.04152273 0.22560789 0.43388307
0000a0 82 0c f3 3e 36 68 76 bf e0 78 83 3e d9 af 0c 3d
       0.4747048 -0.96252763 0.25678158 0.03434739
0000b0 42 af a3 3d c2 d2 d8 3d 32 d9 ac be fa 33 90 be
       0.07992412 0.10587074 -0.33759457 -0.28164655
0000c0 37 59 51 3e de e6 cc 3c de 04 9d bf 2f d2 98 bd
       0.20444189 0.02501243 -1.226711 -0.07461964
0000d0 e8 c4 cc 3c 80 f5 86 be 0f 78 1b be f0 72 15 be
       0.024996236 -0.26359177 -0.15182517 -0.14594626
0000e0 73 ba 5e 3f 1e 92 1f 3e b7 59 72 bf 54 9f 21 be
       0.8700325 0.15583083 -0.94668144 -0.15783435
0000f0 64 a3 20 bd ab 71 cd 3d 4b 96 1f be c6 ab 17 3e
       -0.03921832 0.10031446 -0.15584676 0.1481162
000100 86 7d 9f be 90 85 85 3e 44 2e 88 3d 46 b0 b8 3d
       -0.31150454 0.26078463 0.066494495 0.090179965
000110 fe ca 01 3e 5e 36 84 bd 40 fb c9 bd a0 96 ac bd
       0.12675092 -0.06455682 -0.09862375 -0.08427167
000120 0a f1 ad 3d bc 7a f2 3e ac 45 67 3e 04 43 bb 3d
       0.0849324 0.47359264 0.22585171 0.091436416
000130 7f 49 90 3d a0 4c 1b 3e 6f 53 6d bd 16 16 29 bf
       0.07045268 0.15165949 -0.057940897 -0.66049325
000140 51 65 65 be ab cb a8 3b 50 37 bb be a7 a5 b8 bd
       -0.2240193 0.0051512322 -0.36565638 -0.09015971
000150 4c 92 44 be 40 ba b5 3e 3d a2 49 3d d4 5a c7 3e
       -0.19196433 0.3549366 0.049226988 0.38936484
000160 0d 29 93 be 41 e2 37 3e 68 95 05 bd 67 43 56 3e
       -0.28742257 0.17957403 -0.032613188 0.2092415
000170 f3 31 61 3d 50 92 a0 3e aa e2 75 3d 1d ab d5 bd
       0.054979276 0.31361628 0.060030617 -0.10433028
000180 76 5c 1c 3d 99 b8 a9 3e 1d 83 c0 b9 01 4f 0b 3e
       0.038174115 0.3314865 -0.0003671878 0.13604356
000190 0e 87 6e 3d 90 12 02 bf cd 97 23 bd 54 c0 99 bf
       0.058234267 -0.50809574 -0.03993969 -1.2011819
0001a0 cc 76 34 bf 6c 26 00 3e 52 af f6 bd ec b9 62 3e
       -0.7049377 0.12514657 -0.120451584 0.22141236
0001b0 12 7e e3 bd 1e 25 e7 be 28 37 da be 68 63 11 bf
       -0.111080304 -0.45145506 -0.42620206 -0.56792307
0001c0 d2 16 25 3e a4 6c 31 3e cc 98 0c be 18 89 d9 bd
       0.16121987 0.173266 -0.13730162 -0.10621852
0001d0 60 3a ae 3e 15 83 87 bd 62 15 40 3b 19 b0 d9 3c
       0.34028912 -0.06616799 0.002930962 0.026573228
0001e0 ee 61 64 3e e3 fe 16 3e 2d c4 c8 3e da 40 b6 3d
       0.22302982 0.14745669 0.3921217 0.08899088
0001f0 bc 63 c2 3d bd a2 07 3d 55 72 65 3e 5e d7 3f be
       0.09491679 0.033114184 0.22406895 -0.187345
000200 a9 b8 3c bf a8 54 97 3d 3c 4e cf 3d 26 c4 e3 bd
       -0.7371927 0.07389194 0.10122344 -0.11121397
000210 af 69 9e 3e b2 30 56 be 35 69 d5 3c 08 69 ad bf
       0.30940005 -0.20917013 0.026051143 -1.3547678
000220 d5 c3 72 3d f1 8c f6 be 14 91 db bd 3d 54 54 3e
       0.05926879 -0.48154405 -0.10721031 0.2073526
000230 1d f4 3f bd bd d4 b6 3e 2c b1 37 c0 e7 c9 04 be
       -0.046863664 0.3570918 -2.8701887 -0.12967645
000240 a8 c1 82 3d c7 f0 47 be ac 48 49 be 84 31 97 3b
       0.06384593 -0.19525443 -0.19656628 0.004614057
000250 15 a7 5d 3e 62 42 50 be 13 4d 72 bc bc c0 b9 3d
       0.21645768 -0.20337823 -0.014788884 0.09069964
000260 57 1f c5 3c ff d6 83 3e bf 4a 2a 3b 73 05 05 bf
       0.024062796 0.25749967 0.0025984494 -0.5196144
000270 44 a6 ee bd d4 b4 bd 3d 65 61 a1 be da 68 b9 3e
       -0.116528064 0.09263006 -0.3151962 0.36212808
000280 10 b1 a7 be ef 8c bc 3e 30 27 38 be ab d2 d0 3d
       -0.32752275 0.36826274 -0.17983699 0.10196432
000290 a6 93 58 3e 7e 3c 55 be 36 b5 10 3e 67 3a bb bd
       0.21150073 -0.20823857 0.14131626 -0.09141999
0002a0 ff fd 96 bd 7f 5d dc 3d ea 9f 78 3e 63 a7 35 3d
       -0.07372665 0.107600205 0.24279752 0.044349086
0002b0 dc 27 e6 bf 11 5a a6 bd 59 e5 46 be 91 55 68 39
       -1.7980914 -0.081226476 -0.19423427 0.0002215712
0002c0 d9 0b 3c bf ae 17 88 be 6d 1e 53 3e 1c a4 83 3e
       -0.7345558 -0.26580566 0.20617075 0.25711143
0002d0 41 7a 4d 3d 38 08 9d 3d 02 89 ac 3d f0 cf c6 3d
       0.05016542 0.07667583 0.0842457 0.0970763
0002e0 81 ce 5c bd 0e 19 04 3d 3c f3 51 3d c7 e5 dd 3d
       -0.053907875 0.032250457 0.051257357 0.10834842
0002f0 78 a8 bd 3e 64 fa a5 3e de 34 5b 3e b4 9e 52 3e
       0.37042594 0.32417595 0.21406886 0.20568353
000300 a6 c4 58 bf b6 2f a9 be 78 45 e5 bf e2 30 ab 3c
       -0.8467506 -0.33044213 -1.7911825 0.020897333
000310 84 49 49 3e 75 e8 b6 3e 2c 6f 62 3d 91 f8 86 3e
       0.1965695 0.35724226 0.055281803 0.26361516
000320 77 99 35 be b9 3d 44 3e 8e 7f 1a 3e a5 b7 b7 be
       -0.17734323 0.1916417 0.15087721 -0.35882297
000330 af 9c c8 bd 80 08 d6 3e cb 8d 23 3d b5 db 94 bf
       -0.0979551 0.4180336 0.039930146 -1.1629549
000340 43 ea b4 bd 78 b9 71 be ef 14 d1 bd 20 4d 37 be
       -0.088337444 -0.23605907 -0.10209071 -0.17900515
000350 9e 92 8d be 48 db 61 bf 8d 4d 72 3e 91 0c 3f 3e
       -0.27650923 -0.8822522 0.23662396 0.18657137
000360 07 77 8f 3e 73 98 0c 3f 51 9d ad 3d 17 b6 bc bc
       0.28020498 0.5492012 0.08477271 -0.023036046
000370 73 be 9d 3e 70 86 d6 3e cd fd 5b bd 50 b3 97 3d
       0.30809364 0.41899443 -0.05370884 0.07407248
000380 17 2b 52 be ea a9 0d 3d 68 88 29 be d0 31 81 bf
       -0.2052425 0.03458587 -0.16555941 -1.0093327
000390 71 8c 57 bc c7 a3 19 3c ee 31 ee 3b 4a a2 a6 3b
       -0.013156042 0.0093774265 0.0072691357 0.0050852643
0003a0 fd 51 da 3e 2d a6 eb 3d c5 dc b3 bd 06 ca 49 3e
       0.42640677 0.11506305 -0.08782343 0.19705972
0003b0 76 89 cc 3c 6b fa 0f 3e a4 8a 9b 3e 24 0c 5c bf
       0.02496789 0.1406037 0.30379212 -0.85956025
0003c0 6d 4c 3d 3d ad fe c1 bc 65 fa 7a 3c 42 88 f3 3d
       0.046215463 -0.02368101 0.015318488 0.118912235
0003d0 4b 6c 42 be d4 f6 a2 3e 7c 8a 88 3e ad 6b 62 bd
       -0.18986623 0.3182894 0.26668155 -0.05527847
0003e0 da 37 40 3d 6e 4c 52 3d 36 30 2d bf 10 52 48 3e
       0.046928264 0.05134242 -0.6765169 0.19562554
0003f0 18 4f 8c be cd 84 65 be 54 1f 38 bd 46 d1 a6 3d
       -0.27404094 -0.2241394 -0.04495175 0.081453845

fc2.bias f4 [256]
000000 78 6d 12 c0 ff 93 88 3d e7 88 3c 40 e4 b4 11 40
       -2.2879314 0.06668853 2.9458559 2.2766657
000010 f7 41 8f 3d 8b a6 18 bf 3d a3 41 40 d9 8d ce 3d
       0.06995004 -0.59629124 3.0255883 0.10085649
000020 20 41 80 bd d6 d7 ea 3f 3f c1 25 3e ed e1 8f 3d
       -0.062624216 1.8347118 0.16186999 0.07025514
000030 95 0c 16 40 f8 bb b7 3e f8 88 12 bf a3 16 e6 3d
       2.344518 0.35885596 -0.5724025 0.11234786
000040 8e e4 14 bf 75 49 6b be b5 4e d2 bf 94 d2 c3 bf
       -0.58161247 -0.2297724 -1.643027 -1.5298638
000050 6e 88 da be af 94 2e bd a4 b5 27 3f 8c 27 b6 3e
       -0.42682213 -0.042622264 0.65511537 0.35577047
000060 d2 28 42 3f de c8 be 3f 33 48 b1 3f 4d 21 b1 3f
       0.75843537 1.490505 1.3850158 1.3838288
000070 4f 0b c9 3e 32 cd 20 bd 59 a2 9b 3f 91 6f 46 3f
       0.3926644 -0.03925819 1.215892 0.77513987
000080 be a7 ec 3f b3 4f 1d 3f 1b 19 e5 3e 0c 97 62 3e
       1.8488691 0.61449736 0.44745716 0.22127932
000090 30 e2 ec bf 71 70 08 3f 41 f9 75 3f ff 02 40 bd
       -1.8506527 0.5329657 0.96083456 -0.046877857
0000a0 48 41 e3 3c ae e4 01 be f9 d5 d5 3e b3 1e 6b 3e
       0.02774109 -0.1268489 0.4176481 0.2296093
0000b0 64 33 9d bd 93 5e 97 3e 7c 09 fb bf e7 76 bc 3f
       -0.076758176 0.29564342 -1.9612269 1.4723786
0000c0 55 53 05 3f 96 43 8a bd 84 59 a1 ba 5f 13 c3 3f
       0.5208028 -0.06751172 -0.0012310003 1.5240287
0000d0 f4 5d 5a bf 7e c7 99 bf fb 86 1b 40 9d 70 45 3f
       -0.8529961 -1.2014005 2.4301136 0.7712496
0000e0 71 e8 62 bd 6a f2 90 3f 06 7b 0c 3f e2 da 16 bf
       -0.055397455 1.1323979 0.5487522 -0.5892774
0000f0 b7 d4 09 40 0b b2 81 3f f8 a8 b6 3f 2e 19 52 3e
       2.153608 1.0132459 1.4270315 0.20517418
000100 11 f1 fc bf 6a 1e 81 3f 88 fb db bf 43 41 44 3c
       -1.9761068 1.0087407 -1.7186136 0.01197845
000110 33 24 0e 3d 8c 8c 81 bf 10 60 ab be 30 68 09 40
       0.03470249 -1.0121017 -0.33471727 2.146984
000120 69 e7 c7 3f 36 e3 9a be d6 c2 bb 3f 61 8a 82 3f
       1.5617496 -0.30251473 1.4668834 1.019848
000130 67 9f 16 bf e7 79 8c 3e 7b e8 24 c0 ba b8 e9 3e
       -0.5883698 0.27436754 -2.5766895 0.45648748
000140 a1 ef eb bc cd 15 c4 3f eb 41 06 c0 c5 ca 13 c0
       -0.028800787 1.5319153 -2.0977733 -2.309251
000150 87 88 04 3f b8 bf e1 3d 6f 99 1b bf 45 6e 8d bd
       0.51770824 0.110228956 -0.60780996 -0.06905798
000160 fa 33 2b 3d 07 90 30 bd 4a 75 97 bf fb 12 84 bf
       0.041797616 -0.043106105 -1.1832669 -1.0318292
000170 02 0a b9 3e 4c 53 b0 bf 3e ce b9 3f 25 8a 16 40
       0.36140448 -1.377542 1.4516065 2.3521817
000180 28 64 16 40 91 8d a0 3f b8 0d b7 3e 1e e8 cf bd
       2.349863 1.2543203 0.35752654 -0.10151695
000190 3c 2e 82 3f 1a 5e 17 40 65 2e 9b 3d f4 7b 2c 40
       1.017036 2.3651185 0.075772084 2.6950655
0001a0 65 bf 85 bf 28 1e af 3f 34 03 0a be d9 12 c6 bf
       -1.0449034 1.3681078 -0.13477784 -1.5474502
0001b0 fc 27 ae be 82 b7 0c bf 4d f7 09 bf 79 1f ed bf
       -0.3401488 -0.5496751 -0.53892976 -1.852523
0001c0 7f 0e c4 3e c8 7d 10 bf 6c 01 0c 3f 8c 04 95 bf
       0.3829231 -0.56441927 0.5468967 -1.1642013
0001d0 a9 f8 da bf 3d 5f aa 3f 24 fb a4 bd 1c fa 83 3f
       -1.7107135 1.3310314 -0.08055714 1.0310702
0001e0 16 39 f5 3e 12 4d f5 bf be f5 d2 3e 74 ce 77 bf
       0.47895116 -1.9164145 0.4120311 -0.967994
0001f0 c3 94 c4 3f e8 7f df 3f 76 73 13 bc e5 eb 1d 3f
       1.5357898 1.7460909 -0.008999696 0.6168807
000200 d4 32 b4 3e 56 c0 cd 3f 24 31 22 3e c7 a6 3f bf
       0.3519503 1.6074321 0.15839058 -0.7486386
000210 27 39 3b 3f 42 b7 67 bf 5b 14 7a 3d 56 bc 25 40
       0.7313408 -0.90514004 0.06105457 2.58962
000220 04 86 ad 3f d5 93 fe 3e ad 80 84 be 94 c4 77 bf
       1.3556523 0.49722162 -0.25879422 -0.9678433
000230 16 83 8b 3f d0 2b e4 3e 13 d7 08 40 ad b3 3f 3f
       1.0899379 0.44564676 2.138127 0.7488354
000240 35 e6 ba be 85 dd ff 3f 18 f9 e2 bf cb 55 21 3f
       -0.3650376 1.9989477 -1.7732267 0.63021535
000250 9d ad a0 3e 13 63 d0 3f 4e 95 35 40 4e df 33 c0
       0.31382456 1.6280235 2.8372378 -2.8105044
000260 40 53 0b bd c7 11 74 bf bc 4b 88 3f bf 95 2b 3f
       -0.03401494 -0.95339626 1.0648112 0.6702537
000270 67 20 da 3e 27 3c 56 be 09 da fa 3f 31 38 20 3f
       0.42602846 -0.20921384 1.9597789 0.6258574
000280 5d 2d 77 bd f0 07 ed 3e b5 8a d7 be 2c ab 04 3e
       -0.060345996 0.46295118 -0.42098013 0.12955922
000290 e5 02 b2 b9 9a 51 4c be 66 2b dd bf 16 53 c2 3e
       -0.00033952962 -0.19953004 -1.7278869 0.37954015
0002a0 26 c4 19 3f 05 6f bd be 06 da d8 3f 31 0a 4b bf
       0.60064924 -0.36998764 1.6941535 -0.79312426
0002b0 8d 1f d8 bf cd 10 10 40 71 f7 51 3f ea 06 11 bf
       -1.6884629 2.2510254 0.8201819 -0.56651175
0002c0 ff ab d8 bf 81 46 25 40 3f 17 1f c0 68 8c 05 c0
       -1.6927489 2.5824282 -2.4857938 -2.0866947
0002d0 cd 0f 0b c0 49 b4 07 3f ca dd e6 3d 24 5b 80 3c
       -2.1728394 0.5300947 0.11272772 0.01566846
0002e0 a0 5d 15 40 11 c4 16 c0 5a c7 b3 bf d9 bc a9 3f
       2.3338394 -2.355717 -1.4045212 1.3260757
0002f0 17 39 41 be 87 0f 83 3e f9 55 d3 bb 95 fc 8e be
       -0.18869434 0.25597784 -0.0064494577 -0.2792708
000300 1e 5e ec 3e 15 20 66 3e af 91 32 40 e5 d2 3e be
       0.46165556 0.22473176 2.7901418 -0.18635137
000310 24 19 86 be 11 11 05 c0 0a cd 1b 3f 5e 61 9f 3f
       -0.26191056 -2.0791667 0.6085974 1.2451589
000320 8c b5 2e 3e 58 29 0a 40 9f b1 95 3e 6b 0f 48 3e
       0.17061442 2.1587734 0.29237077 0.19537131
000330 d3 f5 fe 3e fa cc 85 bf c1 b0 9a 3f 94 15 c7 3f
       0.49796924 -1.0453179 1.2085191 1.555346
000340 1c ae 71 3e f7 03 2c bf 4b c5 93 3e 75 20 41 3e
       0.23601574 -0.6719355 0.2886146 0.18860038
000350 a8 94 1f 40 52 7b 2e 3c 8a e3 26 3f 2c 7c 3a 40
       2.4934483 0.010649519 0.6519095 2.9138288
000360 5c 77 a0 bf e6 bb c4 bf 41 6f f8 bf 2f 52 c5 3f
       -1.2536426 -1.5369842 -1.9408952 1.5415705
000370 8a 12 6f 3d e0 b0 0f 3f 80 fd 43 bf 70 3e 00 40
       0.05836729 0.56129265 -0.76558685 2.003811
000380 bf b1 19 c0 18 a4 bf 3f 43 2d 29 3e 75 fb f5 3d
       -2.4014738 1.4971952 0.16521172 0.12010852
000390 f6 d9 08 bf 42 c6 d4 bf 37 fd b0 3c 41 68 98 3f
       -0.5345758 -1.6623003 0.021605117 1.1906816
0003a0 51 3e f3 3f e1 91 b6 bf b0 b1 76 bf 5f 34 bc be
       1.9003392 -1.4263269 -0.9636488 -0.36758706
0003b0 69 29 14 bf df a2 c7 bf dc 85 22 be 36 48 9d bf
       -0.57875687 -1.5596579 -0.15871376 -1.2287662
0003c0 b7 20 c0 3c ed 82 1f bf 77 74 28 bf cc eb 7e bd
       0.0234531 -0.6230915 -0.6580271 -0.062236592
0003d0 d8 4d 23 40 71 04 bc 3d 77 c3 30 bf 1f 24 eb be
       2.5516262 0.09180535 -0.69048256 -0.45925996
0003e0 ee c3 8d 3e 7b c8 d3 bf 23 40 05 c0 07 3a ec bf
       0.27688545 -1.6545557 -2.0820396 -1.8455209
0003f0 de 2b e4 bd 64 bc b1 3f 1b 7e 29 40 f4 c0 98 bf
       -0.111411795 1.3885617 2.6483219 -1.1933885

q.weight f4 [1, 256]
000000 f6 c6 96 3e 16 aa 06 c0 a5 18 2f be b4 6a 3c be
       0.2944867 -2.1041312 -0.17099245 -0.18400079
000010 0f df c2 c0 c1 90 95 40 80 a1 4b be bf b1 5b c0
       -6.089729 4.67392 -0.19885826 -3.4327238
000020 0c 1b d9 40 66 b3 36 bf b1 95 d8 40 a1 4f 8f 40
       6.7845516 -0.7136749 6.768273 4.4784703
000030 10 d9 bd 3e 98 3a 83 bf 4a 1c 01 40 b6 70 8d 40
       0.37079668 -1.0252256 2.0173516 4.4200087
000040 ae a5 34 40 7f 1a e9 3f 24 84 0d 3f 90 5b 9b 3e
       2.8226123 1.8211211 0.55279756 0.30343294
000050 dc 56 c5 3f 91 fd c3 c0 b0 a0 27 c0 df 19 d5 bf
       1.5417132 -6.124703 -2.6191826 -1.664852
000060 77 8f 46 bf 89 ff 13 bf ff ec 12 bf 05 a3 90 be
       -0.7756266 -0.5781179 -0.5739288 -0.28249374
000070 38 70 99 c0 f5 db ec 3c 2b 0c 69 bf d6 f1 02 c0
       -4.7949486 0.028913477 -0.9103419 -2.0460105
000080 0e 9a 40 be e4 77 8a bf c0 fd a6 c0 cf cd 93 40
       -0.18808767 -1.0817838 -5.2184753 4.618873
000090 8c fa a9 3e ac 27 ef bf f2 31 16 c0 fd 8c 31 c0
       0.33198965 -1.8683982 -2.3467984 -2.7742302
0000a0 bc 54 d7 bb 81 3f b6 c0 e6 4a 24 c0 ee a0 46 c0
       -0.0065713804 -5.695252 -2.5670714 -3.1035724
0000b0 c2 59 9d 40 67 92 83 40 4d e8 42 3e 76 f2 b2 be
       4.917207 4.1116214 0.19033928 -0.34950608
0000c0 82 84 8f c0 32 ab 06 3c b4 e7 82 c0 5e 36 92 be
       -4.4849253 0.008219527 -4.090784 -0.28557104
0000d0 3c 01 20 40 b1 5a fd 3e 16 b1 b4 be e9 56 1c c0
       2.5000753 0.49483255 -0.35291356 -2.4428046
0000e0 08 d9 ff 3f 5e 93 57 bf bf f0 1c bf 42 fb 12 3f
       1.9988108 -0.8420924 -0.6130485 0.5741464
0000f0 71 66 30 be 18 f0 2b bf b7 60 29 bf 78 54 c7 40
       -0.17226578 -0.6716323 -0.661632 6.229061
000100 9b 5d ac 3e 83 2e 30 bf 21 a2 68 3e 3c 3e 43 c0
       0.33665165 -0.6882097 0.22718097 -3.0506735
000110 2b b2 91 40 68 8b ec 3e a0 bf a3 3f ef ec 72 be
       4.552999 0.4620011 1.2792854 -0.23723195
000120 17 b8 9b be 60 c6 43 3f 6c 65 92 be a9 d2 04 bf
       -0.30413887 0.7647457 -0.28593004 -0.5188394
000130 cd fa ee 3f 0f aa 65 c0 13 37 cf 3e 62 df 3b c0
       1.8670288 -3.5885046 0.40471706 -2.9355092
000140 65 a7 7b c0 ef d3 38 bf 97 2d b8 3e a6 91 16 3e
       -3.932092 -0.72198385 0.35972282 0.14703998
000150 9c 4e fb bf f5 5f 70 c0 ad 04 4a 40 61 ee b1 3f
       -1.9633365 -3.7558568 3.1565354 1.3900872
000160 9a fa 51 c0 cb ec 11 40 29 f4 74 3e d2 52 d4 3e
       -3.2809205 2.2800777 0.23921265 0.41469437
000170 e8 b4 8f 40 8b a0 93 3e 8e 63 3a bf b9 24 cf bd
       4.4908333 0.28833422 -0.7280816 -0.10114426
000180 59 bb 32 be e9 26 be be 10 6e aa c0 20 b7 94 40
       -0.1745428 -0.3713906 -5.3259354 4.647354
000190 0a 55 b2 bf 17 1f 82 be b4 d7 81 c0 ea 58 09 be
       -1.3932202 -0.25414345 -4.057581 -0.13412824
0001a0 a2 91 0b 40 a4 59 03 bf 84 19 45 c0 ec 17 7f 3e
       2.1807637 -0.51308656 -3.0796824 0.24911469
0001b0 29 a6 35 c0 db ca b3 3e b6 74 5f 3f c4 8c c3 3e
       -2.8382666 0.35115704 0.8728746 0.38193333
0001c0 66 b0 9e 3f 10 3f b7 3e a8 d3 1c c0 54 7d b6 3e
       1.2397583 0.357903 -2.4504185 0.35642493
0001d0 a4 5c ac 3e 54 1c 77 bf 51 63 f8 3b 0a 6e 05 c0
       0.3366443 -0.965276 0.007580199 -2.0848413
0001e0 e2 47 8c c0 42 d5 a0 3e cf 6b 2f bf 43 38 48 3f
       -4.3837748 0.31412703 -0.6852388 0.7821085
0001f0 ea 69 89 bf 59 ea 31 be b2 a2 60 40 5e 55 1d bf
       -1.0735447 -0.17374553 3.5099301 -0.61458385
000200 d3 1f 19 c0 98 ca b5 be 9a 98 44 40 23 12 42 3f
       -2.3925674 -0.3550613 3.071814 0.75808924
000210 0b 14 0a c0 49 18 34 3f 46 08 86 3e a6 43 58 be
       -2.1574733 0.70349556 0.26178187 -0.21119556
000220 27 cd 82 be 6b 3c 7f c0 eb 79 64 40 24 3b 07 3f
       -0.25547144 -3.9880626 3.5699413 0.52824616
000230 46 b0 c4 be cc f8 c8 bf 89 2c a0 be b5 45 0f c0
       -0.38415736 -1.5700927 -0.31283978 -2.2386296
000240 4e d8 2e 40 74 e6 3c be 2d 0f 49 3e c6 ef c3 bf
       2.7319522 -0.18447286 0.19634695 -1.5307548
000250 2c c5 0c c1 6a 83 00 bf 13 12 28 be 3b 3b 83 3e
       -8.798138 -0.5020052 -0.16413145 0.25631127
000260 c9 9d 1c 40 88 99 1b 3f 16 c8 c3 bf ac 71 24 c0
       2.4471304 0.60781145 -1.5295436 -2.569438
000270 ad 1e ac 40 59 5a 33 40 46 da 41 be 8d 65 f8 be
       5.3787446 2.8023894 -0.18930921 -0.48514977
000280 39 01 1f bd 08 df 03 c0 a1 4c 13 3f 80 8d 2c 40
       -0.038819525 -2.0604877 0.575388 2.6961365
000290 3a fa 0e 40 02 76 54 c0 07 a4 af 3e 54 fa dd bf
       2.2340226 -3.3197026 0.3430483 -1.7342019
0002a0 77 c1 ce bf 51 a3 60 40 0a d0 58 be 43 16 85 3e
       -1.6152791 3.509968 -0.2117311 0.25993547
0002b0 72 cf ea 3e ef 2c 63 be 06 d8 0f c0 ac c0 08 40
       0.45861393 -0.2218511 -2.24756 2.1367598
0002c0 a9 db b8 3e a1 76 82 be 60 5a c2 3e 6a d7 9f 3e
       0.36105087 -0.25481132 0.37959576 0.31219035
0002d0 99 08 3a 3e 95 52 38 40 6d 67 b9 c0 6a 93 7a 40
       0.18167342 2.8800404 -5.793875 3.9152474
0002e0 95 ce 37 be 8f c0 4c 3f e0 a9 ad 3e 92 f2 19 bf
       -0.17949899 0.7998132 0.33918667 -0.6013576
0002f0 7b f7 83 c0 11 31 ce 3f 3d 2b f8 bc 9e 3e 04 40
       -4.12396 1.6108724 -0.030294055 2.0663218
000300 c1 3d 97 c0 fc 3e 37 40 47 95 14 be 9f a7 41 40
       -4.7262883 2.8632193 -0.1451007 3.0258558
000310 d2 29 9a 40 d4 7e 3d 3e e3 9a 41 40 1a ed aa bf
       4.817605 0.18505412 3.0250785 -1.3353608
000320 d6 b9 9b 3f 63 19 e2 be b3 c3 0c 40 05 02 a1 40
       1.2166088 -0.44159994 2.1994445 5.0314965
000330 8f 43 26 c0 6b 13 99 3e 21 87 16 bf c1 df 86 be
       -2.5978734 0.29897627 -0.5879994 -0.26342586
000340 04 e0 68 c0 43 48 14 40 d2 33 c5 40 09 ec 46 40
       -3.6386728 2.3169105 6.1625757 3.1081564
000350 3c bd 50 be c6 7c ad 3f 69 a4 b2 40 14 58 3f be
       -0.20384687 1.3553703 5.5825696 -0.18685943
000360 aa d5 eb 3e 68 78 19 3e ae 2e 2e 3e 54 40 27 bf
       0.4606145 0.14987338 0.17009994 -0.6533253
000370 16 40 80 3f db 36 3a c0 4d b1 02 40 4f bf a3 be
       1.0019557 -2.909598 2.0420716 -0.31981894
000380 de ec 8f 3e 58 66 02 bf 32 45 c4 40 45 d7 32 c0
       0.28110403 -0.50937414 6.1334467 -2.794389
000390 96 90 15 3f 7d 3f 9e 3e 90 0b 74 3f 3d 39 ab bf
       0.58423746 0.30907813 0.9533014 -1.3376843
0003a0 6b 1c 18 bf eb 44 61 3e 2d 56 07 3f ef b6 12 3f
       -0.5941836 0.21998946 0.5286587 0.57310385
0003b0 c2 03 7f 3f ab 89 52 3e 8c 8c 49 c0 a5 0a a1 3e
       0.9961511 0.20560329 -3.1492033 0.31453434
0003c0 a8 25 07 3c a7 a0 87 3f b8 73 88 3f 42 35 bd 3f
       0.008248724 1.0595902 1.0660315 1.4781878
0003d0 4f 19 77 be ab 58 50 c0 f1 b4 86 3f ef 2f 78 40
       -0.24130748 -3.2554119 1.0523969 3.8779256
0003e0 86 46 b0 40 f5 34 d8 3e 35 60 0d 3f ef a2 e1 3e
       5.508609 0.42227903 0.55224925 0.4406962
0003f0 dd 1c 31 40 28 8b dd be 3f f0 43 be 41 a9 ab 3e
       2.7673867 -0.4327023 -0.19134615 0.33527568
