TD3/models/hockey_tournament_agent/01000000/critic_2.pth (torch, 289951 bytes, 5 tensors)

fc1.weight f4 [256, 22]
0.21773905 2.7596908 -0.27055505 0.034558512 0.15310305 0.0049831984 -0.33988982 -0.7329571
0.4259896 -0.1251158 -0.16710609 -0.09819263 -0.38512415 -2.0078812 -0.0017129915 -0.16883153
-0.31620464 0.08348892 -0.022604618 0.3912865 -0.052865766 -0.024088094 0.2707054 0.28387436
-0.1897166 -0.1493742 -0.33918902 0.23814493 -0.3977673 0.37316763 -1.145687 -0.25390732
0.2615718 0.16928163 -0.028386286 0.3845454 -0.0761605 -0.09428539 0.5002661 0.33668467
-0.4337607 -0.43959036 0.3262355 0.46705627 1.7348337 -0.6938919 1.162063 0.638285
-0.007495332 -0.13110882 -0.6607236 -0.54463 -1.3042778 -0.028494893 -0.26807767 -0.470823
-0.061419405 -0.5315621 0.048123963 0.3250465 -0.021534605 -0.2963153 1.1178503 -0.383306
-0.4015569 -0.41678828 0.41938376 0.5094641 2.1821265 0.09784453 -0.03368455 0.07038388
-0.13497607 -0.703542 -0.4533651 -0.2141627 0.8077622 0.07152271 -0.9825192 -0.39592758
-0.09324347 -0.4395649 -0.06223484 -0.29450643 0.012315522 0.1511875 0.12229469 0.16381106
-0.07695263 -0.11084831 -0.21000588 -0.0011407399 0.0068689184 -0.031024829 -1.296818 -0.60495865
0.6439786 -0.08808464 -0.07192532 0.091912195 1.8649523 -0.0836581 1.2391578 0.034104384
-0.5672075 0.45771167 0.06439254 -0.012944071 0.002434851 0.05338003 0.10982559 0.1048696
-0.03825405 0.06887952 -0.016603947 -0.05048633 0.25596473 0.77994126 0.30338192 -0.34173992
0.025465315 -0.026381642 -0.908108 0.1317725 -0.0774678 -0.002202776 0.22484328 -0.7949591
-0.054306958 0.15596545 -0.18360011 0.089436516 -0.041813746 -0.026763953 0.10353873 -0.0682156
-0.10797654 0.011883426 0.49440023 0.95356274 6.1499376 0.0129362205 -0.94861466 -0.04448499
-0.9052362 -1.5585628 0.16846125 -0.2707385 -0.2110195 0.061836895 -0.12751089 -0.10892774
-0.0767231 0.18314832 0.30595145 0.7471694 -0.6914325 -0.22183935 -0.21899718 0.27792954
-0.36111203 1.2052784 -2.3474762 0.3806812 0.60162336 0.30089125 -0.9822044 -0.67172474
0.03344801 -0.008842032 0.070858754 0.16891281 0.30530673 -0.57780606 0.63471454 0.41087365
0.15060976 0.022028804 -0.0010941031 -0.1263457 -0.023905426 0.043877255 -0.32198796 -0.64779806
0.25453356 -0.071998216 -0.2240224 0.08413603 -0.59053814 -2.335552 -0.07738992 -1.0932491
-0.3339138 -0.27155548 0.28670174 0.07895942 0.033726975 -0.40855733 1.3856297 0.54608417
-0.24916354 -0.106135115 0.21852148 -0.05069036 -0.49175298 -0.6497567 -4.64464 -0.048305847
0.14471187 -0.18757522 -0.025807556 -0.6256589 0.1995301 0.099838644 0.53810084 0.34299767
-0.11194915 -0.054637246 -0.51040393 0.058413297 -0.091791056 0.09699156 0.42220306 0.14071842
-0.022749413 0.10683589 -0.13993217 0.1624405 -6.084379 0.081876054 -0.77054095 -0.49278668
0.4941682 1.8293028 0.07213947 0.7005868 -0.687923 -0.009334797 0.018537546 0.21763507
-0.033564236 0.059414692 0.05916245 0.21105294 0.32973143 -0.050910793 -0.071197905 -0.010504384
-0.27746665 0.7214755 -7.8708158 0.0026414671 0.07644647 -0.29744652 0.34307015 0.37717593
00000000: fcf6 5e3e c69e 3040 3186 8abe 3a8d 0d3d
00000010: 0cc7 1c3e 194a a33b 0a06 aebe 14a3 3bbf
00000020: 4f1b da3e 5b1e 00be dc1d 2bbe 3819 c9bd
00000030: fe2e c5be 2081 00c0 7586 e0ba 2ce2 2cbe
00000040: 93e5 a1be 3dfc aa3d 522d b9bc b456 c83e
00000050: c689 58bd 6554 c5bc e699 8a3e fb57 913e
00000060: 1245 42be 8df5 18be 2faa adbe 44dc 733e
00000070: 28a8 cbbe d40f bf3e dfa5 92bf 2400 82be
00000080: bdec 853e 2a58 2d3e 5b8a e8bc 22e3 c43e
00000090: 09fa 9bbd b318 c1bd 7011 003f ef61 ac3e
000000a0: e215 debe fd11 e1be 5708 a73e 0022 ef3e
000000b0: 080f de3f e6a2 31bf 7bbe 943f a566 233f
000000c0: 679b f5bb 6441 06be 2f25 29bf df6c 0bbf
000000d0: 93f2 a6bf 1f6e e9bc 7a41 89be b60f f1be
000000e0: ea92 7bbd 7414 08bf a21d 453d 7f6c a63e
000000f0: 5769 b0bc a4b6 97be b815 8f3f af40 c4be
00000100: de98 cdbe 4665 d5be 78b9 d63e 3d6c 023f
00000110: f6a7 0b40 b762 c83d d0f8 09bd 6c25 903d
00000120: 2b37 0abe 541b 34bf 781f e8be 784d 5bbe
00000130: 81c9 4e3f 807a 923d 6186 7bbf 05b7 cabe
00000140: 6ff6 bebd a70e e1be f6e9 7ebd 8cc9 96be
00000150: 0bc7 493c e5d0 1a3e a375 fa3d 16be 273e
00000160: 5799 9dbd 7004 e3bd c80b 57be e184 95ba
00000170: aa14 e13b c827 febc 22fe a5bf 92de 1abf
00000180: c8db 243f b865 b4bd 954d 93bd 763c bc3d
00000190: c2b6 ee3f f054 abbd b99c 9e3f 0ab1 0b3d
000001a0: 8334 11bf 2f59 ea3e 3ce0 833d 5e13 54bc
000001b0: 0592 1f3b 05a5 5a3d 3dec e03d dfc5 d63d
000001c0: 47b0 1cbd b510 8d3d 0005 88bc c1ca 4ebd
000001d0: cf0d 833e 3baa 473f e054 9b3e 89f8 aebe
000001e0: a39c d03c 501e d8bc c479 68bf 5fef 063e
000001f0: 70a7 9ebd 735c 10bb 513d 663e 7182 4bbf
00000200: f970 5ebd 68b5 1f3e ab01 3cbe 7e2a b73d
00000210: e444 2bbd 1440 dbbc 1d0c d43d 9fb4 8bbd
00000220: ce22 ddbd b4b2 423c 0722 fd3e b01c 743f
00000230: 4acc c440 71f2 533c 69d8 72bf e535 36bd
00000240: 8fbd 67bf fc7e c7bf 1b81 2c3e 3d9e 8abe
00000250: 7f15 58be af48 7d3d 3792 02be 8215 dfbd
00000260: 0021 9dbd 3c8b 3b3e aba5 9c3e 7e46 3f3f
00000270: b801 31bf db29 63be cc40 60be c84c 8e3e
00000280: ade3 b8be 9046 9a3f 0d3d 16c0 a5e8 c23e
00000290: fd03 1a3f 6b0e 9a3e bf71 7bbf 27f6 2bbf
000002a0: c800 093d 2cde 10bc 651e 913d 7bf7 2c3e
000002b0: 2a51 9c3e 19eb 13bf a77c 223f 085e d23e
000002c0: 7239 1a3e c075 b43c 0268 8fba c460 01be
000002d0: 50d5 c3bc a3b8 333d 9bdb a4be 18d6 25bf
000002e0: 3952 823e cd73 93bd 2166 65be 834f ac3d
000002f0: 822d 17bf af79 15c0 9b7e 9ebd 96ef 8bbf
00000300: c0f6 aabe 5209 8bbe 92ca 923e 7ab5 a13d
00000310: 4c25 0a3d 6d2e d1be 505c b13f 2ccc 0b3f
00000320: ba24 7fbe 5e5d d9bd 18c4 5f3e b2a0 4fbd
00000330: 0cc7 fbbe 7556 26bf e4a0 94c0 5adc 45bd
00000340: 592f 143e b813 40be 5e6a d3bc 2f2b 20bf
00000350: 9e51 4c3e 3478 cc3d fac0 093f 649d af3e
00000360: 9945 e5bd 4ecb 5fbd d5a9 02bf c842 6f3d
00000370: f3fc bbbd 83a3 c63d 002b d83e 7d18 103e
00000380: fa5c babc c6cc da3d 614a 0fbe cd56 263e
00000390: 3cb3 c2c0 a2ae a73d 2c42 45bf 894e fcbe
000003a0: 9d03 fd3e 9826 ea3f dcbd 933d a859 333f
000003b0: b91b 30bf faf0 18bc 0ddc 973c badb 5e3e
000003c0: a77a 09bd d25c 733d 5354 723d 431e 583e
000003d0: 8fd2 a83e d687 50bd 35d0 91bd 941a 2cbc
000003e0: 1c10 8ebe 9eb2 383f b9dd fbc0 771c 2d3b
000003f0: f88f 9c3d e94a 98be e4a6 af3e 341d c13e

fc1.bias f4 [256]
-0.56984 0.35843077 0.42508498 -0.10013884 2.9001193 0.65068877 -0.27619368 0.60350126
0.20513876 1.1701066 -0.47860175 -0.4039061 0.34641564 -0.36038804 -0.28854755 -0.18351783
0.06059719 0.21660627 -0.21859062 -0.6991501 0.07272698 0.60093826 0.118768424 -0.48584387
0.0009454621 0.19311868 -0.3382624 -0.32782084 -0.4262199 -0.18735686 0.11889568 -0.5269629
-0.5796776 -0.007950849 0.43885624 -0.231871 -0.5037067 0.13257086 0.110454485 0.19167595
0.20094387 0.10248824 0.4255863 -0.3475966 0.17540334 -0.965241 0.15309918 -0.19725658
-0.47991076 -0.9413914 -0.356316 -0.8988801 -0.11778608 0.29488394 -0.16347072 -0.14076534
-0.6205194 -0.54037094 0.059805337 0.06166176 -0.39901274 -0.39665872 0.31412825 -0.08362653
-0.37723744 -1.0517496 -1.5374209 -0.16416806 -0.07426296 0.43913612 -0.19670638 0.070315555
0.81961334 0.27657643 0.47241628 0.14551412 -0.26878288 0.63878673 0.24681449 -0.53038573
-0.114885956 -0.12036558 -0.3694855 0.55942684 1.2305434 -0.51851773 -0.44252786 0.60085285
0.15977089 -0.3966607 -0.9302241 -0.8166843 0.27097824 -0.090755284 0.122190244 -0.6178801
-0.9550171 -0.16694666 -0.46092802 -1.1543962 0.1373931 0.40438154 -0.5147888 0.6480621
0.23070885 0.44079408 1.3900462 -0.1984287 0.13611124 -0.16071163 -0.3633425 -0.70918965
0.5816542 -0.5651006 -0.27034578 0.104167156 0.058352053 -0.10389389 0.3309048 0.8851332
-0.69095546 0.26823962 -0.23563541 0.15264651 -0.28942272 0.5044429 -0.6290851 1.1759384
0.60428214 -0.43462828 1.5622678 0.7050368 -1.1749505 0.22216907 0.24837393 -0.03607862
0.07096768 0.07174187 0.9332657 0.35700515 0.59958875 0.34673002 0.54305196 -0.65985066
0.055241942 0.025442008 -0.26000285 -0.7419433 -0.6125181 0.36830166 -0.27188846 0.6849141
-0.5486234 -0.19148211 0.23724297 -0.91977644 0.20583275 0.16415235 0.4683957 0.16459449
-0.34163237 0.36636665 -0.2777346 -0.7781629 -0.3376782 0.23849753 0.23828067 -0.24315888
0.14482287 -2.207297 0.05181077 -0.018700782 -0.1354578 -0.17638184 0.17008385 -0.05750321
0.05172091 -0.9857776 -0.31833047 -1.3437904 -0.10312386 0.9531181 -1.3649098 0.16274618
0.35262963 0.11246784 0.16445707 -0.8196685 -0.22226658 -0.044423174 0.6420344 0.2617656
-0.50192505 -0.3957021 -1.0367887 3.2193651 0.5305888 -0.535586 -0.050491273 -0.068847336
-0.6096829 -0.3804276 -1.1068106 0.033459835 -0.13044345 0.67184836 0.5047414 0.065940045
0.117527075 -0.0877277 -0.16898566 0.5820917 -1.9907174 -0.17284513 0.17408054 0.17495055
-0.19159764 -0.0037180933 -0.014284873 -0.3506045 1.2902116 -0.3380761 -1.453556 -0.7584859
-0.3805357 -0.2235736 -0.66346306 -0.83256006 0.55927277 -0.6194012 -0.1013283 -0.5688458
-0.5887184 0.33107477 -0.7763323 -0.43849593 0.5285858 -0.021335471 -0.34878302 -0.6027963
-0.2521163 -0.3071699 0.1039338 -0.04006285 0.24033615 -0.24764612 -0.3679967 -0.3533524
0.16694467 0.023606341 -0.7324342 -0.44859907 0.56171244 -1.3023604 -0.594903 -0.98610824
00000000: 09e1 11bf 3d84 b73e bda4 d93e 9815 cdbd
00000010: 8e9b 3940 8a93 263f 4269 8dbe 0f7f 1a3f
00000020: e50f 523e 0ec6 953f 4a0b f5be c8cc cebe
00000030: 645d b13e c884 b8be 81bc 93be 19ec 3bbe
00000040: c234 783d 09ce 5d3e 38d6 5fbe 80fb 32bf
00000050: e2f1 943d 17d7 193f dc3c f33d 87c0 f8be
00000060: e3d8 773a e7c0 453e bb30 adbe 22d8 a7be
00000070: 7f39 dabe 7ada 3fbe 947f f33d 0ae7 06bf
00000080: c065 14bf 4744 02bc c4b1 e03e 976f 6dbe
00000090: ecf2 00bf a8c0 073e f635 e23d b346 443e
000000a0: 3bc4 4d3e 5be5 d13d 73e6 d93e 2ef8 b1be
000000b0: ef9c 333e 091a 77bf 08c6 1c3e a1fd 49be
000000c0: ddb6 f5be 07ff 70bf 0d6f b6be 021d 66bf
000000d0: d439 f1bd 07fb 963e de64 27be ca24 10be
000000e0: 5cda 1ebf c055 0abf 71f6 743d 0b91 7c3d
000000f0: 664b ccbe da16 cbbe 6bd5 a03e 6344 abbd
00000100: 4425 c1be bb9f 86bf 35ca c4bf ac1b 28be
00000110: 2e17 98bd 73d6 e03e 666d 49be 9a01 903d
00000120: 2ed2 513f 6d9b 8d3e 8ce0 f13e a701 153e
00000130: e99d 89be 8787 233f f0bc 7c3e 5cc7 07bf
00000140: 5449 ebbd 3b82 f6bd 342d bdbe 9936 0f3f
00000150: 7282 9d3f 94bd 04bf 0393 e2be 7ed1 193f
00000160: fb9a 233e 1c17 cbbe 2b23 6ebf 3912 51bf
00000170: a9bd 8a3e e8dd b9bd e13e fa3d 642d 1ebf
00000180: 007c 74bf 11f4 2abe c2fe ebbe 41c3 93bf
00000190: c7b0 0c3e 190b cf3e 33c9 03bf 66e7 253f
000001a0: f13e 6c3e c3af e13e 09ed b13f e530 4bbe
000001b0: bf60 0b3e 9791 24be 0708 babe 748d 35bf
000001c0: 4ae7 143f 6faa 10bf c36a 8abe 9755 d53d
000001d0: 9002 6f3d 52c6 d4bd 5b6c a93e 1798 623f
000001e0: 75e2 30bf b456 893e 694a 71be 5e4f 1c3e
000001f0: 372f 94be 2b23 013f b90b 21bf 2685 963f
00000200: 3cb2 1a3f 9987 debe 64f8 c73f 4b7d 343f
00000210: c764 96bf 4a80 633e bc55 7e3e 2dc7 13bd
00000220: 8157 913d 67ed 923d 80ea 6e3f 61c9 b63e
00000230: a67e 193f 9986 b13e 7405 0b3f f9eb 28bf
00000240: 6045 623d c26b d03c 181f 85be ffef 3dbf
00000250: fccd 1cbf 0992 bc3e f734 8bbe 8856 2f3f
00000260: 9572 0cbf e313 44be d2ef 723e 7876 6bbf
00000270: d2c5 523e 8e17 283e 90d1 ef3e 758b 283e
00000280: 70ea aebe 6994 bb3e 3b33 8ebe af35 47bf
00000290: 28e4 acbe b238 743e d9ff 733e a4fe 78be
000002a0: 724c 143e 5b44 0dc0 8837 543d 6232 99bc
000002b0: 73b5 0abe 719d 34be 762a 2e3e 7c88 6bbd
000002c0: 4ed9 533d ec5b 7cbf 36fc a2be 5301 acbf
000002d0: 9a32 d3bd 8cff 733f 5db5 aebf efa6 263e
000002e0: df8b b43e 8a55 e63d 6f67 283e cbd5 51bf
000002f0: da99 63be 13f5 35bd 5e5c 243f 2406 863e
00000300: 297e 00bf 7799 cabe 7eb5 84bf 140a 4e40
00000310: abd4 073f 2a1c 09bf f0cf 4ebd d5ff 8cbd
00000320: 2e14 1cbf 68c7 c2be f8ab 8dbf 2e0d 093d
00000330: f892 05be 41fe 2b3f bb36 013f 930b 873d
00000340: 09b2 f03d 95aa b3bd 940a 2dbe f603 153f
00000350: d4cf febf 50fe 30be 2b42 323e 3d26 333e
00000360: 2c32 44be 41ab 73bb 1a0b 6abc 6f82 b3be
00000370: a725 a53f 5018 adbe 1f0e babf 222c 42bf
00000380: 93d5 c2be 7af0 64be b7d8 29bf a822 55bf
00000390: 802c 0f3f 1491 1ebf 3685 cfbd e19f 11bf
000003a0: 40b6 16bf a282 a93e b7bd 46bf 8a82 e0be
000003b0: 6651 073f bac7 aebc b093 b2be dc50 1abf
000003c0: 6315 81be 6045 9dbe 3edb d43d f118 24bd
000003d0: ae1a 763e f296 7dbe 106a bcbe 9bea b4be
000003e0: 8bf3 2a3e 1662 c13c cf80 3bbf c7ae e5be
000003f0: 63cc 0f3f bfb3 a6bf 904b 18bf 9771 7cbf

fc2.weight f4 [256, 256]
-0.21418166 -0.14063892 -0.38489002 0.06492419 0.29146183 -0.034692183 0.3076115 -0.16920635
0.30072832 -0.2034537 0.195237 1.1120253 0.008138032 -0.026096173 0.15817273 0.22736914
-0.04280748 -0.29134607 0.2383953 -0.42091122 0.12676904 0.18697548 -0.28283155 -0.32257062
0.26595533 -0.1137626 -0.5265264 0.047095913 -0.07263065 0.32685363 -0.12049025 0.2996138
0.1844364 0.15717664 -0.0029683053 0.21262947 -0.82815266 -0.16370927 0.07146123 0.027629765
-0.32386047 0.23694564 -0.34987938 0.10669651 -0.21948716 -0.019418146 -0.47425193 0.16997539
-0.049649023 0.51413155 -0.22646531 0.11885717 -0.07751083 0.14939289 -0.49085945 0.24671243
0.10146348 0.14708072 0.09516055 -0.0033488139 -0.37816295 -0.45306858 0.029465565 0.100646995
0.12115777 0.24323994 0.0393434 0.46009636 0.37810045 0.15151271 0.25552112 -0.06166137
-0.36262766 -0.32824945 -0.55327517 0.23414432 -0.11914723 -0.88497686 0.08403029 -0.35269362
-0.03451823 -0.15715112 -0.10995631 0.55199546 -0.3625402 0.09234471 0.17953366 -0.034951217
-0.4880094 0.08436476 0.33684897 -0.26445237 -0.22012015 0.26489884 0.17480281 -0.55131805
0.5247571 -0.67031705 -0.14309055 0.26363018 0.6973691 -0.8524672 -0.06516588 -0.09051915
0.3472808 0.1811478 -0.42830893 -0.04599097 -0.5148567 0.06602743 0.08578633 0.15879987
-0.060791023 0.0092279 0.1146455 -0.372918 0.1487017 0.19492653 -0.1482582 0.20871991
0.18151776 0.04049234 -0.016140478 0.20716749 0.3957993 -0.17424218 -0.008309218 -0.09754756
0.27489886 0.33798146 -0.18911037 -0.058184456 0.3937208 -0.3183146 0.068939485 -0.00065258687
-0.30430564 0.45807472 -0.1907236 0.17450829 0.041874807 0.062004127 -0.041793287 0.046860717
0.08691231 -0.028893843 0.12675786 0.25706425 0.049999736 -0.08924828 -0.04688793 -0.00830522
-0.2369413 0.135789 -0.21989952 0.55088305 0.068099916 0.05483283 0.12517881 -0.5270885
0.17864358 0.15573013 -0.15828529 -0.6668407 -0.0011699124 0.50977546 -0.06983367 0.047728635
-0.41722423 -0.33530757 0.15997493 -0.73513633 -0.916948 -0.05779297 -0.1971967 -0.133081
-0.33781263 -0.13641456 0.25145438 -0.30376977 0.34342277 -0.9206511 0.72701097 0.20855966
-0.20746002 0.38112724 0.10976998 0.076484606 0.4672486 0.056183778 -0.25351387 -0.2318191
-0.32298723 -0.020162892 -0.08132446 -0.2924227 -0.17584775 -0.043448616 0.28662926 -0.51120275
0.06986462 -0.20553735 0.17647697 0.1414712 -0.13591836 -0.20151289 0.05814586 -0.27199516
0.044979308 0.23026519 -0.25937957 -0.105550446 0.13204582 -0.18266083 -0.3865838 -0.100019604
-0.5454636 -0.05383509 -0.33606076 -0.06637865 0.026957296 -0.08034022 -0.016288366 -0.66234595
0.13102002 -0.03240362 -0.4242241 0.11649356 -0.101151206 0.28882673 0.031410735 0.35175106
0.29592445 0.17209904 0.13831672 -0.08747394 0.2496152 0.34489244 0.89840454 0.3340279
0.11538886 0.0014832128 0.054974917 0.24878752 0.36205077 -0.11906165 0.12821744 -0.063135825
-0.18383284 0.21149246 0.19481477 0.6953306 -0.07160352 0.5741758 0.15954913 0.05603426
00000000: 7052 5bbe a603 10be 4e10 c5be f9f6 843d
00000010: 7c3a 953e 6419 0ebd 417f 9d3e 6e44 2dbe
00000020: 10f9 993e 2b56 50be 35ec 473e d856 8e3f
00000030: 6155 053c a4c7 d5bc 08f8 213e 75d3 683e
00000040: e556 2fbd 502b 95be e61d 743e ad81 d7be
00000050: becf 013e 8076 3f3e 4ccf 90be fa27 a5be
00000060: 4c2b 883e 5efc e8bd 6fca 06bf a5e7 403d
00000070: 61bf 94bd 5c59 a73e 98c3 f6bd fb66 993e
00000080: e5dc 3c3e eaf2 203e e687 42bb 8abb 593e
00000090: d001 54bf 67a3 27be 445a 923d d157 e23c
000000a0: 0ad1 a5be e1a1 723e 6423 b3be b383 da3d
000000b0: 3ec1 60be ce12 9fbc 26d1 f2be 070e 2e3e
000000c0: c65c 4bbd 209e 033f 86e6 67be 636b f33d
000000d0: ffbd 9ebd 73fa 183e ee51 fbbe 2fa2 7c3e
000000e0: 16cc cf3d 549c 163e 89e3 c23d c677 5bbb
000000f0: 939e c1be 9bf8 e7be c561 f13c 0320 ce3d
00000100: 9121 f83d e413 793e 8c26 213d c091 eb3e
00000110: 6296 c13e 2626 1b3e aad3 823e a290 7cbd
00000120: 55aa b9be 5010 a8be 71a3 0dbf 87c3 6f3e
00000130: 7703 f4bd d88d 62bf 1318 ac3d 4294 b4be
00000140: fd62 0dbd 39ec 20be c630 e1bd 934f 0d3f
00000150: de9e b9be 391f bd3d acd7 373e 0229 0fbd
00000160: 5edc f9be 6ec7 ac3d 7877 ac3e 4d66 87be
00000170: 2d67 61be d2a0 873e 82ff 323e 2e23 0dbf
00000180: 7b56 063f e699 2bbf 5486 12be 89fa 863e
00000190: c886 323f 4a3b 5abf b075 85bd 1b62 b9bd
000001a0: cace b13e cf7e 393e 4f4b dbbe 0761 3cbd
000001b0: a6cd 03bf 6439 873d beb0 af3d 6f9c 223e
000001c0: 0200 79bd 9e30 173c 43cb ea3d 1cef bebe
000001d0: 4245 183e d29a 473e ffd0 17be acba 553e
000001e0: cbdf 393e 4cdb 253d 0939 84bc b723 543e
000001f0: 35a6 ca3e 8b6c 32be 6323 08bc 04c7 c7bd
00000200: 8bbf 8c3e e80b ad3e 26a6 41be d352 6ebd
00000210: c695 c93e 22fa a2be 2530 8d3d 5d12 2bba
00000220: f3cd 9bbe c588 ea3e 0c4d 43be 4db2 323e
00000230: eb84 2b3d 0af8 7d3d 702f 2bbd 06f1 3f3d
00000240: 15ff b13d c8b2 ecbc d0cc 013e ed9d 833e
00000250: 86cc 4c3d cdc7 b6bd 8f0d 40bd 9e12 08bc
00000260: bda0 72be 460c 0b3e 572d 61be ac06 0d3f
00000270: f877 8b3d 6498 603d e02e 003e 46ef 06bf
00000280: 58ee 363e b877 1f3e 8a15 22be 12b6 2abf
00000290: bf57 99ba a580 023f f504 8fbd 1a7f 433d
000002a0: 6a9e d5be 6fad abbe 78d0 233e e531 3cbf
000002b0: 1bbd 6abf 52b8 6cbd efed 49be 6346 08be
000002c0: c7f5 acbe 42b0 0bbe a1be 803e b687 9bbe
000002d0: 1cd5 af3e caaf 6bbf 641d 3a3f aa90 553e
000002e0: 6670 54be 1c23 c33e 15cf e03d f6a3 9c3d
000002f0: 353b ef3e f620 663d 92cc 81be fc61 6dbe
00000300: 955e a5be a62c a5bc 708d a6bd 6eb8 95be
00000310: 6f11 34be 2df7 31bd 12c1 923e 2fde 02bf
00000320: 2f15 8f3d 6278 52be 61b6 343e d4dd 103e
00000330: 2f2e 0bbe 6559 4ebe 5a2a 6e3d f342 8bbe
00000340: 393c 383d a3ca 6b3e 66cd 84be d52a d8bd
00000350: 0537 073e 710b 3bbe 50ee c5be 14d7 ccbd
00000360: 81a3 0bbf 2f82 5cbd 2810 acbe 88f1 87bd
00000370: 8cd5 dc3c 6a89 a4bd 2e6f 85bc 818f 29bf
00000380: 1d2a 063e a9b9 04bd e733 d9be 2d94 ee3d
00000390: 5d28 cfbd 19e1 933e 8ba8 003d b718 b43e
000003a0: 6983 973e bb3a 303e e6a2 0d3e 8925 b3bd
000003b0: 219b 7f3e be95 b03e d7fd 653f b405 ab3e
000003c0: ff50 ec3d 5d68 c23a 612d 613d 28c2 7e3e
000003d0: b85e b93e 98d6 f3bd 6f4b 033e 5b4d 81bd
000003e0: ad3e 3cbe 7b91 583e 867d 473e 3001 323f
000003f0: dea4 92bd 2ffd 123f d960 233e 2e84 653d

fc2.bias f4 [256]
2.3561592 0.7180162 -2.280752 2.0788405 1.6004412 0.70598745 -0.06414682 0.07839202
0.4688734 -0.11882214 0.12030761 1.7477117 0.5169772 0.073786475 -0.3455747 -2.698545
-0.32528374 0.7916954 -1.7102388 0.058349248 -0.7658861 -0.5568908 -0.52828777 1.5827762
-0.33780643 -0.53367954 -0.2823802 -0.32718682 -1.6872954 -0.19121279 0.47118175 -0.09365661
-0.015430419 2.729882 -3.333799 0.011373175 0.6834028 0.27932045 0.16886306 -1.7135149
0.064939514 0.2524826 0.02338806 -1.5826975 2.1456077 0.043460723 1.3317614 0.3715643
2.0502527 0.20617758 0.3450652 0.36878115 -0.8378522 -0.21552181 -0.026113374 -0.5395696
-1.4592979 -1.3741584 -1.6839101 -1.0769694 0.8868978 2.7372956 -0.074138306 -0.025409749
-0.6241222 -2.170649 0.69065785 -1.9581907 2.2086892 0.043317795 -0.31483063 0.18387207
1.2720705 0.37917536 1.063797 -0.22024797 0.56906426 0.038828544 -0.11492001 -0.2619205
-2.2567499 0.115844965 1.1156092 0.4797583 -0.041912187 0.95658296 -0.09908371 0.19747832
1.483451 -0.9589154 0.66340876 2.2817824 1.5315872 -1.278968 0.78420556 -2.6172323
1.3287281 0.20937574 2.6261635 2.1050825 0.9257159 -0.087110884 -1.8655899 2.754656
2.3831553 0.017084708 -0.32229504 1.3972058 0.17586455 -0.04127478 0.31685942 -2.2107139
0.7522401 1.2230755 -0.030799262 0.024344478 0.40271628 1.1817759 0.4806807 -1.2100676
-1.5662997 1.6556659 2.227913 -0.56350106 0.038768977 1.3528713 -0.35730428 -0.034708314
-0.09600729 -0.57403976 -0.014438685 0.11580768 0.23272957 1.1055444 -0.83589315 0.9691858
0.3078423 2.3550797 0.033786595 -0.8603332 -0.0824693 1.1224575 -2.27494 2.9511251
-1.6189548 0.43067783 -0.12013764 0.028173298 -2.9585288 -0.34903166 -3.2747629 0.9278625
-1.2682908 2.984488 3.2272992 0.010425043 0.9709211 0.7574366 0.9445423 0.9888674
0.024212308 0.6912166 -1.6624781 0.29594797 -1.3241636 1.2768658 0.21396028 1.1811156
-1.7178081 -1.1091325 0.3438174 1.9651806 -1.2896029 1.6344752 0.50017196 2.6780972
-0.6378598 -0.47240314 0.3886771 -0.17335863 -0.42133385 0.03346798 -1.8217129 -2.5703826
-0.50718147 0.73299426 -0.035584025 2.5911374 0.9223817 -0.8057719 -0.7584512 2.1821892
1.2671609 -2.9915404 -2.0120533 0.49995756 -0.13222349 1.0913756 2.7457519 3.1326122
-0.025376394 0.47310194 0.017045483 -0.74570024 -0.08356575 -1.1626507 -1.3402039 0.48983184
-1.4317809 -0.1316608 1.5291765 0.94388485 0.41400322 0.33141062 -2.0472794 3.1249714
-2.6356387 0.9580329 0.13921185 3.0537763 0.42749 0.20459719 -1.2017102 -2.1326296
0.026786283 0.83087206 1.0771195 0.7053781 -0.18630372 2.0115552 -0.2206868 0.5786595
-1.8720201 0.33938444 -0.37662607 -0.9314062 -0.26926422 3.4369335 1.5616614 -0.025970688
0.84399146 -0.16401309 1.034768 1.6426195 -1.3934145 1.5245667 2.7891262 -1.8552711
0.2865579 1.1955787 -1.3481945 0.23073947 0.5859497 -1.3271924 0.8205681 0.15125874
00000000: 50cb 1640 e9cf 373f d7f7 11c0 b90b 0540
00000010: 42db cc3f 98bb 343f 685f 83bd ff8b a03d
00000020: 2d10 f03e 0659 f3bd d663 f63d 04b5 df3f
00000030: 9e58 043f 5d1d 973d 2bef b0be f6b4 2cc0
00000040: 978b a6be 8dac 4a3f 1be9 dabf 9fff 6e3d
00000050: 1d11 44bf 6590 0ebf de3d 07bf 6998 ca3f
00000060: f7f4 acbe 399f 08bf 2394 90be 0885 a7be
00000070: 4cf9 d7bf 49cd 43be bc3e f13e 09cf bfbd
00000080: decf 7cbc 63b6 2e40 f65c 55c0 8e56 3a3c
00000090: 7cf3 2e3f 1703 8f3e 70ea 2c3e 7554 dbbf
000000a0: 02ff 843d 6645 813e 5198 bf3c d595 cabf
000000b0: a351 0940 df03 323d 2877 aa3f ad3d be3e
000000c0: 5737 0340 3720 533e 63ac b03e e2d0 bc3e
000000d0: 7b7d 56bf c0b1 5cbe b7eb d5bc 3c21 0abf
000000e0: 46ca babf 6ce4 afbf 5e8a d7bf 22da 89bf
000000f0: bc0b 633f da2f 2f40 d3d5 97bd 1b28 d0bc
00000100: 79c6 1fbf eaeb 0ac0 f4ce 303f fea5 fabf
00000110: 2a5b 0d40 006e 313d 7b31 a1be f648 3c3e
00000120: 35d3 a23f 4623 c23e 802a 883f af88 61be
00000130: 32ae 113f ae0a 1f3d 2f5b ebbd 721a 86be
00000140: 976e 10c0 2040 ed3d 48cc 8e3f e1a2 f53e
00000150: 1dac 2bbd 9fe2 743f 66ec cabd c237 4a3e
00000160: b9e1 bd3f 7b7b 75bf 28d5 293f b908 1240
00000170: 0d0b c43f 39b5 a3bf b2c1 483f bc80 27c0
00000180: c313 aa3f 9866 563e 1013 2840 acb9 0640
00000190: b8fb 6c3f 3167 b2bd a6cb eebf 494c 3040
000001a0: 9e85 1840 3bf5 8b3c db03 a5be a4d7 b23f
000001b0: d615 343e be0f 29bd 663b a23e 567c 0dc0
000001c0: cf92 403f bd8d 9c3f bc4e fcbc 126e c73c
000001d0: d430 ce3e 6f44 973f c81b f63e 7fe3 9abf
000001e0: 827c c8bf dcec d33f 2096 0e40 9b41 10bf
000001f0: 38cc 1e3d e32a ad3f 96f0 b6be 4e2a 0ebd
00000200: 789f c4bd 45f4 12bf 3c90 6cbc 942c ed3d
00000210: a950 6e3e 7b82 8d3f 18fd 55bf 901c 783f
00000220: 829d 9d3e a0b9 1640 d063 0a3d cc3e 5cbf
00000230: aae5 a8bd b0ac 8f3f 9e98 11c0 3cdf 3c40
00000240: e939 cfbf ce81 dc3e b90a f6bd b0cb e63c
00000250: 8958 3dc0 47b4 b2be b795 51c0 6688 6d3f
00000260: 5a57 a2bf da01 3f40 128c 4e40 cdcd 2a3c
00000270: 498e 783f 5de7 413f 86cd 713f 6a26 7d3f
00000280: e458 c63c 92f3 303f 15cc d4bf 7e86 973e
00000290: 317e a9bf 5770 a33f 6718 5b3e cc2e 973f
000002a0: 23e1 dbbf 0ef8 8dbf d608 b03e 0a8b fb3f
000002b0: b511 a5bf 7c36 d13f 450b 003f f265 2b40
000002c0: c84a 23bf d3de f1be af00 c73e ed84 31be
000002d0: 12b9 d7be b815 093d e32d e9bf 2681 24c0
000002e0: a5d6 01bf 83a5 3b3f 8ec0 11bd 32d5 2540
000002f0: 3521 6c3f 1147 4ebf dc29 42bf fda8 0b40
00000300: 5432 a23f 6675 3fc0 7bc5 00c0 70fa ff3e
00000310: 9865 07be 32b2 8b3f 66ba 2f40 b87c 4840
00000320: 28e2 cfbc 6b3a f23e f8a2 8b3c 36e6 3ebf
00000330: 8524 abbd bdd1 94bf cd8b abbf 3dcb fa3e
00000340: 9944 b7bf 17d2 06be 0ebc c33f 70a2 713f
00000350: 3bf8 d33e a7ae a93e a006 03c0 88ff 4740
00000360: 4eae 28c0 a541 753f 8d8d 0e3e 1271 4340
00000370: f8df da3e ed81 513e a4d1 99bf 017d 08c0
00000380: e86e db3c 08b4 543f 0ddf 893f a993 343f
00000390: 67c6 3ebe 52bd 0040 b8fb 61be 0723 143f
000003a0: 5b9e efbf ccc3 ad3e 22d5 c0be a370 6ebf
000003b0: 00dd 89be b8f6 5b40 85e4 c73f 7bc0 d4bc
000003c0: d30f 583f 0cf3 27be 4773 843f 5b41 d23f
000003d0: 685b b2bf 0025 c33f 0b81 3240 8679 edbf
000003e0: b8b7 923e b908 993f a391 acbf f846 6c3e
000003f0: cd00 163f 71e1 a9bf c010 523f 92e3 1a3e

q.weight f4 [1, 256]
-0.3664395 -0.95350647 0.14061542 -0.40517068 -0.31738806 -2.1065354 1.0431008 -2.680279
-0.5433773 2.0592577 5.3258004 -0.2734191 4.461875 3.3458736 0.9075182 0.33460382
1.2820019 -0.76511323 0.40552744 4.5695972 1.0242229 0.7475695 2.1934693 -0.32034138
-4.5459647 3.167506 -4.132878 3.269015 0.3070766 0.71776587 -6.8266535 -5.3259077
0.017772004 -0.4885454 0.19619803 0.013641845 -0.7773972 1.4531031 1.6002148 0.20597298
-4.170777 6.0625286 0.35302657 0.20832014 -0.2859421 -2.456136 -0.30582136 -5.0317593
-0.42834026 -5.818021 -2.561789 1.793285 0.48869747 2.0113108 2.4300075 0.5624061
0.115270875 0.44753006 0.4136273 0.27780887 -1.1730494 -0.15345804 0.0077635366 1.4215678
1.9322003 0.27431473 2.1048746 0.41065317 -0.69711477 0.82494295 2.7355087 -5.9051366
-0.36761904 2.0740514 -1.2685336 0.69488513 -8.443465 1.7899083 5.3937316 1.2818105
0.14973961 2.159949 -0.5493558 -2.6538382 0.021862479 -3.272102 3.8287485 -2.741228
-0.23794042 0.86297095 -1.8350533 -0.25209945 -0.4564278 0.5099708 -1.5375531 0.35707602
-0.61278945 -3.3005583 -0.15688287 -0.27307662 -0.42311198 2.9011648 0.24676625 -0.22075321
-0.26016298 2.9120471 1.8946859 -0.8469768 -4.694142 1.2275584 3.626871 0.23223828
-2.9098425 -0.37737212 -2.9161246 3.0502715 -2.7243443 -3.9855838 5.410511 1.7174658
0.28350604 -0.11079749 -0.3293864 1.8236833 3.7943544 -0.58995354 0.67902225 0.88311154
-2.9374409 3.929934 -2.3224611 -1.6827335 2.896357 -1.4787543 1.3498225 -1.2343887
4.4794025 -0.33574945 -0.008462089 0.78140783 1.3813163 -0.13880579 0.19090447 -0.25791988
0.394189 -1.9949191 2.7211943 3.211273 0.29183125 0.7777349 0.30598637 -0.68065983
0.5881393 -0.54670864 -0.17531292 -0.0043780846 -0.35156062 -8.502642 -0.33159307 -0.93617386
7.1672044 -1.2575443 0.38014206 3.9952593 0.32707676 -1.1951004 -2.444235 -0.4685937
0.23426887 0.3717674 4.1566973 -0.14461032 0.31526384 -0.4732382 -1.9856675 -0.19802259
2.175615 -2.9301882 2.655969 -3.2260592 1.3619885 0.004244917 0.3419828 0.18221745
3.1444402 -0.690233 0.0011804997 -0.36154035 -0.7414627 0.98943686 3.3318126 -0.103045516
-0.4806666 0.10042023 0.29063606 -2.6911702 -3.2310061 -1.8143055 -0.18211201 -0.0056408527
-0.028200272 3.1614327 2.0078502 0.61936426 0.7205516 0.80138564 0.43186548 -1.8212254
0.5202196 -3.4154558 -0.47847515 -0.76817936 4.538345 -0.9641734 0.32523003 -0.20735197
0.29608607 7.0161266 2.2662866 -0.16948734 -5.5184536 -4.243124 0.2679824 0.37076944
0.50341177 -0.6585876 -0.45394862 -1.1659045 -3.4690404 -0.60225713 2.68477 -4.3376226
0.30157825 3.614421 2.5258427 0.5090127 0.9262926 -0.1554177 -0.7870245 0.0043796087
-1.2059394 3.197861 -0.9558424 -0.25725532 0.2937186 -0.17729275 -0.27792564 0.28122726
-6.3500333 -0.52163464 0.21232942 0.8394691 -0.70474595 0.23292604 -0.9617988 -6.2389784
00000000: f59d bbbe 0019 74bf 7dfd 0f3e 8872 cfbe
00000010: b080 a2be 7ad1 06c0 5484 853f b189 2bc0
00000020: c61a 0bbf e1ca 0340 f56c aa40 97fd 8bbe
00000030: aec7 8e40 cb22 5640 1d53 683f 3151 ab3e
00000040: a318 a43f 76de 43bf 4ba1 cf3e 243a 9240
00000050: bc19 833f b760 3f3f cd61 0c40 c903 a4be
00000060: 8b78 91c0 6bb8 4a40 8940 84c0 8b37 5140
00000070: 2539 9d3e 81bf 373f f273 dac0 d66d aac0
00000080: 9896 913c 9f22 fabe 23e8 483e 0c82 5f3c
00000090: 8103 47bf 48ff b93f d7d3 cc3f 95ea 523e
000000a0: 0177 85c0 3c00 c240 e6bf b43e e051 553e
000000b0: 0167 92be 5531 1dc0 9e94 9cbe 2c04 a1c0
000000c0: 6a4f dbbe 3a2d bac0 5af4 23c0 5d8a e53f
000000d0: 8e36 fa3e 51b9 0040 3e85 1b40 d9f9 0f3f
000000e0: 2313 ec3d a922 e53e f5c6 d33e f73c 8e3e
000000f0: 7c26 96bf 1b24 1dbe 4465 fe3b eff5 b53f
00000100: 5752 f73f fb72 8c3e 44b6 0640 2241 d23e
00000110: 1d76 32bf 762f 533f 9312 2f40 e1f6 bcc0
00000120: 9038 bcbe 42bd 0440 4f5f a2bf fee3 313f
00000130: 6f18 07c1 b71b e53f 7399 ac40 5e12 a43f
00000140: 5755 193e 9b3c 0a40 95a2 0cbf 7cd8 29c0
00000150: f118 b33c 1f6a 51c0 370a 7540 4870 2fc0
00000160: a7a6 73be aaeb 5c3f 07e3 eabf 2e13 81be
00000170: e8b0 e9be 728d 023f 8ace c4bf abd2 b63e
00000180: c5df 1cbf 593c 53c0 e7a5 20be b3d0 8bbe
00000190: 22a2 d8be afac 3940 4bb0 7c3e 210d 62be
000001a0: 1534 85be fb5e 3a40 1185 f23f 79d3 58bf
000001b0: 6936 96c0 a220 9d3f a81e 6840 dfcf 6d3e
000001c0: dc3a 3ac0 eb36 c1be c9a1 3ac0 a637 4340
000001d0: a85b 2ec0 ce13 7fc0 e822 ad40 ebd5 db3f
000001e0: b427 913e cbe9 e2bd 56a5 a8be 746e e93f
000001f0: b4d6 7240 3207 17bf 67d4 2d3f 9913 623f
00000200: 08ff 3bc0 0a84 7b40 34a3 14c0 d063 d7bf
00000210: ea5d 3940 d247 bdbf fcc6 ac3f 7300 9ebf
00000220: 4457 8f40 5ae7 abbe 93a4 0abc 580a 483f
00000230: f9ce b03f 1b23 0ebe 767c 433e 130e 84be
00000240: 24d3 c93e 8259 ffbf 0c28 2e40 7f85 4d40
00000250: e86a 953e a219 473f 3faa 9c3e b93f 2ebf
00000260: 4c90 163f 19f5 0bbf 3b85 33be 0976 8fbb
00000270: c1ff b3be d20a 08c1 91c6 a9be 17a9 6fbf
00000280: bd59 e540 36f7 a0bf fba1 c23e 54b2 7f40
00000290: 9b76 a73e 0df9 98bf 596e 1cc0 83eb efbe
000002a0: 2ee4 6f3e 4c58 be3e aa03 8540 ba14 14be
000002b0: 436a a13e 474c f2be 5a2a febf 6fc6 4abe
000002c0: 473d 0b40 3488 3bc0 65fb 2940 c177 4ec0
000002d0: a455 ae3f f218 8b3b 5f18 af3e 3697 3a3e
000002e0: 823e 4940 1cb3 30bf ffba 9a3a d11b b9be
000002f0: 80d0 3dbf bc4b 7d3f 6b3c 5540 8709 d3bd
00000300: ef19 f6be 1fa9 cd3d 40ce 943e 223c 2cc0
00000310: cec8 4ec0 2a3b e8bf 927b 3abe e7d6 b8bb
00000320: 4204 e7bc ea54 4a40 9e80 0040 a88e 1e3f
00000330: 1276 383f 9c27 4d3f 791d dd3e ea1d e9bf
00000340: 1d2d 053f d496 5ac0 b2fa f4be 67a7 44bf
00000350: 1f3a 9140 11d4 76bf 8d84 a63e 1354 54be
00000360: 9898 973e 1c84 e040 d70a 1140 178e 2dbe
00000370: 2c97 b0c0 acc7 87c0 fd34 893e 7ed5 bd3e
00000380: 98df 003f 3299 28bf f46b e8be 5c3c 95bf
00000390: c204 5ec0 862d 1abf 46d3 2b40 cecd 8ac0
000003a0: 7768 9a3e ac52 6740 68a7 2140 a84e 023f
000003b0: 8321 6d3f d125 1fbe 707a 49bf d282 8f3b
000003c0: 395c 9abf c1a9 4c40 16b2 74bf f8b6 83be
000003d0: 4962 963e 3b8c 35be 454c 8ebe 05fd 8f3e
000003e0: 7933 cbc0 d989 05bf e26c 593e 72e7 563f
000003f0: 3b6a 34bf 2a84 6e3e 7238 76bf b6a5 c7c0
