TD3/models/hockey_tournament_agent/01000000/target_critic_2.pth (torch, 290007 bytes, 5 tensors)

fc1.weight f4 [256, 22]
000000 2d 47 5b 3e 46 bf 30 40 86 ef 88 be 1b 3b 04 3d
       0.2141387 2.7616744 -0.26745242 0.03228293
000010 49 c8 1f 3e 9a 1f 00 3c 85 21 ac be 5a cc 3b bf
       0.15603746 0.007820034 -0.33619323 -0.7335869
000020 a1 f8 d9 3e da c1 fe bd 3a db 29 be d5 5d c4 bd
       0.425725 -0.12439318 -0.16587535 -0.095882095
000030 a4 ff c6 be ae 5c 00 c0 35 5e 90 bb ec 41 29 be
       -0.38866913 -2.0056567 -0.0044057616 -0.16529053
000040 84 dd a1 be 9e 6e ac 3d 37 a9 9d bc 48 0f ca 3e
       -0.31614316 0.08419536 -0.019245727 0.39464784
000050 e0 0c 48 bd df 00 d3 bc f6 d5 8a 3e 21 3e 91 3e
       -0.048840404 -0.025757251 0.27116364 0.28367713
000060 18 88 42 be 04 88 1b be f0 fc ac be 89 88 6d 3e
       -0.18997228 -0.15188605 -0.33786726 0.23196615
000070 06 e2 ca be 2f f6 c0 3e e5 95 92 bf 03 68 83 be
       -0.39625567 0.37687823 -1.1451994 -0.25665292
000080 37 db 85 3e 39 2c 2c 3e 66 bc f3 bc 6c 0d c7 3e
       0.2614381 0.16813745 -0.029752921 0.38877428
000090 c1 4e a7 bd dc 59 b7 bd e3 ab fe 3e ab 9e ac 3e
       -0.08169318 -0.08952686 0.49740514 0.33714804
0000a0 68 62 e1 be 61 5c e1 be d4 f5 a6 3e 2b 53 ec 3e
       -0.4402039 -0.44015792 0.32609427 0.46157202
0000b0 2e 91 dd 3f 35 ff 31 bf 61 ce 94 3f 8b 84 24 3f
       1.730993 -0.6953004 1.1625482 0.64264745
0000c0 38 95 15 bc de 5f 0c be 1d ef 28 bf cf 5a 0b bf
       -0.009129815 -0.13708445 -0.6598986 -0.5443544
0000d0 d0 8c a6 bf 6e 5e dc bc 3d f6 87 be 21 c4 f0 be
       -1.3011723 -0.026900496 -0.26555052 -0.47024634
0000e0 a7 cd 84 bd 90 e4 07 bf 8f 71 40 3d 7d 5b a7 3e
       -0.064845376 -0.53083134 0.046983298 0.32686988
0000f0 66 24 ac bc ca 4c 98 be 8d 19 8f 3f 3c 91 c5 be
       -0.02101345 -0.29746085 1.1179672 -0.38587368
000100 6c e0 ce be c1 b6 d0 be 77 25 d5 3e 09 7e 02 3f
       -0.40405595 -0.4076443 0.41630146 0.50973564
000110 bd 8d 0b 40 05 9e ca 3d 46 3a 10 bd ad ca 90 3d
       2.180526 0.09893421 -0.035211824 0.07069907
000120 31 c9 08 be 28 9b 34 bf c0 9a e7 be ca 49 5a be
       -0.13357998 -0.7054925 -0.45235252 -0.21317211
000130 db 55 4f 3f 7f cd 8f 3d 73 6a 7c bf 5d 64 cb be
       0.8099038 0.07021617 -0.9859993 -0.3972501
000140 01 93 bf bd 63 c4 e0 be 64 34 78 bd 78 53 97 be
       -0.09354211 -0.4389983 -0.06059684 -0.2955587
000150 9f 87 58 3c 3f a3 1b 3e 8c 4d fd 3d 5f e5 28 3e
       0.013215928 0.15198992 0.123683065 0.16493748
000160 7d 17 99 bd d2 bc d9 bd 9c 01 51 be ee 3f 35 3b
       -0.07475183 -0.10631718 -0.2041077 0.0027656513
000170 82 a7 9d 3b 8c 57 fd bc 08 2e a6 bf 9a b7 1a bf
       0.0048112283 -0.030925535 -1.2982798 -0.60436404
000180 ce 54 26 3f 49 41 bc bd 8b c4 92 bd 0a 78 bd 3d
       0.6497315 -0.0919214 -0.07166394 0.09251411
000190 0b b8 ee 3f 32 c7 a4 bd 29 f1 9e 3f 1d 34 0f 3d
       1.8649915 -0.08045806 1.2417346 0.03496181
0001a0 89 e4 11 bf 91 67 e9 3e 64 8a 7e 3d 42 7a 07 bc
       -0.5698934 0.45586827 0.0621437 -0.008268895
0001b0 07 4e 7f 3b 91 ac 65 3d 7d d3 e4 3d 7a 33 dd 3d
       0.003895642 0.056072775 0.11173151 0.10800834
0001c0 37 2a 14 bd b3 1a 90 3d 2c a2 7d bc 0b 11 3e bd
       -0.03617307 0.070363425 -0.015480559 -0.046402972
0001d0 76 80 81 3e 70 40 47 3f ae 3f 9c 3e 43 28 af be
       0.2529332 0.778327 0.30517334 -0.34210405
0001e0 3c 67 f2 3c 7b b2 c2 bc 1b 6f 68 bf 77 07 06 3e
       0.029590242 -0.023766747 -0.90794533 0.13088785
0001f0 ec 28 9c bd b1 8d 02 3a e8 7a 66 3e 19 82 4b bf
       -0.07624993 0.000498022 0.22507823 -0.7949539
000200 1a 4b 50 bd 62 96 22 3e b4 8a 37 be 96 fa c1 3d
       -0.050852872 0.15877679 -0.17924005 0.094716236
000210 5c 22 24 bd 1f b2 cc bc f1 0d cf 3d 35 df 89 bd
       -0.04007183 -0.024987279 0.10110081 -0.067320265
000220 74 cf da bd 51 92 01 3c 23 07 fd 3e ae 7d 74 3f
       -0.106841 0.00790842 0.49419507 0.9550427
000230 8c cb c4 40 b6 d2 80 3c cb 2f 73 bf 5d 29 3f bd
       6.149847 0.015725475 -0.949948 -0.046670306
000240 8c 33 67 bf 2a 86 c7 bf 85 9e 2b 3e d8 3d 8b be
       -0.9031303 -1.5587819 0.16759689 -0.2719562
000250 2e 1c 56 be 83 e7 80 3d ca d6 05 be b0 53 d7 bd
       -0.20909187 0.06294157 -0.13070217 -0.10514009
000260 64 c4 9d bd f8 aa 3a 3e 20 19 9d 3e 1b 1a 3f 3f
       -0.07703474 0.18229282 0.3068323 0.7464921
000270 6d db 2f bf 39 7e 65 be 05 12 5d be 46 3f 8e 3e
       -0.6869419 -0.22411431 -0.21588905 0.2778265
000280 17 1c ba be 43 cb 9a 3f 86 18 16 c0 65 41 c3 3e
       -0.36349556 1.209328 -2.3452468 0.3813583
000290 be 95 18 3f da da 98 3e 1c 1e 7c bf ce db 2a bf
       0.5960349 0.2985447 -0.98483443 -0.66741645
0002a0 cd b7 00 3d 67 7f 43 bc d2 46 97 3d 42 51 2a 3e
       0.031425286 -0.011932231 0.07386555 0.1663256
0002b0 00 07 9a 3e bb 71 13 bf 93 04 23 3f a9 63 d4 3e
       0.30083466 -0.57595414 0.63678855 0.41482285
0002c0 6a 14 1e 3e 42 8d ce 3c d1 1b eb 3b 7e 23 02 be
       0.15437475 0.025213841 0.007174947 -0.12708852
0002d0 32 81 87 bc 47 bd 29 3d 9a ae a6 be d7 2f 24 bf
       -0.016541097 0.041440275 -0.32555085 -0.641355
0002e0 46 dd 84 3e 3b 53 8e bd b0 75 6a be e1 02 95 3d
       0.25950068 -0.06949469 -0.22896457 0.0727594
0002f0 e2 10 16 bf 8b d4 14 c0 9c af 9b bd 39 24 8d bf
       -0.5861951 -2.3254726 -0.07601854 -1.1026679
000300 3b eb ab be 7e bb 89 be 72 53 91 3e 5f a3 a9 3d
       -0.33577904 -0.26900858 0.28383976 0.08283114
000310 7a 2a 05 3d 63 19 d2 be ec c2 b1 3f 30 bb 0b 3f
       0.032511212 -0.41034994 1.388761 0.545825
000320 db e7 78 be 24 e7 d5 bd 75 e3 5a 3e fa 9b 48 bd
       -0.24307196 -0.10444477 0.2137583 -0.048976876
000330 91 57 fd be 10 3c 26 bf b4 7b 94 c0 45 6d 5d bd
       -0.4948087 -0.649354 -4.6401005 -0.054059286
000340 8a bb 1a 3e 63 33 3a be 1f ce da bc db 42 1f bf
       0.15110603 -0.18183665 -0.026709614 -0.6221139
000350 f6 f6 4e 3e ae 0b ca 3d 41 17 09 3f 00 fa ae 3e
       0.20211396 0.09865509 0.5355111 0.3417511
000360 dc a7 e6 bd 89 dc 61 bd 4f 4b 03 bf 6b 4d 81 3d
       -0.112624854 -0.05514196 -0.51286787 0.063135944
000370 49 c1 b9 bd 75 f2 bb 3d dd a9 d8 3e 8f 65 0b 3e
       -0.09070069 0.091771044 0.42317095 0.1361296
000380 98 4c ae bc b0 f7 d3 3d 42 a9 13 be c2 58 29 3e
       -0.021276757 0.10349977 -0.14420035 0.16537765
000390 61 9d c2 c0 ea 48 af 3d 99 f1 45 bf 18 60 fe be
       -6.0817113 0.08558829 -0.77321774 -0.4968269
0003a0 20 39 fb 3e ec 65 ea 3f 3a 36 90 3d f5 f7 32 3f
       0.4906702 1.8312354 0.07041593 0.699096
0003b0 7d ff 2e bf a0 8f 14 bc 5b e2 a8 3c 87 6e 60 3e
       -0.68358594 -0.009067446 0.020615747 0.21917163
0003c0 91 ff 09 bd 5a b7 6d 3d 5b f2 72 3d 5c 1e 54 3e
       -0.033690993 0.058036186 0.05931316 0.20714706
0003d0 46 18 a8 3e 93 9b 5a bd 74 98 92 bd a2 3f 18 bc
       0.3283102 -0.053371023 -0.071579844 -0.009292515
0003e0 81 6f 91 be 96 e8 37 3f a2 da fb c0 ae c3 6c bb
       -0.28405383 0.7183927 -7.8704386 -0.0036127376
0003f0 48 80 a5 3d 75 67 98 be 9c 13 ac 3e 63 f1 bf 3e
       0.08081108 -0.2976643 0.3360871 0.3748885

fc1.bias f4 [256]
000000 80 f8 10 bf 26 e1 b6 3e d0 e5 da 3e bd d0 c9 bd
       -0.5662918 0.3571865 0.42753458 -0.09854267
000010 bc 88 39 40 22 fc 25 3f a6 83 8d be a9 02 1a 3f
       2.8989706 0.6483785 -0.27639502 0.6016031
000020 f2 6a 4f 3e 00 80 95 3f 86 d6 f5 be cc 1c d1 be
       0.2025564 1.1679688 -0.4801523 -0.40842283
000030 9e cb b0 3e 9e 41 b8 be 57 8e 91 be 64 26 3c be
       0.34530348 -0.35987562 -0.2842891 -0.1837402
000040 62 2a 73 3d b3 f5 5d 3e 34 2f 63 be c2 63 34 bf
       0.05936659 0.21675758 -0.22185975 -0.7046472
000050 19 cb 92 3d 5a 29 1a 3f b2 6e ed 3d ce 0f f9 be
       0.07167644 0.6021935 0.11593379 -0.4864487
000060 ea 12 08 39 a3 c5 44 3e c9 14 ae be a0 f3 a6 be
       0.00012977017 0.19216017 -0.34000233 -0.32607746
000070 f2 ad d9 be 6c 08 42 be c8 dd fc 3d ea f1 05 bf
       -0.42515522 -0.18948525 0.12346989 -0.52322257
000080 36 3d 14 bf ff fb 0d bc 0d 09 e2 3e ba 40 6a be
       -0.579059 -0.008666038 0.4414753 -0.22876254
000090 a7 6f 01 bf ab b1 0b 3e 94 83 d7 3d 19 09 46 3e
       -0.5056099 0.13641994 0.105231434 0.19339408
0000a0 d4 57 4e 3e ac 61 d2 3d d0 bd da 3e d3 22 af be
       0.20150691 0.10272536 0.4272294 -0.34206256
0000b0 bb 1c 32 3e 4a 7f 77 bf c2 d2 1d 3e 16 28 4d be
       0.17393772 -0.966786 0.15412429 -0.20034823
0000c0 b7 9b f4 be f3 ea 70 bf b4 c5 b6 be eb 01 66 bf
       -0.4777505 -0.94108504 -0.3569771 -0.89846677
0000d0 25 e0 fb bd 88 fd 95 3e b5 75 27 be 72 89 0f be
       -0.122986116 0.29294991 -0.16353495 -0.14017275
0000e0 84 42 1e bf f7 67 0a bf 04 67 72 3d 2c f4 88 3d
       -0.61820245 -0.5406489 0.059180275 0.06687197
0000f0 85 b9 cb be 9f 9f ca be 7a 9f 9f 3e f8 fe a1 bd
       -0.39789978 -0.39574906 0.31176358 -0.079099596
000100 eb fe c0 be 3e c9 86 bf f8 31 c4 bf 4a 97 26 be
       -0.37694487 -1.0530164 -1.5327749 -0.1626865
000110 81 fa 8e bd e9 5a e1 3e 4f fa 46 be 37 23 9a 3d
       -0.069813736 0.4401467 -0.19431423 0.07526248
000120 ba 0d 52 3f f8 f1 8c 3e f3 3c f1 3e c4 69 11 3e
       0.82052195 0.27528358 0.47116813 0.14200503
000130 d2 d9 8b be bf 85 22 3f 50 3d 80 3e d8 e4 07 bf
       -0.2731462 0.6348533 0.25046778 -0.5308356
000140 40 5f f0 bd e3 71 f5 bd ca 2e bc be a2 bd 0f 3f
       -0.117369175 -0.11984613 -0.36754447 0.5614873
000150 23 8c 9d 3f e5 c2 04 bf 40 5f e4 be 8c 30 19 3f
       1.2308391 -0.51859885 -0.4460392 0.598397
000160 46 ae 1d 3e 7d 3c ca be 23 c3 6f bf 27 62 4f bf
       0.15398511 -0.39499274 -0.9365713 -0.81009144
000170 72 bf 8b 3e 17 7a b7 bd 02 ea f9 3d 6f 3b 1e bf
       0.272945 -0.08958834 0.122028366 -0.6180944
000180 3f b1 74 bf e3 14 2e be 50 10 ea be fe 9f 93 bf
       -0.95582956 -0.17000155 -0.4571557 -1.1533201
000190 4e 9e 0d 3e 0c 75 cc 3e 71 ed 03 bf 7b e4 25 3f
       0.1382992 0.3993305 -0.5153418 0.6480176
0001a0 56 c9 6e 3e 2a 29 e3 3e 57 01 b2 3f c8 04 4c be
       0.23318991 0.44367343 1.3906659 -0.19923699
0001b0 c2 96 0a 3e 3e 9d 21 be 80 f1 bb be 2e 8c 35 bf
       0.13534072 -0.1578264 -0.36707687 -0.7091702
0001c0 c4 5c 14 3f 42 ed 0f bf 45 de 8c be e1 b6 d5 3d
       0.5795405 -0.562214 -0.27513328 0.10435272
0001d0 a7 fd 77 3d da 8e d9 bd 1c ab a9 3e 69 c4 62 3f
       0.060544636 -0.1062295 0.3313836 0.8858095
0001e0 f0 94 30 bf a8 53 89 3e 8a 9d 6f be 51 6e 1e 3e
       -0.6897726 0.26821637 -0.2339994 0.1547177
0001f0 ab 7d 95 be f2 ff 00 3f d9 0b 22 bf 5f 85 96 3f
       -0.2919744 0.5039054 -0.6329933 1.1759452
000200 d4 00 1a 3f 06 fb dd be 6e 53 c8 3f 86 ae 35 3f
       0.60157514 -0.43355578 1.5650461 0.70969427
000210 e1 52 96 bf 6f ed 62 3e 02 5d 80 3e f7 ca 21 bd
       -1.1744043 0.22160886 0.2507096 -0.039500203
000220 b7 cb 88 3d 3b 95 9b 3d 63 01 6f 3f 02 72 b5 3e
       0.066794805 0.07596823 0.9336149 0.35438544
000230 0b 31 19 3f 89 de af 3e 1f df 0b 3f e6 bb 29 bf
       0.5984046 0.34349468 0.5463733 -0.66302335
000240 80 54 7b 3d 0d 97 ac 3c e4 77 85 be ab 0a 3e bf
       0.061359882 0.02106812 -0.26068032 -0.7423503
000250 e8 5e 1c bf d1 29 bc 3e ce 18 8a be 30 49 2f 3f
       -0.61082315 0.36750653 -0.2697205 0.6847105
000260 2d 2f 0c bf e6 34 42 be b9 b5 72 3e 01 e2 6a bf
       -0.54759485 -0.18965492 0.23702134 -0.91751105
000270 29 7a 53 3e bf 20 2c 3e 4a 09 ed 3e 93 b8 24 3e
       0.20652069 0.16809367 0.4629615 0.16086034
000280 d8 05 ae be 3e d8 bc 3e e0 a3 8e be b3 24 47 bf
       -0.33988833 0.3688373 -0.27859402 -0.77790374
000290 01 91 ac be 51 bf 76 3e 54 77 78 3e 96 5d 76 be
       -0.3370438 0.24096419 0.2426427 -0.24059138
0002a0 fc f4 11 3e 1b b0 0d c0 5f cf 4b 3d 0c 66 90 bc
       0.1425361 -2.2138736 0.04975831 -0.017626785
0002b0 ea 2b 0b be 41 bf 36 be e0 44 2f 3e de 21 75 bd
       -0.1359097 -0.17846395 0.17116117 -0.05984675
0002c0 4b 71 4f 3d 84 32 7d bf 94 d9 a2 be 02 c3 ab bf
       0.050645154 -0.98905206 -0.31806624 -1.3418887
0002d0 e9 3e d3 bd 68 57 73 3f f2 5d ae bf 54 f1 29 3e
       -0.103147335 0.95055246 -1.362242 0.16595966
0002e0 6d ab b3 3e 40 41 e9 3d 39 27 28 3e f0 10 52 bf
       0.35091725 0.113893986 0.16421212 -0.82057095
0002f0 09 3b 65 be dd e7 33 bd 37 19 24 3f ba b8 85 3e
       -0.22385801 -0.043922294 0.64100975 0.26117498
000300 47 27 ff be ea 06 cb be f4 b8 84 bf b6 22 4e 40
       -0.49834654 -0.39653713 -1.0368943 3.2208686
000310 12 d9 06 3f 4f 46 08 bf 9e 79 46 bd 47 1c 97 bd
       0.52674973 -0.5323228 -0.048455827 -0.0737844
000320 2a 3f 1b bf 13 75 c4 be d7 08 8e bf de 96 0b 3d
       -0.60643256 -0.3837057 -1.1096448 0.034079425
000330 c5 66 05 be 0d 6b 2c 3f 8a 17 01 3f 41 ed 80 3d
       -0.13027485 0.67350847 0.5042654 0.062952526
000340 00 46 f6 3d 02 f1 b8 bd b7 d6 2c be 82 67 14 3f
       0.1202507 -0.090303436 -0.16878782 0.5797044
000350 9a 9c fe bf 0f a3 32 be 74 05 32 3e a8 29 30 3e
       -1.9891541 -0.17445014 0.17384893 0.1720339
000360 79 c4 47 be c5 3b b1 bb f1 77 62 bc 21 59 b5 be
       -0.19508542 -0.0054087364 -0.013822542 -0.35419562
000370 c8 6d a5 3f 3d a4 b0 be 09 54 ba bf a3 5c 41 bf
       1.2924128 -0.34500304 -1.4556895 -0.7553198
000380 cc 33 c3 be ec 8e 6d be 23 cb 2a bf 0f d0 54 bf
       -0.38125455 -0.23199052 -0.6671621 -0.8312997
000390 e9 23 0f 3f 76 dc 1e bf 9a cd cd bd 2f 74 11 bf
       0.5591417 -0.62055147 -0.10048981 -0.5681791
0003a0 f6 93 16 bf 9e 17 aa 3e b7 ef 45 bf f5 fd df be
       -0.5881952 0.33221143 -0.773189 -0.4374844
0003b0 9a 83 07 3f 6b 4b cc bc b4 0f b4 be 82 61 1a bf
       0.52935183 -0.024938306 -0.3516823 -0.60305035
0003c0 40 d1 80 be 50 28 9c be 1a 70 d7 3d cf 22 22 bd
       -0.25159645 -0.30499506 0.105194286 -0.039583977
0003d0 7b c2 75 3e a4 cb 7d be 1f 5b bd be 8d 9a b5 be
       0.2399997 -0.24784714 -0.36983582 -0.35469475
0003e0 8d 3d 2c 3e 35 64 d1 3c df cd 3b bf 7e 04 e6 be
       0.16820355 0.025560478 -0.7336101 -0.44925302
0003f0 bb af 0e 3f 12 e6 a6 bf fd a2 18 bf 3a 5b 7c bf
       0.55736893 -1.3038962 -0.596237 -0.985767

fc2.weight f4 [256, 256]
000000 ca c5 5a be 33 0d 10 be e4 ab c5 be e4 95 7e 3d
       -0.21364513 -0.14067535 -0.38607705 0.062154666
000010 b8 3e 95 3e 20 3d 16 bd bb b3 9c 3e 6a ee 2e be
       0.29149413 -0.036679387 0.30605873 -0.17083135
000020 11 aa 9a 3e 89 d3 4f be c5 fb 47 3e d4 42 8e 3f
       0.30207875 -0.20295538 0.19529636 1.1114144
000030 e3 42 d6 3b a4 db d4 bc 2d d5 21 3e 15 86 69 3e
       0.0065387352 -0.025983639 0.15803976 0.22805054
000040 f7 d3 2f bd 17 e6 94 be 16 49 75 3e 67 50 d7 be
       -0.042926755 -0.29081795 0.23953661 -0.4205353
000050 00 26 ff 3d fa b5 3f 3e 92 62 90 be 2c 63 a7 be
       0.1245842 0.18721762 -0.28200203 -0.3269285
000060 e2 43 89 3e 3a 45 e5 bd e6 ab 06 bf 81 34 3b 3d
       0.26809603 -0.111948445 -0.52606046 0.04570437
000070 d4 e7 92 bd 59 7e a6 3e 76 bb f9 bd 58 26 9a 3e
       -0.07173124 0.3251827 -0.121939585 0.3010738
000080 bc fe 3f 3e c7 45 21 3e ed 34 00 bb 67 6b 5b 3e
       0.18749517 0.15749274 -0.0019562796 0.2142769
000090 42 fa 52 bf 77 54 24 be 61 4e 8f 3d 98 b5 e5 3c
       -0.82413113 -0.16047846 0.069973715 0.028040692
0000a0 7c 09 a6 be 50 19 71 3e 86 73 b4 be ed 6c e0 3d
       -0.3242911 0.23544812 -0.35244387 0.10958276
0000b0 e6 72 62 be 01 55 8d bc a6 fd f1 be 4f cf 2d 3e
       -0.22114143 -0.017252447 -0.4726383 0.16973613
0000c0 aa 5e 4c bd 20 25 03 3f 89 e9 67 be 84 ca f2 3d
       -0.049894966 0.51228523 -0.2264768 0.11855033
0000d0 92 05 a0 bd cc 24 19 3e c1 6c fb be db 20 7b 3e
       -0.078135625 0.14955443 -0.4910641 0.24524252
0000e0 33 79 cf 3d d4 de 10 3e b8 f3 c1 3d 97 7a 85 bb
       0.10130539 0.14147502 0.09470314 -0.0040734517
0000f0 4b a5 c1 be f7 b7 e6 be 40 49 ee 3c 71 27 ca 3d
       -0.3782142 -0.4506223 0.029087663 0.09870804
000100 62 6e f2 3d 12 93 7a 3e 1a e0 1e 3d 59 1d eb 3e
       0.1183746 0.24470165 0.03878794 0.45920828
000110 c0 20 be 3e f8 77 1b 3e 6a 66 81 3e 67 94 7f bd
       0.3713436 0.15182483 0.25273448 -0.062397387
000120 2d 59 bb be 03 2a a7 be b8 70 0d bf 0d 80 6f 3e
       -0.36591473 -0.3264924 -0.5525012 0.23388691
000130 70 6f f3 bd 43 8d 62 bf e5 9c aa 3d 61 96 b3 be
       -0.118864894 -0.884968 0.083307065 -0.35075668
000140 1d 08 28 bd 39 dc 1f be c8 ff e1 bd df 6c 0d 3f
       -0.041023362 -0.15611352 -0.110351145 0.5524425
000150 bf 21 bb be 62 1f bd 3d a5 0c 37 3e 74 fe 0e bd
       -0.36549184 0.092345014 0.17875917 -0.034910634
000160 09 96 fb be 45 36 ae 3d f6 69 ab 3e 16 b2 87 be
       -0.49137905 0.08506445 0.3347928 -0.26503056
000170 cd e7 5d be 9d 1f 88 3e 85 fd 32 3e 16 28 0d bf
       -0.21670456 0.2658662 0.17479523 -0.5513929
000180 21 b2 06 3f 60 c2 2b bf c1 30 11 be 6c 60 87 3e
       0.52615553 -0.6709347 -0.14178754 0.26440752
000190 85 43 32 3f 9f 37 5b bf a7 4e 8b bd 3c 42 b9 bd
       0.69634277 -0.85631746 -0.06802111 -0.09045836
0001a0 63 e1 b0 3e 1f 62 3a 3e d0 a0 da be 7f 2a 3f bd
       0.34546956 0.18201493 -0.42700815 -0.046671387
0001b0 e3 e0 02 bf 80 55 88 3d c3 db ae 3d b1 c7 23 3e
       -0.511244 0.06656933 0.0853801 0.15994145
0001c0 88 f0 81 bd 8c 14 37 3c 8f f6 e7 3d 96 7f bf be
       -0.06344706 0.011174332 0.11326324 -0.37402028
0001d0 a5 b2 18 3e d2 c5 47 3e 03 95 15 be 0b f7 54 3e
       0.14911897 0.19509056 -0.14607625 0.20797364
0001e0 54 b2 37 3e 74 06 1e 3d b6 f9 89 bc e6 97 53 3e
       0.1793912 0.038580373 -0.016842704 0.20663413
0001f0 e3 20 c8 3e aa f7 33 be 74 16 0c bc e1 16 ca bd
       0.3908759 -0.17574945 -0.008550275 -0.09867645
000200 7c c5 8c 3e 2d 66 ac 3e 65 89 42 be 18 c8 74 bd
       0.2749442 0.33671704 -0.18997724 -0.059761137
000210 cf 70 cb 3e c7 59 a3 be f4 17 93 3d a9 c0 55 ba
       0.39734504 -0.31904432 0.07182303 -0.0008154014
000220 06 f8 9b be 20 0d ea 3e 97 01 41 be 4d 25 33 3e
       -0.30462664 0.4571314 -0.18848263 0.17494698
000230 f8 4e 31 3d 96 a1 7f 3d 0b 60 28 bd 41 e4 3d 3d
       0.0432882 0.06240996 -0.04110722 0.046360258
000240 0c 0e b2 3d 30 d9 f7 bc f9 df 00 3e ab 71 83 3e
       0.086940855 -0.03025493 0.12585439 0.2567266
000250 fd e2 4c 3d a5 0e b5 bd 01 37 3c bd 6f 6d 0f bc
       0.05002116 -0.08840684 -0.045950893 -0.008754118
000260 72 d2 77 be 58 ff 09 3e 0f d0 60 be 7f 53 0d 3f
       -0.24201372 0.13476312 -0.21954368 0.5520553
000270 f5 24 89 3d 22 3f 5e 3d 45 e0 ff 3d 91 57 07 bf
       0.06696502 0.054259427 0.12493948 -0.5286799
000280 58 0a 36 3e 9f 46 21 3e 9d 6d 22 be f5 76 2a bf
       0.17777383 0.15749596 -0.15862127 -0.66587764
000290 03 0b 83 ba 3c 13 03 3f b9 25 8d bd a3 73 3e 3d
       -0.0009997789 0.51201224 -0.06891961 0.046497
0002a0 5c 48 d5 be 43 2b ab be 89 d0 21 3e 83 ae 3b bf
       -0.41656768 -0.33431444 0.15802206 -0.7331316
0002b0 fc 2e 6b bf cd 1e 69 bd 82 6e 47 be 75 fc 09 be
       -0.9186857 -0.05691414 -0.19475749 -0.13475211
0002c0 2c ed aa be bd 7e 0d be 93 85 80 3e 82 16 9a be
       -0.33384073 -0.13817878 0.2510191 -0.30095297
0002d0 8c 9f ae 3e 9e 7b 6b bf 6d bf 3a 3f 7f 0b 55 3e
       0.341061 -0.919855 0.7294834 0.20805167
0002e0 9f 16 55 be c9 96 c2 3e 20 31 dd 3d 12 c1 95 3d
       -0.2080941 0.38005665 0.108003855 0.07312216
0002f0 aa 4c ef 3e ac 3c 5f 3d 7c 42 80 be 5d 4a 6b be
       0.46738178 0.05450122 -0.25050724 -0.22977586
000300 bb 73 a6 be 53 5a 90 bc 37 4d a6 bd e5 34 95 be
       -0.3251017 -0.017621195 -0.08120196 -0.29141918
000310 a9 16 36 be 24 44 39 bd a4 69 92 3e 67 ad 02 bf
       -0.17782082 -0.045231 0.28596222 -0.5104584
000320 a8 6a 90 3d 05 c6 5a be d5 54 34 3e 77 76 10 3e
       0.07051593 -0.21364601 0.17610486 0.14107691
000330 0f cd 0a be 5e 49 4e be 95 2f 6b 3d 51 d4 8a be
       -0.13554786 -0.20145175 0.057418425 -0.2711511
000340 0e 26 3e 3d 26 90 6d 3e af 49 85 be 12 c5 d6 bd
       0.04642301 0.2319952 -0.2603278 -0.10486807
000350 bf f2 05 3e c5 a5 3b be 36 53 c6 be 1b a6 cd bd
       0.13080882 -0.18324955 -0.3873536 -0.10041448
000360 6f c8 0b bf c6 eb 63 bd 54 20 ac be 53 31 87 bd
       -0.5460271 -0.055644773 -0.33618414 -0.06601205
000370 fb d0 db 3c 6c 73 a3 bd 12 cf 8a bc 5e 4c 28 bf
       0.026833048 -0.07980999 -0.016944442 -0.6574153
000380 4e a6 02 3e 58 34 03 bd fb ee d7 be 20 80 ef 3d
       0.12758753 -0.03203234 -0.42174515 0.1169436
000390 a5 53 cc bd b1 9a 94 3e 21 63 fa 3c 9f c8 b4 3e
       -0.099768914 0.2902427 0.030564846 0.35309312
0003a0 91 5d 99 3e 6f 1f 30 3e 30 cb 0d 3e ef 1d b0 bd
       0.29954198 0.17199491 0.13847041 -0.085994594
0003b0 c2 19 80 3e 90 39 b0 3e ce 07 66 3f 33 28 ac 3e
       0.25019652 0.34418917 0.8985566 0.3362442
0003c0 33 9a ee 3d 2d d1 8d 3a bb 32 61 3d 87 c3 7e 3e
       0.11650505 0.0010819786 0.05498002 0.24879275
0003d0 1f fa b8 3e 06 8d f5 bd 95 13 ff 3d e0 63 86 bd
       0.36128327 -0.11989789 0.12454907 -0.065620184
0003e0 b0 dc 3c be 80 b3 5a 3e a6 81 47 3e 1d 9d 31 3f
       -0.1844356 0.21357536 0.1948305 0.6938036
0003f0 85 fd 90 bd ce c6 12 3f 84 69 23 3e 65 29 68 3d
       -0.07079605 0.573346 0.1595822 0.056680102

fc2.bias f4 [256]
000000 c0 c0 16 40 48 6b 38 3f 7d 08 12 c0 73 e7 04 40
       2.3555145 0.720387 -2.281768 2.0766265
000010 fd a7 cc 3f 92 40 34 3f 15 93 78 bd 41 89 a3 3d
       1.5988766 0.70411026 -0.060687143 0.079851635
000020 c6 57 f0 3e fe f2 f1 bd ab 3a f3 3d 53 8c df 3f
       0.46941966 -0.11813925 0.118764244 1.7464699
000030 60 07 04 3f e7 cd 99 3d e4 46 b0 be 0a bf 2c c0
       0.51573753 0.07509976 -0.34429085 -2.69916
000040 c2 8c a5 be 2a 96 4a 3f 2a 3d da bf 5e 6c 6e 3d
       -0.32333952 0.7913538 -1.7049916 0.058208816
000050 19 d4 44 bf af 7e 0e bf 18 73 06 bf d4 9a ca 3f
       -0.76886135 -0.55662054 -0.5251937 1.58285
000060 64 f8 ac be 65 d8 07 bf 45 20 8e be aa be a5 be
       -0.33783257 -0.53064567 -0.27758995 -0.32372028
000070 06 e7 d7 bf 80 90 43 be 8f 09 f2 3e 80 0b c4 bd
       -1.6867378 -0.19098091 0.47272918 -0.09572506
000080 34 cf 7c bc 42 d5 2e 40 ab 6d 55 c0 66 e8 39 3c
       -0.01543026 2.7317662 -3.3348186 0.011346912
000090 2b d6 2e 3f cd 45 8e 3e b5 45 2e 3e 21 58 db bf
       0.68295544 0.2778763 0.17018779 -1.713627
0000a0 22 35 80 3d 4b 94 80 3e df 98 bf 3c 04 82 ca bf
       0.06260134 0.2511314 0.023388324 -1.5820928
0000b0 31 2f 09 40 33 3a 2c 3d f4 5c aa 3f 64 40 bf 3e
       2.1435053 0.04204769 1.3309617 0.37353814
0000c0 99 37 03 40 07 fd 52 3e cf 98 b0 3e ee b3 bc 3e
       2.0502684 0.20604335 0.34491584 0.36856025
0000d0 5e 9c 55 bf c0 e4 61 be 0b 3b ce bc e0 3c 09 bf
       -0.8344172 -0.22059917 -0.025174638 -0.5360851
0000e0 b1 b8 ba bf 86 f2 af bf 6e 92 d7 bf bb cd 89 bf
       -1.4587613 -1.3745887 -1.6841562 -1.0765909
0000f0 61 b7 62 3f 11 12 2f 40 2e d5 97 bd f2 68 d6 bc
       0.88561064 2.7354777 -0.07413708 -0.026173089
000100 f3 a8 20 bf ae 04 0b c0 1b ea 30 3f b2 88 fa bf
       -0.62757796 -2.1721606 0.69107217 -1.9572966
000110 3c 3f 0d 40 06 8f 2f 3d cc ee a0 be bb 5a 3a 3e
       2.2069845 0.042861007 -0.31432188 0.18198673
000120 9d c5 a2 3f 9e ba c1 3e 5e 65 88 3f 07 0e 62 be
       1.2716557 0.3783769 1.0655935 -0.22075664
000130 72 3b 12 3f b1 35 29 3d ef f9 e7 bd 17 d0 84 be
       0.57121956 0.04131097 -0.11326968 -0.2594001
000140 c5 56 10 c0 6d 9f f2 3d 40 a9 8e 3f 8e 1c f5 3e
       -2.255296 0.11846814 1.1145401 0.47873348
000150 17 ac 2b bd f8 9a 75 3f c0 f8 cc bd eb c5 42 3e
       -0.041912165 0.9593959 -0.10008383 0.19020812
000160 63 b6 bd 3f 1b fa 75 bf a6 7c 29 3f 3d cf 11 40
       1.4821285 -0.96084756 0.66205823 2.2782738
000170 28 98 c3 3f 85 82 a3 bf 50 db 48 3f 45 8c 27 c0
       1.5280809 -1.2774206 0.78459644 -2.6179364
000180 2e e8 a9 3f 15 6d 54 3e 64 c5 27 40 63 be 06 40
       1.3273981 0.20744736 2.6214228 2.1053703
000190 46 01 6d 3f 36 25 b1 bd 20 e2 ee bf 87 47 30 40
       0.9258007 -0.086496755 -1.8662758 2.7543657
0001a0 e9 62 18 40 80 7f 84 3c 64 74 a5 be 20 8f b2 3f
       2.381037 0.016174078 -0.32315361 1.3949928
0001b0 ab ec 36 3e 26 0e 2c bd 14 67 a2 3e af 61 0d c0
       0.17863719 -0.04200568 0.31719267 -2.2090871
0001c0 39 60 40 3f 45 2d 9c 3f db ee 04 bd 2c 35 df 3c
       0.75146824 1.2201315 -0.032454353 0.027247034
0001d0 a7 95 cc 3e 1a c4 97 3f 0e 97 f5 3e 19 c3 9a bf
       0.39957926 1.185672 0.47966808 -1.2090789
0001e0 6d 76 c8 bf 58 a2 d3 3f 59 86 0e 40 3c 81 10 bf
       -1.5661141 1.6533918 2.22695 -0.56447196
0001f0 f1 f5 1b 3d e5 f4 ac 3f c3 8a b5 be 52 f1 14 bd
       0.038076345 1.3512236 -0.3545743 -0.036362953
000200 b1 28 c1 bd fe 1b 14 bf f8 9f 65 bc 9d cd eb 3d
       -0.094315894 -0.5785521 -0.01401519 0.11513827
000210 3d 74 72 3e 2a 61 8d 3f 91 eb 55 bf b3 6d 77 3f
       0.23677154 1.1045277 -0.8356257 0.9665176
000220 dc bf 9e 3e 4b a3 16 40 8c 64 0a 3d 09 5d 5c bf
       0.31005752 2.3537166 0.033787295 -0.8607946
000230 df 88 a9 bd 99 77 8f 3f 5e ae 11 c0 01 c1 3c 40
       -0.08278059 1.1208373 -2.2762675 2.94928
000240 4e 1d cf bf c8 4e dc 3e 9e f8 f2 bd 45 6c d0 3c
       -1.6180818 0.43028855 -0.11863826 0.025442252
000250 f2 28 3d c0 52 c5 b1 be c7 99 51 c0 57 ad 6c 3f
       -2.955624 -0.34720856 -3.2750108 0.92451996
000260 29 5b a2 bf c5 fa 3e 40 4c 6d 4e 40 36 ce 2a 3c
       -1.268407 2.9840558 3.225421 0.010425141
000270 cf cf 78 3f db 8a 42 3f 1f 97 71 3f 18 b2 7d 3f
       0.9719209 0.75993127 0.9437122 0.99099874
000280 59 8f ce 3c ee c0 30 3f 52 d3 d4 bf c0 ba 95 3e
       0.025214838 0.6904439 -1.662699 0.2924404
000290 b4 73 a9 bf 9a 1d a3 3f 07 d0 58 3e fe e6 96 3f
       -1.3238435 1.2743409 0.21173106 1.1789243
0002a0 dd 16 dc bf dc da 8d bf bd 70 b0 3e c4 50 fb 3f
       -1.7194477 -1.1082416 0.34461012 1.9634023
0002b0 2b 0e a5 bf 30 97 d1 3f d7 52 ff 3e 61 43 2b 40
       -1.2894949 1.6374264 0.4986789 2.6759875
0002c0 17 2f 23 bf 6c de f1 be 76 0b c7 3e 66 22 38 be
       -0.6374373 -0.47240007 0.38875932 -0.17981872
0002d0 54 e1 d8 be 2c 16 09 3d a7 50 e9 bf c2 6b 24 c0
       -0.42359412 0.03346841 -1.8227738 -2.569077
0002e0 07 11 02 bf 5a 1d 3b 3f 26 c0 11 bd 0d b4 25 40
       -0.5080723 0.7309166 -0.035583638 2.5891144
0002f0 54 39 6c 3f 30 5d 4e bf 49 02 42 bf 6b b2 0b 40
       0.92274976 -0.8061094 -0.75784737 2.1827648
000300 5f 3a a2 3f 02 5f 3f c0 dc da 00 c0 00 f9 fe 3e
       1.2674063 -2.9901738 -2.013358 0.49799347
000310 4e 1e 08 be c8 32 8b 3f 9b 9a 2f 40 b4 af 48 40
       -0.1329281 1.0874872 2.7438114 3.135724
000320 a1 e1 cf bc 52 6f f2 3e 07 17 ae 3c 8f ed 3e bf
       -0.025376143 0.47350556 0.021251215 -0.74581236
000330 8d c3 a9 bd 73 f0 94 bf 35 8e ab bf 98 85 f9 3e
       -0.082892515 -1.1635879 -1.3402773 0.48734736
000340 a0 a1 b7 bf d0 d1 0a be 15 b9 c3 3f d8 d5 70 3f
       -1.4346199 -0.135566 1.5290858 0.940763
000350 85 32 d4 3e 3a c7 a9 3e f5 f2 02 c0 e9 06 48 40
       0.41444793 0.3315981 -2.046079 3.1254218
000360 0a a1 28 c0 5a 8f 77 3f d9 05 10 3e 0d 53 43 40
       -2.634829 0.9670311 0.1406473 3.051944
000370 e5 c4 da 3e 16 3d 53 3e 0a 75 99 bf b5 65 08 c0
       0.42728344 0.20628771 -1.1988842 -2.1312077
000380 00 fb c3 3c 7a 96 54 3f e3 b5 89 3f 5d 6a 34 3f
       0.023923397 0.8304211 1.0758632 0.704748
000390 d4 d4 3c be 77 aa 00 40 9d c1 60 be f9 ea 13 3f
       -0.18440562 2.0104043 -0.21948858 0.57780415
0003a0 e7 a7 ef bf c2 de ad 3e 29 a2 c0 be a7 b9 6d bf
       -1.8723115 0.33959013 -0.37623718 -0.9286141
0003b0 ea 25 8a be f9 dc 5b 40 c4 cf c7 3f 82 c0 d4 bc
       -0.2698205 3.435362 1.561028 -0.025970701
0003c0 cb 27 58 3f 3c 5a 26 be 08 1e 84 3f cf 31 d2 3f
       0.8443572 -0.16245359 1.0321665 1.642145
0003d0 cb 3c b2 bf 60 dc c2 3f 44 68 32 40 2f 6c ed bf
       -1.3924803 1.5223503 2.7876139 -1.854864
0003e0 ad cb 90 3e a0 15 99 3f fb 73 ac bf d8 db 6d 3e
       0.28280392 1.1959724 -1.3472894 0.23228395
0003f0 5c 92 15 3f f9 e7 a9 bf c3 86 51 3f 81 b2 15 3e
       0.5842645 -1.3273917 0.81846255 0.14618875

q.weight f4 [1, 256]
000000 5e 74 bb be 6d ec 73 bf 21 ba 0d 3e 9e 23 ce be
       -0.3661222 -0.9528263 0.13840534 -0.4026155
000010 5d 89 a2 be 3f c0 06 c0 27 e0 85 3f e0 cf 2b c0
       -0.31745425 -2.1054838 1.0459031 -2.6845627
000020 95 09 0b bf 6f a7 03 40 f9 79 aa 40 90 a8 8b be
       -0.54311496 2.0570943 5.3273892 -0.2727704
000030 9b c0 8e 40 39 4a 56 40 c6 72 68 3f 73 ca ab 3e
       4.4610114 3.3482802 0.9080013 0.33552894
000040 b2 b7 a3 3f 46 1d 44 bf ba 7f cf 3e d0 35 92 40
       1.2790434 -0.7660717 0.40527135 4.569069
000050 20 53 83 3f e2 5d 3f 3f 8c 6a 0c 40 0a 28 a4 be
       1.0259743 0.7475263 2.194003 -0.32061797
000060 2e 71 91 c0 61 23 4b 40 2f 5c 84 c0 f8 1e 51 40
       -4.545066 3.1740344 -4.136253 3.2675152
000070 f0 84 9c 3e 72 ab 37 3f 89 81 da c0 07 5f aa c0
       0.30570173 0.7174598 -6.8283124 -5.3241
000080 bd 96 91 3c 3c 34 fa be f9 49 46 3e 84 98 4a 3c
       0.017772073 -0.48867977 0.19364156 0.012365464
000090 c1 7d 47 bf 64 28 ba 3f 36 34 cd 3f 30 e8 54 3e
       -0.7792626 1.4543576 1.6031559 0.20791698
0000a0 5d 6d 85 c0 85 fe c1 40 4f c0 b4 3e db d3 55 3e
       -4.1696 6.0623193 0.3530297 0.20881598
0000b0 b0 61 91 be ea f7 1c c0 e7 dd 9c be 80 15 a1 c0
       -0.28394842 -2.4526315 -0.30638048 -5.0338745
0000c0 4a 48 db be e8 2c ba c0 43 dc 23 c0 d6 a3 e5 3f
       -0.4282859 -5.8179817 -2.5603187 1.7940624
0000d0 6f 41 fb 3e ac cd 00 40 1d 6c 1b 40 d8 d5 0f 3f
       0.4907336 2.0125532 2.4284737 0.56185675
0000e0 ae 64 eb 3d 45 5d e3 3e 96 5f d4 3e 61 7c 8c 3e
       0.114938125 0.44407097 0.41479176 0.27438644
0000f0 cb e5 95 bf 2b f7 1b be ac 64 fe 3b 93 07 b6 3f
       -1.1710752 -0.15231006 0.007763466 1.4221061
000100 65 76 f7 3f 5c e1 8c 3e f6 99 06 40 22 3c d2 3e
       1.9333006 0.27515686 2.103147 0.41061503
000110 29 08 32 bf e6 16 52 3f be 0d 2f 40 99 f8 bc c0
       -0.695437 0.8206619 2.7352138 -5.9053464
000120 7f a7 bc be bf a3 04 40 cb 19 a2 bf c2 4e 30 3f
       -0.3684654 2.0724943 -1.2664121 0.68870175
000130 5d 10 07 c1 38 8a e5 3f 08 a9 ac 40 c8 48 a4 3f
       -8.441495 1.7932806 5.3956337 1.2834711
000140 5b 2e 19 3e ab 4d 0a 40 05 64 0c bf 52 cf 29 c0
       0.1495909 2.1609905 -0.5484012 -2.6532788
000150 a7 19 b3 3c 8f 65 51 c0 13 35 75 40 50 23 2f c0
       0.021862818 -3.2718236 3.8313644 -2.7365303
000160 4b ba 72 be 76 17 5d 3f e3 bb ea bf a7 10 81 be
       -0.23703878 0.86363924 -1.8338588 -0.25208017
000170 3a f2 e7 be c1 83 02 3f 6d ed c4 bf 90 bf b6 3e
       -0.45301992 0.5098229 -1.5384957 0.35693026
000180 e2 bd 1c bf cb 1c 53 c0 c2 3a 20 be 02 31 8c be
       -0.6122724 -3.2986324 -0.15647414 -0.2738114
000190 10 f9 d7 be a5 67 39 40 67 3a 7b 3e 0e 45 61 be
       -0.42182207 2.896951 0.24533997 -0.21998999
0001a0 55 65 86 be 12 1e 3a 40 ad f2 f2 3f bd a2 58 bf
       -0.26249185 2.9080853 1.8980309 -0.8462332
0001b0 19 6a 96 c0 2a 03 9d 3f 58 42 68 40 7b b6 6e 3e
       -4.7004514 1.226659 3.6290493 0.23311798
0001c0 7e 08 3a c0 42 c7 c0 be bd 8a 3a c0 d8 65 43 40
       -2.9067683 -0.37652022 -2.914718 3.053091
0001d0 ca 54 2e c0 9c 83 7f c0 3d 21 ad 40 29 24 dc 3f
       -2.723925 -3.9924078 5.4103074 1.7198535
0001e0 2b 7d 90 3e 41 7c e3 bd 0c 63 a7 be c2 d9 e8 3f
       0.28220496 -0.11107684 -0.32692754 1.8191454
0001f0 ad f3 72 40 b6 96 16 bf 90 05 2e 3f e3 a1 61 3f
       3.7961228 -0.58823717 0.6797724 0.88137645
000200 e0 1a 3c c0 37 1d 7b 40 81 94 14 c0 19 26 d7 bf
       -2.9391403 3.9236581 -2.321564 -1.6808501
000210 e5 62 39 40 f3 1f bd bf 7f dc ac 3f 0e be 9d bf
       2.896661 -1.4775375 1.350479 -1.2323625
000220 ba 5b 8f 40 51 fc ab be d5 a3 0a bc a8 7b 48 3f
       4.479947 -0.3359094 -0.008461912 0.78313684
000230 8e a5 b0 3f 34 94 0f be 58 98 43 3e 6a 3a 83 be
       1.3800523 -0.14021379 0.19101083 -0.25630504
000240 e2 37 ca 3e fa 63 ff bf b7 39 2e 40 eb 63 4d 40
       0.3949576 -1.9952385 2.7222726 3.2092235
000250 e3 63 95 3e af 1a 47 3f 9d 35 9c 3e e4 e8 2d bf
       0.2917777 0.7777509 0.30509654 -0.6793349
000260 29 2a 16 3f 32 ba 0b bf 32 fd 32 be 34 76 8f bb
       0.5865808 -0.54580986 -0.17479399 -0.0043781046
000270 0d 15 b3 be a8 13 08 c1 b2 8b a9 be f3 11 70 bf
       -0.34976998 -8.504799 -0.33114392 -0.9377739
000280 81 66 e5 40 4b 98 a0 bf 2f 80 c2 3e e1 60 7f 40
       7.1687627 -1.2546476 0.3798842 3.990288
000290 18 62 a7 3e b3 af 98 bf 6c 72 1c c0 9a 80 ef be
       0.32692027 -1.1928619 -2.4444838 -0.46777803
0002a0 0d 88 70 3e b2 e3 be 3e 84 05 85 40 a0 10 14 be
       0.23489399 0.37283093 4.1569233 -0.14459467
0002b0 39 76 a1 3e 5d 67 f4 be 57 da fd bf 3a e4 49 be
       0.3153551 -0.4773511 -1.9832257 -0.19715968
0002c0 7c 44 0b 40 06 89 3b c0 e5 fe 29 40 fa 2c 4e c0
       2.176055 -2.9302382 2.6561825 -3.2214952
0002d0 cd 00 ae 3f 3d 18 8b 3b 82 ac af 3e e4 d7 39 3e
       1.3593994 0.004244833 0.343113 0.18148762
0002e0 d7 fd 48 40 42 00 30 bf 96 ba 9a 3a 73 2c b9 be
       3.1404932 -0.68750393 0.0011804875 -0.36166725
0002f0 9e f0 3d bf 8c a0 7d 3f 25 5f 55 40 af cf d0 bd
       -0.7419528 0.990731 3.3339322 -0.101958625
000300 e2 c2 f5 be 08 8e cf 3d e7 cc 94 3e 03 24 2c c0
       -0.48000246 0.10134512 0.29062578 -2.689698
000310 c4 c0 4e c0 08 2c e8 bf 26 1a 3a be 92 9d b2 bb
       -3.2305155 -1.8138437 -0.18174037 -0.0054509128
000320 12 05 e7 bc ae 60 4a 40 0a a8 00 40 0f 93 1e 3f
       -0.02820066 3.1621509 2.0102563 0.61943144
000330 c0 84 38 3f 10 5e 4d 3f 03 83 dd 3e 87 38 e9 bf
       0.7207756 0.80221653 0.43264017 -1.8220376
000340 db 28 04 3f bb 69 5a c0 9a 8b f3 be 42 97 44 bf
       0.5162484 -3.4127033 -0.47567445 -0.767933
000350 5f 26 91 40 ae 7f 77 bf 0c bd a6 3e 73 1a 55 be
       4.535934 -0.966792 0.32566106 -0.20810871
000360 27 a1 97 3e 2a d3 e0 40 be 16 11 40 c8 86 2d be
       0.29615137 7.025777 2.267013 -0.16945946
000370 f8 c1 b0 c0 25 cb 87 c0 cd f5 89 3e 4f 08 be 3e
       -5.523678 -4.243548 0.26945344 0.37115714
000380 6f 2c 00 3f 4b 57 28 bf 34 ae e7 be 50 2e 95 bf
       0.500678 -0.657582 -0.45250094 -1.1654758
000390 f7 03 5e c0 6b d6 19 bf 2f dc 2b 40 1e d2 8a c0
       -3.468992 -0.600928 2.685314 -4.338149
0003a0 4f ae 9a 3e 36 69 67 40 4d 61 21 40 fa 8c 02 3f
       0.30211112 3.6157966 2.5215638 0.50996363
0003b0 d3 d0 6c 3f e8 99 1d be bc 64 48 bf 7c 83 8f 3b
       0.9250614 -0.15390742 -0.7827871 0.004379688
0003c0 f0 2e 9a bf 33 cc 4c 40 e5 59 74 bf 05 a3 83 be
       -1.2045574 3.1999633 -0.9544967 -0.25710312
0003d0 4c 4e 96 3e ee 3f 35 be e5 41 8e be 9e 34 90 3e
       0.2935661 -0.17700168 -0.2778465 0.28165144
0003e0 37 2b cb c0 42 73 05 bf 83 b4 58 3e 5a 9b 56 3f
       -6.3490252 -0.52128994 0.2116261 0.838308
0003f0 bb 75 34 bf 7b 24 6e 3e 30 51 76 bf 0f 8d c7 c0
       -0.7049214 0.23256104 -0.9621763 -6.235969
