TD3/models/hockey_tournament_agent/01000000/target_actor.pth (torch, 288959 bytes, 6 tensors)

fc1.weight f4 [256, 18]
000000 66 4b 14 3f 7d 54 6a be 35 8d fe 3e 56 4b b7 bd
       0.5792755 -0.22883792 0.49717107 -0.08949916
000010 9d ae 98 3c 57 53 5d be cd b1 d9 be 76 8d 6d bb
       0.01863795 -0.21613823 -0.42518464 -0.0036247647
000020 ac 72 61 3e 6b 22 09 bf e2 56 99 bf dc 1e d7 be
       0.220164 -0.5356814 -1.197964 -0.4201573
000030 d2 8e d6 be 08 b1 d4 be 92 f2 1a bc bc f9 f7 3d
       -0.41905838 -0.41541314 -0.009457247 0.1210818
000040 1d a1 3e c0 18 e3 bf be 53 73 a8 be ad 5f e1 3e
       -2.9785836 -0.37477946 -0.32900485 0.44018307
000050 96 f6 11 bf 8a fa 9c 3c 11 92 6d 3c 4f eb e6 bd
       -0.57016885 0.019162435 0.014500157 -0.1127535
000060 8d 99 05 be 6e 14 31 3f d3 e1 b3 3f 0b 0d 91 3d
       -0.13046856 0.691718 1.4053291 0.07082566
000070 61 f3 44 bf 83 29 ba 3d 32 7d 86 3e d0 b6 86 3e
       -0.76933867 0.09089949 0.2626739 0.2631135
000080 de 30 dc bc 65 8f 61 3d 45 53 1a 3e d3 b1 92 be
       -0.02687877 0.055068392 0.15070827 -0.28651294
000090 97 d5 0a be 4e 09 2e 3e 64 f0 e0 3d 2b e9 04 be
       -0.1355804 0.16995737 0.10983351 -0.12979572
0000a0 a3 ef be bd ae 90 d0 3d 4e dd 09 bd 04 4e 7c 3f
       -0.09323051 0.101838455 -0.03365832 0.9855654
0000b0 7c 07 19 bf a6 cd cf 3d b1 2d c8 3e 8f 71 03 be
       -0.59777045 0.10146646 0.3909736 -0.12836288
0000c0 b5 0e f5 be 06 ac 81 bf 3d d6 cb 3d f8 3c b8 bc
       -0.47862783 -1.0130622 0.09952972 -0.02249001
0000d0 e0 06 b1 3c 6a 0d 31 3e 70 ee 45 be 1b 41 0e bf
       0.021609724 0.17290273 -0.19329238 -0.55568093
0000e0 de 78 45 3f 9a 65 82 be 64 62 4a bc 1d ae 94 3c
       0.77137554 -0.2546814 -0.01235256 0.01814943
0000f0 32 a0 dc be 90 24 e6 3d 81 21 e0 3d cc 3c e6 bd
       -0.4309097 0.112374425 0.1094389 -0.11242065
000100 a0 bb 47 3e 37 6e 2c bd 30 80 86 3e cb 53 c0 3e
       0.19505167 -0.042097297 0.26269674 0.3756393
000110 7a 0c 2c 3d 1f c2 e3 3e 6b be 22 3f f1 5e 8d be
       0.042004086 0.4448404 0.63571805 -0.27611497
000120 45 67 e8 3d 94 05 5e bd c4 df c3 3e 95 87 e8 3d
       0.11347822 -0.05420454 0.38256657 0.11353985
000130 3a 2a 5b 3e 40 5e ac 3d 77 f0 ae 3e 46 e3 f9 3e
       0.21402827 0.08416414 0.34167835 0.48806208
000140 09 a9 9c bd 01 44 79 be 83 00 43 3e 5a ca c7 be
       -0.076494284 -0.24342348 0.19043164 -0.3902157
000150 22 b6 82 be 59 fb 00 bf ac 5b 06 bd 7b a3 51 3d
       -0.2552958 -0.50383526 -0.03280227 0.051181298
000160 9c 92 1a bf dd b7 bb be 2a 54 2b 3f c0 80 a9 3d
       -0.6037996 -0.36663714 0.669253 0.0827651
000170 6c ad 17 bf fe 99 7e bd 32 59 64 3e 4e 84 3c bd
       -0.59248996 -0.062158577 0.2229965 -0.046024613
000180 24 18 37 be 94 81 cc 3d 80 b3 20 40 5c 2d db 3e
       -0.17880303 0.099856526 2.5109558 0.42808044
000190 17 1b 57 be 12 09 9b bd 76 1b 42 3e b3 7e 9a be
       -0.21006428 -0.075700894 0.18955788 -0.3017479
0001a0 ad 81 52 3d 67 8e 78 be 04 89 2f 3e 42 9c 49 3d
       0.0513932 -0.24273072 0.17142111 0.049221285
0001b0 29 43 d9 be 0a ea 06 3f e0 bc 92 be 4d 6c a0 be
       -0.42434052 0.52700865 -0.28659725 -0.31332627
0001c0 76 5e 23 3d d0 42 de 3d 2a 47 c1 be ed 1d f8 3e
       0.039885007 0.10852587 -0.37749606 0.48460332
0001d0 b6 17 16 3e 41 66 00 be 39 65 a3 be 9a 4d 68 3e
       0.14657483 -0.12539007 -0.31913164 0.22685853
0001e0 57 7a 96 3e 96 fd ff 3e a6 e3 2d 3d 56 6f 60 3d
       0.29390213 0.49998158 0.04245343 0.05479368
0001f0 e9 b2 d9 bf ce 88 9e bf a8 67 dd 3e 35 16 e5 3e
       -1.7007724 -1.23855 0.43243146 0.44743505
000200 96 8b c1 be 02 74 9a 3e c8 c7 be bd 5e b9 4f be
       -0.37801808 0.30166632 -0.09315449 -0.20285556
000210 68 ed d4 be 3e e9 ac 3e f3 a5 00 3f 22 df 4a 3e
       -0.41587377 0.337717 0.5025322 0.19811681
000220 06 3b fe be bb 91 f6 bb 11 d9 d6 3e af 08 1d be
       -0.49654406 -0.0075246966 0.41962484 -0.15335344
000230 b9 cb 0f bd 75 a5 36 be 5a c8 ae bc d0 8b b0 bd
       -0.035106394 -0.17836554 -0.02133577 -0.08620417
000240 e4 f2 71 3f 11 1c a1 be 0e 0d 06 3f 07 41 2c bc
       0.94511247 -0.31466725 0.5236367 -0.010513551
000250 1d be 6d 3e 35 24 f2 3d 85 55 16 bf 16 ed ac 3e
       0.23217054 0.11823312 -0.5872424 0.33774632
000260 99 2b 14 3f 67 be 4b 3d a1 57 93 bd d9 5f 28 3e
       0.57879025 0.04974213 -0.07194448 0.16442813
000270 bc d0 37 bf 07 54 6b be 25 40 3c bd cc 5e b2 bd
       -0.7180288 -0.22981273 -0.04595961 -0.08709487
000280 91 12 ef 3b 94 3a 53 3e 56 29 bf bd b5 9a e8 3d
       0.0072959145 0.20627815 -0.09334056 0.11357633
000290 97 f0 47 3e f7 1d 39 bd 41 5e 98 3c 5d ce a5 3d
       0.19525371 -0.045194592 0.018599631 0.08096001
0002a0 7d f2 b6 be 6c 90 81 bf 77 85 a0 3e c8 25 23 be
       -0.3573188 -1.0122199 0.31351826 -0.15932381
0002b0 98 47 f3 3e 42 5f 1c 3e eb 79 1b bd 80 d4 fd bf
       0.4751556 0.15270713 -0.037958067 -1.9830475
0002c0 48 19 b4 3d 46 d3 4f bf 78 05 5a bf 30 83 2f be
       0.087938845 -0.8118175 -0.85164595 -0.17139888
0002d0 c4 49 99 3f df 4c 6e 3d 17 0f 1e 3f bb 1e 47 3e
       1.1975636 0.05817878 0.61741775 0.19445316
0002e0 a8 bc bf 3e 87 c2 2b be 18 00 00 bf e7 aa e9 3e
       0.3744862 -0.16773425 -0.50000143 0.456382
0002f0 a9 98 a1 3f d0 ad 8c be ee d9 13 be 4f be c4 3d
       1.2624713 -0.27476358 -0.14438602 0.09606611
000300 2f e7 65 3d e5 74 b6 3e a1 c0 0b 3e 59 55 00 be
       0.056128677 0.35636058 0.13647701 -0.12532558
000310 82 75 39 3d 1b af 8e 3e d7 66 78 be cf 82 d5 bd
       0.04527808 0.2786797 -0.2425798 -0.104253404
000320 aa a3 81 be 0d 79 8d bb d8 0a 46 bd e8 2d aa 3c
       -0.25320178 -0.004317409 -0.048350185 0.020773843
000330 5f 8c e0 bc 8a 53 41 bf 23 a0 85 40 37 4f 66 bd
       -0.027410684 -0.75518095 4.175798 -0.05622789
000340 09 22 7a 3d 20 2c c7 3d 88 3c 1a 3d c3 fe 73 be
       0.061067615 0.09725213 0.037655383 -0.23827653
000350 05 f3 98 bd 7a cd 84 be 28 2a 10 3f 54 39 ac 3d
       -0.07468227 -0.25938016 0.56314325 0.08409372
000360 5a dc 8d 3e d0 83 01 be d8 22 63 bf 2e 08 0a be
       0.27707177 -0.12647939 -0.8872504 -0.13479683
000370 91 79 f2 bd b4 a2 40 3c 65 2e 4e 3e 06 9e 8f 3f
       -0.11839593 0.011757541 0.20134886 1.12201
000380 6f d2 87 3f 79 8d 0b bc 96 3c d9 3c 00 1a 3c 3d
       1.0611094 -0.008517616 0.026518147 0.045923233
000390 98 03 2b bf e6 c2 20 bf 09 b5 54 3d 59 9b 1b be
       -0.6680236 -0.6279739 0.05193046 -0.15195979
0003a0 82 cd b6 3e 82 aa a3 3e 63 57 e3 be 8f 3f 41 3f
       0.35703665 0.31966025 -0.44402608 0.7548761
0003b0 26 e8 1b bf 63 2d 0c 3d 4c 7b 11 bd 76 db 20 3d
       -0.60901105 0.03422297 -0.035517976 0.039271794
0003c0 31 e1 99 be 20 ea 6f 3f cc a2 ee be fa 93 a2 3e
       -0.3005462 0.9371662 -0.4660858 0.31753522
0003d0 c4 93 7e 3d dd 00 29 bd d8 f6 17 3f 1c 86 0f 3c
       0.06215264 -0.04126059 0.5936103 0.0087600015
0003e0 d0 86 af 3c e6 1e 2b bd a0 a6 3f bf 44 bc ab be
       0.021426588 -0.041777514 -0.74863625 -0.33542073
0003f0 3d f6 8e be e3 bc 10 3e 1a 1e a4 bf 40 5f 2a be
       -0.2792224 0.14134555 -1.2821686 -0.16637897

fc1.bias f4 [256]
000000 a8 19 85 3e 0c 27 1f 3f 68 df e5 bd 7b c1 66 3e
       0.25996137 0.62168956 -0.11224252 0.22534744
000010 85 64 eb be eb 4a 57 be e3 5a 08 3f d5 40 ca be
       -0.45975128 -0.21024673 0.5326368 -0.39502588
000020 1e 3a e7 3e a2 19 0a bf dd 84 e0 be 4a 3b 63 bf
       0.45161527 -0.5394536 -0.43851367 -0.8876234
000030 ad 69 21 bf 42 84 01 bf a4 35 a7 be 0f cd f6 be
       -0.63051873 -0.50592434 -0.32658112 -0.48203322
000040 99 f6 0d be 69 5c 4a be 48 dd 2a bf f5 02 9d be
       -0.13863601 -0.19761814 -0.667439 -0.3066632
000050 9a e2 bb be 79 6c bd 3e 3e 62 5e be aa ea a5 3e
       -0.3669632 0.3699682 -0.21717164 0.32405597
000060 5a 93 70 be f9 17 be be a7 e0 67 3e 8f 8b 5c 3e
       -0.2349371 -0.37127665 0.22644292 0.21537612
000070 0f 44 8b 3e 91 7e 54 3f 23 b2 18 bf cc 1b 08 bf
       0.27200362 0.83005625 -0.59646815 -0.53167415
000080 13 77 25 bf b7 d6 96 3e e7 7f 83 3d 54 72 90 be
       -0.6463482 0.2946069 0.0642088 -0.28212225
000090 8b 9a 32 be e0 96 21 bf 07 02 29 bd c7 0b 37 bf
       -0.17441766 -0.6312084 -0.0412617 -0.71502346
0000a0 f5 e9 13 3e 10 33 fb be 57 2f ad be 95 14 aa be
       0.14444716 -0.49062395 -0.3382518 -0.33218828
0000b0 a7 2e cf be 61 8b c5 be f9 c3 ef be c3 a6 92 bd
       -0.4046528 -0.385829 -0.46829203 -0.071607135
0000c0 7f 11 bf 3e b9 22 20 3f 59 94 9f bb a7 da 20 bf
       0.37318036 0.6255298 -0.0048699793 -0.62833637
0000d0 74 fc ed be 17 17 99 be e9 2e d3 3c 66 b9 9f be
       -0.4648167 -0.2990043 0.025779204 -0.31196135
0000e0 23 0b 2e bf 55 0f 85 be 51 aa 23 bf 7b 28 c2 be
       -0.67985743 -0.2598826 -0.6393176 -0.3792151
0000f0 47 15 0d bd 37 41 c2 be 94 17 27 be a6 fb a3 bf
       -0.03444412 -0.3794038 -0.16317588 -1.2811172
000100 20 f5 a8 bf bc 95 5a bc 14 70 12 bf dc 57 b3 be
       -1.3199806 -0.0133413635 -0.5720227 -0.3502797
000110 2a 2a cd be 9b 0a ec 3e 4d c6 bd be 94 58 e8 be
       -0.4007123 0.4610184 -0.37065354 -0.4538008
000120 37 21 70 be eb 0e 43 bf 97 51 d5 be 50 c0 ae 3d
       -0.2345017 -0.7619464 -0.4166381 0.085327744
000130 9e 2f 57 be 3f 17 51 3e 87 f3 e0 be 23 79 86 bc
       -0.21014258 0.20419024 -0.43935797 -0.016415184
000140 a8 c9 05 bd 85 e4 23 bc e6 7d 44 3d dc 9f de be
       -0.032663018 -0.010003214 0.04797163 -0.43481338
000150 8f 7d c0 bc 54 55 07 3e 69 df 16 bf f3 c5 e2 be
       -0.023497371 0.13216144 -0.58934647 -0.44291648
000160 1e 00 31 3c 4b a2 ee be 74 ee 9d be e1 ac 29 3e
       0.010803251 -0.46608195 -0.30845988 0.16569854
000170 24 30 f3 bd 3b ae a8 be 89 6c 5e bf af d1 42 be
       -0.118744165 -0.32945427 -0.8688436 -0.190253
000180 0c 27 e1 be ef 2e e0 be 84 75 a2 be 78 50 0d 3f
       -0.43975103 -0.43785807 -0.31730282 0.5520091
000190 a0 f3 9f 3d 0d b9 61 bf b1 f6 57 bd e1 09 c1 be
       0.0781014 -0.8817299 -0.052725498 -0.3770285
0001a0 e9 3a ef be 31 d9 91 be f6 01 06 3c 5e c0 42 bf
       -0.46724632 -0.28486016 0.008179178 -0.7607478
0001b0 ba 3f 88 bf 6b 2d 67 3f 97 1c 8a be 3c ec 87 be
       -1.0644448 0.9030368 -0.26974937 -0.2654742
0001c0 79 0a 19 3e 10 81 9d 3e a6 42 ad be 08 88 09 bf
       0.14945401 0.3076253 -0.3383991 -0.5372319
0001d0 21 c2 99 ba 8a 14 26 be 9d 2e e5 3d 8d 26 25 bd
       -0.0011730829 -0.16218773 0.111905314 -0.040319968
0001e0 c0 be c5 3e 09 25 80 be fa 25 ed be ee 7d 46 3f
       0.38622093 -0.25028256 -0.46318036 0.77535903
0001f0 38 5f 37 bf 94 08 4c bc 97 02 0e be 5a ce 4a 3e
       -0.7162967 -0.012453217 -0.13868175 0.1980528
000200 67 85 28 be ee cd 58 3f f1 9e 6c bf 61 1b 0e 3f
       -0.16457139 0.84689224 -0.92430025 0.55510527
000210 2e cb b6 3d 2c f0 5c be d5 00 c1 3e 5f f0 2c bf
       0.08925472 -0.21575993 0.37695947 -0.6755428
000220 48 4a dd be 1c 06 11 3d b1 a0 56 bf f4 8e 22 3c
       -0.43220735 0.035406217 -0.83838946 0.009921778
000230 94 a5 f4 be a9 c7 3c bf 89 d6 95 be 3f 5e 1a bf
       -0.47782576 -0.7374216 -0.2926524 -0.6030006
000240 ba 25 af be e0 1f f7 be 74 98 1f bf a7 85 a9 3e
       -0.3420847 -0.48266506 -0.62342 0.3310978
000250 36 70 8d be 06 32 06 bf 73 e0 86 3e 9b 76 61 be
       -0.27624673 -0.5242008 0.26343116 -0.220179
000260 d8 b4 36 bf 49 40 1f bf b3 dd 4a 3e 5a 81 94 be
       -0.71369696 -0.62207466 0.19811134 -0.29004937
000270 cf f0 68 bf d5 a2 ae be 7b ad 6f bf 20 a2 08 bf
       -0.90992445 -0.34108606 -0.93624085 -0.53372383
000280 f3 cb 16 3f 8a 36 2b bf 2d 11 3d bb da f3 71 3e
       0.5890495 -0.66880095 -0.002884935 0.23628178
000290 3f c8 2b 3f d2 f5 32 be 5b 33 cc be 5c a5 fd be
       0.67102426 -0.17476586 -0.3988293 -0.49540222
0002a0 b9 cf 07 bf 2e 04 a1 3c 80 1c 55 bf 71 1a 04 bf
       -0.53051335 0.019655313 -0.8324661 -0.51602846
0002b0 1d 01 5e 3d 1c d5 4d bc 75 50 03 bf c0 63 25 be
       0.05420028 -0.012563016 -0.5129464 -0.16151333
0002c0 e2 0e 0c be 4f 8a 85 bf c4 23 b3 3e c5 26 d5 be
       -0.13677552 -1.0432833 0.34988225 -0.4163114
0002d0 5e 42 33 3d 43 ba 45 3b cc 16 b9 be 93 b9 90 3e
       0.043764465 0.0030170835 -0.36150205 0.28266582
0002e0 30 82 8b 3c e0 d5 40 bf c2 b8 bf bd b6 d2 e5 be
       0.017029852 -0.7532635 -0.09361412 -0.44887322
0002f0 d8 ca ae be cf 44 cc be b3 06 f4 be f5 c2 59 be
       -0.34139132 -0.39896247 -0.4766136 -0.21265776
000300 b4 dc 59 bf a9 f0 4c 3e c7 aa 83 3e 7a db 27 bf
       -0.8510239 0.2001368 0.2571623 -0.6556927
000310 87 ae cd be 57 5c 38 bc 8d fc ad be 2d e7 42 bf
       -0.40172216 -0.011252484 -0.33981743 -0.76133996
000320 d8 66 50 3e d6 89 87 be 9b e9 c0 3e 0a ba 08 bf
       0.20351732 -0.26472348 0.37678227 -0.53408873
000330 09 3b 2e bf 40 d8 36 3e f2 f4 62 bf 22 72 ff 3b
       -0.6805883 0.1785593 -0.88655007 0.007795588
000340 2a ea 12 bf fd a4 21 bf ea 9b bb 3e 65 d0 fd bd
       -0.57388556 -0.6314238 0.3664239 -0.12393264
000350 e5 31 bb 3c 38 cc 27 bf a9 a8 cd bc a6 f2 16 3f
       0.02285094 -0.6554599 -0.025104837 0.58964
000360 38 0b ef be 19 4e fd 3d 62 22 35 bf 7a d1 30 bd
       -0.46688247 0.123684116 -0.7075559 -0.043168522
000370 84 16 bd be 32 c2 c8 bd 73 17 8d 3e 66 23 c3 3d
       -0.3693124 -0.09802665 0.27556953 0.09528236
000380 8f 15 5c be 2f 6a 4d bf fd de 8a be d7 06 e7 be
       -0.21492599 -0.8024015 -0.27123252 -0.45122406
000390 b0 ae 32 be 99 b6 41 3e 39 d4 15 be 4a 8b d1 3d
       -0.1744945 0.18917312 -0.14631738 0.102316454
0003a0 d7 70 31 3f d5 e3 b4 be 39 6f 0d bd 82 33 ca be
       0.69312805 -0.35330072 -0.0345299 -0.39492422
0003b0 77 31 cb bd ea 9d ae bc 55 c1 3f bf 79 1d 33 be
       -0.09921544 -0.021315534 -0.74904376 -0.17491712
0003c0 f9 2c 0e bf ff 51 90 3e 75 c9 11 3c 66 df 12 bf
       -0.5553737 0.28187558 0.008898129 -0.5737213
0003d0 0e 2b cb be 3d 9c 54 3c ef d9 bc 3e 71 1e 45 bf
       -0.39681286 0.012976703 0.3688502 -0.76999575
0003e0 f8 30 59 bf 21 8d 0e 3e a0 81 34 be ac ce b8 be
       -0.84840345 0.13921024 -0.17627573 -0.36095178
0003f0 5c 6e be be 7d a5 29 be 33 81 0d bf 3d e4 9e be
       -0.37193573 -0.16567035 -0.5527527 -0.31033507

fc2.weight f4 [256, 256]
000000 a9 02 4c 3d 68 74 ad bd 10 2c 6c be 29 3d 47 3e
       0.049807224 -0.08469468 -0.23063684 0.19456924
000010 dc 2c 48 3e b2 e3 4a 3e 24 ed 08 3e 3e 16 a3 3c
       0.19548362 0.19813421 0.13371712 0.019908067
000020 80 38 10 3d 81 94 da bb 03 6d 04 3e 18 79 2a bf
       0.035210133 -0.006670535 0.1293221 -0.66591024
000030 e3 32 35 be bc f7 73 3e 8b c1 ce 3e e9 8e bb 3e
       -0.17695193 0.23824972 0.40382037 0.3663247
000040 ea e5 8a be ec a9 ae be b4 ec a9 bd 49 94 72 bf
       -0.27128536 -0.34114015 -0.08297101 -0.94757515
000050 2d 49 44 3e a5 28 71 3e 3c 89 28 3e 90 e9 08 bd
       0.1916854 0.23550661 0.16458601 -0.033425868
000060 81 79 60 3d 18 59 f7 be 99 04 03 bd 6a 3f 20 bf
       0.054803375 -0.4831016 -0.031986807 -0.6259676
000070 cb b7 3d 3e 1c 60 0a 3e 01 f9 61 3e d4 09 22 be
       0.18527143 0.13513225 0.22067644 -0.15824062
000080 31 d6 8d 3d 5f c0 ad be 7e e9 fc bd 6f da 0e 3e
       0.069256194 -0.3393583 -0.123492226 0.13950513
000090 65 18 10 3e f5 24 00 be ce cf 04 bf 8d 8e 00 bf
       0.14071806 -0.12514098 -0.51879585 -0.50217515
0000a0 e0 97 47 3e 77 2f 1e 3c ef 28 ca bd e6 30 c8 bd
       0.1949153 0.009654871 -0.09871089 -0.09774952
0000b0 2d 59 56 3e e7 57 5a be e4 38 4e 3e d9 49 b6 be
       0.20932455 -0.21322595 0.2013889 -0.35603216
0000c0 b1 4c 09 bf b9 35 9e 3e 08 4a 90 3d 40 9e f9 bd
       -0.53632647 0.30900362 0.0704537 -0.12188387
0000d0 28 fe b8 be 57 ab 61 bd c2 df 81 be d7 5b 90 be
       -0.36131406 -0.055095043 -0.25366026 -0.28195068
0000e0 b0 04 00 be 20 01 8a 3e 17 6e 63 be e0 be 7d 3d
       -0.12501788 0.26953983 -0.22209965 0.06194961
0000f0 40 1b 80 3e a4 7f c6 3d d1 72 91 be 45 ba 8c 3e
       0.2502079 0.09692314 -0.2840791 0.27485862
000100 b8 97 4b bd f0 88 fa 3d 4b 58 9a 3e fd 83 11 3e
       -0.049705237 0.1223315 0.30145487 0.14210506
000110 56 b9 5f 3e 72 84 fa bd 73 78 08 be ef e9 74 bd
       0.21848044 -0.12232293 -0.13327198 -0.05979341
000120 d9 e5 a9 3d 55 22 c7 3c b8 5f 9c 3e 0e 37 db 3d
       0.08295793 0.024308363 0.30541778 0.1070386
000130 aa c5 5d bf 26 a4 0f 3e 8a 1e ba 3e 82 ae d5 3d
       -0.86629736 0.14027461 0.36351424 0.10433675
000140 21 83 31 be 6a 87 ba be db 40 04 bf 92 08 ca bd
       -0.17335178 -0.36431438 -0.5166146 -0.09864916
000150 56 29 b4 bd 50 50 bb 3e a9 e2 3b 3e 41 73 8c bd
       -0.08796947 0.3658471 0.18348183 -0.068579204
000160 7c 5e df 3b b8 f3 8d bf 86 64 a9 be 4e dc 32 3e
       0.0068166833 -1.1090002 -0.33084506 0.17466852
000170 0c 53 86 be 05 91 05 bf 7a ad 63 3e 91 99 88 3e
       -0.26235235 -0.5217441 0.22234145 0.26679662
000180 ee c2 e8 bd 24 25 4f be 49 95 d5 3e 38 fc 7c bd
       -0.11365305 -0.20229012 0.41715458 -0.061763972
000190 57 88 28 be 5c 70 2a 3e eb 0e cb 3e d7 00 72 bf
       -0.1645826 0.16644424 0.3965982 -0.9453253
0001a0 f3 b5 b6 3e ff f3 44 3e 85 0b 6a 3e fe 92 10 be
       0.3568569 0.19233702 0.22855957 -0.14118573
0001b0 a1 b7 05 bf 2d bc 29 3e 9b 7c 2a be d9 bf 77 be
       -0.5223332 0.1657569 -0.16649096 -0.24194278
0001c0 4f 8e a9 bc f2 5b ca bc b7 c2 43 be 3c 44 b5 3e
       -0.02069774 -0.024702046 -0.19117247 0.3540362
0001d0 cc bd 08 3e d3 a1 b5 bd 3c 3d 23 3f a7 9a 33 3d
       0.13353652 -0.08868756 0.6376531 0.04384866
0001e0 04 97 2f 3e d7 68 c3 3d 8c 64 bb bd 86 43 6a bf
       0.17147452 0.09541481 -0.09150037 -0.9150928
0001f0 77 36 d0 3e 94 76 54 bf 92 ff 1a 3e 18 0d 45 be
       0.40666553 -0.82993436 0.15136555 -0.19243276
000200 9f ab 4c 3e 6b 0b 8b bd e6 17 a1 3e 51 b3 a7 3d
       0.19987343 -0.06789287 0.31463546 0.08188499
000210 8b 20 91 be bb 20 be 3e c7 93 ba 3d 11 94 a1 bd
       -0.2834514 0.37134346 0.091102175 -0.078895696
000220 29 00 78 bd 3c 7f 36 3c cc 38 fb be e8 b7 45 be
       -0.060547028 0.0111387335 -0.4906677 -0.19308436
000230 ab 59 32 bd 6a 07 73 bd f9 27 8e 3e 78 02 be 3c
       -0.043542545 -0.059333242 0.27764872 0.023194537
000240 80 1d 54 be 71 53 61 bc 6f 3e 20 bf e8 a9 cb bd
       -0.20714378 -0.013752804 -0.62595266 -0.099445164
000250 86 e9 9b be e1 5d 8a bd 48 f4 0a 3d 2f ce 26 bc
       -0.30451602 -0.06756187 0.03392437 -0.010180994
000260 be 59 bf be cb 9d 20 bb 76 ff 60 be 55 36 72 bd
       -0.37373155 -0.0024508114 -0.2197245 -0.059133846
000270 ca c0 0a be 25 f9 4e 3d 16 1c 9e bc ee bf 2d bf
       -0.13550106 0.05053057 -0.019300502 -0.67870986
000280 19 bb 40 3e 6a e2 3c 3d c0 d7 00 bd 00 81 00 3f
       0.18821372 0.046114363 -0.031455755 0.5019684
000290 c4 7f 91 be d4 6e 8e 3e b5 f4 3a 3d 59 f2 00 3e
       -0.2841779 0.2781893 0.045643527 0.12592448
0002a0 c3 0f 16 be fa 6c 00 be 10 ee 45 bd 77 d2 b8 be
       -0.1465445 -0.12541571 -0.048322737 -0.36098072
0002b0 05 e4 8f 3c b7 8a 0c 3d 39 61 05 3e f2 76 30 be
       0.017564783 0.034311976 0.13025369 -0.17232874
0002c0 bf 33 85 be a3 af a0 bc f7 4d bb be e5 ad 9a 3e
       -0.26016042 -0.019615 -0.3658292 0.30210796
0002d0 67 2a 7a 3e 6f 61 ab 3e 65 37 c9 3b fc 02 da 3e
       0.24430238 0.33472773 0.0061406367 0.42580402
0002e0 27 d7 9d be 1c 7e 9b 3d 7f 61 8f be 70 86 ad be
       -0.3082821 0.07592413 -0.2800407 -0.3389163
0002f0 fa 4b 28 3e d5 e9 8a bc be e0 52 3e cc a6 82 be
       0.16435233 -0.016957203 0.20593545 -0.2551788
000300 6c 2c 41 3e 99 6a b5 3e 23 56 55 be 9d e5 97 be
       0.18864602 0.3543289 -0.2083364 -0.2966737
000310 d2 df 81 3e 0f 16 a6 3d 61 5a 4f be 66 7f 45 3e
       0.25366074 0.08109676 -0.2024932 0.1928688
000320 06 69 ce 3e 21 e5 8c 3e 32 cd 43 be fd 60 8c 3e
       0.40314502 0.2751856 -0.19121245 0.27417746
000330 38 3e c9 3d eb ec 90 bd e9 a8 16 3e 2e 19 74 3e
       0.098263204 -0.070764385 0.14712872 0.2383773
000340 2a 18 fd bd b2 8f 37 be 3d 57 a0 bd 0f 33 08 bd
       -0.123581246 -0.17925909 -0.078291394 -0.03325182
000350 42 d0 a0 3c 15 5a f1 be 38 49 a0 be c9 38 b3 be
       0.019630555 -0.4713904 -0.3130586 -0.3500426
000360 1a 4f da bd 7f 99 95 bf c1 ef ef 3d 41 e4 7e 3e
       -0.10659619 -1.1687468 0.11715651 0.2489176
000370 89 b6 01 3f 93 1f 8b be 36 0b a9 bb 8d 22 04 be
       0.5066915 -0.27172527 -0.005158807 -0.12903805
000380 80 ad 10 bd 74 27 57 3d 08 ee ac be c3 68 d1 3d
       -0.035321712 0.05252786 -0.33775353 0.1022506
000390 2f dd b7 3b c8 02 e4 bc e0 86 06 be 9f bf cb 3d
       0.005611084 -0.027833357 -0.13137388 0.09948658
0003a0 dd 97 a4 3e e0 db 08 bd da a3 a5 3c f8 c5 13 bc
       0.32147112 -0.033412814 0.020219732 -0.009019367
0003b0 7f 87 74 3d dc d8 7b be ac 11 20 be b8 fc 04 be
       0.05969953 -0.24594444 -0.15631741 -0.1298703
0003c0 57 d9 20 3e 40 7b 30 3e fe 0a 33 3e 9b e1 6e 3e
       0.15707909 0.17234516 0.17484662 0.23328249
0003d0 31 81 2c be 41 45 8d bd ae 05 bc 3e 23 56 eb 3d
       -0.16846158 -0.06897975 0.36723083 0.11491039
0003e0 b5 67 97 be ad e9 57 be 9f 01 bf 3d e1 11 6e 3e
       -0.2957131 -0.21085234 0.09326481 0.23249008
0003f0 66 c7 0e 3e b5 c5 d4 3d ec c4 25 bc b5 da 27 3e
       0.13943252 0.10389272 -0.010117751 0.16392024

fc2.bias f4 [256]
000000 30 04 ef bd 40 f4 9a be 3c f9 c9 bd 55 7b 02 be
       -0.116707206 -0.30264473 -0.09861991 -0.1274236
000010 a2 48 84 3c 85 2d 29 3f 50 ff a2 3d e8 1a 5e 3e
       0.016147915 0.6608508 0.07958853 0.21689951
000020 7f c5 7f 3e 7e f0 85 bd 9c 09 86 3e d8 57 b0 be
       0.24977683 -0.06540011 0.26179206 -0.3444202
000030 eb a2 9d 3b 8f fe b2 3d ec 1f 68 be 92 50 50 bc
       0.004810681 0.087399594 -0.22668427 -0.012714522
000040 69 16 e9 bd 0e 89 45 3e 5c d7 92 be f3 70 1b 3e
       -0.113812275 0.19290563 -0.2867993 0.15179805
000050 0b 4f 8b be f9 94 0f be fa 87 45 be ce 32 96 3d
       -0.27208742 -0.14021672 -0.19290152 0.07333909
000060 d9 2f b1 be af e8 54 be e9 1c b3 3d 46 70 c0 3e
       -0.34606817 -0.20791887 0.087457485 0.37585658
000070 f8 d5 5c be f5 50 1c 3d 36 0a 9e be 19 92 2a be
       -0.21565998 0.038163144 -0.30867165 -0.16657294
000080 c4 91 b1 3d 73 9c 46 3d 12 00 fe 3d c0 39 3f be
       0.08670381 0.048489045 0.12402357 -0.18674374
000090 2f 39 06 be c0 4a cd 3c 0f 5b c1 be 3b 15 82 be
       -0.13107751 0.025060058 -0.37764785 -0.25406823
0000a0 e9 cc e2 3c 4a 0e 0e 3e b0 28 ba bd 25 30 91 bc
       0.0276856 0.13872638 -0.09089792 -0.017723152
0000b0 95 bb 78 be 2b ff 30 bd 84 ac 93 be 49 9f bd be
       -0.24290307 -0.043212097 -0.28842556 -0.37035587
0000c0 2d 8e 6e be 5c 19 14 be 8f 86 5b be 6e 69 87 be
       -0.23296423 -0.14462799 -0.21438049 -0.26447624
0000d0 24 68 09 bf 08 53 04 3d a3 48 61 bd 57 e0 8b be
       -0.5367453 0.032305747 -0.055000912 -0.27319595
0000e0 92 f0 55 be f0 3b bb 3d f2 f0 a6 3d 2a 47 1d be
       -0.20892552 0.091422915 0.081514254 -0.15359178
0000f0 21 c9 12 3e 38 f7 2f be a7 10 1c be c5 56 17 3d
       0.14334537 -0.1718415 -0.15240727 0.036947984
000100 b5 c9 0e 3e cf e5 b4 be 56 eb 5f 3e d8 a5 5b be
       0.13944133 -0.3533158 0.21867117 -0.21449983
000110 71 e1 d1 3b 42 8a c7 3c 0c 6c 73 bb 39 8c c8 be
       0.0064050485 0.024357919 -0.0037143258 -0.3916948
000120 25 fd f0 bc 83 4c 67 bc 4f 06 8f bd e4 fe 87 be
       -0.029417584 -0.014117363 -0.06983625 -0.26561654
000130 11 a0 12 3e 90 03 ad be ae 4a 93 bd 63 9b 62 bd
       0.14318873 -0.3379178 -0.071919784 -0.05532397
000140 d3 23 f8 bd b8 e8 0c bf 1f c3 02 bf 08 51 b5 3e
       -0.12116208 -0.550426 -0.5107898 0.35413384
000150 c6 29 97 bd d7 9c 80 bd f6 90 8a 3d 98 86 a7 bd
       -0.073810145 -0.06279915 0.0676593 -0.081799686
000160 93 f2 a5 3e 26 40 a8 be 7e 20 f1 be e2 c0 01 3e
       0.32411632 -0.3286144 -0.47095102 0.12671235
000170 09 16 1b 3e 14 7a 4c 3e 8b cb c5 be d2 e1 51 3c
       0.15145124 0.19968444 -0.38631853 0.012810187
000180 2c 2c 1b be 45 82 02 3d 2c 39 a1 be c6 bb e1 be
       -0.15153569 0.031862516 -0.3148893 -0.44088572
000190 c2 fa 7a be f9 3c 02 bc b5 26 9e 3d 03 dd 0a bd
       -0.24509719 -0.007949107 0.077222265 -0.03390218
0001a0 b3 c8 7d be c9 f0 56 be e5 4e 38 3e 28 d5 35 bd
       -0.24783592 -0.2099029 0.17998846 -0.044392735
0001b0 e0 ab 45 bd 37 19 30 bc 87 13 a8 be 5f 1a 11 be
       -0.048259616 -0.010748199 -0.32827398 -0.14170216
0001c0 f4 8c b3 bd 6a 80 2f 3e e5 45 02 bf 4a 15 9e 3e
       -0.08767119 0.1713883 -0.508879 0.30875617
0001d0 9b 39 6a be e7 f4 52 be ce a6 6a be 92 fd 3a 3e
       -0.22873537 -0.20601235 -0.22915193 0.18260792
0001e0 29 cc ee be f0 2c 8d 3c 0f e4 0f be eb fb 97 be
       -0.46640137 0.017233342 -0.14051841 -0.29684386
0001f0 83 92 af bd 54 f6 b6 be f3 25 9a bd 91 76 80 bd
       -0.08572867 -0.35734808 -0.075267695 -0.06272615
000200 00 11 c3 3e 65 fd 97 be 52 c8 0f 3e 6a 71 91 be
       0.38098907 -0.29685512 0.1404126 -0.2840684
000210 98 93 13 bd 82 66 0c 3e 1c 81 27 be 11 85 64 be
       -0.03602943 0.13710979 -0.16357845 -0.22316386
000220 92 22 d8 3e 59 21 fa bd 2f b4 f3 3d d6 8e d9 3d
       0.42213875 -0.12213392 0.11899602 0.10622947
000230 94 81 be 3c 91 93 96 3e 24 41 bd bd e2 e6 fc bd
       0.023255147 0.2940946 -0.0924094 -0.12348725
000240 eb c5 8b be 1e bb 99 bd 34 72 c7 bd a9 ce d7 3e
       -0.27299437 -0.07506393 -0.097385794 0.42149857
000250 5e 56 2b be 33 5c 9e 3d de 50 18 be 81 68 60 be
       -0.16732165 0.07732429 -0.14874598 -0.21914865
000260 f1 76 e3 3d 53 9a e6 bd 0b 78 61 3e f4 36 54 be
       0.11106671 -0.11259904 0.22018449 -0.20724088
000270 29 4d fc bd 06 29 ac 3e 14 da d8 bd 11 94 48 be
       -0.12319405 0.33625048 -0.1058847 -0.19587733
000280 a6 8f 9f bc 99 e3 04 be 3c 64 b4 be fa 11 74 3c
       -0.019477677 -0.12977447 -0.35232723 0.014896864
000290 cd 7b 83 bd 03 df 82 be a9 8e 8f be 89 f1 69 3e
       -0.064200975 -0.2556077 -0.2803853 0.22846045
0002a0 25 29 63 be fc fd 08 bf 6d b4 82 3b a3 1f 6c be
       -0.22183664 -0.5351255 0.0039887936 -0.23058943
0002b0 02 74 2d bf 94 c2 08 be b3 a0 cf 3d 46 77 bf bd
       -0.6775514 -0.13355476 0.10138073 -0.093489215
0002c0 f8 ab ee bd 18 c7 77 3d 80 dc e9 3e b0 8c 3a bd
       -0.11653894 0.060492605 0.4567604 -0.045544326
0002d0 11 be 18 be 7d d4 0e bd ed 90 c8 be ef 7b c0 be
       -0.14916255 -0.034870613 -0.3917307 -0.37594554
0002e0 46 61 b6 be 89 33 41 bd a3 ee d6 be bd 0d 45 3e
       -0.3562109 -0.04716829 -0.4197894 0.19243522
0002f0 b2 ce 1e be 5a a0 4f be 9c 52 80 be 6f e8 90 be
       -0.15508536 -0.20276013 -0.25063026 -0.28302333
000300 77 e8 d9 be d7 03 9a be c3 9f 49 bd 31 11 c9 bd
       -0.4256017 -0.30081055 -0.049224626 -0.09817732
000310 89 5e 45 be 2d 00 a6 3d 51 bf cb be 62 1f 1c be
       -0.19274344 0.08105502 -0.397944 -0.15246347
000320 d6 11 66 bc 6f 36 04 3e 4f d8 1c be d2 1d 73 bc
       -0.014042338 0.1291139 -0.1531689 -0.014838653
000330 dd 48 ac 3e 6c 57 87 bc 9f 78 a6 3d 44 e3 a6 bd
       0.3364934 -0.016521178 0.081284754 -0.08148816
000340 15 37 b8 3d 0e b2 03 bf ad a2 2b bc 33 00 5b be
       0.08994881 -0.51443565 -0.010475797 -0.21386795
000350 9e 81 10 bd f8 1b bc 3d e9 6d ca be 14 bd a2 be
       -0.035279863 0.09185022 -0.3953698 -0.3178488
000360 66 87 cc be 1f 6f 04 bc 72 34 63 3e 07 2e 47 3e
       -0.3994705 -0.008083134 0.22187975 0.19451152
000370 5d 04 e7 3c c3 2a bc be 0d 65 17 be 55 8f cf 3e
       0.028200323 -0.36751375 -0.14784642 0.4053904
000380 51 25 8c bd 0b a0 35 3d 98 ef 31 3e dd 5e a3 3d
       -0.06843055 0.044342082 0.17376554 0.07977078
000390 94 52 97 bd da fa 86 be 43 71 3e be 57 f7 48 bb
       -0.073887974 -0.2636326 -0.18597893 -0.0030665004
0003a0 5d 54 8f be 93 cc e2 bb b9 f8 ef be 39 69 46 bc
       -0.27994052 -0.00692136 -0.46869448 -0.012110048
0003b0 6e c2 32 3e 6b 09 70 be c6 1a 9b be b4 f8 73 bd
       0.17456982 -0.23441093 -0.30293864 -0.059563354
0003c0 11 02 08 bf 95 95 2f be 80 00 1c bf 01 a0 09 bd
       -0.53128153 -0.17146905 -0.6093826 -0.033599857
0003d0 b3 bd 51 be d7 f6 a0 bc c6 29 e0 3d 96 46 2e bd
       -0.20482521 -0.019648952 0.10945468 -0.042547785
0003e0 9a ec 8c be d9 37 cb bc c1 d0 19 3d bf 1b 19 be
       -0.27524263 -0.024806904 0.0375526 -0.1495199
0003f0 95 fe a6 be 60 71 37 3c 0c 9d ef be 3e b3 fd be
       -0.32616106 0.011196464 -0.46799505 -0.49550813

mu.weight f4 [4, 256]
000000 63 ff 0d 3e 5b 14 f5 3e 23 e5 9d 3e ac 4e 63 bf
       0.13866954 0.47867092 0.3083888 -0.8879192
000010 f2 ca 2e 3e e4 34 f1 be 80 7e d7 3d 94 ff 43 3d
       0.17069605 -0.47110665 0.10522175 0.04785116
000020 ae 0d ff 3c fe ea de be 0c 3b 2a 3c f1 39 9b be
       0.031134453 -0.4353866 0.010390054 -0.30317643
000030 de 72 64 3d d5 27 13 3f 98 e1 a3 3e a9 5c 5e 3d
       0.05577361 0.57482654 0.32008052 0.054287586
000040 63 e1 74 3e ea 32 11 be 68 93 9f be c2 b7 b0 3d
       0.23914103 -0.14179578 -0.3116715 0.08628799
000050 8e 6b 17 3f e8 5f 6d 3d d3 7f 2f bf b4 3c 9e 3d
       0.5914849 0.05795279 -0.6855442 0.07726422
000060 65 de 80 bd cf ac a0 3b b3 8b 1e 3d f9 bf 67 3e
       -0.062924184 0.004903413 0.038707446 0.22631826
000070 57 22 52 3e af 52 63 bd f1 e2 d3 be 5d e6 dd bc
       0.20520912 -0.055498775 -0.4138408 -0.027087385
000080 a9 38 06 bf 4e de c0 be 4b fb aa bd 7f e1 ff be
       -0.52430207 -0.37669605 -0.083487116 -0.49976727
000090 2b ec 06 bf f8 6f 08 be b2 30 29 3f c2 6d f2 be
       -0.52704114 -0.13323963 0.6608993 -0.47349364
0000a0 d4 e8 9d 3d b8 27 28 3e 78 85 33 3d 9d 04 e2 3e
       0.07710424 0.16421402 0.043828458 0.44144145
0000b0 83 2d cb 3e 3b 38 cc 3e af 9c a3 be 13 3e 0d 3f
       0.3968316 0.3988665 -0.31955478 0.5517284
0000c0 d6 c2 f7 3e 1c 43 d3 3e 2c 53 a2 3e e0 70 30 bc
       0.48390836 0.41262138 0.3170408 -0.010769099
0000d0 c5 ae ba be 96 a6 b0 3e d5 1a c3 be 5a b4 7d 3e
       -0.36461464 0.34502095 -0.3810641 0.2477583
0000e0 ef a2 bd bd 5b 1a ee 3c 88 76 dd 3e fa a3 e3 be
       -0.09259593 0.029065302 0.43254495 -0.44461042
0000f0 33 31 d2 3e 11 54 ea bd 62 0d c6 be ce b0 09 3d
       0.4105316 -0.11441816 -0.38682085 0.03361588
000100 df 92 5c bc f9 bc cc be 8c 85 80 bd 00 1b a8 3d
       -0.013462751 -0.39987925 -0.06275472 0.08208275
000110 1c 20 61 be c5 46 eb be d9 19 1f 3d 1c 8d d8 be
       -0.21984905 -0.4595243 0.03884301 -0.42295158
000120 58 1a 18 3e 06 e8 dc bd 2d 1b 8f be 6e 8f c1 bc
       0.148538 -0.107864425 -0.2795042 -0.023627963
000130 49 43 d6 be 1e 27 aa 3e f0 5f 36 bd 7b 3f 80 3c
       -0.4184821 0.3323297 -0.044525087 0.01565527
000140 90 a2 5b 3d 56 c0 7d bc 34 9a 92 3e c7 05 1d be
       0.05362183 -0.015487751 0.28633273 -0.15334235
000150 3b 11 ce 3d 6f 6e 25 bd ca 4b 06 bf 43 3e da 3d
       0.1006188 -0.04038852 -0.52459395 0.10656407
000160 0f d4 70 be a4 bc 79 3e 16 94 45 3f 83 c2 b2 3e
       -0.23518394 0.24388367 0.77179086 0.34914026
000170 d0 82 c6 be a6 60 2f be 3b 94 21 3e 7a 2a fa be
       -0.38771677 -0.17126712 0.15779202 -0.48860532
000180 f5 d5 41 3f 02 ab 8f 3e 1d 28 cf 3d 06 be 93 3e
       0.757171 0.28060156 0.10115073 0.28855914
000190 09 f2 a8 3e 3e 28 c5 3e 4c d0 47 bd 28 b7 89 3d
       0.32997158 0.38507265 -0.04878263 0.067243874
0001a0 d0 5e 60 bd 26 72 e4 3e 13 49 ee 3d 5f 57 cd bd
       -0.05477792 0.44618338 0.116350316 -0.1002643
0001b0 d3 89 41 be ad e8 1b 3d 00 cc a2 3e d7 3c d9 bd
       -0.18900232 0.038063694 0.31796265 -0.106073074
0001c0 6c 17 56 3e b1 78 55 be a0 00 59 bf ff 46 fa be
       0.20907372 -0.20846821 -0.8476658 -0.4888229
0001d0 65 53 33 bf a8 f9 80 3e 86 45 ab be c8 98 23 be
       -0.70049125 0.25190473 -0.3345148 -0.1597625
0001e0 98 83 7b bf 9a 96 4e 3f 32 78 06 bd 72 b6 4f be
       -0.9824767 0.8069855 -0.03282947 -0.20284441
0001f0 ba 0b b5 3e fb 58 ed 3d a0 de 49 3f 19 d1 bb be
       0.3536051 0.11589237 0.78855324 -0.36682966
000200 42 56 97 be 3c f3 04 bd 4c e7 33 be 0e 18 3a be
       -0.29557997 -0.03245853 -0.17568702 -0.18173239
000210 4d c3 e2 bd 58 04 06 3f 4c 37 b7 3e a9 3a 04 be
       -0.11072407 0.5235038 0.35784376 -0.12913002
000220 b9 37 db bc a0 61 e1 bd b8 57 b8 be 5a 17 cf bd
       -0.02675997 -0.110049486 -0.36004424 -0.10111876
000230 dc c8 d8 bd 13 0b b2 be 45 96 2c 3f fc c7 de be
       -0.10585186 -0.34774074 0.67416793 -0.4351195
000240 f7 ae 6a be af 7a a4 bc ce d4 f0 3e 11 86 5c be
       -0.22918306 -0.020078031 0.47037357 -0.21535517
000250 7f 6c bd 3e 07 29 47 be bc c4 1d bd f1 e6 a6 3d
       0.36996838 -0.19449244 -0.0385177 0.08149517
000260 2d 65 ff bd f7 b0 0c be 49 bf 8c bb 10 f4 6b 3d
       -0.124704696 -0.13739382 -0.004295264 0.057605803
000270 b7 6c 66 bd e6 32 df be b4 b3 6b be 01 7d 99 be
       -0.056256022 -0.4359352 -0.2301777 -0.29978183
000280 05 e1 af be e1 37 bb be 7d c4 a9 3e 28 d5 b2 bd
       -0.34351364 -0.3656607 0.3315772 -0.087320626
000290 a3 25 ff 3c 25 d1 ba be b5 77 98 3d 06 75 bf 3d
       0.031145876 -0.3648769 0.07444707 0.09348492
0002a0 3e de 8b 3e cc 6a fb 3e 27 45 81 3e 32 0a df bd
       0.27317995 0.49104917 0.25248072 -0.108906165
0002b0 25 8e 5b 3f bb 4c 3b bf e9 35 40 3e c5 a7 11 3d
       0.8576377 -0.73163956 0.18770565 0.035560388
0002c0 2a 81 87 3e 21 75 61 be a0 73 8c 3e d5 1d 98 3c
       0.26465732 -0.22017337 0.27431965 0.018568913
0002d0 e6 8e da be cf d7 ae 3c e8 82 40 be 62 53 9b 3d
       -0.42687148 0.02134314 -0.18799937 0.075842634
0002e0 e3 74 01 3d ff da 49 bc 2c 83 69 3e 37 02 05 be
       0.031605612 -0.012320279 0.22803944 -0.12989126
0002f0 34 54 a6 3e 18 a8 85 3e 57 4e a5 3e 94 c3 30 bd
       0.32486117 0.26104808 0.3228633 -0.043155268
000300 80 62 60 be d4 06 04 3d e5 8f 12 3e 07 f2 8e be
       -0.21912575 0.032233074 0.14312704 -0.27919027
000310 17 2b 6e 3e 20 8c 03 bd 41 c9 23 3e 39 5a 92 be
       0.23258625 -0.032116055 0.15994741 -0.2858446
000320 b9 3d c6 3d 48 57 57 3e 96 2f 94 be 18 04 f4 3b
       0.096797414 0.21029389 -0.28942555 0.007446777
000330 6f 49 4b bd 2b 99 9b be fc 2a 89 3e 74 80 84 3e
       -0.04963058 -0.30390295 0.26790607 0.25879252
000340 1f 71 da 3d dd f9 e1 3e 70 92 fc be f3 7a 75 bd
       0.106661074 0.44135943 -0.49330473 -0.059931707
000350 fb 06 21 be e8 b7 b3 3e 88 36 b1 bd 6d ad b7 3e
       -0.15725319 0.35101247 -0.08652979 0.358745
000360 4f 9c fc 3d 82 98 eb 3b 2e 16 c4 3e bd 6a 93 bd
       0.12334501 0.007189811 0.38298172 -0.07198093
000370 7e d6 b4 bc d2 1b 08 3f 31 05 6b 3e 5f f4 dd 3d
       -0.022074934 0.5316745 0.22951199 0.10837626
000380 af db 59 bd 67 d1 bf be a3 f7 48 3e b7 95 21 bf
       -0.053188022 -0.3746445 0.19625716 -0.6311907
000390 a3 60 85 be ab 23 a9 3d 8d ec ae 3c 77 7b 51 3e
       -0.2605029 0.08258756 0.02135303 0.20457254
0003a0 92 37 b0 be 01 44 f3 bd 3d f7 06 be 91 fc 0d 3f
       -0.34417397 -0.11878205 -0.13180251 0.5546351
0003b0 0d 0c 2e bf ad e2 53 be 25 1e ec be 3c 12 f3 3c
       -0.6798714 -0.20691939 -0.46116748 0.02967178
0003c0 89 84 fa bc 15 27 c7 3e 58 e5 90 be 35 19 94 bc
       -0.030580776 0.38897005 -0.28299975 -0.018078426
0003d0 42 ef 1c 3d 9e 6f d9 3e cd ea 70 be a3 e7 da 3e
       0.03831411 0.4246797 -0.2352707 0.4275485
0003e0 72 8b e2 3e 20 3c 0b be f7 c2 8c be 5f 73 7c be
       0.44247013 -0.13597155 -0.27492496 -0.24653386
0003f0 30 a5 45 bc 87 92 6a bf 18 72 e2 be 1a 60 66 3e
       -0.01206331 -0.91629833 -0.44227672 0.22497597

mu.bias f4 [4]
000000 23 33 69 be 8e 24 c1 3c cc f7 a9 bc 48 06 c7 bc
       -0.22773413 0.023577001 -0.020748042 -0.024294987
