TD3/models/hockey_tournament_agent/01000000/target_critic_1.pth (torch, 290007 bytes, 5 tensors)

fc1.weight f4 [256, 22]
-0.47702935 -0.8748761 0.4980712 -0.46038404 0.5850863 0.1772276 -0.41400152 0.31834093
-0.38804108 -0.4403726 -0.01725229 -1.1348296 0.073835365 -0.77408564 0.023467176 -0.09547321
0.39440405 -0.6914713 -0.48972347 0.0048892386 0.18365626 -0.35010904 0.2618519 -0.19311829
-0.5171873 -0.09331081 0.0137229115 0.010915016 -0.3156861 -1.0522597 3.4189074 0.055983204
0.7668845 -0.066331096 0.47471446 -2.9382339 0.045986082 -0.9357677 -0.039925974 -0.30048054
0.088137686 0.15536372 -0.005752959 0.008166813 0.20156941 -0.4755246 -1.0725174 0.25189108
-0.07390255 0.007888935 -0.21307845 0.5690678 -0.6915164 -0.049234636 0.8380135 -0.38677284
-0.70342386 0.1118181 0.02410448 0.18219599 0.14055312 -0.05314568 0.09719295 -0.45287338
0.69584745 -0.037460156 0.14241354 -0.23272035 0.27280483 -0.10860655 -0.29200694 0.64682215
-0.75579023 -1.2759043 2.0398898 -0.1145791 0.7123524 -0.18900828 -0.4215859 0.21772681
0.14236318 0.25537032 0.23577975 -0.33114427 -0.41797382 0.041346796 1.2894973 -0.4438674
0.36518127 0.5797354 1.0460881 -0.09415098 -0.024931993 -0.087907515 0.1626551 -1.0361203
0.71686625 -0.39083803 -0.1404149 0.47567043 -0.1546163 -0.17367658 -0.03153909 0.009377565
0.17298317 0.09141153 -0.59447116 -0.117593005 -0.12596259 0.1307363 -0.51431835 0.3461715
0.70024467 0.0048068585 0.021206286 -0.26322043 -0.2081415 0.6735082 0.5002041 -0.18096691
-0.13288744 0.02103519 1.0539643 -0.19529663 0.096513994 0.14565362 -1.4366393 -0.07165245
0.054312445 0.03871916 -0.5534172 -0.17126618 -0.16638619 -0.29283893 0.3803825 0.06871913
-0.15784968 0.45258695 -0.7558737 0.7181782 1.3171912 0.09841697 -0.9122274 -1.0225935
-0.71315235 -0.5691567 0.054588377 -0.3035249 -1.0043327 -0.15468052 0.85840523 -0.7008512
0.623845 0.6970414 -0.8695057 -0.056579426 -0.5059793 0.12704873 -0.14170425 -0.026321502
0.231499 1.415284 0.26084965 -0.34065604 -0.40078732 0.8523457 0.5508291 1.3296291
0.1554822 0.22961867 -3.5907583 -0.5781757 -0.03550372 0.1413977 0.33865255 0.74434626
1.228527 -0.86509144 2.3726761 0.38276896 0.13294862 -0.17276494 -0.40490294 0.72791684
-0.24659206 -0.6165711 0.5115681 -0.48595703 0.17046688 -0.23327063 0.06603677 0.4357396
0.3528609 -0.42739537 0.42649758 -0.2966113 -0.36255404 0.017502023 0.49942383 -1.3310157
0.36008206 -0.027019162 -0.011161481 0.20567594 -0.67583746 0.38969928 -2.4082355 -0.04853949
-0.39936337 0.18429594 -0.51810473 0.3689228 0.22056401 0.6036167 -1.748108 0.20720898
-0.14225508 -0.26114842 0.23739606 -0.20903283 -0.20501795 -0.25171754 -0.05152796 0.02772188
-0.017343326 0.06834708 0.88714725 0.10821799 1.3215427 -0.4031209 -0.2514816 -0.5051666
-1.0821028 -0.07394548 -0.050703153 0.036799774 -1.9081359 0.17614673 0.33475748 -0.24673907
0.11059997 9.722222e-05 0.3968397 -1.3769511 -0.41030717 -0.46440873 0.028744489 -0.09917444
0.25350764 -0.582897 2.8664997 0.37986675 -0.14623196 0.55056274 -0.6354614 0.5191856
00000000: 313d f4be e1f7 5fbf 3003 ff3e 75b7 ebbe
00000010: 37c8 153f 277b 353e 02f8 d3be 95fd a23e
00000020: 52ad c6be 8478 e1be ad54 8dbc 1942 91bf
00000030: ff36 973d 7a2a 46bf 3c3e c03c 7587 c3bd
00000040: 54ef c93e 4304 31bf 09bd fabe e835 a03b
00000050: 6310 3c3e 7e41 b3be 7411 863e cdc0 45be
00000060: 6366 04bf bd19 bfbd 10d6 603c e5d4 323c
00000070: 9ca1 a1be 72b0 86bf 61cf 5a40 a54e 653d
00000080: 8b52 443f 99d8 87bd c60d f33e 060c 3cc0
00000090: e75b 3c3d 798e 6fbf 6b89 23bd 96d8 99be
000000a0: 8881 b43d ab17 1f3e 5183 bcbb 19ce 053c
000000b0: 3668 4e3e f677 f3be 4048 89bf def7 803e
000000c0: 385a 97bd 9740 013c 3d31 5abe 6dae 113f
000000d0: 3807 31bf 42aa 49bd 0e88 563f 1707 c6be
000000e0: 9613 34bf e300 e53d c276 c53c 9691 3a3e
000000f0: 28ed 0f3e 49af 59bd 190d c73d 05df e7be
00000100: 0f23 323f d26f 19bd dbd4 113e 3e4e 6ebe
00000110: 13ad 8b3e 1c6d debd ef81 95be 2396 253f
00000120: 787b 41bf d550 a3bf 8e8d 0240 72a8 eabd
00000130: ba5c 363f 638b 41be 1bda d7be c7f3 5e3e
00000140: a7c7 113e e6bf 823e 3f70 713e be8b a9be
00000150: aa00 d6be 425b 293d 3f0e a53f 9642 e3be
00000160: 0af9 ba3e 8a69 143f 37e6 853f 3bd2 c0bd
00000170: 2e3e ccbc db08 b4bd 0f8f 263e 979f 84bf
00000180: 8c84 373f ec1b c8be ecc8 0fbe 138b f33e
00000190: bc53 1ebe 46d8 31be 222f 01bd 5ca4 193c
000001a0: 8022 313e f835 bb3d 432f 18bf 9ad4 f0bd
000001b0: 56fc 00be bddf 053e 5eaa 03bf 643d b13e
000001c0: 3c43 333f da82 9d3b ceb8 ad3c d4c4 86be
000001d0: 0c23 55be 096b 2c3f 600d 003f 644f 39be
000001e0: a513 08be fe51 ac3c 4de8 863f d7fb 47be
000001f0: 21a9 c53d 3926 153e cce3 b7bf 85be 92bd
00000200: ba76 5e3d fb97 1e3d c0ac 0dbf 6760 2fbe
00000210: 2461 2abe fcee 95be 7fc1 c23e 9dbc 8c3d
00000220: 59a3 21be 7ab9 e73e f080 41bf 87da 373f
00000230: b999 a83f d68e c93d bc87 69bf 58e4 82bf
00000240: 2791 36bf 41b4 11bf 1098 5f3d 9e67 9bbe
00000250: f98d 80bf 9264 1ebe 72c0 5b3f fc6a 33bf
00000260: 4eb4 1f3f 4e71 323f ed97 5ebf d4bf 67bd
00000270: dc87 01bf 1019 023e eb1a 11be 31a0 d7bc
00000280: 130e 6d3e 0728 b53f 168e 853e 786a aebe
00000290: ff33 cdbe 5433 5a3f 2303 0d3f 4931 aa3f
000002a0: ba36 1f3e 2821 6b3e fcce 65c0 5303 14bf
000002b0: 596c 11bd 8fca 103e de63 ad3e 7a8d 3e3f
000002c0: 5f40 9d3f a276 5dbf edd9 1740 4bfa c33e
000002d0: af23 083e 4be9 30be 704f cfbe c258 3a3f
000002e0: a182 7cbe 9bd7 1dbf 21f6 023f 5ccf f8be
000002f0: df8e 2e3e 7fde 6ebe 493e 873d 4319 df3e
00000300: 2faa b43e 91d3 dabe e45d da3e 70dd 97be
00000310: afa0 b9be 6760 8f3c 7bb4 ff3e b95e aabf
00000320: ad5c b83e 4a57 ddbc a5de 36bc b79c 523e
00000330: af03 2dbf aa86 c73e 8820 1ac0 58d1 46bd
00000340: 5b79 ccbe 13b8 3c3e 83a2 04bf 73e3 bc3e
00000350: 88db 613e a086 1a3f 01c2 dfbf 972e 543e
00000360: 51ab 11be 3fb5 85be f417 733e b40c 56be
00000370: 3af0 51be 1fe1 80be fb0e 53bd ff18 e33c
00000380: 9713 8ebc 8ef9 8b3d 151c 633f 65a1 dd3d
00000390: 5028 a93f dd65 cebe 32c2 80be 9952 01bf
000003a0: 5882 8abf ba70 97bd 1cae 4fbd 5cbb 163d
000003b0: cc3d f4bf cf5f 343e 5565 ab3e 2ba9 7cbe
000003c0: 3d82 e23d c8e3 cb38 932e cb3e ef3f b0bf
000003d0: c813 d2be fbc6 edbe 9079 eb3c f81b cbbd
000003e0: c1cb 813e bd38 15bf bb74 3740 e57d c23e
000003f0: d5bd 15be aef1 0c3f 99ad 22bf 59e9 043f

fc1.bias f4 [256]
-0.7426795 -0.55451024 0.32042316 -0.3535293 0.52692187 0.7025062 -0.88259834 0.31011036
0.41463673 1.034593 -0.69278497 -0.05255162 0.0733501 -0.24086702 -0.5827906 -0.34699294
-1.3627939 0.64128274 0.11095624 -0.2299104 -0.26142073 -0.181701 -0.41437477 0.18159883
0.2039867 1.0697217 -0.417039 0.047046885 -0.45285684 0.25201392 2.2459788 -0.6554997
-0.2126751 0.2783468 -0.7873769 0.44774175 0.6812719 -0.7645168 -0.8740527 1.3884239
-0.112716034 -0.56930757 -0.5447206 -0.31624493 -1.4201862 0.67951804 -0.7466182 0.34721938
-0.27537787 -0.4799638 0.39186677 -0.19461592 0.34606498 0.16451596 -0.5030181 0.4988204
0.4332161 -0.33772805 0.13501015 0.37257537 0.750628 -0.00065062055 -0.0767779 0.3631521
-0.99683356 -0.04430986 0.07671397 -0.018018525 -0.075211585 -0.77684385 1.1765256 -0.23016737
-1.3487209 0.20141105 0.50329936 0.180343 -1.5084492 0.64932525 -0.21523346 -0.61191106
-1.7031617 -0.14401846 1.558498 -0.60316646 -0.6572803 0.71186566 0.4784538 2.2632728
0.6571354 -0.9456059 -0.33056822 -0.18834154 -0.023673965 -0.83291 -0.16727714 -0.030563015
-0.2166953 0.41731352 0.20407113 -0.49212223 -0.7005435 -0.20755532 -0.44231984 0.1527849
0.030400278 0.5699098 -0.073713444 0.513802 -0.48906276 0.514268 0.08908027 0.09260457
0.13910687 -0.750555 -0.08990647 -0.3190627 -0.0655747 0.47310287 -0.3584657 -0.15111485
-0.5561435 0.52690274 -0.37157696 0.2719678 -0.6642967 0.3801241 0.4187234 -0.16890833
-0.469778 -0.50508946 -0.6752111 -0.82094735 -0.3025622 0.39563358 0.2665515 -0.40045503
0.17694293 0.6840519 -0.3639732 -0.61696225 0.08010626 0.59576565 0.438927 -0.6632727
-0.22388673 0.08990324 0.14751415 -0.05902617 -0.08791014 -0.46783906 -0.85845053 -0.9159491
-1.0596123 -0.22227105 -1.3948218 0.13357586 0.35305035 0.74379015 1.2389196 -1.4520216
0.113306805 0.14374693 0.96602935 0.43617958 0.5559767 -0.27855963 0.5547394 -0.29131827
0.6235058 0.22487159 -0.28917155 -0.09174392 0.7669852 -0.23945785 -0.88296515 -0.42650315
-0.47429317 0.33792642 0.06552385 -0.07454082 0.5560907 -0.12862076 0.23933178 -0.7516459
0.28042746 0.82398236 0.13434671 -0.49879292 -0.5666299 0.3686988 -0.61243665 -1.1821015
0.18594784 -0.18782546 -0.09345034 0.08634397 0.43984756 -0.13177021 -0.27987212 -0.6824475
-0.5550336 0.22395118 -0.055788368 0.3640857 0.016337687 -0.055430416 -0.47666186 0.72341824
-0.13778223 0.3933239 -0.4967424 0.02354159 -0.31410167 0.1422515 1.0108705 -0.44564047
-1.2998415 -0.41563198 -0.76433897 -0.1987404 0.40643927 0.14048253 -0.5448395 0.016591791
-0.10518169 -0.75237954 0.3088056 1.1681991 -1.1860331 -0.13429013 0.8070696 0.2984291
-0.5056211 0.5274402 -0.49158248 0.3084564 0.048826132 -0.006039246 0.6993202 -0.35533094
1.0619035 0.02144926 0.49667054 0.14629301 -0.68388504 -0.5704093 -0.7449512 -0.5371903
0.76505363 0.5658217 1.3321313 0.6318705 -0.07587453 -0.2807452 -0.20858175 0.319454
00000000: 3e20 3ebf 62f4 0dbf 810e a43e cb01 b5be
00000010: 5ae4 063f 72d7 333f f7f1 61bf c9c6 9e3e
00000020: 444b d43e 8b6d 843f 5b5a 31bf 5e40 57bd
00000030: 9438 963d d8a5 76be c431 15bf 0fa9 b1be
00000040: 0870 aebf 1b2b 243f 063d e33d a26d 6bbe
00000050: f0d8 85be d40f 3abe ee28 d4be 0bf5 393e
00000060: e4e1 503e a4ec 883f 2386 d5be 3cb4 403d
00000070: dadc e7be f807 813e 1ebe 0f40 d4ce 27bf
00000080: 80c7 59be 7983 8e3e 8891 49bf 683e e53e
00000090: d667 2e3f 5fb7 43bf ebc1 5fbf e0b7 b13f
000000a0: aad7 e6bd 24be 11bf cf72 0bbf dbea a1be
000000b0: a9c8 b5bf e5f4 2d3f 5f22 3fbf bdc6 b13e
000000c0: 54fe 8cbe d1bd f5be c3a2 c83e 6549 47be
000000d0: 6e2f b13e df76 283e cbc5 00bf 6365 ff3e
000000e0: 80ce dd3e b1ea acbe 1a40 0a3e 33c2 be3e
000000f0: 2829 403f 688e 2aba bb3d 9dbd 12ef b93e
00000100: 7c30 7fbf 417e 35bd 371c 9d3d 969b 93bc
00000110: 8808 9abd 3ddf 46bf 6498 963f ffb0 6bbe
00000120: e3a2 acbf b33e 4e3e 3ad8 003f d6ab 383e
00000130: dd14 c1bf 2e3a 263f 2966 5cbe 34a6 1cbf
00000140: 3401 dabf 9379 13be dd7c c73f 1e69 1abf
00000150: 8643 28bf d43c 363f e5f7 f43e 76d9 1040
00000160: 073a 283f 3a13 72bf 3d40 a9be 9bdc 40be
00000170: e7ef c1bc 9739 55bf b34a 2bbe 4a5f fabc
00000180: 5fe5 5dbe 1eaa d53e 06f8 503e 72f7 fbbe
00000190: d256 33bf 6289 54be bf77 e2be a573 1c3e
000001a0: 010a f93c 9ce5 113f 13f7 96bd 8788 033f
000001b0: 6f66 fabe 11a7 033f b76f b63d 77a7 bd3d
000001c0: 0872 0e3e 5f24 40bf e220 b8bd 305c a3be
000001d0: 074c 86bd 8a3a f23e d188 b7be dabd 1abe
000001e0: 6c5f 0ebf 19e3 063f 563f bebe 5d3f 8b3e
000001f0: 590f 2abf a09f c23e ea62 d63e 4ef6 2cbe
00000200: be86 f0be 8b4d 01bf a2da 2cbf 9b29 52bf
00000210: 6fe9 9abe 7c90 ca3e 7079 883e 7108 cdbe
00000220: 8730 353e 061e 2f3f b25a babe 3df1 1dbf
00000230: c00e a43d 1984 183f 0abb e03e 3dcc 29bf
00000240: 9042 65be 311f b83d f30d 173e 6dc5 71bd
00000250: 3b0a b4bd 9a88 efbe 6ac3 5bbf a47b 6abf
00000260: 60a1 87bf 069b 63be 8589 b2bf 1cc8 083e
00000270: 04c3 b43e 0869 3e3f eb94 9e3f d8db b9bf
00000280: 660d e83d 6532 133e b34d 773f ee52 df3e
00000290: 7d54 0e3f 5e9f 8ebe 6703 0e3f ab27 95be
000002a0: 139e 1f3f bd44 663e 4b0e 94be 3de4 bbbd
000002b0: 2459 443f 7034 75be 010a 62bf 9f5e dabe
000002c0: 8ed6 f2be b104 ad3e 5e31 863d dca8 98bd
000002d0: f65b 0e3f 29b5 03be 6413 753e de6b 40bf
000002e0: 3094 8f3e 82f0 523f 2f92 093e c961 ffbe
000002f0: a80e 11bf 17c6 bc3e a6c8 1cbf 1a4f 97bf
00000300: 1c69 3e3e 5155 40be e462 bfbd 1bd5 b03d
00000310: b333 e13e c5ee 06be 664b 8fbe e1b4 2ebf
00000320: af16 0ebf 7553 653e 5882 64bd 7169 ba3e
00000330: 9dd6 853c 010b 63bd 060d f4be f031 393f
00000340: c916 0dbe c061 c93e 0555 febe 4bda c03c
00000350: efd1 a0be 61aa 113e 3464 813f fd2a e4be
00000360: 3561 a6bf b7cd d4be b8ab 43bf 9a82 4bbe
00000370: cf18 d03e a7da 0f3e 9a7a 0bbf 82eb 873c
00000380: 7f69 d7bd f29b 40bf c51b 9e3e 8c87 953f
00000390: efcf 97bf 5a83 09be 1d9c 4e3f b3cb 983e
000003a0: 6270 01bf 5206 073f b3b0 fbbe ffed 9d3e
000003b0: e9fd 473d dee4 c5bb a606 333f f0ed b5be
000003c0: 74ec 873f 5cb6 af3c 9a4b fe3e d6cd 153e
000003d0: 1713 2fbf 5806 12bf 1fb5 3ebf 4e85 09bf
000003e0: 8eda 433f b1d9 103f 4783 aa3f 44c2 213f
000003f0: 1b64 9bbd d6bd 8fbe 7496 55be 7a8f a33e

fc2.weight f4 [256, 256]
0.29559115 0.16636512 0.057754423 0.28950214 -0.17792004 0.4134841 0.015661355 0.14628659
0.018115703 0.16176602 0.20209657 0.24226922 0.03860367 0.15381955 0.06562744 0.10279121
0.2766414 -0.92134994 0.58735037 -1.1823689 0.028892064 0.20152009 0.47395527 0.06304762
-0.6452439 -0.17422146 -0.111167654 0.27445695 0.1988121 0.31977642 0.20871563 -0.6000354
-0.029550448 -0.12807387 0.17952257 0.0628196 -0.56769 -0.042213958 0.22474617 0.4307818
0.47070134 -0.96119434 0.2579214 0.034887176 0.07708081 0.10481358 -0.33925322 -0.28101164
0.2062053 0.025721446 -1.218163 -0.074280605 0.023921585 -0.26764712 -0.15425913 -0.1452465
0.86996603 0.15579471 -0.9500148 -0.15720716 -0.04243999 0.09906751 -0.1576328 0.14810543
-0.31588846 0.26522866 0.06465678 0.09169086 0.12705944 -0.0654538 -0.09973883 -0.08592626
0.08659 0.4720509 0.22412044 0.09172362 0.073946625 0.15163784 -0.056541763 -0.66057974
-0.22253998 0.004715937 -0.36612117 -0.08986885 -0.19182335 0.35364407 0.050970457 0.38853362
-0.28701308 0.17808747 -0.031245798 0.20822448 0.054809917 0.31632054 0.058853444 -0.10449755
0.037534 0.32982507 -0.00040886377 0.13340966 0.057055905 -0.5067822 -0.044282053 -1.2010962
-0.7045701 0.12245364 -0.11707208 0.22243303 -0.109592155 -0.45001334 -0.42720997 -0.5636716
0.15965001 0.17309296 -0.13453037 -0.10627608 0.3411498 -0.065662734 0.003765302 0.020924244
0.22432244 0.14687596 0.38993528 0.08366401 0.09296754 0.030761505 0.2217216 -0.18673666
-0.73470694 0.07318736 0.10228802 -0.110009156 0.30838725 -0.21057004 0.025108626 -1.359479
0.059279844 -0.4838565 -0.112090826 0.2065338 -0.048266247 0.35473114 -2.8733108 -0.13081042
0.06235385 -0.19942053 -0.19500244 0.0052611833 0.21731935 -0.20340973 -0.016149228 0.09182499
0.024373308 0.2561874 0.0048803617 -0.5237743 -0.116803996 0.0922747 -0.317546 0.35813954
-0.33024138 0.36840037 -0.17982107 0.10168048 0.2101324 -0.21070154 0.13744499 -0.08896071
-0.07265894 0.107937984 0.24423684 0.044366445 -1.7985226 -0.08056808 -0.19316666 -0.0009014055
-0.7353857 -0.26779497 0.20674112 0.258214 0.04852044 0.07672927 0.079336844 0.09780126
-0.052999888 0.03114836 0.050096042 0.109243535 0.37539646 0.32428527 0.21522275 0.20610645
-0.8468121 -0.32788867 -1.7918434 0.02257763 0.19439417 0.35545677 0.05568362 0.2646977
-0.17848459 0.1904565 0.15079331 -0.3583272 -0.096461065 0.4174207 0.038603395 -1.1590424
-0.09013279 -0.23651487 -0.10166092 -0.17757016 -0.27947387 -0.88560545 0.23675036 0.1871556
0.27665612 0.5502735 0.085282706 -0.022167869 0.3046897 0.41886267 -0.057471525 0.07672553
-0.20312278 0.034182496 -0.16615285 -1.0100386 -0.014080426 0.00914989 0.0068687215 0.0067228195
0.42352864 0.11386031 -0.08540685 0.19779202 0.024609009 0.13929336 0.30330378 -0.8587597
0.04611015 -0.019142 0.012473951 0.11913461 -0.19195774 0.31955895 0.26761648 -0.05541912
0.046842575 0.04981078 -0.6747831 0.19648589 -0.2730447 -0.2230146 -0.043739166 0.08274468
00000000: b957 973e 9e5b 2a3e e78f 6c3d a039 943e
00000010: ac30 36be 30b4 d33e 3e4c 803c 27cc 153e
00000020: 6267 943c fea5 253e 67f2 4e3e 6c15 783e
00000030: e21e 1e3d df82 1d3e ae67 863d 3384 d23d
00000040: f1a3 8d3e 97dd 6bbf 985c 163f dd57 97bf
00000050: 0daf ec3c 485b 4e3e 44aa f23e 1c1f 813d
00000060: b42e 25bf 1c67 32be deab e3bd 9f85 8c3e
00000070: 6695 4b3e bcb9 a33e 8db9 553e ec9b 19bf
00000080: c813 f2bc cc25 03be c4d4 373e 90a7 803d
00000090: 2254 11bf 8be8 2cbd dc23 663e 6f8f dc3e
000000a0: c4ff f03e d510 76bf 460e 843e dbe5 0e3d
000000b0: 8bdc 9d3d 81a8 d63d 99b2 adbe c2e0 8fbe
000000c0: 7b27 533e c8b5 d23c c4ec 9bbf 6e20 98bd
000000d0: 33f7 c33c 0b09 89be 1bf6 1dbe 80bb 14be
000000e0: 18b6 5e3f a688 1f3e 2c34 73bf eafa 20be
000000f0: 8ed5 2dbd e8e3 ca3d 7e6a 21be f3a8 173e
00000100: 22bc a1be 0dcc 873e c66a 843d 6bc8 bb3d
00000110: df1b 023e a40c 86bd df43 ccbd 1bfa afbd
00000120: 1956 b13d a8b0 f13e d47f 653e 98d9 bb3d
00000130: 5471 973d f346 1b3e 5698 67bd c11b 29bf
00000140: 85e1 63be 2688 9a3b 3c74 bbbe 290d b8bd
00000150: 576d 44be d610 b53e 66c6 503d e1ed c63e
00000160: 61f3 92be 905c 363e 30f7 ffbc cc38 553e
00000170: 5d80 603d c4f4 a13e 4f10 713d d002 d6bd
00000180: 40bd 193d d5de a83e c45c d6b9 8b9c 083e
00000190: 74b3 693d 7abc 01bf 1961 35bd 85bd 99bf
000001a0: b55e 34bf f9c8 fa3d 7dc3 efbd 7cc5 633e
000001b0: da71 e0bd 2668 e6be 44bb dabe c84c 10bf
000001c0: 4b7b 233e 483f 313e 54c2 09be 46a7 d9bd
000001d0: 30ab ae3e 2f7a 86bd 49c3 763b 5269 ab3c
000001e0: c8b4 653e a766 163e 99a5 c73e 0958 ab3d
000001f0: c465 be3d 8dff fb3c fd0a 633e e537 3fbe
00000200: c115 3cbf 41e3 953d 627c d13d 7b4c e1bd
00000210: efe4 9d3e ac9f 57be 9bb0 cd3c 6803 aebf
00000220: 6ccf 723d 0abc f7be e08f e5bd 997d 533e
00000230: d4b2 45bd 529f b53e 53e4 37c0 2bf3 05be
00000240: c066 7f3d e534 4cbe b8ae 47be 0166 ac3b
00000250: f788 5e3e a44a 50be 634b 84bc be0e bc3d
00000260: 88aa c73c ff2a 833e 71eb 9f3b 1316 06bf
00000270: ef36 efbd 85fa bc3d 6495 a2be 115e b73e
00000280: 6615 a9be f99e bc3e 0423 38be db3d d03d
00000290: f32c 573e 25c2 57be 61be 0c3e 0831 b6bd
000002a0: 36ce 94bd 970e dd3d 3919 7a3e 97b9 353d
000002b0: fd35 e6bf e100 a5bd 7bcd 45be 4d4c 6cba
000002c0: 3d42 3cbf 6c1c 89be f2b3 533e a034 843e
000002d0: 5ebd 463d 3c24 9d3d 5b7b a23d 074c c83d
000002e0: 6916 59bd d82a ff3c 8231 4d3d 13bb df3d
000002f0: f733 c03e b808 a63e 5a63 5c3e 920d 533e
00000300: aec8 58bf 06e1 a7be 205b e5bf b9f4 b83c
00000310: 440f 473e 6efe b53e 8214 643d 7586 873e
00000320: aac4 36be 0707 433e 9069 1a3e aa76 b7be
00000330: 618d c5bd 2ab8 d53e 981e 1e3d 805b 94bf
00000340: 8a97 b8bd f430 72be 9a33 d0bd f4d4 35be
00000350: 3317 8fbe 0ab7 62bf b06e 723e b8a5 3f3e
00000360: dfa5 8d3e b9de 0c3f b3a8 ae3d 6499 b5bc
00000370: 4a00 9c3e 2b75 d63e 4367 6bbd 4622 9d3d
00000380: 6bff 4fbe f202 0c3d f923 2abe f248 81bf
00000390: 96b1 66bc 6ce9 153c 0313 e13b 194b dc3b
000003a0: bfd8 d83e 982f e93d c9e9 aebd fe89 4a3e
000003b0: d598 c93c eba2 0e3e a24a 9b3e add7 5bbf
000003c0: ffdd 3c3d afcf 9cbc 8b5f 4c3c d9fc f33d
000003d0: 9290 44be 3b9d a33e 0705 893e 29ff 62bd
000003e0: 00de 3f3d 6306 4c3d 96be 2cbf 9933 493e
000003f0: 84cc 8bbe f05d 64be d727 33bd 0b76 a93d

fc2.bias f4 [256]
-2.2872343 0.06344733 2.946224 2.2750256 0.06465388 -0.59838295 3.024462 0.098967366
-0.060266085 1.8354346 0.16818838 0.07586537 2.3459387 0.35701212 -0.57187873 0.115380555
-0.58245486 -0.22921701 -1.6416693 -1.5295482 -0.42683572 -0.041076228 0.65378237 0.35470685
0.75417465 1.4890785 1.382519 1.3851061 0.39216757 -0.039257523 1.2139221 0.77278847
1.846786 0.61478627 0.44062835 0.21608883 -1.8497354 0.5305119 0.960121 -0.0476562
0.027741332 -0.12400625 0.41566342 0.22749697 -0.07930137 0.2952103 -1.9641192 1.4723539
0.5179503 -0.06751052 -0.0028609533 1.5229453 -0.8502866 -1.2026298 2.4276989 0.7692035
-0.055839516 1.1303805 0.5507509 -0.5874175 2.1524847 1.0121902 1.4267995 0.21089569
-1.9754542 1.0055974 -1.7168068 0.008023762 0.034368075 -1.0100069 -0.33575448 2.1455765
1.5603637 -0.2993936 1.4684781 1.0190883 -0.58782536 0.27582228 -2.576251 0.44850034
-0.027763652 1.5317045 -2.0986116 -2.307495 0.5171818 0.11406479 -0.6108959 -0.06898158
0.041798167 -0.044099692 -1.1799582 -1.0333536 0.3624409 -1.3775123 1.4522909 2.3540773
2.3484592 1.2546735 0.35531148 -0.099467754 1.0148877 2.3644998 0.07421088 2.6963048
-1.0468365 1.3669854 -0.13378896 -1.5466027 -0.35092548 -0.5497638 -0.53668106 -1.8514649
0.3838357 -0.5654978 0.5472911 -1.1600364 -1.7070588 1.3289254 -0.080556504 1.0270325
0.47898316 -1.9152535 0.40617767 -0.9667876 1.5326272 1.7453347 -0.012128847 0.6149024
0.34829268 1.6057945 0.15652359 -0.7505809 0.7301128 -0.9030068 0.062175527 2.5898662
1.3527746 0.49945182 -0.25876552 -0.9669351 1.0882345 0.4445141 2.1342819 0.7472201
-0.3633868 1.9974296 -1.772037 0.6296739 0.3152646 1.6268291 2.8359401 -2.809642
-0.036842253 -0.9517402 1.0649557 0.66908807 0.4257172 -0.21070588 1.9586055 0.6246267
-0.060345665 0.46431226 -0.42288205 0.13291995 0.0053246957 -0.20485067 -1.7309877 0.37756655
0.60119814 -0.37029022 1.6898339 -0.7925298 -1.688047 2.2496016 0.8193628 -0.568958
-1.6945937 2.5821533 -2.4850664 -2.0860806 -2.1726222 0.53174686 0.11033002 0.016709905
2.333563 -2.3556912 -1.4042804 1.3238729 -0.18856117 0.25470427 -0.006449462 -0.2802612
0.45855185 0.22605546 2.790308 -0.18374017 -0.25989053 -2.0796845 0.60604376 1.2441779
0.16826686 2.1542368 0.29350972 0.192975 0.49920392 -1.0461704 1.207034 1.5544862
0.2337295 -0.67087454 0.2871282 0.19151053 2.4925485 0.013429613 0.6482549 2.9103527
-1.2520583 -1.5364074 -1.9439088 1.5398035 0.056038704 0.5607269 -0.76175386 2.0038726
-2.39885 1.4956453 0.16546908 0.119567946 -0.5333751 -1.6632152 0.022472547 1.1892643
1.8989834 -1.4241828 -0.9637029 -0.36085856 -0.57828164 -1.5588925 -0.1591196 -1.2313634
0.023453146 -0.623987 -0.6573651 -0.058510922 2.5484679 0.09231196 -0.68956476 -0.45516077
0.27596527 -1.6557121 -2.0826795 -1.8468261 -0.111037344 1.3865395 2.6477427 -1.1941984
00000000: 0c62 12c0 acf0 813d ef8e 3c40 059a 1140
00000010: 4169 843d a02f 19bf c990 4140 67af ca3d
00000020: 92d9 76bd 85ef ea3f 9339 2c3e 4e5f 9b3d
00000030: dc23 1640 4bca b63e a566 12bf a44c ec3d
00000040: c31b 15bf ddb7 6abe 3822 d2bf 3cc8 c3bf
00000050: 368a dabe 8c3f 28bd 485e 273f 239c b53e
00000060: 9711 413f 209a be3f 62f6 b03f 284b b13f
00000070: 30ca c83e 7fcc 20bd cd61 9b3f 77d5 453f
00000080: 7c63 ec3f a262 1d3f 0a9a e13e 6446 5d3e
00000090: 21c4 ecbf a1cf 073f 7dca 753f 2633 43bd
000000a0: ca41 e33c fdf6 fdbd d6d1 d43e f7f4 683e
000000b0: c268 a2bd ce25 973e 4268 fbbf 1876 bc3f
000000c0: 6498 043f f542 8abd d57e 3bbb dfef c23f
000000d0: 62ac 59bf c6ef 99bf 6b5f 1b40 85ea 443f
000000e0: fab7 64bd 4fb0 903f 03fe 0c3f fe60 16bf
000000f0: 4fc2 0940 738f 813f 5ea1 b63f 0af5 573e
00000100: afdb fcbf 6ab7 803f 53c0 dbbf 1976 033c
00000110: 8ac5 0c3d e847 81bf 03e8 abbe 2051 0940
00000120: ffb9 c73f 1e4a 99be 17f7 bb3f 7c71 823f
00000130: b97b 16bf 9438 8d3e 4ce1 24c0 d6a1 e53e
00000140: 9970 e3bc e50e c43f a74f 06c0 00ae 13c0
00000150: 0766 043f cd9a e93d ac63 1cbf 3746 8dbd
00000160: 8e34 2b3d e1a1 34bd df08 97bf ee44 84bf
00000170: db91 b93e 5352 b0bf abe4 b93f 34a9 1640
00000180: 284d 1640 2499 a03f 63eb b53e c0b5 cbbd
00000190: d7e7 813f f753 1740 e0fb 973d 4290 2c40
000001a0: bdfe 85bf 61f9 ae3f f9ff 08be 14f7 c5bf
000001b0: 81ac b3be 52bd 0cbf ee63 09bf cdfc ecbf
000001c0: 1d86 c43e 77c4 10bf 451b 0c3f 137c 94bf
000001d0: e780 dabf 3a1a aa3f cffa a4bd cd75 833f
000001e0: 483d f53e 0727 f5bf 85f6 cf3e 647f 77bf
000001f0: 212d c43f 2167 df3f 12b8 46bc 3e6a 1d3f
00000200: 6b53 b23e ad8a cd3f b847 203e 1226 40bf
00000210: ace8 3a3f 742b 67bf c4ab 7e3d 5ec0 2540
00000220: b827 ad3f 26b8 ff3e ea7c 84be 0f89 77bf
00000230: 454b 8b3f 5a97 e33e 1398 0840 d149 3f3f
00000240: d60d babe c6ab ff3f 1cd2 e2bf 4f32 213f
00000250: 5d6a a13e f03b d03f 0b80 3540 2dd1 33c0
00000260: e7e7 16bd 3fa5 73bf 7850 883f 5b49 2b3f
00000270: 9bf7 d93e 48c3 57be 96b3 fa3f 89e7 1f3f
00000280: 042d 77bd 56ba ed3e ff83 d8be 2b1c 083e
00000290: c97a ae3b 60c4 51be 0191 ddbf 6750 c13e
000002a0: 1fe8 193f ae96 bdbe 7a4c d83f 3ce3 4abf
000002b0: ed11 d8bf 79f9 0f40 c3c1 513f 3ba7 11bf
000002c0: 72e8 d8bf 0042 2540 540b 1fc0 5882 05c0
000002d0: 3e0c 0bc0 9020 083f b5f4 e13d 36e3 883c
000002e0: 1959 1540 a5c3 16c0 76bf b3bf ab74 a93f
000002f0: 2e16 41be 9968 823e 0256 d3bb 657e 8fbe
00000300: 4fc7 ea3e 157b 673e 6894 3240 6226 3cbe
00000310: 5f10 85be 8d19 05c0 af25 1b3f 3941 9f3f
00000320: 264e 2c3e 04df 0940 e846 963e 3d9b 453e
00000330: a897 ff3e e9e8 85bf 1780 9a3f 67f9 c63f
00000340: c956 6f3e 6fbe 2bbf 7802 933e 561b 443e
00000350: ea85 1f40 e107 5c3c 08f4 253f 3843 3a40
00000360: 7243 a0bf ffa8 c4bf 01d2 f8bf 4818 c53f
00000370: d788 653d cc8b 0f3f 4d02 43bf 733f 0040
00000380: c286 19c0 4e71 bf3f ba70 293e 0ae0 f43d
00000390: 458b 08bf 3ce4 d4bf 5918 b83c d039 983f
000003a0: e311 f33f 9f4b b6bf 3cb5 76bf 74c2 b8be
000003b0: 440a 14bf ca89 c7bf 40f0 22be 519d 9dbf
000003c0: d020 c03c 9dbd 1fbf 1449 28bf 26a9 6fbd
000003d0: 191a 2340 0e0e bd3d 5187 30bf d50a e9be
000003e0: 524b 8d3e 60ee d3bf 9f4a 05c0 cc64 ecbf
000003f0: 8c67 e3bd 207a b13f 9e74 2940 7edb 98bf

q.weight f4 [1, 256]
0.29407385 -2.0974734 -0.17174827 -0.18309036 -6.0845942 4.6746306 -0.199533 -3.4304411
6.7855506 -0.7141083 6.772883 4.480721 0.36802015 -1.0264001 2.0104117 4.4186277
2.8211014 1.822753 0.5521464 0.30156234 1.5405799 -6.123899 -2.616331 -1.6643945
-0.775731 -0.5786402 -0.57152146 -0.28261235 -4.7949486 0.02891368 -0.90768373 -2.0435073
-0.1879903 -1.079676 -5.213934 4.6149087 0.33175308 -1.8641999 -2.3450658 -2.7711115
-0.006571372 -5.6951175 -2.5642002 -3.103214 4.9172235 4.1096582 0.19013037 -0.3483683
-4.477548 0.008219581 -4.085743 -0.28665248 2.5021186 0.49169126 -0.3526666 -2.4403243
1.9995826 -0.8404684 -0.61162513 0.57398134 -0.1722932 -0.67055064 -0.6630417 6.2342176
0.33545977 -0.68691254 0.22717388 -3.0463514 4.556767 0.46409425 1.2780839 -0.23661487
-0.3027728 0.7667769 -0.28544635 -0.5178451 1.8689559 -3.5856395 0.40971223 -2.931844
-3.9373684 -0.72200555 0.35965517 0.1477302 -1.9621453 -3.7586963 3.1560867 1.3905597
-3.2809527 2.2772126 0.23947838 0.41279808 4.4921455 0.28880876 -0.7279182 -0.100804545
-0.17364275 -0.37102556 -5.322258 4.6477256 -1.3930882 -0.25269318 -4.059639 -0.1347982
2.178172 -0.51263964 -3.0789318 0.24883464 -2.8251967 0.34980977 0.87118554 0.38335374
1.2402248 0.35630083 -2.4478009 0.35882065 0.33697334 -0.96268386 0.0075801816 -2.0823717
-4.3802958 0.31272346 -0.6826955 0.7782839 -1.0725884 -0.17366128 3.5038912 -0.61289304
-2.3904984 -0.3558998 3.0664773 0.7566014 -2.1550953 0.7058931 0.26134408 -0.21213019
-0.25409463 -3.9899406 3.5685651 0.53012276 -0.38389233 -1.5681512 -0.3111793 -2.23877
2.7321177 -0.18538067 0.19617352 -1.532448 -8.797613 -0.5009851 -0.16432726 0.25652018
2.4405181 0.60755426 -1.527444 -2.564253 5.3759856 2.8015492 -0.1888918 -0.48315474
-0.038820166 -2.0628414 0.57652605 2.6985738 2.2367043 -3.311152 0.33939493 -1.7312702
-1.6142302 3.5105124 -0.20832348 0.26047567 0.45893696 -0.22075142 -2.2479608 2.1326952
0.36019093 -0.25423217 0.379227 0.31206453 0.18147135 2.8795168 -5.791984 3.9128265
-0.17924294 0.7980517 0.3421487 -0.5993795 -4.126826 1.6109004 -0.030294275 2.0665927
-4.7271824 2.8652375 -0.14578912 3.0271971 4.8170595 0.18670686 3.0249727 -1.3346438
1.2119734 -0.43933514 2.2043 5.0300355 -2.602217 0.2977378 -0.5857388 -0.26360658
-3.6404455 2.3140728 6.1594925 3.1095552 -0.20362236 1.3563981 5.581016 -0.18599577
0.45928815 0.1508967 0.17130958 -0.6533914 0.9987501 -2.910199 2.0450416 -0.3198906
0.28123254 -0.50832367 6.131676 -2.7943802 0.5882313 0.30809703 0.9505515 -1.3353852
-0.59426486 0.22227055 0.52872944 0.5747769 0.9989 0.20633964 -3.1507363 0.3150504
0.008248639 1.0581831 1.0662333 1.478169 -0.24045072 -3.2576585 1.0530157 3.883597
5.5080976 0.4228047 0.55118096 0.4406521 2.7685385 -0.43260726 -0.1909796 0.33600122
00000000: d990 963e 013d 06c0 c7de 2fbe 0a7c 3bbe
00000010: ffb4 c2c0 9396 9540 6152 4cbe 598c 5bc0
00000020: 3b23 d940 cdcf 36bf 75bb d840 1162 8f40
00000030: 236d bc3e 1461 83bf 96aa 0040 6665 8d40
00000040: ed8c 3440 f84f e93f 7759 0d3f 6166 9a3e
00000050: b931 c53f fbf6 c3c0 f871 27c0 e10a d5bf
00000060: 4f96 46bf c421 14bf 3b4f 12bf 91b2 90be
00000070: 3870 99c0 62dc ec3c f65d 68bf d3c8 02c0
00000080: 8780 40be d332 8abf 8cd8 a6c0 55ad 9340
00000090: 8adb a93e 1a9e eebf 8f15 16c0 e459 31c0
000000a0: aa54 d7bb 673e b6c0 db1b 24c0 0f9b 46c0
000000b0: e559 9d40 5282 8340 89b1 423e 545d b2be
000000c0: 1348 8fc0 6cab 063c 68be 82c0 1dc4 92be
000000d0: b622 2040 f5be fb3e b790 b4be 462e 1cc0
000000e0: 53f2 ff3f f028 57bf 7793 1cbf 71f0 123f
000000f0: a16d 30be 35a9 2bbf 1abd 29bf b67e c740
00000100: 62c1 ab3e 80d9 2fbf 45a0 683e 6cf7 42c0
00000110: 09d1 9140 c39d ed3e 4198 a33f 2b4b 72be
00000120: 0905 9bbe 7e4b 443f 0626 92be 7f91 04bf
00000130: f239 ef3f 1e7b 65c0 cdc5 d13e 55a3 3bc0
00000140: d8fd 7bc0 5bd5 38bf b924 b83e 9646 173e
00000150: 9427 fbbf 7b8e 70c0 53fd 4940 dcfd b13f
00000160: 21fb 51c0 dabd 1140 d239 753e 455a d33e
00000170: a8bf 8f40 bede 933e d958 3abf 9d72 cebd
00000180: 68cf 31be 10f7 bdbe f04f aac0 2bba 9440
00000190: b750 b2bf 0061 81be 90e8 81c0 8a08 0abe
000001a0: 2c67 0b40 5a3c 03bf 380d 45c0 82ce 7e3e
000001b0: 06d0 34c0 441a b33e 0406 5f3f f146 c43e
000001c0: b0bf 9e3f 106d b63e c5a8 1cc0 57b7 b73e
000001d0: c587 ac3e 7372 76bf 2c63 f83b 9445 05c0
000001e0: 622b 8cc0 4a1d a03e 22c5 2ebf 9d3d 473f
000001f0: 944a 89bf 43d4 31be c13f 6040 8fe6 1cbf
00000200: edfd 18c0 8038 b6be 2a41 4440 a1b0 413f
00000210: 15ed 09c0 69b5 343f e4ce 853e a838 59be
00000220: b118 82be 305b 7fc0 5f63 6440 20b6 073f
00000230: 898d c4be 2eb9 c8bf e552 9fbe 0248 0fc0
00000240: 04db 2e40 6ed4 3dbe b6e1 483e 4227 c4bf
00000250: 06c3 0cc1 8f40 00bf 6845 28be 9d56 833e
00000260: 7331 1c40 ad88 1b3f 4983 c3bf b91c 24c0
00000270: 1308 ac40 954c 3340 da6c 41be 0f60 f7be
00000280: e501 1fbd 9805 04c0 3697 133f 6fb5 2c40
00000290: 2a26 0f40 eae9 53c0 2cc5 ad3e 439a ddbf
000002a0: 189f cebf 3cac 6040 c052 55be 115d 853e
000002b0: c9f9 ea3e a90c 62be 97de 0fc0 147e 0840
000002c0: f26a b83e b82a 82be 0b2a c23e ecc6 9f3e
000002d0: a0d3 393e 014a 3840 ef57 b9c0 c06b 7a40
000002e0: 768b 37be 1e4d 4c3f 1d2e af3e ef70 19bf
000002f0: f50e 84c0 fc31 ce3f b32b f8bc 0e43 0440
00000300: 1445 97c0 0d60 3740 be49 15be 99bd 4140
00000310: 5a25 9a40 1530 3f3e 2799 4140 9cd5 aabf
00000320: f221 9b3f 89f0 e0be 4013 0d40 0df6 a040
00000330: b98a 26c0 1771 983e faf2 15bf 71f7 86be
00000340: 0ffd 68c0 c519 1440 901a c540 f402 4740
00000350: 6182 50be 749e ad3f af97 b240 ad75 3ebe
00000360: d127 eb3e aa84 1a3e c76b 2f3e a944 27bf
00000370: 16ae 7f3f b340 3ac0 f6e1 0240 b3c8 a3be
00000380: b6fd 8f3e 8021 02bf b136 c440 20d7 32c0
00000390: 5496 163f e5be 9d3e 5857 733f e7ed aabf
000003a0: be21 18bf e49a 633e d05a 073f 9424 133f
000003b0: e9b7 7f3f b34a 533e aaa5 49c0 494e a13e
000003c0: 4d25 073c 8b72 873f 557a 883f a434 bd3f
000003d0: b738 76be 7a7d 50c0 38c9 863f da8c 7840
000003e0: 5642 b040 dc79 d83e 321a 0d3f 279d e13e
000003f0: bc2f 3140 b37e ddbe 2890 43be 5a08 ac3e
